MQCNN-QA-4qubits-8class-CIFAR-same-5filter/Models_V1/model_20.pt (torch, 162806 bytes, 47 tensors)

weights f4 [7]
1.6829938 4.0639505 2.139951 3.7435799 5.4511666 3.7069323 0.19080266
00000000: 576c d73f e20b 8240 f5f4 0840 d096 6f40
00000010: f56f ae40 613e 6d40 c661 433e

weights f4 [7]
0.5063641 1.6266421 2.6885664 2.6462862 1.947811 4.27711 5.6393003
00000000: 14a1 013f cf35 d03f 7911 2c40 c15c 2940
00000010: df51 f93f 16de 8840 2675 b440

weights f4 [7]
3.920171 4.945163 5.056968 0.4823045 2.7167256 5.927405 2.4116194
00000000: 15e4 7a40 c63e 9e40 afd2 a140 9ef0 f63e
00000010: d5de 2d40 4dad bd40 f957 1a40

weights f4 [7]
3.0282018 4.711031 1.4207633 0.7751179 5.437586 4.2163796 1.4886438
00000000: 0fce 4140 c4c0 9640 92db b53f 206e 463f
00000010: b400 ae40 95ec 8640 e18b be3f

weights f4 [7]
1.3532479 3.1409745 5.1010647 2.565973 4.7942514 5.881946 5.9131045
00000000: 3a37 ad3f ba05 4940 ec3b a340 e738 2440
00000010: 826a 9940 e738 bc40 2738 bd40

weights f4 [7]
1.2144629 0.642874 5.1238914 0.6175225 3.58734 2.9795482 1.1728628
00000000: 8573 9b3f 6493 243f ebf6 a340 f415 1e3f
00000010: fb96 6540 ebb0 3e40 5e20 963f

weights f4 [8]
3.6963453 0.6742712 3.578323 3.9083521 4.7769265 2.9897268 3.6544032 3.8869774
00000000: ec90 6c40 0a9d 2c3f 3e03 6540 7122 7a40
00000010: 95dc 9840 af57 3f40 bee1 6940 3dc4 7840

weights f4 [8]
4.170997 1.5712099 0.06759012 2.5612137 0.24979793 0.6858767 2.5953794 1.1802804
00000000: cf78 8540 681d c93f b06c 8a3d edea 2340
00000010: 07cb 7f3e 9e95 2f3f b21a 2640 6e13 973f

weights f4 [8]
2.0481033 5.7104206 3.025392 2.8266594 5.894929 5.421668 4.8314977 4.7086267
00000000: 2014 0340 c4bb b640 06a0 4140 fde7 3440
00000010: 42a3 bc40 4e7e ad40 a19b 9a40 12ad 9640

weights f4 [16]
2.2086952 3.7208328 0.8116582 2.7087367 0.87768966 4.284301 1.300563 5.1634703
5.785876 5.594399 1.7706639 4.8235993 2.704804 4.3667727 1.573825 1.2459425
00000000: 435b 0d40 2022 6e40 d5c8 4f3f f15b 2d40
00000010: 45b0 603f fe18 8940 d978 a63f 263b a540
00000020: e525 b940 5105 b340 1da5 e23f ed5a 9a40
00000030: 821b 2d40 9abc 8b40 1973 c93f 0b7b 9f3f

weights f4 [16]
3.2046082 3.9784496 1.415855 4.3559713 0.48230925 3.9337595 3.4326491 2.1949356
4.052828 0.39858228 6.2541094 5.819476 0.8654779 2.060188 1.1343937 3.8273463
00000000: 4d18 4d40 eb9e 7e40 bd3a b53f 1e64 8b40
00000010: 3df1 f63e b7c2 7b40 86b0 5b40 d379 0c40
00000020: c4b0 8140 fa12 cc3e aa21 c840 2639 ba40
00000030: f68f 5d3f 1fda 0340 d033 913f 3ef3 7440

weights f4 [16]
4.008407 2.669101 5.33576 2.078624 0.9811216 1.9200563 3.1451902 5.438619
2.3268597 2.6887493 2.2878616 3.6722667 6.2094245 2.953685 1.6031792 2.5105731
00000000: df44 8040 8dd2 2a40 8cbe aa40 2d08 0540
00000010: c92a 7b3f 68c4 f53f cc4a 4940 2b09 ae40
00000020: 45eb 1440 7814 2c40 536c 1240 6b06 6b40
00000030: 9bb3 c640 2d09 3d40 fa34 cd3f 3bad 2040

weights f4 [12]
5.4703383 2.5253584 0.83282864 2.477081 4.6547303 1.0007478 3.9294984 5.425962
4.3942266 4.3837056 2.6068895 3.4345114
00000000: 030d af40 799f 2140 4234 553f 7f88 1e40
00000010: 8df3 9440 8118 803f e77c 7b40 7ba1 ad40
00000020: 819d 8c40 5147 8c40 47d7 2640 09cf 5b40

weights f4 [12]
5.395164 5.2941027 1.032996 6.064278 6.1129246 5.9630337 1.9607621 4.9242144
2.2189941 1.4311361 1.8157964 -0.015356776
00000000: 2fa5 ac40 4a69 a940 3739 843f 910e c240
00000010: 149d c340 2cd1 be40 41fa fa3f 2a93 9d40
00000020: 0004 0e40 782f b73f 046c e83f fd9a 7bbc

weights f4 [12]
4.204884 0.8764754 3.4885879 1.518008 4.231793 3.245842 2.1929917 1.9469533
3.0884416 3.142089 5.516926 4.5691996
00000000: 698e 8640 b160 603f 0645 5f40 164e c23f
00000010: d96a 8740 e0bb 4f40 fa59 0c40 c435 f93f
00000020: 07a9 4540 fc17 4940 a88a b040 e236 9240

weight f4 [12, 48]
0.02545158 -0.03225945 -0.021234354 0.033785313 -0.025245 0.102751404 0.0035818992 0.0916385
-0.103232734 -0.012107284 -0.02194832 -0.122737646 0.08976807 -0.048631545 0.15666813 -0.06849234
0.11612568 0.10213176 -0.11611003 -0.18264914 0.104499884 -0.07622912 0.07244251 -0.106320195
0.021234093 0.08750078 -0.07174894 -0.013390177 0.12518398 0.16578028 0.057830896 -0.1448879
0.084174484 -0.091234006 -0.11074373 -0.035851087 -0.1192474 0.08754531 -0.0033438609 -0.09276481
-0.09944911 -0.19321877 0.17416507 -0.111906156 0.0702617 0.06821034 -0.06636489 -0.11557178
0.08495329 -0.0098595 0.22634268 0.028350398 -0.044484 0.05616034 0.018115235 -0.044606514
0.0071068457 -0.10789494 -0.06707357 0.061333045 -0.13143927 0.028526172 -0.13542956 0.02154217
0.047135413 -0.081513114 0.03824014 0.1374308 0.0267807 -0.13564165 0.024860395 0.10308132
-0.06407349 -0.07518566 -0.059940252 -0.13965973 -0.18093374 -0.10608203 0.041559182 -0.18569966
-0.09265611 -0.027088791 0.0056551616 -0.013857472 -0.086600885 0.08118724 -0.07216202 -0.07644032
-0.14360207 0.047683798 -0.07106709 -0.1302326 0.13163815 0.11250879 0.051660065 0.17659178
0.15455587 -0.055316336 0.13635802 -0.101509206 -0.07326534 0.11925412 0.13542266 -0.12177918
0.0820796 -0.07009673 -0.010155497 -0.11394148 -0.109639876 -0.1619853 0.045916855 0.021361893
-0.06475643 0.022708546 -0.05843729 0.1317976 -0.04815244 -0.0032685548 -0.10846138 -0.028354425
-0.08585309 -0.016141053 0.19906545 0.07461843 -0.04267355 0.005705561 0.038031735 -0.027963154
0.09669098 0.004467245 0.063780904 0.22743912 0.014253021 0.18692873 0.084312975 0.16154331
0.019516801 0.016730828 0.14906667 0.17802915 0.012486341 -0.042641234 -0.11545922 -0.036326952
0.14744551 -0.025687756 -0.02807384 0.101318024 -0.1573876 -0.19263272 -0.007852815 -0.094831325
0.06818169 -0.012991111 0.12401816 0.18962264 -0.19866963 -0.035863854 0.0143565545 -0.010734746
0.056724034 -0.023982652 0.050900184 -0.032241497 -0.044879626 -0.12610525 0.03217694 0.11150382
0.048548814 -0.0882835 0.11412198 -0.04136766 0.0070531643 -0.109763086 0.07215845 0.1347667
0.103884414 0.010802769 0.0065067136 -0.047648404 -0.16343711 0.07145235 0.0050259163 0.061567143
0.06742078 -0.036586232 0.092020474 0.003619573 -0.22844286 -0.16399086 0.1532152 0.17216778
-0.09067276 -0.060050312 -0.116769955 -0.07712938 -0.008532179 0.022969913 -0.04078908 -0.028472392
-0.10591424 -0.0018870236 0.10409694 0.02866574 0.12248255 0.09866982 0.09878665 -0.08684978
-0.089021295 -0.11299119 0.13510858 0.032291796 -0.12386647 0.019381918 0.02920559 0.030245889
-0.12712428 0.10260502 0.07667069 -0.03525274 0.024792928 0.0076984777 0.07124647 -0.05804572
0.037705094 0.013464782 -0.10948706 0.05183026 0.06614932 -0.12124506 -0.075381525 0.12841992
-0.006852113 -0.09205056 0.031504106 0.00029854788 -0.03334975 0.019399073 -0.073901445 0.02217219
0.12577693 0.08466976 -0.097048216 0.116215944 -0.0036899606 -0.11831986 0.038070004 0.003605663
0.04160614 -0.014459219 0.20874387 -0.03450852 -0.15047003 -0.08417951 0.08636243 -0.10477647
00000000: d57f d03c 7c22 04bd abf3 adbc 7862 0a3d
00000010: 9ace cebc 546f d23d 4cbe 6a3b f7ac bb3d
00000020: af6b d3bd a15d 46bc f7cc b3bc e05d fbbd
00000030: 52d8 b73d df31 47bd 9c6d 203e b645 8cbd
00000040: 4dd3 ed3d 752a d13d 18cb edbd 6008 3bbe
00000050: 0904 d63d 031e 9cbd bd5c 943d 67be d9bd
00000060: 1ff3 ad3c 9c33 b33d 1cf1 92bd 7962 5bbc
00000070: 3b30 003e 4ec2 293e 17e0 6c3d 7e5d 14be
00000080: ac63 ac3d e5d8 babd 9ccd e2bd 97d8 12bd
00000090: fb37 f4bd f54a b33d ad24 5bbb 7afb bdbd
000000a0: faab cbbd 24db 45be 5458 323e 0e2f e5bd
000000b0: 5ee5 8f3d ddb1 8b3d 51ea 87bd e6b0 ecbd
000000c0: fefb ad3d be89 21bc 60c6 673e 183f e83c
000000d0: db34 36bd 6208 663d 6766 943c 52b5 36bd
000000e0: 8be0 e83b 06f8 dcbd de5d 89bd 5c38 7b3d
000000f0: 0498 06be b8af e93c 0cae 0abe 3479 b03c
00000100: 1011 413d 59f0 a6bd b1a1 1c3d a9ba 0c3e
00000110: 3363 db3c a5e5 0abe 07a8 cb3c 4d1c d33d
00000120: f638 83bd f0fa 99bd e983 75bd f602 0fbe
00000130: b246 39be 8941 d9bd f639 2a3d 0d28 3ebe
00000140: 7dc2 bdbd 50e9 ddbc ef4e b93b 730a 63bc
00000150: ce5b b1bd 7f45 a63d aec9 93bd be8c 9cbd
00000160: 6c0c 13be 1650 433d 9f8b 91bd b25b 05be
00000170: 27cc 063e 026b e63d 8199 533d 7ad4 343e
00000180: e543 1e3e 6293 62bd 70a1 0b3e 0fe4 cfbd
00000190: 230c 96bd 813b f43d 3dac 0a3e 5d67 f9bd
000001a0: 5919 a83d e08e 8fbd 3e63 26bc 275a e9bd
000001b0: df8a e0bd 79df 25be 5013 3c3d 23ff ae3c
000001c0: 059f 84bd 4607 ba3c f15b 6fbd f3f5 063e
000001d0: 7e3b 45bd 4035 56bb 0021 debd 8a47 e8bc
000001e0: bfd3 afbd 3e3a 84bc d0d7 4b3e 8cd1 983d
000001f0: 76ca 2ebd b7f5 ba3b 2ac7 1b3d fc12 e5bc
00000200: ec05 c63d f861 923b 909f 823d cde5 683e
00000210: 8185 693c 3f6a 3f3e 48ac ac3d 9c6b 253e
00000220: b3e1 9f3c 170f 893c efa4 183e 464d 363e
00000230: 8393 4c3c 93a8 2ebd e275 ecbd 92cb 14bd
00000240: f5fb 163e 216f d2bc 1cfb e5bc d37f cf3d
00000250: 372a 21be 8341 45be 18a9 00bc ed36 c2bd
00000260: d8a2 8b3d abd8 54bc 3cfd fd3d 702c 423e
00000270: 0d70 4bbe fae5 12bd c137 6b3c cae0 2fbc
00000280: 7657 683d 4477 c4bc b67c 503d a90f 04bd
00000290: b3d3 37bd bc21 01be f8cb 033d 1d5c e43d
000002a0: 1fdb 463d fbcd b4bd c9b8 e93d 2371 29bd
000002b0: 3b1e e73b 78cb e0bd cfc7 933d 4800 0a3e
000002c0: 5ac1 d43d 19fe 303c 4536 d53b f92a 43bd
000002d0: 0f5c 27be 9c55 923d 71b0 a43b d42d 7c3d
000002e0: e813 8a3d 72db 15bd 3b75 bc3d 5c36 6d3b
000002f0: edec 69be 38ed 27be 72e4 1c3e c04c 303e
00000300: a4b2 b9bd 51f7 75bd 1625 efbd 02f6 9dbd
00000310: 8dca 0bbc 662b bc3c 7312 27bd ef3e e9bc
00000320: 91e9 d8bd 0156 f7ba c730 d53d 6ad4 ea3c
00000330: 22d8 fa3d 6713 ca3d a850 ca3d 4cde b1bd
00000340: cc50 b6bd ed67 e7bd e759 0a3e 6744 043d
00000350: b4ad fdbd d4c6 9e3c 9040 ef3c 3ac6 f73c
00000360: de2c 02be 9522 d23d 8605 9d3d 2d65 10bd
00000370: 8a1a cb3c 8343 fc3b abe9 913d 59c1 6dbd
00000380: a870 1a3d 649b 5c3c c03a e0bd f74b 543d
00000390: 4b79 873d 544f f8bd a161 9abd 8380 033e
000003a0: b187 e0bb 0185 bcbd 730a 013d 6b86 9c39
000003b0: bf99 08bd ceea 9e3c a459 97bd 74a2 b53c
000003c0: abcb 003e 5767 ad3d 37c1 c6bd a002 ee3d
000003d0: 44d3 71bb af51 f2bd 4bef 1b3d fd4c 6c3b
000003e0: 336b 2a3d 5ce6 6cbc f4c0 553e ce58 0dbd
000003f0: d114 1abe 4f66 acbd c9de b03d 0c95 d6bd

bias f4 [12]
0.09538086 0.11616948 -0.053542368 -0.13860358 -0.14145446 0.074368544 -0.065149836 -0.053127803
-0.09265723 0.11119273 -0.038040206 0.05737802
00000000: 0a57 c33d 44ea ed3d 3e4f 5bbd 19ee 0dbe
00000010: 70d9 10be 894e 983d 476d 85bd 8a9c 59bd
00000020: 13c3 bdbd 04b9 e33d 0cd0 1bbd 3705 6b3d

weight f4 [12, 12]
-0.029429372 0.034370404 0.15193343 0.28389788 0.031390697 0.2489197 -0.02241924 0.19102429
0.07321045 0.18277778 -0.055517413 0.2554526 0.27666196 0.2077947 0.08534841 0.0047888225
0.06535471 -0.04709963 -0.028463226 0.13504116 -0.27984688 0.19402792 0.18417896 -0.21120623
0.09171703 0.24299303 0.1815939 0.11949413 -0.15318471 -0.39944187 0.42226094 0.1197549
-0.047842253 -0.13894682 -0.24195135 0.24295971 -0.22032319 -0.19379933 0.029515479 -0.16189171
0.21819581 0.1961848 -0.16265082 0.32237363 -0.08505025 0.054007474 0.09442355 -0.2501232
-0.230418 0.049313754 0.35236147 0.20813252 -0.26102355 0.03636662 -0.033714313 -0.18264848
-0.21429923 -0.16369726 -0.15895411 -0.0172485 0.30883017 0.23526308 -0.22789627 0.28444466
-0.044845846 -0.2972511 -0.058513623 -0.12006349 -0.06806737 0.03692365 0.07863105 0.10890484
-0.13755316 -0.26090735 0.056758225 -0.13680863 -0.14995287 -0.013453151 -0.029698715 -0.2419872
0.2048296 0.17446615 0.1417107 -0.20909584 -0.07248676 0.12606409 0.32289815 0.03468305
0.14435811 -0.08419986 0.24528374 -0.064618565 0.18544708 -0.087328315 -0.28719655 -0.03682975
0.121706575 -0.041717757 0.43958 -0.26941225 0.27092966 -0.14254762 -0.12456802 0.20809552
-0.0006736132 -0.112510115 0.28722042 -0.20803925 -0.17070217 -0.30399245 -0.19312066 0.012400228
0.060263794 0.2859045 -0.28977904 0.16550069 -0.078760445 0.32038105 0.2577814 0.09691929
0.07469863 0.06176028 -0.18283205 -0.059770416 0.1336872 0.3797701 0.029467218 -0.19858043
0.05024503 0.27159202 0.08914697 0.39026302 0.09097021 0.047850944 -0.2138903 -0.015199161
-0.16628434 0.33554104 0.190153 0.052059513 0.006198904 0.4260119 -0.13424571 -0.002756206
00000000: de15 f1bc fbc7 0c3d 7094 1b3e 105b 913e
00000010: 8893 003d cee4 7e3e 8ea8 b7bc df9b 433e
00000020: 5cef 953d 192a 3b3e 3a66 63bd afca 823e
00000030: a3a6 8d3e 22c8 543e 26cb ae3d 8eeb 9c3b
00000040: b1d8 853d 8beb 40bd b62b e9bc 3b48 0a3e
00000050: 1748 8fbe 41af 463e 6999 3c3e 7246 58be
00000060: 23d6 bb3d 2ad3 783e c0f3 393e 57b9 f43d
00000070: 74dc 1cbe a583 ccbe 9632 d83e 0f42 f53d
00000080: 3df6 43bd 1348 0ebe 18c2 77be 6eca 783e
00000090: 679c 61be 5573 46be 72ca f13c f1c6 25be
000000a0: b96e 5f3e abe4 483e f08d 26be 280e a53e
000000b0: d32e aebd f136 5d3d 2261 c13d 2610 80be
000000c0: b2f2 6bbe 38fd 493d b968 b43e b120 553e
000000d0: e1a4 85be 2af5 143d 0518 0abd 3408 3bbe
000000e0: 4271 5bbe 41a0 27be dec4 22be ba4c 8dbc
000000f0: fd1e 9e3e cee8 703e a45d 69be bba2 913e
00000100: 47b0 37bd 4c31 98be fbab 6fbd d9e3 f5bd
00000110: e866 8bbd 413d 173d 5109 a13d 8009 df3d
00000120: bcda 0cbe a695 85be 507b 683d 9017 0cbe
00000130: 3f8d 19be 9b6a 5cbc b84a f3bc 7ecb 77be
00000140: dabe 513e 41a7 323e 9c1c 113e 381d 56be
00000150: f073 94bd f216 013e e852 a53e d00f 0e3d
00000160: 9dd2 133e fa70 acbd a92b 7b3e bd56 84bd
00000170: d7e5 3d3e 30d9 b2bd 6d0b 93be cbda 16bd
00000180: 4c41 f93d 3de0 2abd a110 e13e 67f0 89be
00000190: 4bb7 8a3e 01f8 11be 851d ffbd fe16 553e
000001a0: 6b95 30ba b46b e6bd 8e0e 933e 3e08 55be
000001b0: 8dcc 2ebe e6a4 9bbe 6cc1 45be 532a 4b3c
000001c0: 2bd7 763d 1362 923e eb5d 94be 0379 293e
000001d0: 284d a1bd fc08 a43e ecfb 833e 9f7d c63d
000001e0: 98fb 983d 59f8 7c3d 5338 3bbe d3d1 74bd
000001f0: 4ce5 083e 3a71 c23e 3c65 f13c ab58 4bbe
00000200: bccd 4d3d 1c0e 8b3e b092 b63d 8ed0 c73e
00000210: 974e ba3d 5aff 433d 0f06 5bbe e705 79bc
00000220: 7146 2abe 09cc ab3e 78b7 423e 5b3c 553d
00000230: 2d20 cb3b 3b1e da3e b577 09be 77a1 34bb

bias f4 [12]
-0.28143266 -0.09950549 -0.2166633 -0.107748814 0.09502435 -0.23535709 -0.2576612 -0.16547555
-0.16497539 -0.5035334 -0.41563812 -0.23551542
00000000: f117 90be 89c9 cbbd fcdc 5dbe 69ab dcbd
00000010: 209c c23d 7301 71be 2bec 83be 6c72 29be
00000020: 4fef 28be 91e7 00bf 85ce d4be f42a 71be

weight f4 [12, 48]
0.09225832 -0.10008637 -0.11988107 0.0059818984 0.008690144 -0.06502937 -0.0018203716 -0.038147654
-0.07401772 -0.14478132 0.06365291 -0.10469753 -0.14741607 0.06463637 0.113862805 -0.14739533
0.054651886 -0.13764127 -0.06876895 -0.06111498 -0.05184554 0.075680144 -0.03870644 -0.09808096
-0.047826093 0.0013794281 -0.11298283 0.09217345 0.1439107 0.051218744 -0.17103468 -0.06380271
-0.16216502 -0.09800682 0.09595625 -0.0406744 0.02140367 0.05848828 -0.15654151 0.083593376
-0.07576411 -0.03109607 0.06747557 0.117472984 0.00071694795 0.0006820684 -0.09519554 0.009846104
-0.0035018343 0.15276185 -0.11439208 -0.1705183 -0.034031563 0.02882673 0.08465462 0.058202483
0.0005032547 0.06072845 -0.11648136 0.048897058 0.1815448 -0.0058351494 0.07365882 0.14752166
-0.0982113 0.0018494041 0.013907129 0.17253779 -0.16190486 0.04814391 0.047338184 0.07424518
-0.045281094 0.09739756 0.05676639 0.26438993 0.08823301 0.011651593 -0.016790373 0.027229115
-0.04064949 0.063833795 0.040887605 -0.018322866 -0.03683024 0.061921112 0.043173276 0.034154903
-0.10053277 -0.06939347 -0.017449457 -0.021486945 -0.044314142 0.045717005 -0.021864802 -0.2718868
-0.09317829 0.0577615 -0.0038971894 0.016803827 -0.017187 0.033893976 -0.12874204 0.1486911
0.06138876 -0.0632729 -0.091314144 0.004609915 -0.056089442 0.20651779 -0.09808356 0.07409855
-0.11481756 0.1686762 0.040464222 -0.07067788 -0.07879945 0.020599043 0.137361 0.005808926
0.09779572 0.05262677 -0.07054099 -0.032382354 -0.022816367 0.03403461 -0.100884676 -0.058621604
0.032111757 0.15418544 0.15851955 -0.0370795 0.14167228 -0.046736572 -0.04659178 0.009163675
-0.095151156 0.036286876 0.07147894 0.006379712 0.09694296 0.21616101 0.11059674 0.31327447
-0.07640272 0.12700205 -0.1266646 0.13505559 0.05284946 0.011003374 0.10576036 0.004309331
-0.10294499 -0.04118739 0.069343194 -0.13199167 -0.058819134 0.0961205 0.093877114 0.12255864
-0.112729535 -0.13245161 0.022705304 -0.018085878 0.03035883 0.06057801 0.07097235 0.048489913
-0.118817806 -0.06182733 -0.03301122 -0.1392585 -0.00892207 -0.069675185 -0.13808835 0.008523594
-0.13739695 -0.03769675 0.08387058 0.03757597 0.049681537 -0.0230991 -0.0014535815 0.09477104
-0.05211389 -0.0841574 0.017519856 -0.093689606 0.13840896 -0.06961424 0.02587721 0.028740132
-0.033118572 -0.15177086 0.09672865 -0.05701812 0.05092551 0.20167418 -0.3805428 -0.12523544
0.038183853 0.05484439 0.115334384 -0.043430813 0.070913844 -0.20430917 0.15613808 0.118040845
0.016013479 -0.020984063 -0.04884254 0.18767749 0.035822663 0.1146916 -0.10404029 0.005295072
0.0079863295 0.16307119 0.013196416 -0.025823744 -0.092207834 0.10352946 0.03578652 0.04026799
-0.26529908 0.074582525 0.048806485 0.12281389 0.01688969 0.022399517 -0.013230664 -0.096058056
0.20002688 0.07854397 -0.043250766 0.13967109 -0.1346764 -0.20746629 -0.0682282 -0.35274002
-0.01642775 0.03904214 -0.013668322 0.016435364 0.014630333 0.045703243 0.16983789 0.016000874
-0.123298325 -0.20721439 -0.09451414 -0.0016754353 0.16254781 -0.053283036 0.09540208 0.19551323
00000000: eef1 bc3d 15fa ccbd 3584 f5bd cd03 c43b
00000010: 1b61 0e3c 1e2e 85bd 8999 eeba b740 1cbd
00000020: 9a96 97bd 8e41 14be 755c 823d a96b d6bd
00000030: 3df4 16be 1360 843d e730 e93d cdee 16be
00000040: a8da 5f3d d5f1 0cbe bcd6 8cbd b453 7abd
00000050: fd5b 54bd 31fe 9a3d a58a 1ebd acde c8bd
00000060: 4be5 43bd edcd b43a 8b63 e7bd 6fc5 bc3d
00000070: 545d 133e bfca 513d b723 2fbe ffaa 82bd
00000080: 960e 26be cdb7 c8bd b684 c43d 339a 26bd
00000090: c056 af3c 6891 6f3d 6b4c 20be 0133 ab3d
000000a0: 372a 9bbd 2fbd febc a230 8a3d ad95 f03d
000000b0: 90f1 3b3a d6cc 323a e1f5 c2bd 8e51 213c
000000c0: 087f 65bb 9a6d 1c3e 6546 eabd 599c 2ebe
000000d0: ae64 0bbd 0926 ec3c 675f ad3d ba65 6e3d
000000e0: daec 033a 65be 783d c78d eebd 4848 483d
000000f0: e1e6 393e c834 bfbb 6fda 963d eb0f 173e
00000100: 0223 c9bd b467 f23a bada 633c bfad 303e
00000110: 63ca 25be 8c32 453d afe5 413d db0d 983d
00000120: ab78 39bd 5f78 c73d e083 683d 1e5e 873e
00000130: 82b3 b43d 53e6 3e3c f78b 89bc 980f df3c
00000140: 1480 26bd 4bbb 823d c379 273d d619 96bc
00000150: 4edb 16bd fea0 7d3d 76d6 303d 03e6 0b3d
00000160: 20e4 cdbd 2a1e 8ebd 2af2 8ebc 6405 b0bc
00000170: bf82 35bd c141 3b3d d01d b3bc bf34 8bbe
00000180: 42d4 bebd 5397 6c3d fd67 7fbb 2ea8 893c
00000190: c0cb 8cbc 69d4 0a3d f4d4 03be 7b42 183e
000001a0: c872 7b3d 3995 81bd e902 bbbd c50e 973b
000001b0: 0bbe 65bd 6679 533e 09e0 c8bd fbc0 973d
000001c0: 7825 ebbd 74b9 2c3e d0bd 253d 90bf 90bd
000001d0: 9b61 a1bd 53bf a83c 5da8 0c3e ce58 be3b
000001e0: 1f49 c83d 2b8f 573d cb77 90bd 5ca3 04bd
000001f0: 64e9 babc e067 0b3d a09c cebd 351d 70bd
00000200: 9e87 033d cae2 1d3e f352 223e ace0 17bd
00000210: 8a12 113e d96e 3fbd 06d7 3ebd 3d23 163c
00000220: 9cde c2bd 8ca1 143d 8d63 923d e70c d13b
00000230: 088a c63d 5059 5d3e 8b80 e23d 8365 a03e
00000240: 0779 9cbd d30c 023e 5db4 01be 034c 0a3e
00000250: ad78 583d 7f47 343c e398 d83d 4a35 8d3b
00000260: d3d4 d2bd 1cb4 28bd ce03 8e3d d328 07be
00000270: 55ec 70bd d3da c43d a542 c03d 0600 fb3d
00000280: bede e6bd 65a1 07be 7900 ba3c d628 94bc
00000290: 15b3 f83c a620 783d f459 913d 5c9d 463d
000002a0: c056 f3bd a83e 7dbd c636 07bd c899 0ebe
000002b0: e02d 12bc ddb1 8ebd 0867 0dbe 8ba6 0b3c
000002c0: c9b1 0cbe e867 1abd 57c4 ab3d 43e9 193d
000002d0: de7e 4b3d 533a bdbc 1a86 beba 5217 c23d
000002e0: 6075 55bd b75a acbd cd85 8f3c 56e0 bfbd
000002f0: 14bb 0d3e e991 8ebd 71fc d33c 6d70 eb3c
00000300: 57a7 07bd d269 1bbe ac19 c63d d58b 69bd
00000310: 4497 503d ad83 4e3e 82d6 c2be b83d 00be
00000320: ac66 1c3d 83a4 603d 6f34 ec3d 82e4 31bd
00000330: 473b 913d 6c36 51be a9e2 1f3e 66bf f13d
00000340: b32e 833c c5e6 abbc 1d0f 48bd 872e 403e
00000350: c9ba 123d 6ee3 ea3d 1313 d5bd 4982 ad3b
00000360: 18d9 023c 22fc 263e c835 583c 518c d3bc
00000370: 76d7 bcbd 4107 d43d e394 123d 0cf0 243d
00000380: 48d5 87be b9be 983d 4fe9 473d d985 fb3d
00000390: 3f5c 8a3c 317f b73c 6dc5 58bc 16ba c4bd
000003a0: d9d3 4c3e a9db a03d b727 31bd f005 0f3e
000003b0: 9ce8 09be 0b72 54be 3abb 8bbd 579a b4be
000003c0: 7d93 86bc a7ea 1f3d 19f1 5fbc 75a3 863c
000003d0: 10b4 6f3c 5333 3b3d fce9 2d3e 4414 833c
000003e0: d583 fcbd 0230 54be a190 c1bd 489a dbba
000003f0: ef72 263e 503f 5abd 2a62 c33d 9f34 483e

bias f4 [12]
-0.024674358 -0.107754126 -0.03404974 0.090315714 0.06890766 0.05764213 0.019214425 0.08733038
0.1049478 -0.08643825 -0.06755326 -0.13168932
00000000: e121 cabc 32ae dcbd bd77 0bbd 72f7 b83d
00000010: 761f 8d3d 271a 6c3d 9267 9d3c 45da b23d
00000020: dfee d63d 8a06 b1bd 5d59 8abd 91d9 06be

weight f4 [12, 12]
0.05610276 -0.15773548 0.15058395 0.14590186 -0.28412932 0.00038778046 0.04686427 0.0025345883
-0.020429015 0.2630999 -0.16666947 0.14713694 -0.27011517 0.09878622 0.050827518 0.1490656
-0.08069257 -0.3214739 0.2423993 -0.28828228 0.14758673 0.15435168 0.36113447 0.2538856
0.2514832 -0.0650228 0.32237646 0.14598498 -0.36510593 -0.081987575 -0.006940676 0.08513021
0.02775321 -0.23888747 0.04527383 0.25940368 -0.28345367 0.037036095 -0.23536025 0.13379297
0.37730747 0.034498144 0.1390734 0.27082536 0.017137721 0.1435788 0.100594066 0.0038978641
0.08962814 0.19135246 -0.07825681 0.2798097 -0.18647297 0.31187046 -0.25062224 0.16694647
-0.04182858 -0.10469872 -0.4009715 0.111261465 0.18580684 -0.30652747 0.124269105 0.15374082
-0.094130486 -0.32560003 0.18659572 -0.20936508 0.23344538 0.2685563 0.25065354 0.08030165
-0.28314668 -0.17202948 -0.14703013 0.16613507 0.1347975 -0.030146413 -0.20721796 0.014835048
0.043379374 0.033834588 -0.45809373 -0.2558014 -0.20113091 0.02591421 0.24108867 0.11016249
-0.20674984 -0.090709545 -0.30100778 0.28116858 0.38929847 0.043866664 0.33636138 0.04281057
-0.24817011 0.42837718 -0.25759682 -0.27508733 -0.2543884 0.36975402 -0.23565142 0.18498327
0.036749437 -0.16165014 -0.1120079 0.2756062 0.14892608 -0.017587224 0.026086602 0.20657112
0.3651015 0.15091293 0.024602357 -0.001613635 -0.28848422 -0.029218392 0.075959824 -0.023417193
-0.028362773 -0.36133313 0.08331508 0.23969859 0.25437504 -0.07263093 -0.11137901 0.042143073
0.14908478 0.03756063 -0.23414314 0.056407154 0.13974763 -0.10706667 0.22641277 -0.15961143
0.42483255 -0.21470927 -0.048652392 0.2103855 0.0060279407 -0.07604844 -0.17277548 0.002429988
00000000: 02cc 653d 6985 21be ae32 1a3e 4c67 153e
00000010: 6679 91be 034f cb39 c0f4 3f3d 561b 263b
00000020: c05a a7bc 08b5 863e 67ab 2abe 11ab 163e
00000030: 894c 8abe 6e50 ca3d 8430 503d a7a4 183e
00000040: 2542 a5bd 3a98 a4be 8637 783e bc99 93be
00000050: fa20 173e 5e0e 1e3e 9ee6 b83e 4bfd 813e
00000060: 68c2 803e ac2a 85bd 870e a53e 167d 153e
00000070: 2aef babe 1ae9 a7bd 9c6e e3bb bf58 ae3d
00000080: b35a e33c eb9e 74be 0d71 393d 8fd0 843e
00000090: d720 91be 29b3 173d 4702 71be 0601 093e
000000a0: 722e c13e ed4d 0d3d 4269 0e3e 9fa9 8a3e
000000b0: 6864 8c3c 5206 133e 4304 ce3d 4f73 7f3b
000000c0: f58e b73d e6f1 433e 1b45 a0bd 3843 8f3e
000000d0: c5f2 3ebe 7cad 9f3e 8f51 80be 04f4 2a3e
000000e0: 7254 2bbd 486c d6bd 234c cdbe 0ddd e33d
000000f0: 2644 3e3e 2bf1 9cbe cd80 fe3d 3c6e 1d3e
00000100: 7cc7 c0bd 0cb5 a6be f312 3f3e cd63 56be
00000110: 4e0c 6f3e 3680 893e a955 803e 3175 a43d
00000120: 9af8 90be 7f28 30be 118f 16be 501f 2a3e
00000130: 5b08 0a3e 9cf5 f6bc f230 54be b30e 733c
00000140: 92ae 313d 2396 0a3d 438b eabe 67f8 82be
00000150: 43f5 4dbe 0a4a d43c f3df 763e df9c e13d
00000160: 3bb6 53be edc5 b9bd b11d 9abe 54f5 8f3e
00000170: 2152 c73e 88ad 333d 8f37 ac3e 235a 2f3d
00000180: 4e20 7ebe 4154 db3e bbe3 83be 3fd8 8cbe
00000190: 323f 82be 6650 bd3e 9b4e 71be 416c 3d3e
000001a0: 9486 163d 9d87 25be 6664 e5bd 411c 8d3e
000001b0: 1480 183e 1513 90bc 92b3 d53c 6187 533e
000001c0: 95ee ba3e eb88 1a3e e28a c93c 9b80 d3ba
000001d0: 34b4 93be 695b efbc d390 9b3d 6ad5 bfbc
000001e0: 0c59 e8bc a800 b9be 19a1 aa3d 8c73 753e
000001f0: 723d 823e 86bf 94bd ae1a e4bd 379e 2c3d
00000200: aea9 183e 2dd9 193d 38c3 6fbe 300b 673d
00000210: 011a 0f3e c545 dbbd c0d8 673e 2e71 23be
00000220: a783 d93e bfdc 5bbe bb47 47bd 4c6f 573e
00000230: 0886 c53b 49bf 9bbd 0eec 30be 6f40 1f3b

bias f4 [12]
-0.04693922 0.037390083 -0.14823253 -0.2557994 0.061958995 -0.07042232 -0.39862362 0.026870918
-0.3575619 0.08861479 -0.37860742 -0.13146755
00000000: 5743 40bd 5826 193d 45ca 17be 24f8 82be
00000010: b7c8 7d3d 9439 90bd 6518 ccbe 6620 dc3c
00000020: 5a12 b7be ac7b b53d d5d8 c1be 6e9f 06be

weight f4 [12, 48]
-0.1160593 0.052604992 -0.010534745 0.09582059 0.054120068 -0.053642564 -0.12394903 0.16706064
-0.019133117 0.008748084 -0.014790881 0.033496413 -0.0774683 -0.046995133 -0.15609933 -0.08981119
0.082353786 -0.071227536 0.10886322 0.081548594 0.024657743 -0.16544951 0.10228167 0.0019017643
-0.12168544 0.099263616 0.07670813 -0.09435447 0.11673774 -0.0741627 -0.011177887 -0.1721749
0.14310567 0.094218634 -0.10573438 -0.03784339 0.0640042 0.28098914 0.41126278 0.32160375
-0.13417701 0.12728511 0.16673338 0.067855984 -0.00021114902 0.21979557 -0.059303213 0.067331485
-0.10194937 -0.079635605 0.045798548 -0.11731596 0.039102763 0.11816856 -0.107399985 -0.11969147
-0.001197198 -0.0548194 -0.13391083 0.03552408 -0.041853815 -0.019219367 0.10202815 0.020189473
0.06313836 0.048369676 0.13017756 0.07999948 -0.13587384 -0.12908258 0.022086978 -0.11238813
0.052148264 0.14272825 0.09333033 0.0036978454 -0.07198216 0.08630769 0.091641344 -0.088902086
0.14823845 -0.08292056 -0.12075592 0.09978075 -0.035426978 -0.06322651 -0.11223946 -0.060047135
-0.05425128 -0.03849507 -0.03230843 0.014718844 0.030620264 0.11894095 -0.03337301 -0.14123105
-0.10550559 0.042913724 -0.047458023 0.008603801 -0.11379379 0.030512873 -0.0296686 0.10263203
-0.10368502 0.002564524 0.13746578 -0.080425635 -0.013678697 0.109564096 -0.13970223 0.14403613
0.1428948 0.115599535 0.19964924 0.004772018 0.06617767 -0.10276325 0.013057788 -0.1017705
0.05940896 -0.16841738 -0.0026829615 -0.083098054 -0.11578924 -0.1009453 0.06943425 -0.19819032
-0.006877434 0.067841925 0.08946545 -0.10836455 -0.048786346 0.16015801 -0.003388436 0.18016429
0.11133142 0.009253671 -0.01019921 0.07508353 -0.13432471 0.14940329 -0.08485202 0.11374849
-0.08197666 0.13959904 0.15301314 0.03700127 0.01713263 -0.031448543 0.1359196 -0.18421635
0.035184707 -0.0028072058 0.17954873 0.22825487 -0.047437415 -0.028758315 0.205696 0.11482957
-0.119908474 -0.035821963 0.005022412 -0.065098524 -0.015792944 0.07770775 -0.09468672 0.17238495
-0.0064417985 -0.05592567 0.2267402 0.015864413 0.041408148 -0.017178927 0.12759191 0.047514085
-0.089317665 -0.085867375 0.08152577 0.09087666 0.04042726 -0.064033546 -0.010023862 0.1185163
0.05484805 0.15962976 0.07239858 0.08729057 0.019443177 0.0818609 0.01605422 -0.065114394
0.058592055 0.05162979 -0.043591768 -0.16263317 0.14391494 0.077014655 -0.042317033 0.11805648
0.04789752 -0.012792758 0.11113921 0.034350187 -0.006719059 0.002768151 -0.0675984 0.117328346
0.15157352 0.14956583 -0.16061692 -0.15368308 -0.06680616 -0.033072114 -0.08334226 0.10713962
-0.2345482 -0.023176575 -0.11130962 -0.11886363 0.0465988 -0.11905187 -0.177811 -0.026655747
0.043957938 0.050046023 0.020735858 -0.028279055 0.020746557 0.004768177 0.09359479 -0.01826304
0.1208309 -0.14376691 -0.13901848 -0.14041013 -0.034053132 0.042469814 -0.1788064 -0.19131304
-0.015098924 0.100708395 -0.07687968 0.046711203 0.10751298 0.090206675 0.07412831 0.03394806
0.045151215 -0.1450729 0.09769499 0.012997545 0.057969373 0.12211265 0.025551915 0.050454285
00000000: 80b0 edbd 5578 573d ec99 2cbc 963d c43d
00000010: 01ad 5d3d 4eb8 5bbd fdd8 fdbd f211 2b3e
00000020: 0ebd 9cbc 2054 0f3c 7455 72bc 8933 093d
00000030: b3a7 9ebd f87d 40bd 81d8 1fbe eeee b7bd
00000040: 1aa9 a83d bedf 91bd aef3 de3d f302 a73d
00000050: 09ff c93c 996b 29be 0d79 d13d 9f44 f93a
00000060: 3736 f9bd b94a cb3d 2719 9d3d eb3c c1bd
00000070: 3214 ef3d 9de2 97bd 7523 37bc 9e4e 30be
00000080: 4b8a 123e b3f5 c03d 448b d8bd ac01 1bbd
00000090: a214 833d cfdd 8f3e 0991 d23e 3fa9 a43e
000000a0: b365 09be 0757 023e 28bc 2a3e 14f8 8a3d
000000b0: e267 5db9 1712 613e ede7 72bd 17e5 893d
000000c0: d5ca d0bd fe17 a3bd 4297 3b3d 5a43 f0bd
000000d0: 382a 203d 5c02 f23d 86f4 dbbd cd20 f5bd
000000e0: 4deb 9cba 4f8a 60bd ec1f 09be b381 113d
000000f0: e86e 2bbd ef71 9dbc 22f4 d03d 6564 a53c
00000100: af4e 813d 481f 463d 444d 053e c4d6 a33d
00000110: 8322 0bbe 392e 04be c0ef b43c bf2b e6bd
00000120: 6b99 553d 5b27 123e f923 bf3d 8d57 723b
00000130: 626b 93bd 16c2 b03d 75ae bb3d 4c12 b6bd
00000140: d2cb 173e 41d2 a9bd e14e f7bd da59 cc3d
00000150: e11b 11bd e77c 81bd cddd e5bd fcf3 75bd
00000160: 9736 5ebd 02ad 1dbd d855 04bd 4e27 713c
00000170: 59d7 fa3c 5097 f33d 23b2 08bd df9e 10be
00000180: 5113 d8bd 4dc6 2f3d 5863 42bd f5f6 0c3c
00000190: b80c e9bd 22f6 f93c 900b f3bc be30 d23d
000001a0: d058 d4bd 9311 283b d4c3 0c3e 32b6 a4bd
000001b0: 9d1c 60bc 2463 e03d 1a0e 0fbe 357e 133e
000001c0: 0453 123e 73bf ec3d da70 4c3e 975e 9c3b
000001d0: 2988 873d 8a75 d2bd 55f0 553c 0d6d d0bd
000001e0: cf56 733d 9b75 2cbe a0d4 2fbb 502f aabd
000001f0: e922 edbd 69bc cebd 8b33 8e3d 67f2 4abe
00000200: 195c e1bb b5f0 8a3d a939 b73d 3cee ddbd
00000210: 31d4 47bd 7600 243e 8610 5ebb fd7c 383e
00000220: ba01 e43d b69c 173c 961a 27bc 65c5 993d
00000230: 6b8c 09be 2dfd 183e e5c6 adbd f8f4 e83d
00000240: 61e3 a7bd 0df3 0e3e 7aaf 1c3e a58e 173d
00000250: bb59 8c3c 30d0 00bd 822e 0b3e 36a3 3cbe
00000260: d71d 103d 19f9 37bb 9fdb 373e a5bb 693e
00000270: bc4d 42bd 8f96 ebbc f9a1 523e c42b eb3d
00000280: 9392 f5bd 0dba 12bd 0c93 a43b 6052 85bd
00000290: 3460 81bc 3e25 9f3d 1ceb c1bd ae85 303e
000002a0: b915 d3bb 5112 65bd 952e 683e 16f6 813c
000002b0: 979b 293d d2ba 8cbc 74a7 023e 219e 423d
000002c0: 2eec b6bd 3cdb afbd fcf6 a63d 8b1d ba3d
000002d0: 0e97 253d 0524 83bd 203b 24bc adb8 f23d
000002e0: 59a8 603d fc75 233e b545 943d 66c5 b23d
000002f0: 4c47 9f3c b0a6 a73d 2484 833c b25a 85bd
00000300: 39fe 6f3d c279 533d 488d 32bd 4f89 26be
00000310: 705e 133e dcb9 9d3d a054 2dbd 99c7 f13d
00000320: 3130 443d b798 51bc f49c e33d c8b2 0c3d
00000330: 8d2b dcbb de69 353b 0871 8abd d849 f03d
00000340: 1736 1b3e c927 193e c378 24be 195f 1dbe
00000350: abd1 88bd a076 07bd 59af aabd 046c db3d
00000360: 672d 70be cddc bdbc 4cf6 e3bd c66e f3bd
00000370: 62de 3e3d 78d1 f3bd 1614 36be 275d dabc
00000380: 3d0d 343d 0ffd 4c3d 3fde a93c 7aa9 e7bc
00000390: aff4 a93c 5e3e 9c3b a0ae bf3d 5f9c 95bc
000003a0: 3176 f73d a237 13be dc5a 0ebe acc7 0fbe
000003b0: 4c7b 0bbd d4f4 2d3d 0619 37be 91e7 43be
000003c0: 7a61 77bc 3440 ce3d 1873 9dbd 3f54 3f3d
000003d0: c42f dc3d 47be b83d 95d0 973d 1f0d 0b3d
000003e0: 7bf0 383d fe8d 14be 5014 c83d a8f3 543c
000003f0: 4b71 6d3d 3216 fa3d 4052 d13c 27a9 4e3d

bias f4 [12]
0.29876655 -0.035808366 0.08263954 -0.024675973 0.051126815 -0.045146853 0.031009799 -0.09919909
0.0071003204 -0.086517006 -0.08470911 0.0372343
00000000: eef7 983e cbab 12bd eb3e a93d 4425 cabc
00000010: 5a6a 513d e8eb 38bd 4308 fe3c e428 cbbd
00000020: cea9 e83b d42f b1bd f87b adbd fe82 183d

weight f4 [12, 12]
-0.014490555 0.2091071 -0.23245153 -0.060336184 0.29315126 -0.11988521 -0.012359187 0.25192448
-0.011041965 -0.2294251 0.34894383 0.28143677 -0.0702521 0.15923345 -0.28108323 -0.08627053
0.0067438004 0.11874258 -0.14604636 0.31590533 -0.13291916 -0.02131063 0.18181273 0.07992456
0.20778185 0.075001195 -0.1713991 -0.1581522 0.12901959 -0.20005584 0.048227407 -0.24795079
0.061106782 -0.19274716 -0.05927014 -0.08503015 -0.16405573 -0.23749503 -0.16596514 0.10371833
0.12421817 0.2235774 -0.30710372 0.18982789 0.32704824 -0.28743502 -0.18934324 -0.29314438
-0.13337955 0.23500226 -0.094783686 -0.023106644 -0.1971159 -0.29193857 -0.3258461 0.11967839
0.001823801 0.25294828 0.36148828 0.25183034 -0.19807205 0.11797829 -0.31995976 -0.36358565
0.2787754 0.03410956 0.1632742 -0.21254696 -0.11070939 -0.0029418182 -0.1365938 0.035251155
0.12111302 0.08847396 0.03183537 -0.2476356 0.0007569449 -0.18447216 0.13341056 0.23522079
-0.025368176 0.092911355 0.23674093 -0.04484386 -0.108408295 -0.041319318 -0.26762167 0.23188798
-0.13357621 -0.21043622 0.011023667 0.23122461 -0.12721682 0.06082397 0.20300786 0.27487046
-0.24860287 0.20230451 0.07633572 -0.29022688 0.060637817 -0.30492783 0.13855019 0.07675184
0.1831954 0.02781065 -0.108707815 -0.102943055 0.21235748 -0.22603127 0.13108012 0.1336062
0.07709511 -0.08020129 -0.29541105 0.076146826 -0.022680487 0.20919095 0.15545158 -0.11963803
-0.24521634 0.09212937 -0.25068453 0.16849835 0.3526117 -0.33446306 0.38060445 -0.19566922
0.056084815 0.2215228 -0.0042555262 -0.18837462 -0.30083528 -0.028457768 -0.26584557 0.3868413
0.009474424 -0.037079014 0.22549465 0.06732434 -0.22309612 -0.015779065 -0.033427015 -0.081255615
00000000: cb69 6dbc 2c20 563e c607 6ebe 1323 77bd
00000010: ec17 963e 6186 f5bd 307e 4abc 3ffc 803e
00000020: 5ce9 34bc 6aee 6abe c4a8 b23e 7b18 903e
00000030: 55e0 8fbd 180e 233e 24ea 8fbe 9bae b0bd
00000040: 19fb dc3b 4f2f f33d 2d8d 15be 58be a13e
00000050: f61b 08be a193 aebc 1e2d 3a3e 7daf a33d
00000060: c4c4 543e 3a9a 993d 3f83 2fbe a6f2 21be
00000070: b61d 043e 70db 4cbe 1a8a 453d d0e6 7dbe
00000080: 1b4b 7a3d 835f 45be 3fc5 72bd 4a24 aebd
00000090: 3afe 27be e631 73be c4f2 29be 476a d43d
000000a0: 1966 fe3d 79f1 643e b33c 9dbe 3e62 423e
000000b0: de72 a73e af2a 93be 32e3 41be 0517 96be
000000c0: a694 08be 6fa4 703e f31d c2bd 254a bdbc
000000d0: c0d8 49be f978 95be 4dd5 a6be f219 f53d
000000e0: 9b0c ef3a 7082 813e fe14 b93e e8ef 803e
000000f0: 66d3 4abe 9a9e f13d c4d1 a3be e627 babe
00000100: a6bb 8e3e 77b6 0b3d 5a31 273e e9a5 59be
00000110: 9bbb e2bd 85cb 40bb 3fdf 0bbe 8463 103d
00000120: 1a0a f83d d631 b53d ce65 023d 3094 7dbe
00000130: b66d 463a 45e6 3cbe c79c 083e b8dd 703e
00000140: ecd0 cfbc 4f48 be3d 376c 723e 32ae 37bd
00000150: 2b05 debd 723e 29bd b505 89be 0b74 6d3e
00000160: 34c8 08be 987c 57be 9c9c 343c 25c6 6c3e
00000170: 2045 02be 8e22 793d 4be1 4f3e d2bb 8c3e
00000180: c091 7ebe ea28 4f3e e755 9c3d 9e98 94be
00000190: 5c5f 783d 801f 9cbe 1ae0 0d3e 1230 9d3d
000001a0: 9397 3b3e 29d3 e33c 34a2 debd cfd3 d2bd
000001b0: 3d74 593e be74 67be de39 063e 10d0 083e
000001c0: 0be4 9d3d 9340 a4bd 1e40 97be def2 9b3d
000001d0: 6ecc b9bc 2736 563e b32e 1f3e c904 f5bd
000001e0: fe19 7bbe 53ae bc3d b959 80be d58a 2c3e
000001f0: 8589 b43e be3e abbe 96de c23e 835d 48be
00000200: 31b9 653d dfd6 623e f171 8bbb 47e5 40be
00000210: 1507 9abe 4420 e9bc e91c 88be 1010 c63e
00000220: 9d3a 1b3c 2ae0 17bd 12e8 663e 58e1 893d
00000230: 4f73 64be 1943 81bc c4ea 08bd 5869 a6bd

bias f4 [12]
-0.27297965 -0.19030513 -0.18572101 0.18102686 -0.18815821 -0.3684743 0.24058896 -0.10688875
-0.16090348 0.022549167 -0.06845988 -0.09819823
00000000: fdc3 8bbe 59df 42be a62d 3ebe 1b5f 393e
00000010: 8cac 40be aaa8 bcbe f45c 763e 7de8 dabd
00000020: e2c3 24be 08b9 b83c b234 8cbd 271c c9bd

weight f4 [12, 48]
0.012088918 -0.11807365 -0.0812751 -0.09693058 -0.13360076 -0.19653253 0.03963698 -0.05286031
0.09000165 0.20448993 -0.059009347 0.14099509 0.0024442363 0.15918997 0.07371247 0.09478819
0.097831815 0.06807519 -0.093578465 0.05132881 0.07754754 0.011602753 -0.12033717 -0.17047991
-0.22824284 -0.25392666 0.0973165 0.0077388203 -0.10420723 -0.08568245 0.18734321 -0.14407676
-0.023789272 0.002012344 0.0071444437 -0.16405836 -0.071178116 0.107572794 -0.16423623 0.10032311
-0.22480248 -0.16409999 -0.051005725 -0.12835811 -0.053658217 0.032400467 -0.0154019045 -0.03485492
-0.06767762 -0.11520234 -0.040769022 -0.0409105 -0.11191867 -0.18658358 -0.14662945 0.019947914
-0.029148474 -0.11526196 0.04171094 -0.031828675 0.042705413 0.09791499 0.065606266 -0.039475773
-0.025217274 0.010648139 -0.08587947 0.055726755 0.09165008 -0.07124782 0.08982227 -0.08972708
-0.16874461 -0.16496992 -0.032820567 -0.08169239 -0.16283314 -0.06951348 -0.016367968 -0.019912273
0.08811311 -0.14303811 0.1340066 0.09146336 -0.1307426 0.06408394 -0.07003709 -0.013933243
-0.2408765 -0.078078076 -0.10349384 0.07878981 0.03340189 -0.07498992 0.12423766 -0.08684839
0.113978066 -0.100843675 0.039259087 -0.050372552 0.015841896 -0.11924191 -0.0017679726 -0.05950489
-0.0872234 -0.1051132 -0.121192835 0.09817313 -0.09623777 -0.13767138 0.07412243 -0.06831739
0.040194787 -0.13884804 -0.10017144 -0.035534684 -0.04274534 -0.097794004 0.048183694 0.063437454
0.06604675 0.04511399 -0.0036810122 0.07505018 0.005359856 -0.020377565 -0.13448516 -0.041099157
-0.038606174 -0.019861959 -0.04963715 -0.13534178 -0.10517081 -0.12598407 -0.07810185 -0.042070646
0.10972688 -0.005766804 -0.1241753 -0.10874404 -0.06902232 0.027212575 0.07032338 -0.06833258
0.0774907 -0.07538886 -0.086237326 -0.076276675 0.17106508 0.053236607 -0.109502524 -0.18944956
0.06360574 -0.09446561 0.040362403 -0.19305092 -0.08212674 -0.15862821 -0.09195388 -0.14230992
0.23689729 0.14644346 0.22461951 -0.024314234 0.064166844 -0.014020237 0.016895829 0.13363263
0.039856248 -0.108486086 -0.065995514 -0.03382065 -0.08326843 -0.22827592 -0.2155665 -0.25431836
0.019457692 0.064788885 -0.117287 -0.14650959 -0.044810284 -0.038495593 -0.23903546 0.17647138
0.082321025 -0.0051953313 -0.10759849 -0.049850788 -0.12181582 -0.2859075 0.0033603958 -0.18896623
-0.10160784 0.0034122404 0.06574472 -0.052804295 -0.026766142 0.13000645 0.005061791 -0.11296903
0.09238475 -0.10284729 -0.034012534 -0.023519283 -0.001543782 0.055677176 -0.08126328 0.13721342
-0.039094962 0.051205855 -0.08425745 0.08332611 -0.1258715 0.07947748 0.0933435 -0.13776381
0.0047127395 -0.083612815 -0.11343711 -0.01460094 0.09203966 -0.0054589575 0.05715443 -0.011967147
-0.0120087955 -0.09816175 -0.0017615271 0.121736884 -0.10981643 0.0528553 0.002194188 -0.071322344
0.06947876 0.05919589 0.08440398 -0.122659445 0.02085395 0.056499775 0.087491594 0.054290324
0.014175647 0.021233693 -0.026683107 -0.13577628 -0.051329203 0.12015292 0.20277642 0.066215
-0.029651882 -0.09850861 0.09854552 -0.069577485 -0.059434175 0.089763 -0.055471696 0.13632567
00000000: 9910 463c 99d0 f1bd 8f73 a6bd 8a83 c6bd
00000010: a3ce 08be d33f 49be 635a 223d 0d84 58bd
00000020: c952 b83d cf65 513e c9b3 71bd 0461 103e
00000030: 7b2f 203b b202 233e 90f6 963d 5020 c23d
00000040: 0c5c c83d 016b 8b3d 11a6 bfbd 293e 523d
00000050: 3fd1 9e3d 7919 3e3c 5673 f6bd 4992 2ebe
00000060: 7eb8 69be ad02 82be e04d c73d ee95 fd3b
00000070: 9a6a d5bd 487a afbd e6d6 3f3e dc88 13be
00000080: b8e1 c2bc 88e1 033b f01b ea3b eafe 27be
00000090: d5c5 91bd 204f dc3d 8b2d 28be 3476 cd3d
000000a0: 9f32 66be d409 28be 61eb 50bd 4f70 03be
000000b0: b8c8 5bbd 5ab6 043d 4558 7cbc 08c4 0ebd
000000c0: 909a 8abd 34ef ebbd 6bfd 26bd c591 27bd
000000d0: 9e35 e5bd c40f 3fbe 0826 16be cf69 a33c
000000e0: c8c8 eebc 760e ecbd 17d9 2a3d c95e 02bd
000000f0: dfeb 2e3d a787 c83d 945c 863d 59b1 21bd
00000100: 7594 cebc 8875 2e3c 93e1 afbd bd41 643d
00000110: 0ab3 bb3d 61ea 91bd bdf4 b73d d5c2 b7bd
00000120: 63cb 2cbe e0ed 28be dc6e 06bd 574e a7bd
00000130: bbbd 26be 155d 8ebd 1e16 86bc 101f a3bc
00000140: a574 b43d 9578 12be 0739 093e 2451 bb3d
00000150: 63e1 05be 713e 833d 9b6f 8fbd 4248 64bc
00000160: 54a8 76be 66e7 9fbd 94f4 d3bd 8d5c a13d
00000170: 6cd0 083d 5194 99bd 5070 fe3d 92dd b1bd
00000180: 556d e93d 2187 cebd 23ce 203d 7353 4ebd
00000190: ddc6 813c 1a35 f4bd 51bb e7ba 66bb 73bd
000001a0: 2fa2 b2bd 9745 d7bd f333 f8bd fe0e c93d
000001b0: 4f18 c5bd baf9 0cbe 80cd 973d fde9 8bbd
000001c0: 4aa3 243d 2e2e 0ebe af26 cdbd d18c 11bd
000001d0: bd15 2fbd 3948 c8bd 445c 453d 7feb 813d
000001e0: 8543 873d 72c9 383d 233d 71bb e9b3 993d
000001f0: bba1 af3b daee a6bc 7ab6 09be 9757 28bd
00000200: 8221 1ebd 8cb5 a2bc 5350 4bbd 0997 0abe
00000210: cb63 d7bd f801 01be ddf3 9fbd 4552 2cbd
00000220: 7db8 e03d 75f7 bcbb 9f4f febd 32b5 debd
00000230: 935b 8dbd e8ec de3c b405 903d f4f1 8bbd
00000240: 72b3 9e3d 7a65 9abd 329d b0bd f236 9cbd
00000250: af2b 2f3e a10e 5a3d dc42 e0bd 11ff 41be
00000260: ba43 823d 3077 c1bd 0c53 253d 24af 45be
00000270: 1032 a8bd 6f6f 22be 5152 bcbd b1b9 11be
00000280: 3495 723e 46f5 153e a802 663e a52e c7bc
00000290: e869 833d 23b5 65bc 1f69 8a3c fed6 083e
000002a0: 4e40 233d f42d debd a828 87bd 8687 0abd
000002b0: a388 aabd 2ac1 69be 77bd 5cbe 0436 82be
000002c0: bd65 9f3c 09b0 843d 2b34 f0bd 9c06 16be
000002d0: fd8a 37bd 8ead 1dbd b6c5 74be eab4 343e
000002e0: ed97 a83d 993d aabb 995c dcbd 5730 4cbd
000002f0: 937a f9bd 7862 92be 163a 5c3b 5d80 41be
00000300: c517 d0bd e59f 5f3b 2ba5 863d 5149 58bd
00000310: ab44 dbbc 6920 053e 61dd a53b 4f5c e7bd
00000320: 3734 bd3d 9aa1 d2bd ba50 0bbd 83ab c0bc
00000330: ba58 caba c00d 643d 5d6d a6bd ad81 0c3e
00000340: 0a22 20bd 3bbd 513d 2c8f acbd e1a6 aa3d
00000350: 75e4 00be 17c5 a23d e02a bf3d f511 0dbe
00000360: 536d 9a3b 323d abbd b751 e8bd c838 6fbc
00000370: 4a7f bc3d 0ee1 b2bb c31a 6a3d da11 44bc
00000380: 8ac0 44bc 0709 c9bd 0be3 e6ba 3051 f93d
00000390: 70e7 e0bd cd7e 583d 5ecc 0f3b 7311 92bd
000003a0: e14a 8e3d 6477 723d fedb ac3d e034 fbbd
000003b0: e7d5 aa3c 4f6c 673d cb2e b33d 885f 5e3d
000003c0: f940 683c 48f2 ad3c 8896 dabc f008 0bbe
000003d0: 923e 52bd bc12 f63d 9fa4 4f3e bb9b 873d
000003e0: 81e8 f2bc e2be c9bd 3cd2 c93d a47e 8ebd
000003f0: 4071 73bd aad5 b73d 4a36 63bd f598 0b3e

bias f4 [12]
0.054205127 0.061394636 -0.019274121 0.11837567 -0.15165254 -0.013118672 0.09563328 0.011625595
0.18426156 -0.07734278 -0.06875877 -0.042660654
00000000: 3206 5e3d f178 7b3d c3e4 9dbc f16e f23d
00000010: ce4a 1bbe b3ef 56bc 62db c33d 4879 3e3c
00000020: 10af 3c3e e465 9ebd 66d1 8cbd f0bc 2ebd

weight f4 [12, 12]
0.12821768 0.04613449 0.1769206 -0.14151484 -0.20826441 -0.0645668 0.26355353 -0.2670202
0.08239943 -0.20524807 0.03695867 0.18015875 0.19495001 0.24444297 -0.1284474 -0.23136061
0.09891279 -0.068488754 -0.08815858 0.16791816 -0.27278438 -0.27866822 -0.22985101 0.070037425
-0.089459635 -0.1920361 -0.047610875 0.1782556 0.06507154 0.19019563 0.13001028 -0.35335758
-0.33132854 -0.07613552 -0.0031345687 -0.35840482 0.29076743 0.2651458 -0.012704123 0.036327545
-0.047968734 0.17433885 0.27232116 -0.0073055727 0.107704 0.23591088 0.13662226 -0.26700923
-0.30092746 0.2542609 -0.14982024 0.3019698 0.23989527 -0.2547772 -0.24731612 -0.14125966
-0.020839548 0.22177279 0.1147205 -0.17107293 0.027848663 -0.026621481 -0.2345421 -0.072000004
-0.016918734 -0.1396534 -0.22465435 0.18458776 0.08525501 -0.23328964 -0.1397749 -0.05580347
0.42969602 0.30379492 -0.14393052 -0.25455895 0.0064340476 0.022434631 -0.08970349 -0.21473023
-0.17438425 0.21009032 -0.09746449 -0.12284896 0.2632233 0.004556941 0.08139498 -0.17575754
-0.12116932 -0.024153387 -0.27351415 0.047547214 -0.06483771 0.15164836 0.26423332 0.117965296
0.43707806 0.2730622 -0.18612446 -0.064221814 -0.092619926 -0.16556677 -0.030857643 -0.100305445
0.079943955 0.14122437 -0.059881564 -0.266934 -0.30679017 0.018562665 -0.19080211 0.06544244
0.10693734 0.31343934 0.117769256 -0.18754224 0.15204287 -0.15573147 0.06901833 0.27267405
-0.19024448 -0.42548692 -0.12085674 0.18260576 -0.16741134 0.19808082 0.084113576 -0.27611455
-0.10678393 0.26459473 -0.1324529 -0.35204887 -0.081119716 0.34081382 -0.19927423 -0.35324988
0.20123789 -0.16482082 0.05740681 -0.19500707 -0.31809032 0.13688272 -0.17658852 -0.021862965
00000000: 7f4b 033e 85f7 3c3d ac2a 353e 44e9 10be
00000010: 4443 55be 993b 84bd 7df0 863e dfb6 88be
00000020: 08c1 a83d 8d2c 52be f961 173d 897b 383e
00000030: faa0 473e 424f 7a3e b787 03be cce9 6cbe
00000040: ca92 ca3d d543 8cbd 7c8c b4bd bdf2 2b3e
00000050: 65aa 8bbe 9aad 8ebe 105e 6bbe c86f 8f3d
00000060: 9d36 b7bd 1da5 44be 9f03 43bd a388 363e
00000070: 3a44 853d a5c2 423e 6a21 053e 49eb b4be
00000080: e5a3 a9be f1ec 9bbd 566d 4dbb d680 b7be
00000090: 78df 943e 31c1 873e f424 50bc 31cc 143d
000000a0: dd7a 44bd e285 323e ae6d 8b3e 9663 efbb
000000b0: ea93 dc3d 9f92 713e b5e6 0b3e 6fb5 88be
000000c0: 2a13 9abe 7c2e 823e 7a6a 19be c99b 9a3e
000000d0: 1ba7 753e 2872 82be 7040 7dbe 5fa6 10be
000000e0: b3b7 aabc 6818 633e 95f2 ea3d be2d 2fbe
000000f0: e122 e43c 4b15 dabc ce2b 70be bd74 93bd
00000100: 2899 8abc 4d01 0fbe ca0b 66be 9304 3d3e
00000110: 2e9a ae3d 7be3 6ebe 2721 0fbe 2e92 64bd
00000120: 1e01 dc3e 028b 9b3e 8662 13be 8d55 82be
00000130: b4d4 d23b d5c8 b73c 77b6 b7bd 3ee2 5bbe
00000140: c991 32be eb21 573e 769b c7bd 3c98 fbbd
00000150: 34c5 863e 6452 953b 69b2 a63d c9f9 33be
00000160: 9f27 f8bd 53dd c5bc 0c0a 8cbe dec0 423d
00000170: a2c9 84bd b549 1b3e 9749 873e ca97 f13d
00000180: b2c8 df3e cfce 8b3e 6997 3ebe ba86 83bd
00000190: 84af bdbd 568a 29be 2bc9 fcbc f16c cdbd
000001a0: a8b9 a33d 1f9d 103e 5f46 75bd 93ab 88be
000001b0: 9a13 9dbe bb10 983c a161 43be b006 863d
000001c0: f701 db3d 1f7b a03e 0231 f13d 130b 40be
000001d0: 20b1 1b3e 1278 1fbe 7b59 8d3d ef9b 8b3e
000001e0: 73cf 42be 6cd9 d9be bd83 f7bd 01fd 3a3e
000001f0: e16d 2bbe b3d5 4a3e bd43 ac3d e35e 8dbe
00000200: 88b1 dabd f678 873e bca1 07be c03f b4be
00000210: 1822 a6bd 267f ae3e 8b0e 4cbe 2bdd b4be
00000220: 4e11 4e3e cac6 28be 6723 6b3d efaf 47be
00000230: bcdc a2be fc2a 0c3e 9fd3 34be f619 b3bc

bias f4 [12]
0.0671983 -0.23542461 -0.18175615 -0.13922955 0.045026436 0.3617811 0.123089 -0.0031068847
0.014541018 -0.2981169 -0.28161994 -0.3299852
00000000: 439f 893d 2613 71be 491e 3abe 3192 0ebe
00000010: a46d 383d 5f3b b93e 1616 fc3d e09c 4bbb
00000020: 733d 6e3c c7a2 98be 7d30 90be d2f3 a8be
