MQCNN-4qubits-7class-CIFAR/Models_V1/model_5.pt (torch, 119819 bytes, 23 tensors)

weights f4 [7]
00000000: e984 8240 c7b0 b940 a24a 2c40 9c1f a13f
00000010: 591c a140 80fe 7340 7374 8f40
4.0787244 5.8028293 2.6920552 1.2587771 5.0347104 3.8124084 4.482965

weights f4 [7]
00000000: 226d ad40 bb0e 5040 52d9 ab40 d938 b740
00000010: ddda 3040 2d61 a23e cca9 5640
5.419572 3.250899 5.3702784 5.7256894 2.7633584 0.31714764 3.3541136

weights f4 [7]
00000000: cd84 ca3f 1a1c 3140 9d7a a03f b515 a740
00000010: bbdc ab3e 3d33 3c40 d9ff 9d40
1.5821778 2.7673402 1.2537419 5.2214 0.3356684 2.9406273 4.9374814

weights f4 [7]
00000000: 9b90 213f 1267 3e40 1291 0740 2f08 5a40
00000010: a7f7 0c40 b463 c040 e39a b640
0.63111275 2.975041 2.1182294 3.4067495 2.2026155 6.012171 5.706407

weights f4 [7]
00000000: b478 813e 09db b53f a9ea 9040 11c8 d43f
00000010: 8db6 6640 b7ed 3240 5a4f 2c40
0.25287402 1.4207469 4.528645 1.6623555 3.604892 2.795759 2.6923432

weights f4 [7]
00000000: 92a2 aa40 0cca 3e40 ef05 2e40 9abd b540
00000010: 288a 7d40 4afd 3e40 faf1 183f
5.332345 2.981082 2.7191122 5.6793947 3.9615574 2.9842095 0.59744227

weights f4 [8]
00000000: 07fe 2f3f 9178 933f dad1 bd3f f130 1840
00000010: c5e6 d43e 56d1 b640 59b0 c140 515a c440
0.6874699 1.1521169 1.4829667 2.3779871 0.41582313 5.7130537 6.052777 6.136025

weights f4 [8]
00000000: dd48 4a40 60dc 2940 2f1b bc40 d78b ac40
00000010: b0e3 8540 6a31 8f40 5112 a840 d792 1640
3.1606972 2.6540756 5.8783183 5.3920703 4.184044 4.474782 5.252236 2.3527124

weights f4 [8]
00000000: ed1d 8240 23b2 203f 1c6d ab40 e100 4540
00000010: 5d61 a940 8e72 9740 a1f9 3740 c276 323f
4.066153 0.62771815 5.357069 3.0781786 5.293135 4.7327337 2.8746111 0.6971246

weights f4 [16]
00000000: 3277 ec3e 2124 6340 a9c5 9440 9b2a 743d
00000010: 3240 733f 85fb 6440 942c 9740 efe4 9840
00000020: 74df 8e40 1df2 6740 9d27 6740 ce68 e23f
00000030: e769 8840 49f7 e33f f608 6c40 8b68 cb3d
0.4618469 3.5490801 4.6491284 0.059610944 0.9501983 3.5778515 4.7241917 4.777946
4.464777 3.6241524 3.6117928 1.7688234 4.2629275 1.780984 3.688047 0.09932049

weights f4 [16]
00000000: 6879 0240 defc 1140 3a9a 373f 761a 6940
00000010: 6528 3440 99fd 683f 70e6 5d40 e2fd 9d40
00000020: 4c61 cd3f 3e2f 0a3e 572c 1540 9d3e a740
00000030: 6a7f bd40 70f3 a13f 3a93 a93f 9142 a540
2.03866 2.2810588 0.71719706 3.64224 2.8149655 0.9101196 3.4671898 4.9372416
1.6045318 0.13494584 2.3308313 5.226393 5.9218035 1.2652416 1.3248055 5.164376

weights f4 [16]
00000000: c5fd e83f 1fe0 1b40 d008 1f3d dcb3 4040
00000010: 6528 3340 a948 c540 bdc5 ab3f 74c3 9540
00000020: 0d2b 2f3f cafc 7440 9f3a 9f40 8ecb b63f
00000030: 1e9d ae40 5610 b33f 0934 8b3f 066c be40
1.8202444 2.4355543 0.038826764 3.0109777 2.7993405 6.1651196 1.341972 4.680109
0.68425065 3.827929 4.975906 1.428087 5.4566793 1.398936 1.0875255 5.9506865

weights f4 [12]
00000000: 7280 e93f e3b8 ab40 b2aa bd40 55ea 8f40
00000010: 0caf 3640 3933 7e40 7fce 2540 6de7 743f
00000020: ee34 6240 874d 6540 e1b7 a340 2dbf c23f
1.8242323 5.366319 5.927087 4.497355 2.854434 3.9718764 2.5907285 0.9566563
3.5344806 3.582857 5.116196 1.5214592

weights f4 [12]
00000000: 0fa8 7d40 39cb c040 37eb 27be 80f2 bf3f
00000010: fb6a 603f 4a6e 1740 974e 3440 1324 a340
00000020: 067c ad40 85f8 9340 94d7 6d40 fa76 9c40
3.9633825 6.0248075 -0.16398321 1.499588 0.8766324 2.3661065 2.8172967 5.0981536
5.4213896 4.624087 3.7162828 4.8895235

weights f4 [12]
00000000: 22b8 5740 722b 8640 832d c740 90b7 4840
00000010: 8896 8640 5a5c a940 2711 b940 015c b140
00000020: edf2 6f40 35a8 1640 aba0 3440 9cc0 ba40
3.3706136 4.1928034 6.2243056 3.1362038 4.2058754 5.2925234 5.783344 5.542481
3.749202 2.3540165 2.8223064 5.836012

weight f4 [5]
00000000: 855e 913f b808 943f 453f 963f 17a6 943f
00000010: a0bd 923f
1.135697 1.1565161 1.1738058 1.1613187 1.1464119

bias f4 [5]
00000000: 0647 62bd 4e6c d7bc 2001 af3d fbf8 8c3c
00000010: 09ab 94bd
-0.055243514 -0.02629676 0.085451365 0.017208567 -0.07259185

running_mean f4 [5]
00000000: f1dc aebf b847 b3bf 72a1 0e3f ddcd e1bd
00000010: 8a10 a4bf
-1.3661176 -1.4006262 0.55715096 -0.110255934 -1.2817547

running_var f4 [5]
00000000: 05e8 043e 47d2 6c3d 9651 7c3e 52d3 0b3e
00000010: 2afd 8b3d
0.12979133 0.057817724 0.24640498 0.13654831 0.068353966

weight f4 [32, 80]
00000000: e874 fbbc 43d9 2ebd f5c9 bd3d 0453 e63c
00000010: 1f9e 32bd 6b8f 26bd 55de 9bbd efc3 24bd
00000020: 648c aabc b61e 3fbe dbf5 b1bd c254 03bd
00000030: 95d8 273e 4da9 32bd c97b 7c3d c873 9abd
00000040: bf7c 4b3c 96e9 a23b 6bb0 f33a 95de 04bd
00000050: 99bd 08bd 51f3 2cbd fc4e 0b3e 2eaa d43d
00000060: 6ca6 893d 0667 20bd 3cdc 44bd a5ae 403c
00000070: b580 423e d79c 21bd 735b 82bb 0948 e8bd
00000080: 99a2 3bbd e0fb d93d 9b10 d13d dfed b93d
00000090: 47d9 b43d 2e44 c2bc a333 62bd d166 a7bc
000000a0: ed10 063d b284 10be 0275 67bd 692a a0bd
000000b0: c60a 0a3e 4188 083e b502 01bd e7ae 6e3d
000000c0: bf17 3dbc ca57 ffbd e887 05be 5ce6 18be
000000d0: 28e8 3ebd dd7a 073d e0d5 2fbd d95c cebc
000000e0: ac1c 3fbd 5610 32bd 3df5 9f3c 71ff bb3c
000000f0: 0cfe 903d 8699 de3b 905e 95bd 7389 edbc
00000100: c10f 973d 58e3 3ebd f0ff 8a3d a064 f1bc
00000110: e4c9 3fbd c473 07bd 2520 3cbd cd4c 07be
00000120: 98f9 c8bb 11d9 a4bd bbb6 fcbc be6c 473d
00000130: 3910 09bd 95e5 d2bb e1af e0bd 3476 fd3a
00000140: 3ee2 0d3e 8d92 d23d 3fd8 ab3d 5554 153e
00000150: 8380 4c3d 7051 873c 3a46 003e b1c5 28bd
00000160: dc34 023d 4f68 a4bd 5506 543d 0f3f 923a
00000170: d816 bd3d 20e6 16be 96ae dabd 5515 45bd
00000180: 17fa b4bd d458 c53b b858 c1bd c533 66bd
00000190: 9b28 8cbd 6f18 c83b 1c87 cb3c 61c8 0c3c
000001a0: 5a1c 8a3d e168 e4bd ce09 7ebd b7c4 93bd
000001b0: 0748 463c e63a f7bd 9f12 ef3c 6a31 b13d
000001c0: 34e3 bbbd a9a6 b43b 75ff 023d 1236 6abd
000001d0: 4d61 b23d 974b aabc 2701 bd3c 202d 0e3e
000001e0: 4b80 963c e5dd 00be ff30 933d 4a17 ad3d
000001f0: 9354 173e ac8d 783d 6397 063e 3e8e 9e3d
00000200: 0154 c1bc eba7 a83c f0ca 91bc 4854 8dbd
00000210: 6b18 13bd 8a86 b13d 6a81 ce3d d543 2b3d
00000220: 2402 283e 5551 1f3e 7aa6 dc3d 6378 a53d
00000230: 088f 843d 2d0e 073e ff94 f73d c55f ab3d
00000240: 7e26 4c3d 5b96 d03d 1877 0b3c 2fe9 bf3d
00000250: 0846 95bc c5f1 103d 3798 eab9 0b51 983d
00000260: f837 ecbd ace4 ec3d 7f5b 4b3e a5fa de3d
00000270: 3f9a e03c 7e5d c53d 5ffc 9bbd fcf3 01be
00000280: 9914 3bbd 284a 653d b685 4c3d 5867 54bd
00000290: b2c3 903d 9598 ba3c 6fea bd3d 27a8 923c
000002a0: 9387 b43d 3fdd 06bd ea37 fc3a fa7a 46bb
000002b0: 2cf8 91bd 6cea 5d3c 8fcd 883d 937a cdbc
000002c0: 4172 febb a6bf 1e3d 393a 29be 7cb2 d13b
000002d0: 6aca 3abd 5a59 b9bc be0b 98bd 1b24 763d
000002e0: f0c5 5c3d 0589 21bc 498c 103a 2f11 213d
000002f0: c367 f7bc dd84 2a3c 0f30 75bd f815 c3bb
00000300: e940 6abc b563 cebd a04b 693d c966 92bd
00000310: e102 69bd f723 f9bd a639 0bbe 8387 aebd
00000320: 72c0 0abd 27bf c13d d6eb 743d dfc6 003d
00000330: 64c7 20be 4136 07bc 87b1 713d 00e7 00be
00000340: 4617 643d 963f b73d 6b09 de3c f4cb 9ebb
00000350: 98c4 d63d e406 f33c 157b 55ba f5d3 993d
00000360: 0fba 7bbc c9a8 883d dd75 b03c d1e7 c23d
00000370: d335 88bc d444 d9bd 38c2 c83d dafb 16bd
00000380: 3987 11bd 0444 cabc 45db db3c dc60 20bd
00000390: c403 b63d 9a2b 9fbb 01a5 743c 98fc 673c
000003a0: e1e1 dfbc a99f 8d3d 8e1d b3bc 251a f4bc
000003b0: a0c0 6a3d 34b9 8a3d a07d 1ebd e73c dcbc
000003c0: 9a8a 82bd 5951 1a3e 0cac a53d 2dc5 ab3d
000003d0: 9044 213d 0c80 ed3d e102 8f3d 191a 173d
000003e0: 3d38 ddbd 03c2 003c 2ea9 023c c122 bbbd
000003f0: d764 463d d333 45bd cab5 f53c 0554 733d
-0.030695394 -0.042687666 0.09267036 0.028115757 -0.043607827 -0.040664118 -0.07610766 -0.04022592
-0.020818897 -0.18664059 -0.08689471 -0.032063253 0.16391213 -0.04361849 0.06164149 -0.07541615
0.0124198785 0.0049716933 0.0018592005 -0.032438833 -0.03338394 -0.042224232 0.13604349 0.10384022
0.067211956 -0.03916075 -0.048061594 0.0117603885 0.1899441 -0.039456215 -0.0039781868 -0.113418646
-0.045809362 0.106437445 0.10208245 0.090785734 0.08830505 -0.023714151 -0.055225026 -0.020434769
0.032730985 -0.14113119 -0.05650807 -0.07820589 0.13480672 0.13333227 -0.031496722 0.05827227
-0.011541306 -0.12467916 -0.13040125 -0.14931625 -0.04660812 0.033076156 -0.042928576 -0.025190758
-0.046658203 -0.04347261 0.019526118 0.022948952 0.070797056 0.0067932038 -0.07293427 -0.028996205
0.07376052 -0.04660353 0.067870975 -0.029466927 -0.046823397 -0.033069387 -0.045929093 -0.13212891
-0.0061332695 -0.08049215 -0.030848851 0.04868769 -0.033462737 -0.0064360597 -0.10971046 0.0019337595
0.13855836 0.102818586 0.08390855 0.14582951 0.049927246 0.016518325 0.1252679 -0.04120416
0.031788692 -0.08027708 0.05176385 0.0011157709 0.09232873 -0.14736223 -0.10677831 -0.048116047
-0.08836763 0.006022552 -0.0944075 -0.056201715 -0.068436824 0.0061064283 0.024844699 0.008592696
0.06743689 -0.111528166 -0.06202107 -0.07215255 0.012102134 -0.12071781 0.029183684 0.08652003
-0.09174195 0.0055130315 0.031981904 -0.05718047 0.08709965 -0.020787997 0.023071839 0.13884401
0.018371722 -0.12584646 0.0718708 0.08451708 0.14778356 0.060681984 0.13143687 0.07741974
-0.023599626 0.020587882 -0.017796963 -0.06900841 -0.03591196 0.086682394 0.100832775 0.041812737
0.16407067 0.1555837 0.107739404 0.080796026 0.064725935 0.13189001 0.120889656 0.08367876
0.049841397 0.10184928 0.008512281 0.09370648 -0.01822187 0.03538682 -0.00044745367 0.07437333
-0.11534113 0.11567053 0.19859122 0.108876504 0.0274173 0.09636973 -0.07616495 -0.12690729
-0.04567394 0.055978924 0.049932204 -0.05185637 0.07068576 0.022777835 0.0927323 0.017902447
0.08814921 -0.03292584 0.0019242738 -0.0030285702 -0.07127413 0.01354466 0.06679832 -0.025082862
-0.007765085 0.03875699 -0.16526116 0.006399451 -0.045603193 -0.022625614 -0.07424115 0.060093027
0.053899705 -0.009859328 0.0005514068 0.03932303 -0.030200845 0.010407654 -0.059860285 -0.0059535466
-0.014297702 -0.10077611 0.056956887 -0.07148511 -0.05688751 -0.12165063 -0.1359621 -0.085219406
-0.033874936 0.094602875 0.059795223 0.03143966 -0.15701061 -0.008252681 0.059007194 -0.1258812
0.055686258 0.08947675 0.0271041 -0.0048460905 0.10486716 0.029666372 -0.0008143646 0.07511131
-0.015364184 0.06672818 0.021540577 0.09516872 -0.016627228 -0.10608831 0.09802669 -0.036861278
-0.03552935 -0.024690636 0.026837954 -0.039154872 0.08887437 -0.0048574926 0.014931918 0.014159344
-0.027329387 0.069152184 -0.021864679 -0.029797623 0.057312608 0.06773606 -0.038694024 -0.02688451
-0.063740924 0.15070094 0.08089456 0.08387218 0.039372027 0.11596689 0.06982971 0.036890123
-0.10801742 0.007858756 0.007974906 -0.09137488 0.048436012 -0.048145127 0.02999391 0.0594063

bias f4 [32]
00000000: 9eb5 893c 0f23 643d d4fa 5f3d c49b 943d
00000010: da9e 143e 4ac7 803a ca48 8e3c f704 9d3d
00000020: a1f3 42bc b416 5b3e 7540 d23c 27c7 2e3e
00000030: fc80 5e3e d18f f73d 87ea e2bb e7f1 293e
00000040: 88f1 3d3d 024c 39bd 88ba ac3d 85aa b5bc
00000050: 0cba 0a3e 8dbd 87bd 87da 383e 60d8 d63d
00000060: 06f7 3fbd 828d 563c a1b8 233d 8695 013e
00000070: 3688 923d 2cf1 c7bd 164e 32bd cd95 253d
0.016810235 0.055697497 0.054682568 0.072562724 0.14513722 0.0009825018 0.017368693 0.076669626
-0.011898906 0.2139538 0.025665501 0.17068158 0.21728891 0.12087978 -0.0069249305 0.16596185
0.04637292 -0.045238502 0.084340155 -0.022176037 0.13547534 -0.06627951 0.18052112 0.10490489
-0.04686644 0.0130952615 0.039970998 0.12654695 0.071548864 -0.09762797 -0.0435315 0.040426064

weight f4 [10, 32]
00000000: bbc4 adbd ee28 423e 7ed3 393e 4aa3 1b3e
00000010: fcdb f8bd af37 62bd 68c8 b13d f00a 36be
00000020: 3750 01be a1ed 193d 9ab3 313d 125f 7c3e
00000030: a031 babd e26e a1bd aa4f 09bc 97a6 3a3e
00000040: a33f bcbd 0a8e 583e 3a41 133c 0223 f33d
00000050: 7158 4cbe 5b72 de3d 7d45 0d3e e2ec 1f3d
00000060: ab59 96be ff29 00bd f943 943d 61be 2d3e
00000070: ca7e 413e dd5a 7fbd 92e5 0cbe 7bca ebbd
00000080: d000 fc3d d1cf 4e3e 1afc 6fbe e410 a4bc
00000090: b36e 903c 5205 bbbd 420a 31be b211 803c
000000a0: dcb0 bcbd e34c 3b3e fcb9 53be 1413 533e
000000b0: 7659 e23d 37aa dcbc 591f 04be beea 583e
000000c0: d8f0 573e 8bb8 ffbd 45df 0fbe bb00 9abd
000000d0: a956 23bd 40ef a63d 72da a13b a2e7 72be
000000e0: 7d4e c9bd c3ed 1c3e adde 9f3e a820 d33d
000000f0: f9a8 433e 33a5 623e 3a41 32bd 1c00 a83c
00000100: b915 56bc 6930 dabd 6428 9cbd 5805 6dbd
00000110: aaba 1cb9 03ea 6b3e 1e85 0d3c 4457 2b3d
00000120: 9adb 193e a29f 3a3e 6fa3 a33d a40a 28bd
00000130: c3ed 0ebe acb8 143e e189 283e 75b8 c03d
00000140: 9886 7cbd 0352 ea3d 0e2b 073d 8bb8 963e
00000150: e3d2 7ebd ca65 373e 88c1 623e e73e 7e3e
00000160: db19 83bd cad1 bbbc fcf5 a9bd e1e7 58bd
00000170: 9ee3 e43d d7ef 13be 7025 4b3d 3684 4cbd
00000180: 7da5 c6bd 1ecc 063e 45a0 a9bd a858 ccbd
00000190: 1b48 aebc 9e7b b7bc 93db 913d b59c b03d
000001a0: 36e1 833e 7542 9dbd 90f1 293d f3a4 5abd
000001b0: 655e 393e 2e4a 303e 26cc 38bd 39ba c3bd
000001c0: b003 783e 1689 1b3e eb8e bc3d 203d 09bc
000001d0: a0f4 373e e228 00be 8da9 28bc cffa df3d
000001e0: c9c6 623e b8df fd3d 114b fabd 6ba8 ba3d
000001f0: 36d1 693d fdf2 01be 1602 2d3e de2d c7bc
00000200: 16dd c73d dfec 013b 1825 6fbc ad42 5d3e
00000210: 8d9a 853d 27ca e93d 1e72 1b3e 7c1d 54bd
00000220: d73f 1d3e ec4b 3e3d bcd7 3d3e 8424 f13c
00000230: bb73 49be 83a1 a8bc 12b0 183e 0ccd b63b
00000240: 033b 2a3d 8f0c 07bd 1b24 213e 7059 dd3c
00000250: 984b af3b b46a d6bc 5d19 443e 1fb2 863d
00000260: 46d0 0dbe 29c0 e3bc af30 e23d 3dc7 2abe
00000270: 6649 3e3c ce61 d53d 14ef 2abe 213a 353e
00000280: 969e 7d3d 64b7 123e f3b1 15bc e1c1 b1bd
00000290: 2996 663e 6eb0 26bb ee40 1f3e f81c 6d3e
000002a0: 8dbf fabd 54b9 643e 13a0 8c3d 7e11 703e
000002b0: 4f3e 343d 3686 2e3b a76f 903e 2720 fcbd
000002c0: 13f5 47bd 08ea 25bd eb6b 45bd 77bd 4f3d
000002d0: b107 2b3e b14e a2bd d5f0 e83d 065e 2f3e
000002e0: eeb7 fb3d 2a9e e5bd 586f c9bd 1a80 403e
000002f0: 90a2 8b3d 5b68 8ebc 0d27 233e 52e5 8f3d
00000300: f1e3 843e d3ba adbd 2259 8cbd 9b13 0e3c
00000310: 81c2 9c3d 6cae 8b3d 4321 98bd 5e10 1c3c
00000320: bc44 553e 39d4 703c 4a57 1a3e 4a63 8abe
00000330: a11f 2b3d 70d8 f8bc 63fe 263d cf89 44be
00000340: 7bd4 ffbc a858 28bd 13d4 a23e 1d87 053e
00000350: a038 acbc 448b 6b3d ee95 683e beb3 0fbe
00000360: 013a a5bd e998 e73d ea4d 22be 43fa a0bd
00000370: ef06 9f39 ba89 323e 2d5a afbd 3128 e9bd
00000380: cc1f 2c3d bda3 77be a169 11bc b507 d9bd
00000390: 61ec 83be 4025 7cbd 5ab9 053b 0b73 80be
000003a0: 269d 58bd 9a0e e03c e656 fcbd a756 3dbe
000003b0: 58f8 34be 4773 a8bc 3e3c 0cbd fd45 1abe
000003c0: e4ca 02be aa93 d1ba 0ddc cdbd 6007 b9bd
000003d0: 4421 98bd 535d 78be e73b 7bbe dae9 17bd
000003e0: 6f7b 6ebc 6196 0cbe 68d2 87be 7e7d 903c
000003f0: 44d0 22be 1c61 a13d aa84 c5bd 6a44 81be
-0.08484789 0.18960926 0.18147084 0.15199009 -0.12151334 -0.055228885 0.086808026 -0.1777761
-0.12628256 0.037580136 0.043384172 0.24645641 -0.090914965 -0.07882477 -0.00838081 0.18227611
-0.09191825 0.21147934 0.008987719 0.118719116 -0.19955613 0.10861655 0.13796039 0.03904427
-0.29365286 -0.03129005 0.07239527 0.16967155 0.18896022 -0.062342513 -0.13759449 -0.115132295
0.123048425 0.20196463 -0.23436013 -0.020027585 0.01763091 -0.09131874 -0.1728907 0.015633438
-0.09213421 0.18291049 -0.20676416 0.20612746 0.110522196 -0.026936634 -0.12902583 0.21183297
0.21087968 -0.12486371 -0.14050014 -0.075196706 -0.039877567 0.08151102 0.004939371 -0.23721173
-0.098294236 0.15325074 0.31224576 0.10308963 0.19107427 0.22133331 -0.043519236 0.020507865
-0.0130667025 -0.10653765 -0.076248914 -0.057866424 -0.00014946857 0.23038487 0.008637695 0.04183127
0.15025178 0.18224958 0.07990157 -0.041025773 -0.13957886 0.14523572 0.16458847 0.094101824
-0.061651796 0.11441424 0.033000045 0.2943767 -0.062212836 0.17909923 0.22144139 0.24828683
-0.06401416 -0.022927184 -0.08298871 -0.052955512 0.11176227 -0.1444696 0.04959625 -0.049930774
-0.09699533 0.13163802 -0.08282522 -0.09977847 -0.021274617 -0.022397812 0.071219586 0.086236395
0.2575776 -0.07678691 0.041490138 -0.053379964 0.18102415 0.17215797 -0.045116566 -0.095570035
0.24220157 0.15189013 0.09206947 -0.00837639 0.17964411 -0.12515596 -0.01029433 0.1093651
0.22146143 0.123961866 -0.12221349 0.091141544 0.057084285 -0.12690349 0.16895327 -0.024313863
0.09758966 0.0019825024 -0.014596246 0.21607466 0.06523619 0.114155106 0.15180251 -0.05178593
0.15356384 0.046459123 0.18539327 0.029436357 -0.19673054 -0.020584827 0.14910915 0.0055786427
0.041560184 -0.03297096 0.1573643 0.027020186 0.0053495876 -0.026173927 0.191503 0.06576943
-0.13848981 -0.02780159 0.11044442 -0.16677566 0.011614179 0.104190454 -0.16692764 0.17697956
0.061918817 0.1432777 -0.009136665 -0.086795576 0.22518219 -0.002543475 0.15552112 0.23155582
-0.12243567 0.22336322 0.06866469 0.23444173 0.044004735 0.002663029 0.28210184 -0.1231082
-0.048817705 -0.040506393 -0.04819862 0.050717797 0.16702153 -0.079251654 0.1137406 0.17125711
0.12290941 -0.11211808 -0.0983569 0.18798867 0.06818116 -0.017383745 0.15932865 0.07026161
0.25955155 -0.084828995 -0.06852938 0.0086716665 0.07654286 0.06820378 -0.07428219 0.009525387
0.20827001 0.014699035 0.1507236 -0.27028877 0.04177821 -0.030376643 0.040769946 -0.19193195
-0.031229248 -0.041100174 0.31802425 0.13039823 -0.021023095 0.05750586 0.22713444 -0.1403341
-0.08067704 0.11308462 -0.15850034 -0.07860234 0.0003033201 0.17435351 -0.085621215 -0.11384619
0.04202251 -0.24183555 -0.008875282 -0.10597173 -0.2576628 -0.061558962 0.0020404668 -0.2508777
-0.052884243 0.027350713 -0.12321262 -0.18490086 -0.1767286 -0.020562781 -0.03423714 -0.15065761
-0.12772709 -0.0015989442 -0.10051737 -0.0903461 -0.0742822 -0.2425435 -0.2453457 -0.037088253
-0.014555796 -0.1372924 -0.26527715 0.017637964 -0.1589976 0.0787985 -0.09644444 -0.25247508

bias f4 [10]
00000000: 5560 263e 8908 483e 4e13 6c3d 9e00 8c3e
00000010: be8a cfbd 6030 003d d6a0 463e 930a 1e3d
00000020: 6861 903d 4614 d13b
0.16247685 0.19534506 0.057635598 0.2734422 -0.10133885 0.031296134 0.19397292 0.038584303
0.07049829 0.0063805906
