MQCNN-4qubits-7class-CIFAR/Models_V1/model_21.pt (torch, 119848 bytes, 23 tensors)

weights f4 [7]
000000 48 54 82 40 e9 71 b8 40 86 41 25 40 d6 5a a2 3f
       4.0727882 5.763905 2.5821242 1.2683971
000010 73 23 a6 40 eb 1f 78 40 88 43 8f 40
       5.1918273 3.876948 4.4769936

weights f4 [7]
000000 8b b3 ad 40 6f e9 49 40 04 00 a1 40 fa 8d b7 40
       5.428167 3.1548727 5.031252 5.736081
000010 c1 14 2c 40 4b ac 0b 3f c5 90 56 40
       2.6887667 0.54559773 3.352586

weights f4 [7]
000000 9c 2a cb 3f 0c 0c 3b 40 70 a3 b5 3f 7b 65 a7 40
       1.5872378 2.9226103 1.4190502 5.2311378
000010 60 e0 de 3e 75 c9 44 40 e0 a9 9d 40
       0.4353056 3.074796 4.9269867

weights f4 [7]
000000 66 73 25 3f 91 34 4c 40 5d 2d f4 3f 64 07 5a 40
       0.6462921 3.1907084 1.9076344 3.406701
000010 fb e3 1b 40 e9 98 c0 40 0f a4 b9 40
       2.4357898 6.018666 5.8012767

weights f4 [7]
000000 37 ea 81 3e 54 86 a2 3f 35 8a 8d 40 38 0a d5 3f
       0.25374004 1.2697244 4.423121 1.6643744
000010 93 27 58 40 bd 73 32 40 31 02 31 40
       3.3774154 2.788314 2.7657588

weights f4 [7]
000000 c5 32 aa 40 76 38 3a 40 1b a5 2f 40 22 b5 b5 40
       5.3186975 2.909696 2.7444522 5.678361
000010 a8 88 81 40 02 a2 3e 40 8d 9c 13 3f
       4.0479317 2.9786382 0.5766075

weights f4 [8]
000000 22 52 32 3f 27 0d 45 3f d8 2e e0 3f e3 92 16 40
       0.69656575 0.76973194 1.7514296 2.3527153
000010 d6 83 8f 3e 6a 5d af 40 ea 15 c2 40 dd 56 c4 40
       0.2803027 5.480153 6.065175 6.1356034

weights f4 [8]
000000 b8 42 4b 40 10 6f 27 40 4d 6a bd 40 29 21 ad 40
       3.1759472 2.6161537 5.919226 5.410298
000010 48 9d 77 40 46 62 86 40 8f 0b a8 40 d6 8b 16 40
       3.8689747 4.1994963 5.251411 2.352285

weights f4 [8]
000000 82 21 83 40 25 4d f9 3e eb d3 ab 40 43 d1 44 40
       4.0978403 0.4869167 5.369619 3.0752723
000010 4c 92 a8 40 38 5b 9c 40 cb 86 36 40 3f 28 32 3f
       5.2678585 4.886135 2.851977 0.6959266

weights f4 [16]
000000 5c a3 da 3e 4c 9e 67 40 9f 8d 96 40 3c 27 9d bc
       0.42702758 3.6190367 4.7047877 -0.019183747
000010 39 65 50 3f b4 6a 68 40 df cc 95 40 f1 74 9d 40
       0.81404454 3.6315126 4.6812587 4.920525
000020 f8 c4 8e 40 1e 41 64 40 38 ad 62 40 87 69 d8 3f
       4.461544 3.5664744 3.5418224 1.6907204
000030 b5 69 87 40 3e 2a e4 3f 07 a8 6d 40 a6 7d d4 3d
       4.2316537 1.7825391 3.7133806 0.10375528

weights f4 [16]
000000 f5 71 f4 3f 09 2f 0e 40 66 cf 48 3f d9 e5 62 40
       1.9097277 2.2216208 0.78441465 3.5452788
000010 e9 4f 2d 40 e2 52 70 3f 58 41 54 40 f6 bc 99 40
       2.7080023 0.9387647 3.3164883 4.8043165
000020 18 5a cc 3f 26 38 93 3d ce 51 1b 40 57 ba a3 40
       1.5964994 0.07188444 2.426868 5.1164966
000030 54 6a bf 40 3d b6 a2 3f fe f6 96 3f 0e f1 a4 40
       5.9817295 1.2711865 1.1794126 5.1544256

weights f4 [16]
000000 95 ad ea 3f 77 ae 1c 40 6f eb 7a 3d 0b 9c 3c 40
       1.8334223 2.4481485 0.061259683 2.947024
000010 f8 69 34 40 0b c6 c5 40 a9 0f aa 3f 3c 76 96 40
       2.8189678 6.180425 1.3286029 4.701933
000020 f8 53 2b 3f 2c 5b 75 40 c1 7f 9e 40 c2 31 b9 3f
       0.66925 3.8336897 4.953095 1.446831
000030 aa 59 ae 40 e2 5f b5 3f c4 40 83 3f 41 42 be 40
       5.4484453 1.4169886 1.025414 5.9455876

weights f4 [12]
000000 b3 62 d5 3f 80 ca a8 40 e1 cb b6 40 2f 7b 8e 40
       1.6670746 5.274719 5.7123876 4.452537
000010 f4 c5 33 40 30 4a 7f 40 93 49 29 40 79 d9 8f 3f
       2.808957 3.988903 2.6451156 1.1238242
000020 b7 bb 61 40 2e ad 65 40 90 cf a3 40 ea 87 c4 3f
       3.5270822 3.588695 5.119087 1.5353978

weights f4 [12]
000000 71 f7 7c 40 bc e6 c0 40 b2 01 f0 be e6 57 cb 3f
       3.9526026 6.028166 -0.46876293 1.58862
000010 1e e4 8c 3f 05 6f 12 40 12 89 36 40 6a 2d 9c 40
       1.1007116 2.288026 2.852116 4.8805437
000020 49 77 ad 40 67 36 93 40 d2 89 6c 40 25 b8 9c 40
       5.420811 4.600391 3.695912 4.8974786

weights f4 [12]
000000 b1 dd 53 40 9e 2b 86 40 e6 ee c8 40 90 cf 51 40
       3.310406 4.1928244 6.2791624 3.2782936
000010 ef fd 83 40 db 6b a8 40 dd b7 b9 40 97 12 b3 40
       4.1247478 5.263166 5.8036942 5.5960193
000020 f5 0c 70 40 e8 dc 15 40 94 70 34 40 a4 0f bb 40
       3.7507908 2.341608 2.8193712 5.8456593

weight f4 [5]
000000 26 cb a8 3f 1a 2a af 3f 8e 5f b7 3f 74 d1 af 3f
       1.3186996 1.3684723 1.4326036 1.3735795
000010 91 02 b2 3f
       1.3907033

bias f4 [5]
000000 08 7b d7 bd 47 43 68 bd 91 3f 9e 3d b8 e2 38 3d
       -0.10521513 -0.056704786 0.07726968 0.04513809
000010 b0 2c 23 be
       -0.15935016

running_mean f4 [5]
000000 c8 b9 92 bf bb 1f c8 bf 2a b6 68 3f c3 82 2e 3a
       -1.1462946 -1.5634683 0.9090296 0.0006657058
000010 83 25 99 bf
       -1.1964573

running_var f4 [5]
000000 15 f8 e4 3d f0 3a 0c 3d a8 7c f7 3d b0 f2 ec 3d
       0.111801304 0.034235895 0.12084323 0.115697265
000010 19 34 2a 3d
       0.04155359

weight f4 [32, 80]
000000 32 e3 7e bd 60 42 95 bc 73 e4 b0 3d 8c f9 3b 3c
       -0.06222839 -0.018220127 0.08637323 0.011473071
000010 2c 52 3d bd bb 39 35 3c 0d 02 ec bd 9b 4d 89 bd
       -0.046220943 0.011061127 -0.11523829 -0.06704255
000020 d7 cd bb bb 21 27 52 be 59 cd 43 be 92 ec a6 bc
       -0.005731325 -0.20522739 -0.19121303 -0.020376477
000030 2a 37 09 3e c4 2c 19 bd 84 ce a2 bc 48 e2 0c be
       0.1339995 -0.037396207 -0.019873865 -0.13758194
000040 3c b3 4c 3d c3 e4 2c 3d 3e 95 3d 3a 55 e8 05 bc
       0.04997562 0.04221035 0.00072320167 -0.008173068
000050 cc 83 0f bc 45 11 5b bd 3e 32 3f 3e ee 2a 16 3e
       -0.00875945 -0.053483266 0.1867151 0.14664814
000060 7d c5 c0 3d e1 9e 1a bd f6 5c 6e 3d 67 67 1b 3d
       0.09412668 -0.037749175 0.058194123 0.03794041
000070 c0 c3 5c 3e 00 d8 0b 3d cb 53 c3 3d 90 46 68 be
       0.21559048 0.03414154 0.095374666 -0.22683167
000080 65 a4 4f 3c db a9 36 3e 1a 27 47 3e 31 c0 35 3e
       0.012673472 0.17838232 0.1944851 0.17749096
000090 5f 29 26 3e 25 ba 07 bc e4 39 0b bd e3 9a cd 3d
       0.1622672 -0.008284126 -0.033990756 0.10039308
0000a0 1d 02 9a 3d a5 76 58 be 7f 1b 35 be a4 85 27 3d
       0.07519934 -0.2113901 -0.1768627 0.040898934
0000b0 e5 02 30 3e 2b b2 c0 3d 1a 5d b3 bd 33 e4 71 3d
       0.17188604 0.09408983 -0.08757992 0.05905552
0000c0 5a 85 17 3d 3c 75 e5 bd 23 13 1a be 9a 4e 2e be
       0.03699241 -0.11204001 -0.15046363 -0.17022172
0000d0 56 b1 d5 bb ed 6a b2 3c c4 83 2c be 6a f8 95 bd
       -0.006521384 0.021779502 -0.1684714 -0.07322772
0000e0 bb 2c 72 3d b9 e5 71 bd 63 8b 61 3d 30 a8 42 3d
       0.05912469 -0.05905697 0.05506457 0.047523677
0000f0 f4 f4 c5 3d de 79 83 3d 16 79 af bd da b9 5b bd
       0.09665862 0.06419729 -0.08568017 -0.05364404
000100 3b 4c 91 39 30 bc 74 bd f7 32 70 3d 70 ff 04 3c
       0.0002771335 -0.059749782 0.058642354 0.008117542
000110 3c a0 5d bd 02 67 91 3c ef b7 09 be bf c4 b2 bd
       -0.05410789 0.017749313 -0.13449071 -0.087289326
000120 8b eb ce bd d7 d5 bb bd d6 b7 22 be ae 70 17 3d
       -0.1010352 -0.09171646 -0.1589044 0.036972694
000130 ee 48 b5 bd 28 a6 c2 3d 98 23 8d bd 3d c0 9b 3d
       -0.08851801 0.09504348 -0.068915546 0.07605026
000140 a5 37 e5 3d 1c 48 d1 3d 1a f8 95 3d 57 53 3f 3e
       0.11192254 0.10218832 0.07322712 0.18684135
000150 56 a3 62 3d 5f 9b b6 3d 30 13 2b 3e 18 fa c4 bd
       0.05533155 0.089163534 0.16706538 -0.09618014
000160 5d fa 47 3d 0b a2 00 bc ad 8d 82 3d 4a 4b e9 3b
       0.04882275 -0.007851134 0.06374679 0.007119571
000170 76 ea bf 3d b9 31 34 be 84 de 0c be 43 0e 99 bd
       0.09370892 -0.17597093 -0.13756758 -0.07473423
000180 70 ff ed bd 84 cc 84 bc 66 a6 30 be 48 d2 e5 bd
       -0.116209865 -0.016210802 -0.17250976 -0.112217486
000190 de c3 2e bd f9 7e ac 3c 35 91 23 bd 45 25 b6 bb
       -0.042667262 0.021056639 -0.039933402 -0.005558642
0001a0 a6 de fe 3c 48 b4 c5 bd 9a da 17 be f6 0a a4 bd
       0.031112026 -0.096535265 -0.14829484 -0.08009903
0001b0 54 f8 9b bd a9 f1 55 bd 0d 2a 66 bc 2c ad 26 3d
       -0.07615724 -0.05223242 -0.014048112 0.040692493
0001c0 3a 38 c5 bd b3 d7 08 b9 d2 ae 6d bd cb 2c d5 bd
       -0.09629865 -0.00013050325 -0.05802805 -0.10408934
0001d0 2e b0 96 3d d7 68 a3 bc 5d 81 89 3c 92 0f 7a 3d
       0.07357822 -0.019947452 0.016785318 0.061050005
0001e0 03 f1 39 bc 72 59 6b bd 55 07 4c 3d bb 0e 14 3e
       -0.011348966 -0.05745835 0.04981168 0.14458744
0001f0 8d 9f 31 3e f6 e4 07 3d 33 26 cf 3d 3f c8 d0 3d
       0.1734602 0.03317734 0.10114708 0.10194444
000200 a3 fc a7 bd f0 44 00 bc 6e 87 35 bd e4 dc bd bd
       -0.082024835 -0.007828936 -0.04431861 -0.09270647
000210 ad 04 47 bd aa 9f 84 3c 92 b5 f1 bc cd 50 af 3c
       -0.048588444 0.016189415 -0.029505525 0.021400834
000220 a9 5f 25 3e 79 85 25 3e 2b 03 ea 3d 4e dc 3c 3e
       0.16149773 0.16164197 0.114263855 0.18443415
000230 88 49 ea 3d ea bd 46 3e d7 d6 11 3e ff 6b 10 3e
       0.11439806 0.19408384 0.14242111 0.14103697
000240 52 02 94 3b 01 b5 de 3d 22 5e a3 bc ba 2d 13 3e
       0.004516878 0.108743675 -0.019942347 0.14372912
000250 80 5e 86 bd 0e a8 70 bc df 29 43 bd 56 dd 6d 3d
       -0.06560993 -0.014688505 -0.047647353 0.05807241
000260 d8 68 08 be 14 c0 f6 3d 58 5b 48 3e f8 54 c6 3d
       -0.13321245 0.12048355 0.19566095 0.09684175
000270 94 40 10 3d c9 78 05 3e c5 08 19 be 53 39 04 be
       0.035217836 0.13034357 -0.14944752 -0.12912492
000280 88 be 5f 3d be 7c d7 3d a7 61 91 3d 31 19 b4 bb
       0.054625064 0.105218396 0.07098704 -0.005496167
000290 51 33 c6 3d b4 33 a8 3c f9 e2 4c 3c d0 d4 94 3c
       0.096777566 0.020532466 0.012505286 0.018167883
0002a0 a5 ef 29 3d 5b 3a 1e bd 9e 85 f8 3c 36 7a 3a bd
       0.04148831 -0.03862987 0.030337151 -0.045526706
0002b0 03 f2 c4 bd f3 a9 6d 3d 2b c0 0c 3e c8 1a 61 bd
       -0.096164726 0.058023404 0.13745181 -0.05495718
0002c0 47 32 9a bc bf ec 09 3d f2 e8 5a be 10 88 10 be
       -0.018822802 0.033673044 -0.21377924 -0.14114404
0002d0 15 55 b1 3c 2e 16 9f 3d 0f fa fe bd a5 53 d0 3c
       0.021647016 0.07767902 -0.12450039 0.02543051
0002e0 26 b9 44 3d 42 2b 89 bb 21 30 91 3d fb 88 31 3d
       0.048028134 -0.004186065 0.07089258 0.043343525
0002f0 fe d4 a2 bd eb 88 2e 3d 7f 75 11 bd ec c4 24 3c
       -0.07950781 0.042611044 -0.035512444 0.010056715
000300 0b d0 76 bd e9 ca ef bd ad cf ca bc 05 f3 06 be
       -0.060257 -0.11708624 -0.02475723 -0.13178642
000310 da 61 57 bd 3e b6 ec bd bf 33 18 be 35 53 aa bc
       -0.052583553 -0.115581974 -0.1486349 -0.02079163
000320 12 36 61 bd 53 5a fb 3c a1 1c d6 39 60 07 d6 3d
       -0.054983206 0.030682718 0.0004083859 0.104506254
000330 13 c7 5d be 2e 34 5e bd a5 da 48 3d 75 2e 5c be
       -0.21657972 -0.05424898 0.04903664 -0.21502097
000340 f3 5d be 3d 46 cd c9 3d 21 af 9d 3c 84 7e 82 bd
       0.09295263 0.09853606 0.019248547 -0.06371787
000350 b4 e1 4e 3e b7 d2 8c 3d 88 ca 10 bd c9 83 f7 3d
       0.20203286 0.06876128 -0.0353494 0.12085683
000360 c5 71 b4 bd 10 b3 45 3d c9 b0 3a bd 2a 6e 26 3e
       -0.08810762 0.04826647 -0.04557875 0.16252962
000370 62 2b 9c bd 40 98 86 bd d7 18 e2 3d 01 89 a4 bd
       -0.07625462 -0.06572008 0.11039894 -0.08033944
000380 c2 07 14 3c 93 c3 ee bc 48 fe 51 3c e0 e7 10 3d
       0.009035053 -0.029145991 0.012816973 0.035377383
000390 7a 46 aa 3d ca e3 c0 bc 49 64 84 bd 9a d0 00 3c
       0.083142236 -0.023546118 -0.064644404 0.0078622345
0003a0 0a 16 20 bd bf 14 bf 3c 94 02 02 bd 3d 02 09 bd
       -0.039083518 0.023325322 -0.03174074 -0.0334494
0003b0 08 61 7a 3c ea 88 a3 bd 65 38 af bd 28 86 05 be
       0.015281923 -0.07985099 -0.08555678 -0.13039458
0003c0 b5 6f 1f ba 8d 8e 52 3e c6 a9 12 3e 4b 33 31 3e
       -0.00060820143 0.20562191 0.14322576 0.17304723
0003d0 c4 ed 82 3d 22 8c e6 3d f1 90 10 3c d1 2d e3 bb
       0.063930064 0.11257197 0.008823619 -0.006932952
0003e0 ba 91 d2 bd 4e aa 77 3d 62 0a 4a bc aa 9a f1 bd
       -0.102817014 0.06046515 -0.012331577 -0.11797078
0003f0 4e f6 9a bd 53 7d 4a 3b 2c 8f 70 3d f8 93 91 3d
       -0.0756651 0.0030897453 0.05873029 0.07108301

bias f4 [32]
000000 56 ce cd 3c c4 64 e2 3d c5 52 a5 3d 69 a7 14 3e
       0.025122803 0.11054376 0.08072428 0.14516987
000010 5b b6 2b 3e d7 ce 82 3d 36 f8 40 3d f4 71 b2 3d
       0.16768782 0.06387108 0.047111712 0.08713141
000020 8d ca b3 3c 33 82 72 3e f4 82 f5 3d 9b 8e 17 3e
       0.02194717 0.2368248 0.11987868 0.14800493
000030 58 11 92 3e e9 f8 2a 3e b1 60 a6 bb 09 fd 31 3e
       0.28528857 0.16696514 -0.0050774445 0.17381682
000040 f5 e6 45 3d 35 57 31 bd 15 ef 31 3e c9 47 2f bd
       0.04831596 -0.043296058 0.17376359 -0.04279307
000050 ff 1d 0b 3e 8a 5b 89 bc a8 c0 79 3e f8 95 14 3e
       0.13585661 -0.016767282 0.24389899 0.14510334
000060 f7 e3 9e bd 04 04 ef 3a c7 aa f9 3c 75 41 fa 3d
       -0.077583246 0.001823545 0.03047694 0.12219516
000070 d9 e7 05 3e fd b8 a5 bd 7d cd f7 bc ae fc c8 3d
       0.13076724 -0.08091924 -0.030249352 0.0981382

weight f4 [10, 32]
000000 cc 77 95 3c 90 0e 4f 3e 17 6b 75 3e 16 bb 5c 3e
       0.0182456 0.20220399 0.23966633 0.21555743
000010 f6 3c a5 be 36 47 26 3d ad 96 f3 3d 62 92 7b be
       -0.32273072 0.040595256 0.118939735 -0.2456756
000020 09 b7 ff bd e8 0e a0 bb 3b 83 d8 3d 0a da 69 3e
       -0.12486083 -0.0048845895 0.10571905 0.22837082
000030 52 64 0c be c0 2c 31 be 40 28 82 bc c6 aa 2e 3e
       -0.13710144 -0.17302227 -0.015888333 0.17057332
000040 01 64 08 be 5d 34 97 3e 4d 18 73 3d 57 ad de 3d
       -0.13319398 0.29532138 0.059349347 0.10872906
000050 28 66 90 be b9 25 f3 3d 88 12 a7 3e ae 05 26 3d
       -0.2820294 0.118724294 0.32631326 0.04053276
000060 29 67 0f bf 29 65 5a bd 60 6a bf 3d 87 67 14 3e
       -0.56016785 -0.05331913 0.09346461 0.14492618
000070 43 f5 3e 3e d5 da 12 bd 8b e5 8b be 6d 52 8b be
       0.18648247 -0.035853226 -0.27323565 -0.27211323
000080 40 ab 40 3e 94 1e 74 3e 8e 3d ad be 12 c9 82 bd
       0.18815327 0.2383979 -0.33836025 -0.06386007
000090 b9 13 24 3d 4b 23 62 be 13 c3 88 be 7a 3e 44 3c
       0.04005787 -0.22083776 -0.2671133 0.011977786
0000a0 95 3f c2 bd c7 5b 75 3e c7 36 89 be 1b 4a aa 3e
       -0.094847836 0.23960792 -0.26799604 0.33259663
0000b0 79 e7 02 3e 65 7d bd 3b f5 cf 4d be 88 6f 87 3e
       0.12783612 0.0057827705 -0.2009886 0.2645228
0000c0 90 e0 44 3e ea 89 69 be 45 63 88 be 39 a9 23 be
       0.19226289 -0.22806516 -0.26638237 -0.15982522
0000d0 53 0e 3e bd 4e 55 53 3d 44 4a b5 bb 2d 6b aa be
       -0.04640038 0.051595025 -0.005532535 -0.33284894
0000e0 66 57 f4 bd 75 86 58 3e 6c 72 cb 3e d4 e6 99 3d
       -0.119307324 0.21145041 0.39735734 0.0751473
0000f0 df f2 83 3e 02 d9 a6 3e b4 58 0f be 14 37 3e 3e
       0.25771233 0.3258744 -0.13998681 0.18575698
000100 10 27 52 bd 19 d6 1a be 59 73 7a bd f4 31 27 bd
       -0.051306784 -0.15120734 -0.06114516 -0.040819123
000110 d4 cc 6c 3d 63 2b 7f 3e 8c 3e 55 bb cc 4c 8d 3d
       0.057812527 0.24918894 -0.0032538502 0.068994135
000120 6a e8 0b 3e 33 93 83 3e 6f 9b ac 3d 9a a0 6f bd
       0.13662878 0.25698242 0.08428084 -0.05850277
000130 a5 76 77 be a9 01 32 3e 91 f5 66 3e f4 7b 1d 3e
       -0.24166353 0.17383446 0.22554614 0.15379316
000140 71 18 1e be a4 17 13 3e ab a9 e1 3c 03 61 b2 3e
       -0.15439011 0.14364487 0.027546724 0.3483964
000150 c8 8e b4 bd 26 ae aa 3e a8 87 5a 3e 4a bd 96 3e
       -0.08816296 0.3333599 0.21340811 0.2944129
000160 58 91 3b bc 86 d1 25 bd 79 ff 94 bd 69 fd f3 bd
       -0.011448227 -0.04048302 -0.0727529 -0.119135685
000170 1c 6c 03 3e 2b a8 81 be 01 d9 98 3d 5f 14 bb bd
       0.12834209 -0.25323614 0.07463265 -0.09134745
000180 5e 53 16 be 98 f5 de 3d b0 a9 ba bd 2e 5a 1c be
       -0.1468024 0.10886687 -0.091143966 -0.15268776
000190 8f a2 0e bc e1 e2 cf 3c 09 99 ed 3d db f3 ce 3d
       -0.008705749 0.025376739 0.11601455 0.101051055
0001a0 45 5a 7c 3e 6d d7 de bd c8 16 11 bb 06 bb d0 bd
       0.2464381 -0.10880933 -0.0022138823 -0.10191922
0001b0 5b 70 80 3e 0c ee 62 3e 4a 35 48 bd 0d 61 c9 bd
       0.2508572 0.2216112 -0.048878945 -0.09832964
0001c0 c6 65 8c 3e 13 5b 51 3e c5 40 cb 3d 6a 28 c5 bd
       0.27421397 0.20444898 0.09924463 -0.09626849
0001d0 69 36 6e 3e 9c ea 0a be ae 7c 4d bd ad 6c 42 3e
       0.23262943 -0.13566059 -0.050167732 0.18986769
0001e0 ff 4a a6 3e 80 e6 35 3e 5a 06 17 be 0e 20 7b 3e
       0.32479092 0.1776371 -0.14748517 0.24523947
0001f0 84 42 2b 3d d7 fe 33 be 6f 5c 89 3e ac 8d e8 3c
       0.04181148 -0.17577682 0.26828334 0.028387867
000200 64 2a 5c 3d 14 e8 9f 3d 40 77 8e bc b0 00 96 3e
       0.053751364 0.07807937 -0.017390847 0.292974
000210 45 c8 55 3d a4 c8 17 3e 45 9f 3f 3e 35 35 c9 bd
       0.052192945 0.14822632 0.187131 -0.098246016
000220 0c 0c 38 3e 71 e6 cb 3c 35 86 65 3e 4b 6c 2e 3d
       0.17973346 0.024890156 0.22414477 0.042583745
000230 46 7a 86 be 30 33 91 bd f5 38 60 3e 36 2a 7b 3d
       -0.26265162 -0.07089841 0.21896727 0.061319552
000240 31 53 ed 3d bb 8a 8d bd 11 8b 04 3e 95 da bf 3d
       0.11588133 -0.06911226 0.12943675 0.09367863
000250 71 c3 5e bd 2d e3 a9 bd 84 f8 62 3e de 83 85 3d
       -0.054385606 -0.082952835 0.22165114 0.06519292
000260 34 bc 73 be c7 aa 36 be 55 ba 28 3e 1c 24 77 be
       -0.23802263 -0.17838584 0.1647733 -0.24134868
000270 56 96 35 3c f5 e1 d8 3d 12 65 a3 be 1f f4 5a 3e
       0.011083206 0.10589973 -0.31913048 0.21382187
000280 7b be 55 3c 66 7f ef 3d 51 33 db 3c d7 0b 31 be
       0.013045902 0.11694221 0.026757868 -0.17289673
000290 4e 55 53 3e 36 b6 49 bd 5f a2 38 3e 16 15 95 3e
       0.2063801 -0.049246036 0.1803069 0.2911765
0002a0 d1 44 07 be 6f ae 8d 3e e7 6d ac 3d 3e 32 60 3e
       -0.13209845 0.27672145 0.084194 0.21894166
0002b0 6b ce f1 3d 6b 9b 7e 3d ac 24 9b 3e 4c a2 4b be
       0.11806949 0.062159937 0.30301416 -0.1988613
0002c0 01 71 25 bb 97 d9 9e bd a2 1c 23 3b 2c fa a1 3d
       -0.0025244358 -0.07756346 0.0024888893 0.079090446
0002d0 a8 49 5f 3e 15 0d 3a be 1e d2 87 3d c7 9a 39 3e
       0.21805441 -0.18169053 0.066318735 0.18125449
0002e0 46 b0 97 3e 13 30 14 be 2f e0 14 be c6 2e 88 3e
       0.29626673 -0.14471464 -0.14538644 0.26598185
0002f0 96 7c aa bb 8b d5 04 bd 82 ea 77 3e c1 ad 88 3d
       -0.00520284 -0.032430213 0.24210551 0.06673766
000300 1e 45 b4 3e b8 fa bd bd 88 1c aa bd 8e 9a 5f bb
       0.35208982 -0.092763364 -0.08306223 -0.0034119221
000310 65 87 18 3e e2 82 ce 3c 9e a0 e2 bd ee ec d1 3c
       0.14895399 0.025208894 -0.110657915 0.025625672
000320 25 9a 71 3e 61 02 42 bd 2b 66 26 3e 40 3a 8b be
       0.23593958 -0.04736555 0.16249911 -0.2719288
000330 1b f3 89 3d 94 cd b7 3c 0d b9 60 bd d8 a9 8c be
       0.06735822 0.022436894 -0.05486398 -0.2747333
000340 e1 dc a1 3c 42 88 98 bd d9 50 c2 3e b6 15 59 3e
       0.019758644 -0.07447864 0.37952307 0.21199688
000350 8e 52 f7 3b c2 2f 05 3e b4 fa 60 3e 67 a5 5f be
       0.007547683 0.130065 0.21970636 -0.2184044
000360 c8 6b 06 be f3 ed 5a 3e 60 1c 8b be 0f 9e 06 be
       -0.13127053 0.21379833 -0.27170086 -0.13146232
000370 7a 44 12 3d c9 26 59 3e 8f 1b 0e bb f7 47 13 be
       0.035709836 0.21206202 -0.0021683907 -0.14382921
000380 a6 c6 ab 3a 3f 2c 8d be 55 34 25 bd bf 39 2b be
       0.0013105466 -0.2757282 -0.04033311 -0.16721247
000390 3c 41 93 be 5b 4a d4 bd 57 9e 7c bd 5d 6f 9b be
       -0.28760707 -0.10365745 -0.061674442 -0.303584
0003a0 20 35 c9 bd c5 0d 47 bc 86 1f 32 be 6d d2 70 be
       -0.09824586 -0.012149279 -0.17394838 -0.23517771
0003b0 77 f0 62 be 6c 8a 92 bd bf 9a 93 bd 63 85 4b be
       -0.22162043 -0.07155308 -0.0720725 -0.19875102
0003c0 5d f9 53 be f5 23 83 bd 0a 36 41 be 59 9b 2d be
       -0.20700593 -0.06403343 -0.1886827 -0.16953792
0003d0 36 2f e5 bd 95 04 ab be 9d 9e 99 be 29 06 ac bd
       -0.111906454 -0.33401933 -0.30003825 -0.083996125
0003e0 5c c6 f0 bd 93 c3 3d be 7b 9f b8 be 44 02 52 bd
       -0.11756584 -0.18531637 -0.36059174 -0.051271692
0003f0 a0 47 59 be 1c 3d 42 3d a8 a8 13 be 6d f1 95 be
       -0.21218729 0.04742156 -0.14419806 -0.29285756

bias f4 [10]
000000 db ba 39 3e 91 b6 54 3e 6d 07 72 3d 24 44 92 3e
       0.18137686 0.20772769 0.059089113 0.28567612
000010 2d 5e a3 bd ef 39 d8 39 c4 50 6b 3e 64 f9 70 3c
       -0.07976947 0.00041241894 0.22980028 0.014707897
000020 2c 5d 3f 3d b5 df a3 bc
       0.046719715 -0.020004133
