MQCNN-4qubits-7class-CIFAR/Models_V1/model_7.pt (torch, 119819 bytes, 23 tensors)

weights f4 [7]
00000000: 9168 8240 1514 b940 d83f 2a40 faf8 a03f
00000010: 38db a140 db46 7540 c17d 8f40
4.0752645 5.7837014 2.6601467 1.2575982 5.05801 3.8324497 4.484101

weights f4 [7]
00000000: 4a9f ad40 6c95 4e40 d71b aa40 e368 b740
00000010: 26f8 3040 b5e6 b73e 6ba7 5640
5.4256945 3.22787 5.3158984 5.7315536 2.7651458 0.35918203 3.3539684

weights f4 [7]
00000000: 654b ca3f 284d 3240 0354 a33f 0907 a740
00000010: 0bfb b13e 363a 3d40 9708 9e40
1.5804259 2.7859592 1.2760013 5.219609 0.34761843 2.956678 4.9385486

weights f4 [7]
00000000: 4213 223f bcf4 4040 e91f 0540 9812 5a40
00000010: 1a7a 0f40 5178 c040 9d2e b740
0.63310635 3.0149374 2.0800726 3.4073849 2.2418275 6.014687 5.72444

weights f4 [7]
00000000: 7e37 813e 49d3 b13f 5da0 8f40 ead6 d43f
00000010: 5988 6440 c608 3340 c890 2e40
0.2523765 1.3892604 4.4883256 1.6628087 3.570822 2.7974105 2.7275867

weights f4 [7]
00000000: dc8a aa40 5099 3e40 a9e7 2d40 f8e6 b540
00000010: 3821 7e40 9d34 3f40 7ac9 193f
5.3294506 2.9781075 2.7172644 5.6844444 3.9707775 2.9875863 0.60073054

weights f4 [8]
00000000: 4a81 2f3f e7af 8b3f 6311 c23f b9e6 1740
00000010: d3aa c23e 9134 b540 5dbf c140 275a c440
0.68556654 1.0913056 1.5161556 2.3734572 0.38020954 5.662667 6.05461 6.136005

weights f4 [8]
00000000: 0d62 4a40 ec5e 2840 12d9 bc40 b968 ac40
00000010: e40e 8440 4a87 8d40 901d a840 e18c 1640
3.1622345 2.6307936 5.901498 5.3877835 4.1268177 4.422765 5.2536087 2.3523486

weights f4 [8]
00000000: 5338 8240 d6cb 1f3f b9f9 aa40 1228 4540
00000010: 1085 a940 9109 9840 e219 3840 54af 323f
4.0693755 0.62420404 5.3429837 3.0805707 5.297493 4.751168 2.8765798 0.6979878

weights f4 [16]
00000000: a163 eb3e e245 6440 59a7 9540 9cd1 4f3d
00000010: ebcf 6b3f 783d 6440 32ae 9640 5996 9940
00000020: e4c3 8e40 fdc4 6540 bebc 6540 2f5a e13f
00000030: 9fd6 8740 ec60 e33f fdbc 6b40 ef7e ca3d
0.45974448 3.5667653 4.676678 0.05073701 0.9211413 3.5662518 4.708764 4.799603
4.4614124 3.5901482 3.589645 1.7605647 4.244949 1.7763953 3.68341 0.09887492

weights f4 [16]
00000000: 94c8 0040 d12c 1040 ad7f 3d3f abd9 6640
00000010: 1ed6 3240 a6c0 683f e2ec 5c40 d111 9d40
00000020: a2f7 cc3f 96f2 e73d 3b05 1740 d526 a640
00000030: 250f be40 cbf8 a13f 1147 a43f 092c a540
2.0122423 2.2527354 0.7402294 3.6070354 2.7943187 0.9091896 3.4519582 4.908425
1.6013072 0.113255665 2.3596942 5.19224 5.9393487 1.265405 1.2834188 5.1616254

weights f4 [16]
00000000: e021 e83f a13f 1c40 ccd1 2f3d 7a84 3e40
00000010: 600d 3340 27e3 c540 1869 ab3f 5db7 9540
00000020: ee02 2e3f d933 7540 6019 9f40 2006 b83f
00000030: 3c96 ae40 950b b33f 4fbe 893f 8a64 be40
1.8135338 2.4413836 0.042924687 2.9768357 2.7976913 6.1839786 1.3391447 4.678633
0.6797322 3.8312895 4.9718475 1.4376869 5.455839 1.398791 1.0761203 5.949773

weights f4 [12]
00000000: fba6 e43f 75d6 ab40 cb83 bc40 8356 9040
00000010: 219f 3540 32ab 7e40 6a41 2740 7446 783f
00000020: 5533 6240 d150 6540 ccc4 a340 dbb7 c23f
1.7863458 5.369929 5.891088 4.5105605 2.8378375 3.979199 2.6133676 0.969825
3.534383 3.5830576 5.117773 1.5212358

weights f4 [12]
00000000: d813 7d40 64a7 c040 401b 61be d9bc c23f
00000010: fa12 693f 3e15 1540 e45f 3440 b874 a140
00000020: a27a ad40 2ff4 9340 0cce 6d40 c997 9c40
3.9543362 6.0204334 -0.21983051 1.5213882 0.9104458 2.3294215 2.8183527 5.045498
5.42122 4.6235576 3.715701 4.8935285

weights f4 [12]
00000000: 36af 5640 c8f5 8540 705a c740 33b2 4b40
00000010: 67d5 8540 cfe3 a840 9033 b940 c0c9 b140
00000020: 58fa 6f40 3fbb 1640 6e6c 3440 e5b7 ba40
3.354444 4.1862526 6.2297897 3.1827514 4.1823 5.2778087 5.7875443 5.5558777
3.7496548 2.3551786 2.819118 5.834948

weight f4 [5]
00000000: 61a7 943f 33d2 983f 3d75 9b3f fdd1 983f
00000010: c6ea 973f
1.161358 1.1939148 1.2145153 1.1939083 1.1868522

bias f4 [5]
00000000: 63c7 93bd 6933 0dbd 0d3a c13d 0288 ee3c
00000010: 4f1a bbbd
-0.072157644 -0.034472857 0.094349004 0.029117588 -0.09135877

running_mean f4 [5]
00000000: 7aac a9bf ff81 b9bf a15d 1f3f 63a4 93bd
00000010: cc18 a0bf
-1.3255761 -1.4492797 0.6225224 -0.07209089 -1.2507567

running_var f4 [5]
00000000: 2503 023e 9313 423d 394b 6c3e e1dd 083e
00000010: c6cd 6d3d
0.12696512 0.04738195 0.2307557 0.1336589 0.05805757

weight f4 [32, 80]
00000000: eee2 0cbd 51dc 2fbd 872b b83d 4546 dd3c
00000010: a18a 46bd cae4 49bd 90ce c1bd f915 52bd
00000020: 87d0 aebc b9a6 4bbe 5869 d8bd bdcf d5bc
00000030: 0857 2e3e e0b3 0ebd b6b5 593d fe1e 92bd
00000040: 48b4 d03c ade4 943c 4967 343c ac14 83bc
00000050: 8058 bdbc 56d8 57bd fd6f 123e bef6 e83d
00000060: 9368 a43d e308 5fbd fa9e 33bd 97bc 313c
00000070: cbe0 553e 95ec f1bc e601 43bb f313 04be
00000080: 17ac 24bd 32c4 df3d 58d0 e43d 7e8a da3d
00000090: e96c c73d 2c57 0abd 4947 7dbd 6132 55bc
000000a0: d142 2e3d 8062 1dbe 68f7 8ebd ebec 83bd
000000b0: 4876 1a3e f962 0d3e 4c3c 18bd 9d82 7e3d
000000c0: 27cc 03bc 7d34 00be 226a 0abe 90d9 1fbe
000000d0: 023f 32bd 459f d83c 7dca 89bd 8379 24bd
000000e0: 070c e4bc 1c66 48bd 82dd c83c 79a9 a33c
000000f0: aba9 b23d 6c65 4f3c 6fa1 95bd 589a edbc
00000100: af11 873d fdf2 65bd 2496 703d 86a1 01bd
00000110: 1306 54bd 729e 14bd e968 8ebd 1975 09be
00000120: 7ef0 b0bc bf59 b4bd a9aa 72bd 45e1 063d
00000130: d2ad 0ebd c746 f53b dfc7 e8bd a69d 3f3c
00000140: 6168 0b3e b090 d43d 3674 a53d 4047 173e
00000150: b37d 583d f539 c33c 3e77 053e 61dd 54bd
00000160: 9362 c63c 7b40 95bd 1906 5f3d 2551 e4bb
00000170: 5b57 b03d d01b 23be 550b e8bd c7aa 4dbd
00000180: e651 c1bd 5ae6 3e3b 61df dfbd 705b 89bd
00000190: e9e4 8abd b02f ed3b 6b41 483c 8a86 1f39
000001a0: 837c 873d 4a85 e3bd cd8b 9dbd 7a34 a8bd
000001b0: 6cb0 9f3a 8951 00be 24f1 253c bc2e 9d3d
000001c0: 2013 b7bd cf64 103c f866 a53c 7af8 84bd
000001d0: ffda bb3d 4910 48bc 8e2a db3c f140 083e
000001e0: 6528 bd3c 257e ddbd 6533 a23d 765e d23d
000001f0: efe4 1f3e 2bc7 6b3d 56d1 043e 78dd be3d
00000200: c793 d9bc f55d b03c c038 91bc 6887 82bd
00000210: 150d 00bd 39f3 a63d 1c9c b63d 13ed 3e3d
00000220: ca24 373e 01d6 233e 60a3 e13d ac5c c73d
00000230: 3aca a93d 7d75 0e3e 9140 f73d 8383 be3d
00000240: a10c 353d 085c d53d d0f1 b13b 739c cb3d
00000250: bda8 a9bc 5df2 ea3c c70d ebbb 31d8 a43d
00000260: 9a11 edbd 8bbf ed3d 55d6 533e e058 e83d
00000270: b0a3 da3c 249b c63d 0fd1 afbd da68 01be
00000280: c7e0 02bd 832f 833d eb13 623d c040 40bd
00000290: 7247 913d d76d bd3c 5fc4 b93d 57d3 a33c
000002a0: 61e2 9e3d 372f 39bd eee7 88bb 52d4 15bc
000002b0: 2d88 9fbd 2b63 a33c 3c74 a63d 8988 03bd
000002c0: 0cba 40bc 3406 eb3c 85b2 3dbe 3467 a6bc
000002d0: 3f33 3bbd 8609 b3bc 48c8 babd a545 463d
000002e0: fd2e 303d 650f 8cbc 66eb 84ba 3983 243d
000002f0: 7271 50bd 2371 003c f48a 67bd dbe5 45bc
00000300: 758f 9dbc db0c cebd 5e1a 4d3d 133a 9dbd
00000310: 2d8e 67bd 8996 03be d374 11be ef6e 94bd
00000320: 0942 0dbd 4272 aa3d 8a66 3d3d 9873 293d
00000330: 325f 2cbe a1a2 29bc 4b03 823d c1b7 11be
00000340: 41d7 9a3d c429 c53d 0391 b83c 0fdf 39bc
00000350: f6a6 063e e181 223d 6ec6 633b 38b3 b53d
00000360: 77ce f1bc e536 743d 2477 b83b f17a d13d
00000370: ac9c 11bd e388 d6bd 5bb8 c53d ef40 32bd
00000380: 1a0e c7bc 0e7a bbbc c7dd bd3c 7fe1 f0bc
00000390: 3529 c33d 678e a1bb b353 0b3c 54bc 323c
000003a0: 816d f0bc 49e0 6d3d d202 fcbc a183 2bbd
000003b0: 5b81 313d 5169 153d 7a7b 4ebd a6e2 38bd
000003c0: c6c4 68bd 4b3b 223e 74a2 b93d 19c6 c03d
000003d0: 3879 043d a6a1 e23d 97b3 663d be8f d03c
000003e0: 943c f3bd 70c1 203b 850e eebb 5cae cbbd
000003f0: eee1 bc3c 6ca9 49bd 04b4 ea3c bdf9 593d
-0.034396105 -0.04293472 0.08992677 0.027011046 -0.04847205 -0.049290456 -0.09463227 -0.051290486
-0.021339668 -0.19887818 -0.10566968 -0.026100034 0.17025387 -0.03483951 0.05315181 -0.071348175
0.02547659 0.018175447 0.011010953 -0.016001068 -0.02311349 -0.05269655 0.14300533 0.11375187
0.080277584 -0.054451834 -0.043852784 0.010848186 0.20886533 -0.029531756 -0.002975577 -0.12898235
-0.04020318 0.10926093 0.11172551 0.106709465 0.0973757 -0.03377454 -0.06183556 -0.0130125
0.04254419 -0.15369606 -0.06980783 -0.06441673 0.15084183 0.13807286 -0.03716688 0.06213628
-0.008044279 -0.12520023 -0.13517049 -0.15610337 -0.04351712 0.026443133 -0.06728075 -0.040154945
-0.027837766 -0.048925504 0.024519686 0.019978272 0.08723768 0.012658458 -0.07306182 -0.02900426
0.0659517 -0.056139935 0.058736935 -0.03164818 -0.051763605 -0.036283918 -0.06953604 -0.13423575
-0.02159905 -0.0880618 -0.059244785 0.032929678 -0.034833737 0.007485244 -0.113662474 0.011695301
0.13614036 0.103791595 0.08078806 0.14773273 0.05285425 0.023831347 0.13033769 -0.051968936
0.024216926 -0.07287689 0.054449175 -0.006967681 0.08610412 -0.15928578 -0.113302864 -0.050211694
-0.09439449 0.0029129 -0.10931278 -0.067068934 -0.067819424 0.007238351 0.012222628 0.00015213541
0.066155456 -0.11109407 -0.076926805 -0.08213134 0.0012183315 -0.12531103 0.010128293 0.076749295
-0.08939195 0.008813097 0.0201907 -0.06492706 0.091726296 -0.012210914 0.02675369 0.13306023
0.02309055 -0.10815076 0.07919959 0.10271923 0.15614675 0.05756299 0.1297048 0.093195856
-0.026559724 0.021529177 -0.017727256 -0.06373483 -0.031262476 0.0815186 0.08916494 0.04661281
0.17885128 0.15999605 0.110174894 0.09734473 0.08290525 0.13912006 0.12072862 0.093024276
0.044201497 0.10417944 0.0054304376 0.0994195 -0.020710343 0.028680021 -0.0071732732 0.08049048
-0.11575623 0.116087995 0.2068723 0.113450766 0.02668938 0.096975595 -0.08584797 -0.12637654
-0.031952646 0.064055465 0.055194777 -0.04693675 0.07093705 0.023123665 0.09070658 0.019998236
0.07758022 -0.045211043 -0.004178039 -0.009144859 -0.07789645 0.019944748 0.08127639 -0.032112632
-0.011763107 0.028689481 -0.18525131 -0.020312883 -0.04570317 -0.021855127 -0.09120232 0.048406262
0.04301356 -0.017097184 -0.0010140955 0.040164206 -0.05088944 0.007839474 -0.056529 -0.012078728
-0.019233445 -0.10061046 0.050073974 -0.076770924 -0.056532074 -0.12850393 -0.14204721 -0.072477214
-0.034486804 0.08322574 0.046240367 0.041370004 -0.16833189 -0.010353715 0.06348284 -0.14230253
0.07560588 0.09627107 0.022530084 -0.011344685 0.13149628 0.039674643 0.0034755724 0.08872074
-0.029517395 0.059622664 0.005629437 0.10228527 -0.035549805 -0.10475328 0.09654304 -0.043518957
-0.024298716 -0.022885349 0.02317704 -0.0294044 0.09529344 -0.0049303058 0.008503842 0.010909159
-0.02934909 0.058075223 -0.030763064 -0.041873578 0.043336254 0.03647739 -0.050410725 -0.045138024
-0.056828283 0.15842931 0.090641886 0.09412784 0.032342166 0.11065988 0.056323614 0.025459167
-0.11876789 0.002452936 -0.0072649145 -0.09945366 0.02305695 -0.04923384 0.028650291 0.053216685

bias f4 [32]
00000000: 0d94 a83c 95ad 853d f0da 763d 6516 ca3d
00000010: 54de 143e 54fd 893c 225f e83c 45a6 ae3d
00000020: 7a58 4bbb 8a01 673e 6bff 353d 7269 363e
00000030: c1b8 6a3e ba54 063e 5074 f93a 71a8 373e
00000040: 2311 603d e819 19bd 21b5 e23d 48cf 8cbc
00000050: cac0 093e c565 24bd 8274 4a3e f35d f53d
00000060: 1e18 17bd f22e 973c c781 533d fb7d 0a3e
00000070: a514 a83d 6b6d cfbd f179 09bd 3cf9 533d
0.020578409 0.06527249 0.06026739 0.09867553 0.14537936 0.01684443 0.028365675 0.08527807
-0.0031028078 0.22559181 0.04443304 0.17813662 0.2292204 0.13118258 0.0019031856 0.17935349
0.054703843 -0.03737822 0.11069704 -0.017188683 0.1345245 -0.040136117 0.19771007 0.1198081
-0.036888234 0.018455002 0.051637437 0.1352462 0.08207063 -0.10128292 -0.033563558 0.05175136

weight f4 [10, 32]
00000000: 53e8 84bd 5149 483e 0a6f 413e db75 2b3e
00000010: e4fe 14be 7eb3 f6bc cfbe bb3d 8800 32be
00000020: 0b30 f0bd 7874 023d 54db 5e3d 39d3 803e
00000030: a48a cfbd 1555 b1bd 9166 92bc b3e7 3f3e
00000040: 6bba bcbd 1dfc 613e f699 9a3c d6e4 eb3d
00000050: f802 64be d9ca e93d cb4f 2c3e fdbf 1a3d
00000060: f8a0 b2be f6ff 04bd 034f aa3d a19f 2b3e
00000070: 1c7b 453e 3bfb 56bd b410 37be a6a4 01be
00000080: 65ff 033e 0eba 553e 0d83 7abe 30ec ffbc
00000090: ce2d 903c 513d e8bd 9f83 41be 3385 393c
000000a0: 2dfc b9bd 5ede 463e c074 58be 1863 6c3e
000000b0: 98c3 ee3d 49dc f7bc 9dd0 05be 5c21 663e
000000c0: 1197 553e dd4b 0abe 4565 26be 3038 abbd
000000d0: e850 42bd 579d ad3d 9b0d 7aba 2f2d 7fbe
000000e0: 8ce7 e4bd 80bd 223e 36fc a73e 16d0 ce3d
000000f0: 9dc7 483e db05 723e 7b4a 56bd 98df 343d
00000100: e419 8abc ec62 dfbd 3517 9bbd 6f76 62bd
00000110: bb3c 8f3c be2a 723e cb71 233c 3029 493d
00000120: 423b 173e 7002 4d3e 4bd0 ab3d 0544 19bd
00000130: 14d3 13be b412 163e 212b 393e a1c2 d83d
00000140: 9be3 a2bd aee9 f03d c421 b93c 47a6 9b3e
00000150: 4815 79bd 91ea 593e a045 663e 094d 883e
00000160: fa00 7abd 8f0f efbc c34f 83bd 1716 33bd
00000170: 2f70 e03d 560b 17be e8ae 673d 9fdb 4bbd
00000180: b169 d6bd 0241 063e b17f afbd c485 debd
00000190: 4d27 91bc 30a4 7cbc d457 a73d fd74 ad3d
000001a0: 7660 813e 43b0 a7bd 2ae1 fc3c ed03 59bd
000001b0: 7493 443e c1b3 3a3e f945 2abd 66e2 c1bd
000001c0: 4123 823e 735c 263e e1ac cf3d 2ee3 7bbc
000001d0: 5af8 453e 1f79 0cbe 0937 7abc b3ac f43d
000001e0: 2848 803e 0988 083e f26a 0bbe 1720 ef3d
000001f0: 7762 663d 6e66 10be 3bb5 4d3e 8b66 57bc
00000200: f51a ad3d c3ad 333c 3120 69bb 4962 6d3e
00000210: 906d 833d 2fdc f43d 7617 223e aea8 65bd
00000220: 03c3 243e ea37 403d b4d4 433e 9d80 143d
00000230: 6c29 60be 73fe ddbc 7eac 203e cbd9 3c3c
00000240: 9fec 473d a6bc 10bd d213 1b3e 8222 2b3d
00000250: 062f 20bc 8cd8 0fbd 2f33 483e f86d 853d
00000260: b417 23be c81c 38bd b988 f13d c4cf 32be
00000270: 1d4f 9e3c 6150 c63d ad92 48be 879c 3f3e
00000280: 7e6d 5f3d 0660 083e b9d8 05bc fb41 ccbd
00000290: 048a 5f3e be61 19bc 774f 253e ae01 773e
000002a0: 94e1 fbbd 6525 703e cfb2 933d c604 653e
000002b0: 4835 4b3d 0e63 773c 3780 923e 0411 0dbe
000002c0: aa3d 12bd 9d3f 2ebd 45a3 0dbd f9a5 4f3d
000002d0: 5b16 343e 2741 c7bd cf58 dd3d 15d6 303e
000002e0: efe2 233e 4a8d dcbd 1a39 e8bd 7b82 493e
000002f0: c464 7d3d da38 afbc 8b0f 373e 1fef 843d
00000300: 8775 913e ca40 aebd cb6d 8ebd 87c4 a73b
00000310: 24c0 b13d 91f7 793d 2d47 9dbd e849 773c
00000320: ce32 5b3e 7a07 a9ba 47a4 1e3e 4d89 95be
00000330: f57f 813d 7911 7abc 179f c83c 4b87 58be
00000340: 2729 b6bc 82e4 38bd 2ac4 ac3e df12 113e
00000350: a5ff 71bb 5fc7 8a3d 90f0 6a3e 31e9 1ebe
00000360: 9903 93bd db52 053e 6591 35be 886c c4bd
00000370: 6a76 193b 1613 3f3e 2c4f aebd 97cc fbbd
00000380: 1f8d 043d c65e 80be 04fa 83bc 54a9 f6bd
00000390: a598 88be 15fe 95bd ed15 6cbc 5266 87be
000003a0: 2062 86bd 9968 8a3c 6261 0bbe 0db8 4bbe
000003b0: 77fe 40be 54bf 0bbd 696f 37bd ae27 27be
000003c0: 4fa9 17be afe3 84bc 8ef5 fdbd 34b4 e1bd
000003d0: ee35 aebd 1e68 86be 1895 84be 4819 4bbd
000003e0: 29f3 1cbd 0529 1abe dd2c 93be 870e bf3a
000003f0: 2f1b 30be 9d84 933d 96d6 dbbd 90fd 86be
-0.06489625 0.19559218 0.18890014 0.16744177 -0.14550358 -0.030114885 0.09167253 -0.17383015
-0.117279135 0.031849355 0.054408386 0.2516115 -0.101338655 -0.08658806 -0.017871173 0.1874073
-0.09215244 0.2206883 0.018872242 0.11518256 -0.22266757 0.11415643 0.16827314 0.03778075
-0.34888434 -0.032470666 0.083158515 0.16760112 0.19285244 -0.052485686 -0.17877465 -0.12660465
0.12890394 0.20871755 -0.24464054 -0.031240553 0.017599966 -0.1133982 -0.18897866 0.011323261
-0.09081302 0.19420764 -0.21138287 0.23084676 0.116584 -0.030256407 -0.13067861 0.22473663
0.20858409 -0.13505502 -0.16249569 -0.08360326 -0.04744044 0.08477276 -0.00095387705 -0.2491958
-0.111769766 0.15892601 0.3280961 0.10098283 0.19607396 0.23635046 -0.052317124 0.044158548
-0.016858049 -0.1090754 -0.07572786 -0.05528873 0.017485013 0.23649117 0.009975861 0.049111545
0.14768699 0.20020461 0.08389338 -0.037418384 -0.14435989 0.14655572 0.18082859 0.105839975
-0.079535685 0.11763321 0.022599109 0.30400297 -0.06081131 0.21280886 0.22487497 0.26621273
-0.061036088 -0.029182224 -0.06411698 -0.04372224 0.10958897 -0.14750418 0.056563288 -0.049769994
-0.10469378 0.13110736 -0.08569277 -0.108653575 -0.017718935 -0.015420005 0.08171049 0.08469579
0.25268906 -0.08187916 0.030869085 -0.05298226 0.19196874 0.18232633 -0.041570637 -0.0946701
0.25417522 0.16246204 0.10140396 -0.015373988 0.1933302 -0.13718079 -0.0152719105 0.11947002
0.2505505 0.13333143 -0.13615015 0.116760425 0.056246247 -0.14101574 0.20088665 -0.013147007
0.08452407 0.010966721 -0.0035572166 0.23182024 0.06417382 0.11956059 0.15829262 -0.05606907
0.16090016 0.046928324 0.19124109 0.036255468 -0.21890801 -0.02709887 0.156908 0.011526535
0.048809644 -0.03533616 0.1514428 0.041780956 -0.009776836 -0.035118625 0.19550775 0.065151155
-0.15927011 -0.044949323 0.11793656 -0.17462069 0.019324834 0.096833 -0.19587202 0.18712054
0.05454778 0.1331788 -0.0081693465 -0.09973522 0.21829993 -0.009361682 0.16143595 0.24121734
-0.12298885 0.23451765 0.072118394 0.22365102 0.04961136 0.0150993 0.28613445 -0.13776022
-0.03570334 -0.042541135 -0.034579534 0.050695393 0.17586653 -0.09729224 0.108079545 0.17269166
0.16004537 -0.10769136 -0.11339016 0.1967868 0.061863676 -0.021389414 0.17877023 0.06490921
0.2840998 -0.08508451 -0.06954535 0.0051198634 0.08679226 0.061027113 -0.07679591 0.015093304
0.21406099 -0.0012895905 0.15492354 -0.29206315 0.06323234 -0.015262955 0.024489922 -0.2114536
-0.02223642 -0.045139797 0.3374341 0.14167355 -0.0036926058 0.06776308 0.2294333 -0.15518643
-0.071784206 0.13019888 -0.17731245 -0.09591013 0.0023416528 0.18659624 -0.085111946 -0.12294882
0.032361146 -0.25072306 -0.016110428 -0.120440155 -0.2667896 -0.07323853 -0.014409524 -0.26445252
-0.065616846 0.01689558 -0.13611367 -0.19894429 -0.1884707 -0.03411801 -0.044783983 -0.1632373
-0.1481068 -0.01622185 -0.124003515 -0.11020699 -0.0850638 -0.2625131 -0.25895 -0.049584657
-0.038317833 -0.1505471 -0.28745165 0.0014576473 -0.1719787 0.07203028 -0.107342884 -0.26365328

bias f4 [10]
00000000: 8e8a 2d3e 3006 473e 32af 7b3d 0c9d 8e3e
00000010: f7df c4bd 8733 e43c bcdd 4c3e 0061 023d
00000020: ac93 823d a16d 5dba
0.16947386 0.19435954 0.061446376 0.27854192 -0.096130304 0.027856601 0.2000646 0.031830788
0.063758224 -0.0008446817
