MQCNN-QA-4qubits-7class-CIFAR-same-5filter/Models_V1/model_31.pt (torch, 158006 bytes, 47 tensors)

weights f4 [7]
00000000: 6607 af40 a05b 0240 3a9b 1940 553e 1d3f
00000010: 26c3 9240 727d c540 06c8 aa40
5.469653 2.0368423 2.4000993 0.61423236 4.586322 6.171563 5.336917

weights f4 [7]
00000000: 7222 bd3f 89e0 df3d 80c8 a740 c9fc af40
00000010: fedc b540 bdb5 2340 4288 9b40
1.4776137 0.109314986 5.243225 5.4996076 5.6832266 2.5579674 4.860383

weights f4 [7]
00000000: 16ad 3dbb fbb2 1d40 8ffc 7c40 dde3 c240
00000010: cb32 8f3f 01a3 f23f 189e b640
-0.0028942279 2.464049 3.952915 6.0903153 1.1187376 1.8955995 5.7067986

weights f4 [7]
00000000: 7fe4 a440 feb3 8640 4500 5940 a1ec 9840
00000010: 437e f73d 320c 3840 cdd6 3240
5.1528926 4.2094717 3.3906415 4.7788854 0.120846294 2.8757443 2.7943604

weights f4 [7]
00000000: c6e3 b940 4398 5b40 91ed 0c40 791c 9840
00000010: bc81 c240 2b47 5140 1e7d a940
5.8090544 3.4311683 2.202 4.7534757 6.0783367 3.2699687 5.296523

weights f4 [7]
00000000: 0a05 a640 5b7d 7540 fcea a440 b8b3 c040
00000010: f6fa 5d40 b4a8 173f 1892 be40
5.188115 3.835776 5.1536846 6.0219383 3.4684424 0.59241796 5.9553337

weights f4 [8]
00000000: 2192 c53f b3c5 cc40 b7cb 2440 9f94 6940
00000010: 6fba a73f 1ab1 8b40 0c24 3d40 151d 663f
1.543522 6.399133 2.5749338 3.649696 1.310377 4.365369 2.9553251 0.89888126

weights f4 [8]
00000000: d1a4 6440 4e0a 2a40 a51c b940 0790 2140
00000010: 968a 7e40 dfd9 323e 2df9 bb40 c700 1240
3.5725596 2.656879 5.7847466 2.5244157 3.9772086 0.17465924 5.874167 2.2812974

weights f4 [8]
00000000: 2000 9c40 acd4 4d3f fbb1 1d40 1489 3c40
00000010: 4bc3 e03f d4a8 b53f 8779 313f adab 3840
4.8750153 0.80402637 2.463988 2.9458666 1.7559599 1.4192147 0.6932606 2.8854783

weights f4 [16]
00000000: 948b 8440 b4f1 fd3f c9ae 1540 a16a 98bd
00000010: d994 ac40 43d5 7140 3c5f a740 597d cb40
00000020: 0845 7540 e1ef 803e 953b ae40 083a a840
00000030: 87ce 9d40 24dd 2540 83f0 5c40 c388 953f
4.1420383 1.9839387 2.338793 -0.07442213 5.39317 3.7786415 5.2303753 6.359051
3.8323383 0.25183013 5.444773 5.257084 4.931461 2.5916224 3.4521797 1.1682361

weights f4 [16]
00000000: 0283 9d40 e703 a840 b7ce 4140 6322 8f40
00000010: 2024 9840 4e6a 7340 902b 4c40 f797 9840
00000020: 77ef 2a40 5c9c 8740 837a bf40 313a 4740
00000030: 0fda a240 e880 a540 58e2 6640 3789 b840
4.922242 5.2504764 3.0282419 4.4729476 4.75441 3.8033633 3.1901588 4.7685504
2.6708658 4.237837 5.983705 3.1129267 5.0891185 5.1719856 3.607565 5.76675

weights f4 [16]
00000000: 40a6 8a40 130c 0140 bc42 513f 17c1 f3bd
00000010: 9897 ae40 cdb0 8a40 d898 6740 5d44 be40
00000020: 13a6 a540 f7ea 303f 7725 9a40 cc8b 8440
00000030: b401 7b40 36ca b93e 71ee 703e c7cf a940
4.332794 2.016362 0.81742454 -0.11902063 5.456005 4.334082 3.6187038 5.945845
5.1765227 0.6910853 4.8170733 4.142065 3.921979 0.36287087 0.23528458 5.3066134

weights f4 [12]
00000000: 295c ad40 b7f1 bf3c a7c2 cc3f e919 3a40
00000010: 53c8 713f cf06 1a40 261c bf40 260d 6c40
00000020: 45f1 be3f facf b140 10ef c740 8fb3 3140
5.4175 0.023430688 1.5996903 2.9078314 0.94446295 2.4066656 5.972186 3.6883025
1.491738 5.556638 6.2479324 2.7765844

weights f4 [12]
00000000: 097a 473f 4bbd 4240 25db c33e 4a94 3f40
00000010: 3f80 793f b847 1340 c41b 6d40 5f2c 6640
00000020: e9b8 cd3f 871a a840 d00d 6440 cdd1 f73e
0.77920586 3.0428035 0.38253132 2.9934258 0.97461313 2.3012524 3.7048197 3.5964582
1.6072055 5.253238 3.563343 0.48402253

weights f4 [12]
00000000: 5da5 bc40 513d e23f 9a2e 6440 9a87 5440
00000010: 63b5 dc3f f044 a740 3c32 a340 19bd cd3f
00000020: b9d9 6540 0666 0b40 eb4e 9f3e feab a240
5.895186 1.7674962 3.5653443 3.3207765 1.7242855 5.227165 5.099882 1.6073333
3.5914137 2.178102 0.31114897 5.083495

weight f4 [12, 48]
00000000: 9fb7 fc3d 9526 79bd 5049 09bd 0afc 05be
00000010: b13b a1bd 9857 cfbd 9f01 193e d51b 85bd
00000020: 1140 04be 5a2f 6d3d 6bca 893d f493 b63c
00000030: 003d 353d de3a b2bd 1498 a2bd b7c9 a7bd
00000040: 689b 86bd 337c d83d 2c10 80bd b5e9 943c
00000050: df13 dfbd f1ed 853d fac6 bd3d 9b43 8fbd
00000060: 30a1 04bd 7627 9cbd 2363 9d3b 27cc 073e
00000070: cd81 893d f3d7 e73d 86ba d13d 80a4 ba3a
00000080: 2f7a 3bbd a3f1 9e3d bb22 50ba 052c b6bd
00000090: 4f37 b43d 0ae9 8cbd 7dde 3dbc e0b0 4fbd
000000a0: a7fe 9fbd 5e9e 6b3d d266 84bd 9543 8a3d
000000b0: e79b 9dbd 8c23 d93c 36d5 04be ad79 b8bd
000000c0: ba52 2abe c69c 0cbe 5baa 6dbc acce 29be
000000d0: e3ed a1bd 7d01 ecbd 49ee 82bd cb6c eabc
000000e0: 2b2b 3bbb 1fb7 a6bd 6426 f5bc 8e8d 22bd
000000f0: a8a1 d03d c8e1 8c3d 3c12 4fbe 8368 8e3e
00000100: cced 7ebd 9045 183a a3b7 a1bd 79e8 d8bd
00000110: 51c5 6c3e aa65 4abd 4344 3e3e 9150 8b3d
00000120: 63cc 0b3e f793 ddbd 7491 8dba 33ba 963d
00000130: 4723 f63c 2938 d53d 26d8 07be ac73 993c
00000140: 6f53 97bd 158f 503e 2268 86bd 61a0 86bb
00000150: 6895 44be aff3 a6bd 2916 2fbe 46e7 bf3d
00000160: a627 ce3d 18ae 103e 4ce2 153e efca 3abd
00000170: 058b edbc 6651 5fbc 4d3c 933b 3c69 a33e
00000180: 10ea 8cbe 32b9 e7bd 80ee ddbc 2ae7 003e
00000190: af18 d83d 5978 d3bd 5eb7 97bb 680b 8d3a
000001a0: 2aca b4bd d0a4 5dbd 4c45 f0bd 9f8c 353d
000001b0: 2073 c8bc 197a 04be 5f22 69bd cc31 123e
000001c0: aebc 30be b278 43bd 953a 22bc b0e6 54bd
000001d0: f567 9e3d 3ada 283b b481 4ebc 2b05 113e
000001e0: 63e5 b63d 23bd 033d 4e16 373d 880f 1abc
000001f0: c85c 363d dec3 683d e46f 3cbe 714a cbbc
00000200: 1388 b6bd a24c 4d3d 68ee 3b3e 81a6 0b3e
00000210: 263c bf3c 04ac 99bb 8531 163c e3db bf3d
00000220: 1ad0 aebd b618 2fbe 0508 6fbd 690c 613d
00000230: 0140 073e 8f46 e5bd ef24 75bd 2790 593e
00000240: 488c ddbd 4eb6 503d 79a1 d6be 5160 19bd
00000250: 1cee 83bd cf45 cbbc 54d2 9fbd a671 823d
00000260: 06ec 8ebd f1ab 6abc 24ce 9a3d 412d 0ebe
00000270: 69b7 72bd 0862 2b3d ad7f bcbd fc3a 453d
00000280: 7bd2 85bd 74c2 b0bd 52e3 b2bc c7c1 073e
00000290: 9912 cdbd 0c52 9e3d 6c9e fabc 4fdf c7bc
000002a0: 0225 36be b632 debd dee7 e3bd dd33 323e
000002b0: 9226 cebd 4a5a 1fbe 024b df3d 7d33 bebc
000002c0: e313 e0bd 137c 18be 4068 073e a205 bd3d
000002d0: 465a 9bbd da50 3bbe 5d44 5d3e 8142 c43d
000002e0: 3845 4cbd 37b2 d1bd 3dd0 04be 6102 1f3e
000002f0: a9a1 043d 2332 d83d 6acb e33d 7a6d 9f3d
00000300: 7e19 1ebd 7067 1ebd c593 583c d676 d93d
00000310: fb6b 5ebd b514 7a3c 2d04 cebd 22c1 a0bd
00000320: e9f7 c3bd 91fa 7b3d 0877 bd3d e73c fe3d
00000330: e26f 3b3e 21c1 ccbc dc63 e9bc 68b1 903e
00000340: b750 8f3d 1b94 ab3c 190f 4ebd 892c 663c
00000350: 824d 853d 03af 423e b9e9 97bc 6a32 523d
00000360: 8520 683d fb46 10bd 4d00 9d3d db07 273d
00000370: d5c5 8f3d 9df6 0bbd cb26 2fbe 79ad ea3c
00000380: 307d 723e e77f 1f3e ecb6 6a3e f89c 173e
00000390: 88e3 e5bd 4411 8fbd db78 19be a925 88bd
000003a0: 655f 55bc 5951 52bd 8497 1e3d dc5a b63d
000003b0: badd 223e 1129 023d 367d 65bd efa8 903d
000003c0: c7f9 47bd d900 4dbd c925 01be a972 dbbd
000003d0: b73b 65bd 2fe7 abbd 783a 303e 7529 1a3e
000003e0: 57ed ec3d 5baa 0e3d 3e18 aabc b2ff 0d3e
000003f0: 5ebf 0e3e f683 f939 1fa7 ea3d c92c 313a
0.123397104 -0.06082781 -0.033517182 -0.13084427 -0.07872713 -0.10124129 0.14942025 -0.06499449
-0.12915064 0.057906486 0.06728061 0.022287346 0.044247627 -0.08702634 -0.07939163 -0.08192771
-0.0657261 0.10570564 -0.062530845 0.018177846 -0.10892462 0.06539524 0.092664674 -0.069953166
-0.032380283 -0.07624714 0.004803078 0.13261472 0.06714211 0.11320486 0.10240655 0.0014239699
-0.04577082 0.07760932 -0.00079397456 -0.08895115 0.08799612 -0.06880386 -0.01158869 -0.05070579
-0.07812243 0.057524078 -0.06464924 0.067511715 -0.07695752 0.026506208 -0.12971959 -0.09007583
-0.1663312 -0.1373168 -0.014505948 -0.16582745 -0.079067014 -0.11523721 -0.063931055 -0.02861633
-0.0028559666 -0.08140396 -0.029925533 -0.03968578 0.101870835 0.06879002 -0.202218 0.2781411
-0.0622385 0.00058087055 -0.07896354 -0.10591216 0.23122145 -0.04941336 0.18580727 0.06802476
0.13652186 -0.10819238 -0.0010800795 0.073597334 0.030046118 0.10411102 -0.13266048 0.018731914
-0.073889606 0.20367081 -0.065628305 -0.004108474 -0.19197619 -0.08151948 -0.17098297 0.09370284
0.10066156 0.14128911 0.14637107 -0.04560369 -0.028996954 -0.013630247 0.0044932724 0.31916225
-0.27522326 -0.1131462 -0.027091265 0.12588182 0.10551583 -0.10325689 -0.0046300134 0.0010760846
-0.08827622 -0.054112256 -0.11731967 0.04432356 -0.024468958 -0.12937202 -0.056917544 0.14276809
-0.17259476 -0.047722526 -0.009901662 -0.051977813 0.07734672 0.0025764839 -0.012604166 0.14162128
0.08930471 0.032162797 0.044699006 -0.009403117 0.044522077 0.05682742 -0.18402058 -0.02481577
-0.08912673 0.05012191 0.18352664 0.13637735 0.02334411 -0.0046896953 0.00916708 0.09368112
-0.08535786 -0.1709927 -0.058357257 0.054943476 0.1320801 -0.111950986 -0.059849676 0.21246396
-0.10817772 0.05095511 -0.4192007 -0.03744537 -0.064419 -0.02481356 -0.07803789 0.06369333
-0.06978612 -0.014323221 0.075588495 -0.1388445 -0.059256945 0.041841537 -0.0920404 0.048151955
-0.065342866 -0.08630839 -0.02183691 0.13257514 -0.10013313 0.07730493 -0.03059312 -0.024398474
-0.17787555 -0.10849516 -0.111282095 0.17402597 -0.100659505 -0.15561786 0.109029785 -0.02321791
-0.10941293 -0.1489108 0.13223362 0.0922959 -0.07585578 -0.18292561 0.2160811 0.09582997
-0.0498707 -0.1023907 -0.12970062 0.15528251 0.032380734 0.10556438 0.111227825 0.07784553
-0.03859853 -0.038672864 0.013218825 0.10618369 -0.054302197 0.015263726 -0.1005939 -0.07849337
-0.095687695 0.061518256 0.09251219 0.1241396 0.18304399 -0.024994435 -0.02849 0.2826035
0.06997817 0.020944646 -0.050307367 0.014048704 0.06508924 0.19012074 -0.018544065 0.05131761
0.056671638 -0.035223942 0.07666073 0.040778976 0.07020155 -0.034170736 -0.17104642 0.028647171
0.23680568 0.15576135 0.22921342 0.14805973 -0.11225039 -0.06985715 -0.14987509 -0.06647808
-0.013023232 -0.05134711 0.038718715 0.08904049 0.15904894 0.031777445 -0.056027614 0.070634715
-0.04882219 -0.050049637 -0.1261207 -0.10715229 -0.05596515 -0.08393704 0.17209804 0.15054877
0.115687065 0.034830432 -0.020763513 0.13867071 0.13940188 0.000475913 0.11457657 0.00067586877

bias f4 [12]
00000000: 95d2 d4bd fe90 8a3d 8cf9 1d3d e832 c9bb
00000010: 8f26 af3e 06cb 24bd cd04 02be 212f 323e
00000020: a31a 44bc 924a 82bd d18d 07bd 3ace dbbd
-0.10391728 0.06765936 0.038568065 -0.0061401017 0.34209105 -0.04023268 -0.12697144 0.17400791
-0.011969241 -0.063618794 -0.03309423 -0.10732694

weight f4 [12, 12]
00000000: ff7b 303e f71f 6f3e 3ae4 f4bc b6e8 afbd
00000010: 81c8 babe 024c 2f3e 217f 953e 1839 06bb
00000020: 4009 7bbe 26b1 cfbd fd53 a03d 552e ce3d
00000030: 1cb7 79be 1491 543e 256a a3bd 4847 123d
00000040: 287f 503e 7b8f 7cbe 87f1 823e de7c 4dbe
00000050: 3a75 d93d 99d8 8c3e 0e3f 9fbe 653f 783d
00000060: c605 523c ce06 a1ba fcfc 6c3d f030 b0be
00000070: 762d 283e a821 133e 632d ff3d 1d47 da3d
00000080: 70e5 d23c 172d 3a3e dd98 edbe f755 3b3e
00000090: 62c1 dfbd 270c 31be 8cff 00be 2386 dd3e
000000a0: bba3 c9bd b718 d23e 4e43 4abe 31ec cbbe
000000b0: ba57 8b3e f250 cfbe 2c5e 123e 11fb 953e
000000c0: b462 60be c1f7 103e 4800 83be e89e a83e
000000d0: 45cd c13c c3d3 e3bd fa87 5ebd edbd 473e
000000e0: acd3 bf3e 6126 813e 6740 5fbd 8125 633e
000000f0: 6120 253e fc4c 5b3e 8199 933c 6064 5dbd
00000100: 9918 103e ca55 a03e 51d4 7e3e d96a 4e3b
00000110: 17c8 0abe 1740 a0bc d357 02be e34d 97be
00000120: 5127 80bd 3dee 5fbd 1389 40be cd52 573e
00000130: ccc7 3b3d 6ad5 3fbe 00d4 473e c364 e4bd
00000140: 2c5b b0be 4898 bf3d 6868 d13d a3af f8bc
00000150: cff9 883c 9783 2a3e 11d5 753e 292f 51bd
00000160: f3c3 52bd e5a9 5cbe 7f25 783e ef08 81be
00000170: 326c 8ebc 7518 0bbe 6cda e73d ae64 eabd
00000180: 3987 743e 9a82 32be 0358 9a3d 389b d03e
00000190: 8842 44bd bb1d 5d3e 3f79 43bb f343 0d3d
000001a0: fd2b 6f3e b358 463e 25ed d73d 8cac 09be
000001b0: e1b1 b43c b408 5e3d 233a 593d 9ee3 463b
000001c0: 3213 4e3e 6657 f23b 9579 6bbd b9b1 76be
000001d0: cdc1 36be 2ca5 7c3e 0eb0 c33d ef69 a5bd
000001e0: a356 203e 19b7 b23e 339a 2c3e d199 bfbe
000001f0: 1a96 85be ecfb f9bd efb4 463e 5eda 76be
00000200: 7c16 b2be 418e b53e a16d 91be 1eef 923d
00000210: 1af7 393e 416b 52be 4d45 703e 0bf2 45bd
00000220: 80a2 4f3e e758 2b3e e7ce 5bbe ec12 e33d
00000230: b037 c73d cfe9 96be ecd2 15be 3650 afbd
0.17234801 0.23352037 -0.029893983 -0.08589308 -0.36481097 0.17118838 0.29198554 -0.0020480808
-0.24515247 -0.1014121 0.078285195 0.10067431 -0.24386257 0.20758468 -0.0797923 0.03571251
0.20361006 -0.24664108 0.25574896 -0.20067164 0.10618062 0.27509 -0.31102794 0.060607333
0.012818759 -0.0012285353 0.057858452 -0.34412336 0.16423592 0.14368308 0.12459829 0.10658095
0.02574417 0.18181263 -0.46405688 0.18294512 -0.10925557 -0.17289792 -0.12597483 0.432664
-0.09845682 0.4103448 -0.19752237 -0.39828637 0.27215368 -0.40491444 0.14293736 0.2929311
-0.21912652 0.1415701 -0.25586152 0.32933736 0.02365745 -0.11124375 -0.054328896 0.19506045
0.3746618 0.25224593 -0.05450478 0.22182275 0.16125633 0.21416086 0.018017532 -0.054050803
0.14071883 0.31315452 0.2488568 0.0031496792 -0.1355289 -0.01956181 -0.12728815 -0.2955161
-0.06257499 -0.05467056 -0.1880229 0.2102768 0.045844838 -0.18733755 0.19514465 -0.11152031
-0.3444456 0.09355217 0.10224992 -0.030357188 0.01672068 0.1665176 0.2400706 -0.051070366
-0.051456403 -0.21549185 0.24233054 -0.25202128 -0.017385576 -0.13583548 0.113209575 -0.114449844
0.23879708 -0.17432633 0.07536318 0.40743423 -0.04791501 0.21593373 -0.0029826907 0.03448863
0.23356624 0.19369774 0.105432786 -0.13444728 0.022057476 0.05420752 0.05303396 0.0030348073
0.2012451 0.0073956726 -0.057488997 -0.24091233 -0.17847367 0.24672383 0.09555064 -0.08076846
0.1565805 0.34905317 0.16855697 -0.3742204 -0.2609108 -0.122062534 0.19404958 -0.24106738
-0.3478278 0.35460094 -0.28403953 0.07174514 0.18160668 -0.20548727 0.23463936 -0.048326533
0.20276833 0.16733132 -0.21465646 0.110875934 0.097274184 -0.29475257 -0.14631242 -0.08560221

bias f4 [12]
00000000: e201 323e c732 d23d 41ed 6e3e d808 fabe
00000010: 3613 80bd 7f3d 193e d0fb 653e e9eb 75be
00000020: 8488 073e 974a 6fbe 0272 013d 50b0 b4bd
0.1738353 0.10263591 0.23332693 -0.48834872 -0.06253664 0.14964865 0.2245934 -0.24015774
0.1323567 -0.23368298 0.031602867 -0.088226914

weight f4 [12, 48]
00000000: 10e5 2b3e 8c81 733e c35b 1d3d 41c3 6f3d
00000010: 1bce babd d9a1 42bd e506 fabd acf2 dd3c
00000020: f704 3fbd 1bfd 053e 32d6 af3c d757 c6bd
00000030: d753 16bd 44b5 91bd 8f63 1e3d 9038 1e3e
00000040: ccb7 a5bc 323f f93d 490b 683d f26e 84bd
00000050: e552 1d3e 4bd2 973d b56d a03d 2093 20bc
00000060: 1b05 53bc 72ce c43d 6bc8 413c 8f3a 01bd
00000070: 3742 983e badb 623d 9314 493e 9910 703e
00000080: f6ef f33c 8ff4 1b3e 5731 ec3c febc 8ebd
00000090: 550c 273e 5ac9 c7bc b83b 7a3d ec3f ecbb
000000a0: 8cea 563d 5975 a5bc b88a d03d 94c0 b83c
000000b0: 9def 113e 6e47 0e3c 5e11 063e c249 2c3e
000000c0: d7eb 4e3d 5d4b 2fbd 6ecd 16bd bea0 393d
000000d0: 2b60 743e 5f21 6c3e 0d5c 9f3e aeaa 253e
000000e0: fea0 5d3c 8c68 28bd 156e bcbd 44de 0fbe
000000f0: 9e47 8b3e e7bf 413e 2166 5e3e 0ddb 153e
00000100: 320d 03be 2e0e a6bd c2c8 013e 3911 efbd
00000110: 390e 87bc 49d0 83bd db56 90be e508 9dbe
00000120: a627 983d b85c 1c3e 5958 d83c 390b 963d
00000130: 818b a13e 14c9 4dbe cf76 823d 5ca9 0abe
00000140: 1174 80bd 2541 f33c 18f6 3dbe 7770 14be
00000150: 5075 1d3e 9b6a 8cbb 4a18 89bc bf7c 05bd
00000160: 9284 103d 70e1 753e 16a8 663d 991b c43d
00000170: 41b4 8bbb a17d b7bc 81e0 853d b30c 8e3d
00000180: 626a 2f3e 13c4 10be 309c 533e 81cc 2f3d
00000190: 6a94 dd3d b18b f8bd 9b41 ae3d 4cba d8bd
000001a0: d567 b7bd b3d3 b0bd cfb4 bfbd 4473 ccbc
000001b0: 94b9 2b3d 62c2 38bd 9263 3a3e 1389 be3d
000001c0: d4e2 a93d 8602 0a3e 3e4e bcbd b39a cb3d
000001d0: 21ee 0abc 2168 c8bd c4d6 c3bd ed3b 143e
000001e0: 6391 983d 5a35 503a 93a9 653d 8b60 4e39
000001f0: 18e0 b4be 5e07 b6bc 4b25 cdbd 7632 57be
00000200: 6a91 093e b139 1abc a5a9 05bd b830 333b
00000210: 584c c0bd 7b57 a63d eefd 31bd a1b1 273d
00000220: 4aa0 3a3d 0076 733c 906b 213e 7b31 023e
00000230: 1a40 873c f242 163e a56d 593e b5a9 1a3e
00000240: 35dd e23d 25bc d5bb 5d72 073e 3362 88bd
00000250: dd21 53bc 4581 ecb8 8b9d 0c3d b384 0bbe
00000260: 3885 97bd d70b f33c 005d 843d 98bb 5d3a
00000270: c7af 12bd f234 e2bd 8163 10bc 31c8 823d
00000280: 0310 f13d c489 4fbc 1d23 c8bd 98ae 36bd
00000290: edeb 233c 1f96 fc3c d056 3c3d 7e40 1d3d
000002a0: 8061 8fbc b3e2 893d 7305 96bd cce0 9f3b
000002b0: a51d fa3d b55d 5bbd 12a3 db3d d709 ecbd
000002c0: 3c31 f23d 6c9f 0ebd a1dc 69bd b901 a2bc
000002d0: d92d 0c3e 1d2d a03b 50c7 ab3d 4d9d f8bd
000002e0: 570f 03be 0933 12bd be16 f6bd 4d79 12bd
000002f0: b262 023e 8a86 0bbe 0a0e 9dbd 8952 593d
00000300: 5ba6 323e 16eb bc3d d7bd 8c3d 9e4d 483d
00000310: 7da4 bc3c 69e6 a5bc c3dd d0bd 6cca c93d
00000320: 736b dc3d b311 b4bc 18a7 eb3d 13e5 8c3c
00000330: 3fb1 483d be53 65bc 5b02 5cbd 6e6f 023e
00000340: 8d48 9c3d 1074 b63b 2080 c2bd bb6d 4bbd
00000350: 9a19 1e3c b147 9b3d 734e d03d 80ab ce3c
00000360: 01cf b23d 838c 1f3d 64e5 553d 7e1e d83d
00000370: 9947 52be 7e24 39bb 7225 c93d 5b5e 5bbe
00000380: b271 553e 82f1 fa3d 3686 f13d 8adc 483e
00000390: 0d33 95bd a63e 263e c532 67be 94b9 38be
000003a0: 8dd0 c6bd cb3a cbbd b532 023d 8e51 87bd
000003b0: 8065 1bbd b017 403e 6175 0b3d b02c fa3c
000003c0: 3fec 643d 9382 0a3d 8f42 9abd d5fa c83d
000003d0: b11e 73bd 9eb7 53bc a598 55bd 5b7c c83d
000003e0: 7f97 47bc 9dab 353d 36b1 84bd a183 9ebd
000003f0: aac0 8cbd a7e1 3e3e 49d9 e4bd a4ca 463c
0.16786599 0.23779887 0.03841759 0.058535818 -0.09121343 -0.04751763 -0.12208346 0.027093254
-0.046635594 0.13084833 0.021464441 -0.09684723 -0.03670105 -0.07114652 0.038669165 0.15451264
-0.020229243 0.12170257 0.056651387 -0.06466474 0.15363653 0.07413157 0.07833425 -0.009800702
-0.012879635 0.09609689 0.0118275685 -0.031549986 0.29738018 0.05538533 0.19636755 0.23443832
0.029777508 0.1523001 0.02883212 -0.06969641 0.16313298 -0.024388004 0.06109211 -0.0072097685
0.052469775 -0.020197557 0.101827085 0.022552766 0.14251561 0.008684022 0.13092563 0.16825011
0.050517883 -0.04279648 -0.036817007 0.04531931 0.2386481 0.23059605 0.31124917 0.1617839
0.013527153 -0.04111533 -0.09200684 -0.14049631 0.27203077 0.18920861 0.21718647 0.14634342
-0.12798002 -0.08108173 0.1267424 -0.11673207 -0.016486274 -0.064362116 -0.28191265 -0.30670848
0.07429437 0.15269744 0.026409315 0.07326359 0.31551746 -0.20096236 0.06370317 -0.13541168
-0.06272138 0.02969415 -0.18550909 -0.14496027 0.15376782 -0.0042851693 -0.016735215 -0.03258967
0.03528268 0.24011779 0.056312643 0.09575576 -0.0042634313 -0.022398772 0.06536961 0.06936016
0.17130426 -0.14137296 0.2066505 0.04291964 0.10819323 -0.12136019 0.08508607 -0.10582408
-0.08955351 -0.086341284 -0.093606584 -0.024957307 0.041925028 -0.045107253 0.18202046 0.093034886
0.08295217 0.13477525 -0.09194611 0.09941616 -0.008479626 -0.09785486 -0.09562448 0.14475985
0.07449605 0.00079425203 0.05606992 0.00019681656 -0.3532722 -0.02222031 -0.10016879 -0.21015343
0.13434377 -0.009413169 -0.03263249 0.002734227 -0.093895614 0.08122154 -0.043455057 0.040940885
0.04556302 0.014859676 0.15763688 0.12714188 0.016510058 0.14673975 0.21233232 0.151038
0.11077348 -0.0065226727 0.1322722 -0.06659355 -0.012886492 -0.00011277435 0.034329932 -0.1362484
-0.07398456 0.029668732 0.06463051 0.00084584346 -0.035812166 -0.11045255 -0.008812786 0.0638584
0.11770632 -0.012667123 -0.09772322 -0.0446001 0.01000498 0.030833302 0.04598123 0.038391583
-0.017502546 0.067326926 -0.07325258 0.004879093 0.122126855 -0.053556163 0.107244626 -0.11525314
0.11825797 -0.034820005 -0.057095174 -0.019776212 0.13689364 0.0048881904 0.08387625 -0.12139378
-0.1279882 -0.035693202 -0.120160565 -0.035760213 0.12732962 -0.13625541 -0.07668693 0.053057227
0.17446272 0.092245266 0.068721466 0.048902147 0.023027653 -0.02025147 -0.10198548 0.09853062
0.10762682 -0.021981096 0.1150648 0.017199075 0.04899716 -0.0139970165 -0.053713184 0.1273782
0.076310255 0.005568035 -0.09497094 -0.049665194 0.009649659 0.075820334 0.10171213 0.025228262
0.08730889 0.03895236 0.052220717 0.10552691 -0.20535125 -0.002825051 0.09821595 -0.21422713
0.20844153 0.12253095 0.11793177 0.19615379 -0.07285128 0.16234836 -0.22577961 -0.18039542
-0.09707747 -0.09923323 0.03178664 -0.06607352 -0.037938595 0.18759036 0.034047488 0.030538887
0.055889364 0.03381593 -0.07532226 0.098134674 -0.05935544 -0.012922196 -0.052147526 0.09789344
-0.012182116 0.044353116 -0.06479113 -0.0773995 -0.06872685 0.18640767 -0.11174256 0.012133274

bias f4 [12]
00000000: c958 be3d 760d 6f3d f0d7 b33d 8b77 bcbd
00000010: ed7f 443e 0afc 443e e67b 15bc e401 223d
00000020: 8905 e9bd bb28 83bd 51a5 84bd 09ea 2fbd
0.09294278 0.058362447 0.08781421 -0.092024885 0.19189425 0.1923677 -0.009123778 0.039552584
-0.11378009 -0.06404253 -0.06476844 -0.042947803

weight f4 [12, 12]
00000000: 6ea4 efbc 724d 723d 0a6b 6a3e afb6 f3bb
00000010: 2eef 32be e75a 0e3e 9ece 56be d304 973e
00000020: 25e2 12be 8305 b33e 6bd6 74be 0c1d e93c
00000030: 4389 1fbe 1ba4 c2bc 3d9e 853e 9615 7b3e
00000040: fd5e a33e cd30 9f3c ceba 853e dda3 d0be
00000050: 3947 4bbe 9595 b6bd b686 8cbe aa54 adbd
00000060: d68f 0f3c eb8a 9a3e 5925 afbe 2595 85bd
00000070: 0bfc b7be f4f8 e93d 62f7 8a3e ded4 ee3d
00000080: d3c7 223e 7bb5 733e 23b2 89be 046f 093d
00000090: 680e a63d 70ae 483e a97a cc3d f7c3 49be
000000a0: b485 b3bd 49cf 50be 56dd c23d 3ac4 a6be
000000b0: 9cad d2bc ca64 503e a084 923e 8ab4 ecbd
000000c0: ab59 8ebb e0fb b7be de38 9abe df8b 153d
000000d0: b441 473e 28ee 8fbd b78d 94bd 86c6 babe
000000e0: f3bf fb3d 8c98 c13d 8a7e d73c d2e7 c23e
000000f0: 9ca7 463e d608 8f3b 4a26 ebbd 1a45 843e
00000100: 764e 56bc 9d1d 203c 1326 8fbd 4ae9 fabd
00000110: 6657 1abc 1d53 db3e de0c 01be e162 3d3e
00000120: 5723 6d3e a21f e7bb 064d 13bd 26d9 733e
00000130: e26b b73e 5dba ba3d 6f91 8bbe e531 6bbd
00000140: 7799 f83c 2683 36bd 8cfc 8c3e 1051 333d
00000150: 1d27 fdbd a682 71be a136 69be a991 7dbe
00000160: 7d29 cd3d 95f5 05be 3907 8f3e f20e 70be
00000170: 72c4 1bbe 11a9 76be e5b5 a7bd c425 c9bd
00000180: f0a2 3e3d 6e2c 8cbe 3750 5bbe e893 63be
00000190: a372 d23d dc2f 843e e4c3 863e b0d3 cc3e
000001a0: 0326 533e 48a4 92be 3b99 93bd 7e1c 14bd
000001b0: b3cd f2bd 0e92 cb3d b157 86be ce39 233e
000001c0: 7c5b aabd e4a7 623e 1fab 203e 5fc3 553e
000001d0: 7089 66be bacc 873e 4d81 dbbd d4a1 57be
000001e0: 508e c73d b167 b03c ab03 d63d 8d25 dfbd
000001f0: d86d b3bd 57af c7bd a220 d3bd 0d4f 7fbc
00000200: 55cd 2abd b219 c43e 02ab 693d 87ed bf3e
00000210: 3329 7bbe 5134 7c3d df52 f5bd e31f 80bd
00000220: 0dc7 e73d bc13 993d 9009 3c3e 3d88 a93d
00000230: ff04 5fbe bdf6 983d 32e5 61be 1e7e 243e
-0.02925321 0.05915589 0.22892395 -0.007437549 -0.17474052 0.13901864 -0.20977256 0.29495868
-0.1434408 0.34965143 -0.23909919 0.028456233 -0.15579705 -0.023759892 0.2609729 0.24519953
0.31908408 0.01943245 0.26119083 -0.40750018 -0.19851388 -0.08915249 -0.27446526 -0.08463414
0.0087623205 0.3018411 -0.34208182 -0.06522588 -0.3593448 0.11424437 0.27141863 0.11661695
0.1589654 0.23799698 -0.2689372 0.03355314 0.081082165 0.19597793 0.09984333 -0.19703661
-0.08765736 -0.20391573 0.09514873 -0.32571584 -0.025717549 0.20350948 0.2861681 -0.115578726
-0.0043441853 -0.35934353 -0.3012151 0.036510345 0.19458658 -0.070278466 -0.072535925 -0.36479586
0.12292471 0.09452924 0.026305456 0.3806749 0.19399875 0.004365067 -0.114819124 0.2583397
-0.01308023 0.009772685 -0.06989684 -0.122515276 -0.0094202515 0.42836848 -0.12602565 0.1849475
0.23158012 -0.0070533315 -0.035962127 0.23813304 0.35824496 0.09117577 -0.27259395 -0.05742063
0.030346615 -0.044558667 0.27536428 0.04377848 -0.12360976 -0.23584995 -0.22774746 -0.24762596
0.10017679 -0.13081963 0.27935198 -0.23443201 -0.15211657 -0.24087931 -0.081889905 -0.09821656
0.046542108 -0.27377647 -0.21417318 -0.2222439 0.102757715 0.25817764 0.26321328 0.40005255
0.20619969 -0.28640962 -0.07206961 -0.036159985 -0.1185564 0.09939967 -0.26238778 0.1594002
-0.083182305 0.22134358 0.15690278 0.2087531 -0.22513366 0.2652338 -0.107180215 -0.21057826
0.09743941 0.021533819 0.10449918 -0.10895834 -0.087611854 -0.0975024 -0.103089586 -0.015582812
-0.041699726 0.38300854 0.05704785 0.37485906 -0.24527435 0.06157333 -0.11978697 -0.06256082
0.11317263 0.07474467 0.18363023 0.082779385 -0.2177925 0.074689366 -0.22060087 0.16063735

bias f4 [12]
00000000: 0698 86bd 370e 3dbd 43fa 0dbe 77b3 143e
00000010: db48 a4bd 7b77 6ebe d16a 2cbe d297 98be
00000020: 6e2c 87be c35d f5bd 142e b1be c177 df3d
-0.06571965 -0.046156134 -0.13864999 0.14521585 -0.080217086 -0.23287766 -0.16837622 -0.2980333
-0.26401085 -0.11980774 -0.34605467 0.10911513

weight f4 [12, 48]
00000000: 65b6 5abd fa53 9ebd 5a28 963d 46a4 89bd
00000010: 61dc 103e 5844 8abd 953e 643d c4c6 0a3e
00000020: cc63 183e f457 abbd a0e9 143e 9c6c 65bd
00000030: dc9a d3bd 02de cd3d 2ace 86bd b407 dfbd
00000040: 65c3 01be f4e1 23be 3439 003d 3fdb d9bd
00000050: fcab 673d d9e5 25bc 2f01 00be 2da7 10be
00000060: 336a 843d 85fa 673d 2583 8ebd ee08 8dbd
00000070: f7ce 9b3d e296 16be a5f9 763e 2030 1f3d
00000080: 46da 9cbd cc55 c73c 4ad8 11be 5df5 25be
00000090: e004 6dbe 1729 aabc d963 173d 43dc eabd
000000a0: 73e1 e7bd a633 1ebe ea5f 77be ae26 743b
000000b0: 69b6 49be 8341 28be 2cd4 7ebe 0ba3 73be
000000c0: 2d22 19bd 98d0 23bd 9b06 d6bc 4a21 e3bd
000000d0: 60d2 a1bd d1a0 f53d 8032 803e df63 073e
000000e0: 0d07 ca3c 3d70 1abc 552c 44bd cf3a 353e
000000f0: 502b 7fbd bc72 ad3d 36f5 9b3d f2eb 9b3d
00000100: 27b5 60bd 0248 303d 490d 4cbd a81b 253d
00000110: 8613 143e e379 eb3d 4a0f b9bc 107d 94bd
00000120: 8606 023e d2bf 0f3e 2d5d 5b3c 6c21 2cbc
00000130: 5db1 efbd 310b 463d 529c 053d a66b ff3c
00000140: eab0 0dbe e88d c13d 1354 9cbe 2ba6 b5bd
00000150: 300d 633c bad0 5abd 2913 b83d aed0 ee3d
00000160: 5c23 a63d 0315 743d 020e 303d 1529 2b3e
00000170: d8df b13d 56f2 8bbd 684a 6abd 2659 a9bc
00000180: 3d46 45bd 40a6 743e 7b56 ee3d 65dc 86bd
00000190: 6863 62bd 44d6 703e 7081 a5bd 459f b6bd
000001a0: 0dc1 e83d 07f6 63be 6433 a3bc fd7f 18be
000001b0: 1ebf 50be 8ec1 f5bc 6ed3 33be 131d 19bd
000001c0: 85a1 62bd 5fe5 e639 c1f2 4abd 3fc0 4e3d
000001d0: 517a 02be a1dd 3cbd a47e b83d 55f2 ae3d
000001e0: 5f33 883d d605 083e d297 b33d e942 bfbc
000001f0: aa4e 993d 2f08 edbd 915c 88ba 2ba4 57be
00000200: 2a3e de3c 68ec 5f3d 6691 9aba a4e4 183d
00000210: 6444 07be ee97 9dbd 8761 49be b92e 14be
00000220: fdcb 78bd b490 833d e8de a63d 9304 bebd
00000230: 16e3 613d a644 29bd 4ad8 553c 5851 113b
00000240: 1948 9b3b 9252 d23c 9e76 923d 7c94 cf3d
00000250: 48a6 2a3d 00ae 52be 5f6d 2a3e 7808 7abc
00000260: db62 4b3b 3785 8b3d 7249 2fbc 325e 84bd
00000270: 95bd 94bd 906e 273c 3890 993d 303f 023d
00000280: 50a1 8fbc f448 ddbd 195b a73d cceb 49bc
00000290: 9f5d 483d a5a1 42be 77d1 16be addd 703d
000002a0: 55b1 80bd 3d47 f1bd d822 ca3d 4ad1 f93d
000002b0: 7132 76be f130 7ebe bb96 153e 86ce a5ba
000002c0: c0c2 0bbe ae8c 30be 8b13 4fbd f66c 36be
000002d0: 5ab6 693d 6bd0 13be f760 873d c841 ffbd
000002e0: f9a7 1fbe 8c65 f9bd 9833 2bbe 9139 91bd
000002f0: 582b a2be 579d 2cbe 3f8c 19bd d860 ffbb
00000300: 1d9d 48bd a96f 5b3d d38d 4e3b 5cb5 463e
00000310: 4fe1 053e ae3c 813e 7442 80bd 5a04 68bc
00000320: 82ec 26bd 2654 2cbd 300e 263e a106 1ebc
00000330: fd31 343d 1ae1 083d 4b04 513b 9d53 313d
00000340: 1286 26bd a2bf 3fbe 7372 1ebd 5074 2f3e
00000350: 5f0d fdbd 3466 a3bd 321d 063d 4779 223d
00000360: 0132 7b3d 24b0 403e 7332 6c3d b789 5ebc
00000370: d8a4 4c3e f4aa eebd 2d7e aabd 5a55 24be
00000380: a06b 04bc fbf8 583b 3b2b 0a3d 841e 1cbd
00000390: 79a7 3a3d 23a8 4dbe d704 8bbd 0cd0 e23d
000003a0: 6642 8f3c d90c db3c 7868 8d3c 4e2e 89bd
000003b0: 0a8d 85bc 068f c23c 3778 cbbb 0d20 c63b
000003c0: 99fb 103e 0e13 a23d 3415 233e e072 493e
000003d0: f02d 84bc b7ee c53c d90f 7dbd 94a0 f23b
000003e0: ea96 afbd ed2f 1c3e cba0 fe3c 0372 01bd
000003f0: 9057 a33b 5bec 16be 1054 0abe 97b4 2ebd
-0.0533966 -0.07730861 0.07331915 -0.06720786 0.14146568 -0.06751317 0.055723745 0.13552386
0.1488182 -0.08366385 0.14542246 -0.05601178 -0.103322715 0.1005211 -0.065822914 -0.10890141
-0.12672193 -0.16004163 0.031304553 -0.10637521 0.0565605 -0.010125601 -0.12500452 -0.14126272
0.064655684 0.0566354 -0.069586076 -0.06886469 0.07607835 -0.14705995 0.2411867 0.038864255
-0.0765882 0.024332903 -0.14242664 -0.1620688 -0.23146391 -0.020771546 0.036960457 -0.11467793
-0.11322298 -0.1544939 -0.24157682 0.00372545 -0.1969849 -0.1643124 -0.24885625 -0.23792665
-0.03738611 -0.039993852 -0.026126197 -0.11090334 -0.07901454 0.11993564 0.25038528 0.13221692
0.024661565 -0.009426174 -0.04789384 0.17698215 -0.062297165 0.084691495 0.0761513 0.07613362
-0.05486026 0.043037422 -0.049817357 0.04030958 0.14460573 0.114978574 -0.022590298 -0.07250416
0.12697801 0.14038017 0.013388914 -0.010506015 -0.11703751 0.048350517 0.03261978 0.03117926
-0.13837019 0.094508946 -0.30532894 -0.08869585 0.013858125 -0.053421713 0.089880295 0.11660896
0.08112213 0.05959035 0.04298211 0.1671489 0.08685273 -0.06833331 -0.057199866 -0.020672392
-0.048162688 0.23891544 0.116375886 -0.06585006 -0.055270582 0.23519236 -0.08081329 -0.08917097
0.113649465 -0.2226182 -0.019921966 -0.14892574 -0.20385405 -0.02999952 -0.17561123 -0.037381243
-0.05532982 0.00044039913 -0.049547914 0.05047631 -0.12741973 -0.0461098 0.0900853 0.08542315
0.06650423 0.13283476 0.08769192 -0.023347335 0.07485707 -0.115738265 -0.0010403564 -0.21058719
0.027129252 0.054668814 -0.00117926 0.037327424 -0.13209683 -0.07694994 -0.1966611 -0.14470948
-0.060741413 0.06424084 0.08147985 -0.09278216 0.055148207 -0.041325234 0.013052056 0.0022173729
0.0047388193 0.025674138 0.07151531 0.10135743 0.041662484 -0.20574188 0.16643284 -0.015260808
0.0031034264 0.06812518 -0.010698663 -0.06463279 -0.072627224 0.010219231 0.07498211 0.03179854
-0.017532974 -0.1080493 0.081716724 -0.012324285 0.04891741 -0.19006975 -0.14728342 0.058805156
-0.062838234 -0.11781166 0.09869927 0.12198122 -0.2404268 -0.24823357 0.1460828 -0.001265005
-0.1364851 -0.17241165 -0.050555747 -0.17815003 0.05705867 -0.14434974 0.066102915 -0.12463719
-0.1559142 -0.12177572 -0.167189 -0.07091058 -0.31673694 -0.16856895 -0.037487265 -0.007793527
-0.04897796 0.053573284 0.003151764 0.1940512 0.1307423 0.25241607 -0.06262675 -0.014161194
-0.040752895 -0.042072438 0.1621635 -0.009645135 0.043992985 0.0334178 0.0031893428 0.04329263
-0.040655203 -0.18725446 -0.038683366 0.17134213 -0.12356066 -0.07978478 0.032742687 0.03966644
0.061326984 0.18817192 0.0576653 -0.013582638 0.19984758 -0.116537005 -0.08324847 -0.16048184
-0.0080823 0.0033107388 0.033732634 -0.03811504 0.04556987 -0.2008367 -0.067880325 0.11074838
0.017487716 0.026739525 0.017261729 -0.06698285 -0.016302604 0.02374984 -0.006209399 0.006046301
0.14158477 0.07913791 0.15926057 0.19672728 -0.016135186 0.02416168 -0.06178269 0.0074043963
-0.085737064 0.15252657 0.031082531 -0.03160287 0.0049848035 -0.147386 -0.1350863 -0.042652693

bias f4 [12]
00000000: fd47 b43d 08b4 06bd a5dc 163e 9862 d43d
00000010: 57a6 aebd 2201 e6bd 85d8 303e ad0b f4bd
00000020: d23f 433e 7aac 1a3c 0a89 3bbc 9d38 92bd
0.08802793 -0.032886535 0.14732607 0.10370368 -0.085278206 -0.11230685 0.17270096 -0.119162895
0.19067314 0.009440536 -0.011446247 -0.071397044

weight f4 [12, 12]
00000000: 44ad 0d3d 2d51 0a3e 8837 0ebd 79bb bbbd
00000010: 79a2 ae3e 9132 583e 812d 0c3e 671b 5ebe
00000020: ea11 8bbb 7a80 29be 1415 8b3e 37be 34be
00000030: c7a1 843e 17f9 d93c d0a8 c43c b954 5bbe
00000040: 8f48 56bc 6908 5c3e 95d3 42be 00ed 123d
00000050: 2621 22be 1e39 b5bd 2747 833e 673a 63be
00000060: 868d 96bd bd1d a63e ad98 ddbc b8ca 9abe
00000070: d030 733d 7e5d 2fbd 4066 c43d 8813 563d
00000080: 2d56 8dbe e4f2 d83e 9328 983c 7024 aebc
00000090: 8973 4e3e e5b4 43be e942 96be 07c8 da3e
000000a0: 5704 13be 37cb f93c 57eb 49be f7d4 2bbd
000000b0: 4b04 afbd 9fbc a4be d1fd 7b3e 4d27 bf3d
000000c0: aaea 97be 03ff a73b e7cd 30bd d07f 84be
000000d0: d5c2 ccbd df3a 35be 2087 e8bc 2f8b a3bd
000000e0: 9c3c 50be 0b93 aa3e 24ca 14be 5c62 7b3e
000000f0: 9f92 bcbd 8365 3cbe 0c8b a5be f7b6 4d3d
00000100: fcbd 323d e95c 71be 1747 a1be cdd6 703c
00000110: 62d7 8c3e 3dab 04bd 805f 55be 3c58 9f3d
00000120: 9d5b a73e 84da 1c3e cdff 213d 471a eabd
00000130: 1211 083d 5dea 7f3e 5b3b e0bc 07f8 4c3e
00000140: 4751 fabd d630 c23e c4bc d2bc a34a 23be
00000150: f0e0 f73d 59ce babe 1ac0 e33e 09cb a1be
00000160: 88ce d23e 47a3 92be b6a7 6a3e dd71 0cbe
00000170: ae4b 21be 2911 3cbe 34b6 613e d9ab d13c
00000180: 6ce7 db3a f209 abbe d8fc 85be bf5c bbbc
00000190: 9b6c 313c f764 a73e 8eaa 423e 9a55 563d
000001a0: 24e1 aabe fe7d 2ebe 4e07 5e3d f073 4a3e
000001b0: 3bc0 9ebe 20e4 ab3e b2d4 a7bd 353e 9a3d
000001c0: c918 b5be 67b1 b2bd b25b 9cbe 600d 063d
000001d0: 57af b9bc 836d 8b3d ed9a 75bd 34d6 cf3d
000001e0: 6234 753e ae21 44bc 9b9c b8bd f8b6 603e
000001f0: af5f 70be 0335 44be 27ef 573c 6b34 6b3e
00000200: 84ae ac3d 92a2 8b3e 39bf 3c3e 88dc 493e
00000210: d635 80bc c0a4 963d 0a7e edbd 1a00 a9bd
00000220: 53f8 46be b28d 56be af04 93bd d8d7 8c3e
00000230: 296d bf3e d204 46be 597c 863e bcf4 a73d
0.034589067 0.13507529 -0.034720927 -0.09166617 0.34108332 0.2111304 0.13689233 -0.2169014
-0.004244079 -0.16552916 0.2716452 -0.17650686 0.25904676 0.026608033 0.024006277 -0.21419038
-0.013078823 0.21487583 -0.19026025 0.035870552 -0.15832958 -0.08848785 0.25640222 -0.22190247
-0.07351212 0.32444564 -0.02705034 -0.30232787 0.059372723 -0.04281377 0.09589815 0.05226472
-0.2760481 0.4237281 0.018574035 -0.02125761 0.2016126 -0.19111975 -0.29347923 0.42730734
-0.14357124 0.030492408 -0.19718681 -0.041951146 -0.08545741 -0.32175156 0.24608542 0.09333668
-0.29671222 0.0051268353 -0.043165114 -0.25878763 -0.09998099 -0.17698239 -0.028384745 -0.079855315
-0.2033562 0.3331531 -0.14530236 0.2454924 -0.09207653 -0.18398099 -0.32332647 0.050223317
0.043638214 -0.23570599 -0.3149955 0.01469965 0.27508074 -0.032389868 -0.20837212 0.07780501
0.32687083 0.15317732 0.03955059 -0.11430793 0.033219405 0.24991746 -0.027372053 0.2001649
-0.12222534 0.37927884 -0.025724776 -0.1594644 0.1210345 -0.36485556 0.444825 -0.31600216
0.41173196 -0.28640196 0.22915539 -0.1371531 -0.15751526 -0.18365921 0.22042161 0.025594639
0.0016777343 -0.33406025 -0.26169467 -0.022871373 0.010829116 0.32694218 0.19010374 0.05232773
-0.33374894 -0.1704025 0.054206185 0.19770789 -0.31006035 0.33572483 -0.08194865 0.07531396
-0.35370472 -0.08725243 -0.30538708 0.0327276 -0.022666616 0.06807997 -0.059962202 0.10148278
0.23945764 -0.0119709205 -0.09014245 0.21944797 -0.23474 -0.19160847 0.013179577 0.22969215
0.08431724 0.2727247 0.1843232 0.19713032 -0.015650671 0.07355642 -0.11596306 -0.082519725
-0.19430666 -0.2095249 -0.07178628 0.27508426 0.3738797 -0.19337776 0.26266745 0.08200976

bias f4 [12]
00000000: 7cde 593d f41e 31bd 9aef bfbe 84ef 9ebd
00000010: 4dd7 b83d c95d 01be f63b 8cbe 5c95 2bbe
00000020: a754 89be 4d04 a13d 67d5 c7be 29df a9bd
0.053190693 -0.04324241 -0.3748749 -0.07760528 0.0902544 -0.12633432 -0.27389497 -0.16756195
-0.26822397 0.078621484 -0.3903 -0.082945175

weight f4 [12, 48]
00000000: b1e8 91bd 5370 8abb 0573 2bbe 9219 c4bc
00000010: fc41 a5bd 9681 d73d 80ab 253e f556 5c3e
00000020: 3bcc 873d 022b 08bb 60a5 f73d 4182 11bc
00000030: ca9d e8bd 4ad5 513d 2a42 0b3e 4ba4 e1bd
00000040: 4316 c53d 2a15 c2bc 4af3 c1bd 0c8e b63c
00000050: 41eb 4a3e f2d8 1c3e 58c7 e33d 33f1 e13d
00000060: 0f5c c83c 7979 d53d 2b99 e2bd 33e1 803d
00000070: eec4 8d3d 0960 b43d 6e6f 30be e7a2 8fbd
00000080: 3ccc 9cbc 2298 76bd 44a7 96bd d2a6 823d
00000090: a1ff 103e deb7 16bd 5695 6b3e 6479 f03d
000000a0: 9bdd 713d 7e5c 75bb 287b 183e d075 8f3d
000000b0: 20c0 403e 3d1b 9b3c 04ef a23d b0ac 7dbd
000000c0: 1469 7cbe 72cb b13d 60aa 04bf 22f8 97be
000000d0: ffd0 a8bc 317a 843d dc01 273d 4cb3 b13c
000000e0: 69f7 fbbd 7a45 5b3c 12c7 3d3e 2515 3f3b
000000f0: 3ba3 d7bb e6ae ba3c f85d 73bd 23de 903d
00000100: a843 69bd ba82 c23c ffe2 1bbe d581 2e3e
00000110: b056 873e fd97 0a3d 6ce5 793e ff1f 9b3b
00000120: 24ab a43d a5f0 6c3e 9109 28bd bd8b fbbc
00000130: d23c 62bd e558 f7bb eb2c 29bd f2f9 403d
00000140: 55e0 123e 86bd 243e 0bf2 6f3e cb3e 343e
00000150: 93e9 b63d 01c4 e43c 9e60 093e 6f26 4d3d
00000160: c8f0 6f3e 10ec 3d3e 8d0d 343e 31e9 803e
00000170: 311b bebd f7ba b5bc eb2f 13bb b63f 00be
00000180: fc26 9c3e a237 553e 29da 7c3e fdbb 133e
00000190: 1974 f83d 454c 23bd 6cc9 d4bc 8e94 17be
000001a0: 7a25 113e 90b9 9fbd 642b 683d 3adb 2f3e
000001b0: 4206 02be adb7 4d3d 6e2b 18be d08a 69bd
000001c0: 154c 99bd 55ab b43d f59a 753d c518 18be
000001d0: e54d 2fbb 2ba7 43be 4795 e3bd f3c1 abbd
000001e0: b4c8 8a3d a1f0 8fbd d242 f13d e30e 213e
000001f0: 8b34 a2bd 87a2 24be 1242 5e3c 7f42 54bb
00000200: fc41 cfbd 5da2 84bd ae9c 2bbe 01b8 3ebd
00000210: 2f3c 84be 5271 4abe 5dc5 c9bd c4b8 80bd
00000220: 8396 01be 5ff2 78bd edc4 51be 4c1e c8bb
00000230: d4fc 7ebd 66f4 50be 7626 063d bbda 89bd
00000240: e915 803c 3044 bb3d 9e79 96be 7025 15be
00000250: 0336 1a3d 257c 30bd 8bf0 863e f220 e9bc
00000260: 85e1 2abe 6e9b 3bbd fbd0 ff3d a189 1cbd
00000270: cdc0 d7bd a99b f43d 9340 9a3b 0c8c 8abd
00000280: 78d3 4b3e 2559 8dbd 28e7 35bd 8543 333d
00000290: 4818 893c d079 c53d 3787 173d 4d96 8d3d
000002a0: b68e 123e abfd 403e 3c3b 28bd 5154 53bd
000002b0: 3cd0 40be 7fee aa3d 446e a53d bedb 16be
000002c0: 2cb3 bd3d 1d3d 80bd f4c7 223e ac19 c2bc
000002d0: ab46 8dbd 9e22 bf3d f1b9 2c3a 5333 c03d
000002e0: 672a 793e cd76 e33d bf1b d3bc f057 a53d
000002f0: df3d a83d 12ba f3bd 7f5c 56be 072f f03d
00000300: 8791 0cbe 686f 98bd 070e c83b 3509 ddbd
00000310: 80bd 51bd e965 eabd 4361 9cbd 58b3 03bd
00000320: bcd2 ea3d fb7a fe3c 1ee9 c0bc 248b 03be
00000330: e39b 97bd 4fe6 043d 88e5 e8bc d151 603d
00000340: d161 1fbc 4874 dd3d 91ec 47bd f89b bcbd
00000350: 8171 dcbd 2cf5 cb3d 0a7a 953d 90a3 92bd
00000360: 7235 ac3d 3c66 dabd f7b4 f4bd d1ed 0e3e
00000370: d66f fe3b adf9 8bbd f843 373e 3991 7cbd
00000380: 0475 ca3d 16a9 873d add1 a8bd 2d13 22be
00000390: 9037 0bbe 98e8 023e 6300 b63d 8dea 053d
000003a0: 80ad 343d 6853 e8bc 81e1 fbbb 10cb 31bd
000003b0: f002 803c 38b7 44bd 0fd7 bd3d 1191 4bbb
000003c0: 376f c63e a318 b03e 9978 193f 8645 8f3e
000003d0: 7318 483e 2d70 8c3b 59bb 343c b720 f03c
000003e0: 160b 813e 75ee 983d eea5 323d abdd 5f3e
000003f0: 09d3 4b3e ed95 b13a f757 283e dd8b 573e
-0.071244605 -0.004224816 -0.16743095 -0.023937974 -0.08069226 0.105227634 0.16178703 0.21517546
0.06630751 -0.0020777588 0.1209209 -0.008881153 -0.11358221 0.0512288 0.13599458 -0.110176645
0.09623387 -0.023691732 -0.09470232 0.02228453 0.19816305 0.15317133 0.11122006 0.11032333
0.02445796 0.1042356 -0.11064371 0.06292953 0.06922327 0.0880738 -0.17230007 -0.07013493
-0.019140355 -0.06020368 -0.07356122 0.06379475 0.14160015 -0.036796443 0.23006186 0.117419034
0.05904923 -0.0037439163 0.1489073 0.07004893 0.1882329 0.018933887 0.07955745 -0.061932266
-0.24649459 0.08681382 -0.5182247 -0.29681498 -0.02060747 0.06468619 0.040773258 0.02169194
-0.12303049 0.013383264 0.1853297 0.002915689 -0.006580738 0.022788476 -0.059415787 0.07073619
-0.056949288 0.023743976 -0.15223311 0.17041714 0.26433325 0.033836354 0.24403924 0.004734039
0.08040455 0.23138674 -0.04102475 -0.03070628 -0.055233784 -0.007548439 -0.041302603 0.047113366
0.14343388 0.16087922 0.23432176 0.17602079 0.089312695 0.027925493 0.13415763 0.05008548
0.23431695 0.18547082 0.17583294 0.2517791 -0.0928253 -0.022183878 -0.0022458981 -0.12524304
0.30498493 0.20822003 0.24692596 0.1442718 0.12131519 -0.03986766 -0.025974952 -0.14802763
0.14174452 -0.07799065 0.056682006 0.17173472 -0.126977 0.050223995 -0.14860317 -0.057017148
-0.074852146 0.088217415 0.05996223 -0.14853199 -0.002674931 -0.19106738 -0.11112457 -0.08386602
0.06776562 -0.07028318 0.11780323 0.15728335 -0.07920178 -0.16077624 0.013565557 -0.0032388268
-0.101200074 -0.06476281 -0.16758987 -0.0465622 -0.25827166 -0.19769791 -0.09852097 -0.06285241
-0.12655072 -0.060778018 -0.20485277 -0.0061071273 -0.062252834 -0.2040573 0.032751523 -0.06731173
0.015635448 0.09143865 -0.29389662 -0.14565063 0.037649166 -0.043087143 0.26355395 -0.028458092
-0.16687591 -0.045802526 0.12491032 -0.03821719 -0.10534821 0.11943752 0.004707405 -0.06764993
0.19904888 -0.069017686 -0.0444099 0.043765564 0.016735211 0.096423745 0.036994185 0.06913433
0.14312252 0.18846767 -0.041072115 -0.051594082 -0.18829435 0.08346271 0.08077672 -0.14732262
0.0926269 -0.062616564 0.15896589 -0.023693882 -0.068982445 0.093327746 0.0006588987 0.09384789
0.24332581 0.11106644 -0.025770066 0.08073413 0.08214926 -0.119007245 -0.20933722 0.1172772
-0.1372739 -0.07443124 0.006105188 -0.10792772 -0.051206112 -0.11445219 -0.07635739 -0.032153457
0.11465976 0.031064501 -0.023548659 -0.12846047 -0.0740278 0.032446202 -0.028429762 0.054765526
-0.009727911 0.108131945 -0.04880959 -0.09209436 -0.10763837 0.09958872 0.07298668 -0.07160103
0.084086314 -0.10664031 -0.11948579 0.13957907 0.0077647967 -0.06834731 0.17897022 -0.061661933
0.098856 0.066240475 -0.082431175 -0.15827627 -0.13595414 0.1278404 0.088867925 0.03269439
0.044110775 -0.028360084 -0.0076867943 -0.043406546 0.0156264 -0.048026294 0.09269535 -0.0031061808
0.38756725 0.34393796 0.5994964 0.2798273 0.19540577 0.0042858333 0.011030995 0.029312475
0.2520377 0.07467357 0.043615274 0.21861903 0.19904722 0.001354871 0.16439806 0.21049447

bias f4 [12]
00000000: 1f05 b13d 41cf 713e c4e3 bd3d 4257 2e3e
00000010: c304 e23c fb60 203e 5226 b13c fbca 823c
00000020: 7fcf 7fbd 3bdb 8d3d 7cc2 a6bd 120d fabd
0.08643555 0.23614217 0.092719585 0.17025474 0.027590161 0.15661995 0.021624718 0.01596593
-0.062453743 0.069265805 -0.08142564 -0.12209524

weight f4 [12, 12]
00000000: 6f47 64be 6514 88be 85bd febd 5734 c7bc
00000010: 5e09 693e 7756 0a3e 01e7 22be f571 f33d
00000020: 76d2 4bbe fbae 4f3e bdb6 9e3e 4228 44be
00000030: df1c 9e3e 3915 8b3e 92e2 afbe ab14 fe3c
00000040: d628 f53c f856 cdbe aa73 aa3e 59ef 853e
00000050: 6c60 6a3e 35bf 923d c80f bc3e 5b16 18be
00000060: 1156 713d 2fde bebe 06e3 443e ad01 9ebe
00000070: 1524 3cbe 1588 56be 7a14 5cbe 671c 103d
00000080: 109e 2c3d d240 603e cd2e 413e 0856 ba3d
00000090: fe69 07be bea9 923e 0f06 cbbe 8a53 343e
000000a0: e404 88be e704 13bf 04b9 443e bcc9 353e
000000b0: 814f 3abd 66e0 6a3e db4f c73e 3049 823e
000000c0: 4741 3d3e e5b9 d5be 4945 9ebd 94da 8abd
000000d0: e494 e63d 7342 75be e3bc 163e 211c 7a3d
000000e0: bc07 683e e02b 813e 76b5 0cbd 87c1 52bd
000000f0: 291f 2dbd 8046 0d3e 6130 e93c 251a 5cbe
00000100: fa3c 86be 396d a83c 449f 2ebe d14c e13d
00000110: 5dc0 9f3e 7ca5 b33e 894b 063e df61 883e
00000120: b4a5 c8bd da03 54bc 7450 5c3e 0440 e53c
00000130: 3abb e9bd 947b cebe 09e1 573e 55a6 0ebd
00000140: 3b89 a83d 260f c1be 0672 ea3e 9c67 413d
00000150: f0ce 3a3e c49b fe3d ef1d 11be 30df 8f3e
00000160: 5478 34bd d2d3 9dbe 562a 423e 0b8f 74be
00000170: 498c e13d 7d29 22be 5be0 b63d 9edc 22be
00000180: 2bf8 c5be 8c87 40be 4ad9 343e 839c d8be
00000190: 1da0 91bd a4e3 71bd d1ab fbbc df3f b83e
000001a0: 93e5 8c3e 42a6 0d3e 3193 503e d08a 8c3e
000001b0: 7790 a63c 6cc0 58bd f2ad d43d f91c 4f3e
000001c0: e59b 863e 1023 22be 780c 17be 2413 f2be
000001d0: 0f99 1d3d 5101 58be 4069 cf3d 1d2f 833d
000001e0: 9e21 ac3d 746c d0bc fb73 07bc 3dab 86be
000001f0: 39bd 723e 6dfa 243d 7cc1 a5be 090d c33e
00000200: 53e2 8b3e cb09 23be aac3 b73c 0f52 28be
00000210: ef3a 623d e46e 973e f050 933e 01e0 dd3c
00000220: 86bd 8d3d 71aa 893d 8896 253c 11f9 6abe
00000230: 2cef 26be 508e 88be 6f5d 083d 26f9 5d3e
-0.22292875 -0.2657806 -0.12438492 -0.02431695 0.2275748 0.13509546 -0.15908433 0.1188697
-0.19904503 0.20281594 0.30998793 -0.19155982 0.30881402 0.2716463 -0.34352547 0.031015715
0.029926699 -0.40105414 0.3329137 0.2615917 0.22888345 0.07165376 0.3673079 -0.14852278
0.05891997 -0.37278888 0.19227228 -0.30860654 -0.18373139 -0.20950349 -0.21492186 0.035183337
0.042142928 0.21899727 0.1886551 0.090984404 -0.13224027 0.28645128 -0.3965306 0.17609993
-0.2656623 -0.57429355 0.19211203 0.17752737 -0.045485977 0.22937164 0.38928112 0.25446463
0.18481933 -0.4174339 -0.07728059 -0.06779972 0.112588674 -0.2395113 0.14720492 0.061061982
0.226592 0.25228786 -0.034352742 -0.051454093 -0.042266045 0.13796425 0.028465452 -0.21494348
-0.26218396 0.020559894 -0.17052943 0.1100098 0.3120145 0.35087192 0.13114752 0.2663717
-0.0979723 -0.012940371 0.21515065 0.027984627 -0.11412664 -0.40328658 0.21081938 -0.034826595
0.082293 -0.3770687 0.45790118 0.04721795 0.18243003 0.12432054 -0.14171575 0.28099966
-0.044060066 -0.3082567 0.18961462 -0.23882692 0.110130854 -0.15836139 0.08929511 -0.15904471
-0.386659 -0.18801707 0.17661014 -0.4230691 -0.07110617 -0.059054986 -0.030721577 0.3598623
0.275189 0.13832954 0.20368649 0.27449656 0.020332558 -0.052917883 0.1038474 0.20225896
0.26290813 -0.15833688 -0.1475085 -0.47280228 0.038476046 -0.21094252 0.10127497 0.064054705
0.084048495 -0.02544234 -0.008267398 -0.2630252 0.23704995 0.040277887 -0.3237418 0.38095883
0.2732111 -0.15921704 0.022432167 -0.16437553 0.055231985 0.2957679 0.28772688 0.027084352
0.06920914 0.06721962 0.01010669 -0.22946574 -0.16302174 -0.26671076 0.03329223 0.21677074

bias f4 [12]
00000000: e7d0 a93d aa0d 6dbe 934f 433d 44cd 0bbf
00000010: 94e7 a23d b002 393e c7e5 943c f40f e2bd
00000020: 4692 293c a3dd 0d3e e2d8 4abd 84f6 6dbe
0.08291798 -0.23149744 0.04768331 -0.54610085 0.07954326 0.18067431 0.018175973 -0.11038199
0.010349816 0.13854079 -0.04952324 -0.2323857
