MQCNN-QA-4qubits-7class-CIFAR-same-5filter/Models_V1/model_32.pt (torch, 158006 bytes, 47 tensors)

weights f4 [7]
5.469415 2.036221 2.3984332 0.6121293 4.591022 6.1700497 5.335837
00000000: 7305 af40 7251 0240 ee7f 1940 81b4 1c3f
00000010: a7e9 9240 0c71 c540 2dbf aa40

weights f4 [7]
1.480864 0.10362933 5.239439 5.4976315 5.6876364 2.5562177 4.856143
00000000: f48c bd3f 9d3b d43d 7ca9 a740 99ec af40
00000010: 1e01 b640 1299 2340 8665 9b40

weights f4 [7]
-0.0060953363 2.4632733 3.954485 6.0872416 1.1170669 1.8954281 5.7036543
00000000: 63bb c7bb 45a6 1d40 4816 7d40 afca c240
00000010: 0cfc 8e3f 639d f23f 5684 b640

weights f4 [7]
5.1599364 4.204017 3.3884597 4.774962 0.12542863 2.8727732 2.7909918
00000000: 331e a540 4f87 8640 86dc 5840 7dcc 9840
00000010: 5d70 003e 84db 3740 9c9f 3240

weights f4 [7]
5.813588 3.4337385 2.2047672 4.750568 6.081561 3.2687292 5.29494
00000000: ea08 ba40 5fc2 5b40 e81a 0d40 a704 9840
00000010: 269c c240 dc32 5140 2670 a940

weights f4 [7]
5.1854024 3.8350725 5.153915 6.0237203 3.4651053 0.5944428 5.9614854
00000000: d1ee a540 d471 7540 dfec a440 51c2 c040
00000010: 49c4 5d40 672d 183f 7dc4 be40

weights f4 [8]
1.5429071 6.404626 2.5774155 3.6525335 1.3067819 4.37053 2.952513 0.9038768
00000000: fb7d c53f b2f2 cc40 60f4 2440 1cc3 6940
00000010: a144 a73f 62db 8b40 f9f5 3c40 7864 673f

weights f4 [8]
3.570946 2.6541362 5.7817407 2.5279524 3.9759407 0.18045072 5.874199 2.2797956
00000000: 618a 6440 5edd 2940 0504 b940 f9c9 2140
00000010: d075 7e40 13c8 383e 70f9 bb40 2ce8 1140

weights f4 [8]
4.872629 0.8017217 2.4614024 2.9446776 1.7554208 1.4197408 0.6898079 2.8862958
00000000: 94ec 9b40 a23d 4d3f 9e87 1d40 9975 3c40
00000010: a1b1 e03f 11ba b53f 4097 303f 12b9 3840

weights f4 [16]
4.1399846 1.9860129 2.3386614 -0.074902296 5.391202 3.7777438 5.2286105 6.3591685
3.8346295 0.24953575 5.447986 5.2574205 4.9333215 2.5881202 3.4571085 1.1724639
00000000: c17a 8440 ac35 fe3f a1ac 1540 6066 99bd
00000010: ba84 ac40 8ec6 7140 c750 a740 4f7e cb40
00000020: 926a 7540 4d86 7f3e e755 ae40 ca3c a840
00000030: c5dd 9d40 c3a3 2540 4441 5d40 4c13 963f

weights f4 [16]
4.9212546 5.250809 3.0293553 4.4756255 4.7535567 3.802568 3.1917753 4.7673874
2.6666205 4.2365046 5.984155 3.1090376 5.090545 5.173448 3.6055396 5.766882
00000000: eb7a 9d40 a106 a840 f5e0 4140 5338 8f40
00000010: 231d 9840 465d 7340 0c46 4c40 708e 9840
00000020: e9a9 2a40 7291 8740 337e bf40 79fa 4640
00000030: bfe5 a240 e38c a540 29c1 6640 4c8a b840

weights f4 [16]
4.331368 2.020002 0.81598115 -0.12105161 5.4501805 4.337578 3.6175208 5.944334
5.1780024 0.6914157 4.8157473 4.1435866 3.9216802 0.35528257 0.23705713 5.307647
00000000: 919a 8a40 b647 0140 24e4 503f e8e9 f7bd
00000010: e167 ae40 70cd 8a40 7685 6740 fc37 be40
00000020: 32b2 a540 9f00 313f 9a1a 9a40 4398 8440
00000030: cffc 7a40 99e7 b53e 1bbf 723e 3fd8 a940

weights f4 [12]
5.415855 0.02833518 1.5994834 2.8988974 0.9447504 2.4098902 5.9732413 3.6882548
1.4898293 5.557942 6.248637 2.7748103
00000000: af4e ad40 2e1f e83c dfbb cc3f 8987 3940
00000010: 2adb 713f a43b 1a40 cb24 bf40 5e0c 6c40
00000020: bab2 be3f a9da b140 d6f4 c740 7e96 3140

weights f4 [12]
0.7816396 3.039905 0.37989146 2.993719 0.96907485 2.2968974 3.6992757 3.5989947
1.6101872 5.2508607 3.5683582 0.48326647
00000000: 8819 483f ce8d 4240 2281 c23e 1899 3f40
00000010: 4a15 783f 5e00 1340 efc0 6c40 ee55 6640
00000020: 9d1a ce3f 0d07 a840 fb5f 6440 b46e f73e

weights f4 [12]
5.898154 1.7656493 3.5671897 3.3217459 1.7269483 5.224699 5.094816 1.6117982
3.5894165 2.1731417 0.31125113 5.080903
00000000: adbd bc40 cc00 e23f d64c 6440 7c97 5440
00000010: a40c dd3f bc30 a740 bc08 a340 674f ce3f
00000020: 00b9 6540 c114 0b40 4f5c 9f3e c296 a240

weight f4 [12, 48]
0.123397104 -0.06082781 -0.033517182 -0.13084427 -0.07872713 -0.10124129 0.14942025 -0.06499449
-0.12915064 0.057906486 0.06728061 0.022287346 0.044247627 -0.08702634 -0.07939163 -0.08192771
-0.0657261 0.10570564 -0.062530845 0.018177846 -0.10892462 0.06539524 0.092664674 -0.069953166
-0.032380283 -0.07624714 0.004803078 0.13261472 0.06714211 0.11320486 0.10240655 0.0014239699
-0.04577082 0.07760932 -0.00079397456 -0.08895115 0.08799612 -0.06880386 -0.01158869 -0.05070579
-0.07812243 0.057524078 -0.06464924 0.067511715 -0.07695752 0.026506208 -0.12971959 -0.09007583
-0.16925041 -0.14141275 -0.014058084 -0.16901378 -0.07701567 -0.11440624 -0.05886319 -0.025205474
-0.0004280353 -0.07705124 -0.028798167 -0.038020775 0.10116202 0.064358406 -0.20320423 0.2825486
-0.063317075 0.00021548259 -0.07613541 -0.10424392 0.23337257 -0.049315777 0.18869922 0.06925988
0.13487929 -0.10885069 0.00031201128 0.07313116 0.030794106 0.10237201 -0.13041711 0.018114222
-0.07627268 0.2027539 -0.06486152 -0.004552098 -0.18671319 -0.08018433 -0.16995102 0.09274774
0.100565776 0.14435229 0.14775006 -0.04358775 -0.024509093 -0.013620229 0.007698087 0.32425305
-0.28287566 -0.118397914 -0.028119663 0.12226015 0.10805346 -0.10283627 0.0010204794 0.0046129194
-0.08578399 -0.048959564 -0.11532612 0.045740172 -0.026236214 -0.13503371 -0.061229248 0.14549215
-0.1740755 -0.04877647 -0.007711083 -0.050281975 0.07830733 0.0026526158 -0.011976068 0.14476252
0.08582055 0.030793414 0.043878153 -0.008584541 0.044351898 0.053525336 -0.1837705 -0.025049325
-0.09173526 0.04766981 0.18380737 0.13583848 0.029915154 -0.004763171 0.0093907835 0.09135743
-0.08621014 -0.16758543 -0.059098188 0.056980465 0.13488778 -0.11363105 -0.060823943 0.21602038
-0.10485938 0.058925845 -0.42555502 -0.034099195 -0.06334813 -0.022309713 -0.07908123 0.071091704
-0.07038476 -0.012943047 0.076636136 -0.13303639 -0.058861308 0.042484056 -0.091876954 0.048411015
-0.06346718 -0.08417782 -0.021309748 0.13678724 -0.10179754 0.07724807 -0.031933114 -0.023777517
-0.17903164 -0.10899547 -0.11229567 0.17362715 -0.10333229 -0.15553701 0.10745386 -0.022599965
-0.106984474 -0.1481739 0.13340476 0.09374371 -0.07463947 -0.1840523 0.2156095 0.10236586
-0.05299576 -0.10382516 -0.13369481 0.1532273 0.031754248 0.10623681 0.10995285 0.07739401
-0.040067717 -0.04191765 0.011231742 0.105144545 -0.05208224 0.016485758 -0.101038344 -0.08041938
-0.094768465 0.06281465 0.092821166 0.121770866 0.18425748 -0.025501698 -0.026912814 0.28538415
0.07276423 0.021292556 -0.049079936 0.012997596 0.06424251 0.19060253 -0.02089462 0.053228952
0.05415792 -0.036738068 0.07365642 0.042005222 0.069591194 -0.035394907 -0.17339931 0.029161457
0.24040526 0.1560724 0.23116444 0.14834075 -0.11184202 -0.0700173 -0.15016256 -0.06833709
-0.015697125 -0.052299116 0.037151635 0.08981812 0.16001816 0.033068337 -0.05750913 0.073092684
-0.04821016 -0.05037028 -0.12426646 -0.10767655 -0.058268435 -0.08498401 0.16598165 0.14413951
0.11397774 0.02995476 -0.021201575 0.13660459 0.13913722 0.00032492942 0.1141097 -7.7849734e-05
00000000: 9fb7 fc3d 9526 79bd 5049 09bd 0afc 05be
00000010: b13b a1bd 9857 cfbd 9f01 193e d51b 85bd
00000020: 1140 04be 5a2f 6d3d 6bca 893d f493 b63c
00000030: 003d 353d de3a b2bd 1498 a2bd b7c9 a7bd
00000040: 689b 86bd 337c d83d 2c10 80bd b5e9 943c
00000050: df13 dfbd f1ed 853d fac6 bd3d 9b43 8fbd
00000060: 30a1 04bd 7627 9cbd 2363 9d3b 27cc 073e
00000070: cd81 893d f3d7 e73d 86ba d13d 80a4 ba3a
00000080: 2f7a 3bbd a3f1 9e3d bb22 50ba 052c b6bd
00000090: 4f37 b43d 0ae9 8cbd 7dde 3dbc e0b0 4fbd
000000a0: a7fe 9fbd 5e9e 6b3d d266 84bd 9543 8a3d
000000b0: e79b 9dbd 8c23 d93c 36d5 04be ad79 b8bd
000000c0: fb4f 2dbe 81ce 10be e153 66bc f311 2dbe
000000d0: 64ba 9dbd d24d eabd 871a 71bd b67b cebc
000000e0: ed69 e0b9 0acd 9dbd 22ea ebbc acbb 1bbd
000000f0: 082e cf3d 57ce 833d c514 50be 36aa 903e
00000100: 62ac 81bd 2bf3 6139 e2ec 9bbd d67d d5bd
00000110: 38f9 6e3e 57ff 49bd 5e3a 413e 20d8 8d3d
00000120: cc1d 0a3e 1ced debd 7295 a339 cac5 953d
00000130: ec43 fc3c 6ba8 d13d 108c 05be 4764 943c
00000140: da34 9cbd b89e 4f3e 1ed6 84bd c429 95bb
00000150: be31 3fbe af37 a4bd a407 2ebe 87f2 bd3d
00000160: 6ef5 cd3d 16d1 133e cb4b 173e 1289 32bd
00000170: 4bc7 c8bc 6227 5fbc 3c40 fc3b 7f04 a63e
00000180: 14d5 90be 9b7a f2bd 355b e6bc 8863 fa3d
00000190: 224b dd3d d39b d2bd 9bc1 853a f927 973b
000001a0: 84af afbd d389 48bd 1a30 ecbd 0c5a 3b3d
000001b0: 54ed d6bc 4746 0abe 85cb 7abd e5fb 143e
000001c0: d940 32be d6c9 47bd 41ad fcbb 79f4 4dbd
000001d0: 985f a03d 82d7 2d3b 4537 44bc a03c 143e
000001e0: afc2 af3d 7842 fc3c 94b9 333d 2da6 0cbc
000001f0: 56aa 353d 623d 5b3d 552e 3cbe 3e34 cdbc
00000200: b2df bbbd 6b41 433d 0038 3c3e 3e19 0b3e
00000210: a010 f53c 6014 9cbb cddb 193c 9b19 bb3d
00000220: f18e b0bd 849b 2bbe f110 72bd 5964 693d
00000230: 0620 0a3e 65b7 e8bd 8722 79bd 7234 5d3e
00000240: 84c0 d6bd 3a5c 713d 59e2 d9be 99ab 0bbd
00000250: aabc 81bd dcc2 b6bc 57f5 a1bd 8798 913d
00000260: e325 90bd 130f 54bc 68f3 9c3d b13a 08be
00000270: 8e18 71bd c303 2e3d fc29 bcbd a14a 463d
00000280: 15fb 81bd 6c65 acbd c891 aebc f411 0c3e
00000290: 3b7b d0bd 3c34 9e3d 4ccc 02bd 11c9 c2bc
000002a0: 1254 37be 0439 dfbd 46fb e5bd 51cb 313e
000002b0: e19f d3bd 1845 1fbe c510 dc3d 9023 b9bc
000002c0: ad1a dbbd e6ba 17be 429b 083e b4fc bf3d
000002d0: 94dc 98bd 3578 3cbe bdc8 5c3e 31a5 d13d
000002e0: 1512 59bd 49a2 d4bd 4be7 08be 9ee7 1c3e
000002f0: be10 023d af92 d93d f62e e13d c080 9e3d
00000300: 0c1e 24bd d7b1 2bbd 5705 383c 0656 d73d
00000310: 3054 55bd 240d 873c 31ed cebd eab2 a4bd
00000320: f815 c2bd f8a4 803d 0619 be3d 0163 f93d
00000330: fead 3c3e f0e8 d0bc 4378 dcbc df1d 923e
00000340: 6a05 953d ba6d ae3c 0b08 49bd def3 543c
00000350: 9491 833d 4f2d 433e 322b abbc 9a06 5a3d
00000360: b2d4 5d3d a87a 16bd 2dd9 963d ab0d 2c3d
00000370: d485 8e3d 40fa 10bd 978f 31be 02e4 ee3c
00000380: cc2c 763e 71d1 1f3e 5fb6 6c3e a3e6 173e
00000390: 6e0d e5bd 3b65 8fbd 37c4 19be 51f4 8bbd
000003a0: 4297 80bc 9937 56bd 502c 183d 90f2 b73d
000003b0: cddb 233e aa72 073d b28e 6bbd 9eb1 953d
000003c0: 0478 45bd 1151 4ebd 6a7f febd 8685 dcbd
000003d0: e2aa 6ebd 190c aebd 18f7 293e 4f99 133e
000003e0: 296d e93d af63 f53c edae adbc 13e2 0b3e
000003f0: fd79 0e3e 4a5b aa39 59b2 e93d 4243 a3b8

bias f4 [12]
-0.10391728 0.06383511 0.035704788 -0.005820124 0.34487975 -0.040656727 -0.12697144 0.17210819
-0.009133175 -0.067597374 -0.030945355 -0.10983816
00000000: 95d2 d4bd fbbb 823d 2f3f 123d bdb6 bebb
00000010: 1494 b03e ab87 26bd cd04 02be 213d 303e
00000020: 50a3 15bc 7e70 8abd 1d81 fdbc d4f2 e0bd

weight f4 [12, 12]
0.17234801 0.23229669 -0.031288847 -0.092004485 -0.373909 0.17647085 0.29198554 -0.002327825
-0.25140572 -0.102557056 0.0777004 0.10447513 -0.24386257 0.20877093 -0.08218735 0.029457463
0.20279597 -0.24502175 0.25574896 -0.1984491 0.11020068 0.27709123 -0.31752822 0.063852444
0.012818759 -0.0014330046 0.057911206 -0.34718776 0.16244148 0.1438959 0.12459829 0.10794118
0.016474364 0.18267098 -0.46544898 0.18427259 -0.10925557 -0.17098942 -0.12653013 0.436053
-0.09398485 0.40767297 -0.19752237 -0.39955515 0.2776715 -0.40687194 0.14209738 0.28977978
-0.21912652 0.13666591 -0.26267958 0.33529836 0.020906657 -0.11307982 -0.054328896 0.19505675
0.38241953 0.25768796 -0.057301935 0.22407569 0.16125633 0.21573783 0.018326575 -0.054196093
0.13851376 0.3107869 0.2488568 -0.0029682016 -0.14062807 -0.018342426 -0.12975392 -0.2986175
-0.06257499 -0.052865006 -0.18797822 0.20957848 0.04373152 -0.18869044 0.19514465 -0.11658472
-0.34617406 0.09284086 0.10089983 -0.032756336 0.01672068 0.16834831 0.24203001 -0.052184872
-0.053793613 -0.21758728 0.24233054 -0.25825584 -0.026669107 -0.13510843 0.11247654 -0.117805496
0.23879708 -0.17690785 0.07282202 0.41490513 -0.05296783 0.21274796 -0.0029826907 0.032823607
0.24233398 0.19822824 0.1032291 -0.13586356 0.022057476 0.05317798 0.053646028 -0.0013501529
0.20279317 0.009504551 -0.057488997 -0.23978165 -0.18688494 0.24609393 0.09867576 -0.07885119
0.1565805 0.35039115 0.16848432 -0.38134733 -0.26314378 -0.11921501 0.19404958 -0.2401373
-0.35588562 0.35400867 -0.2829971 0.07460913 0.18160668 -0.20502964 0.23593691 -0.044942826
0.20676753 0.1646229 -0.21465646 0.10688976 0.09881262 -0.2952044 -0.14868718 -0.08880429
00000000: ff7b 303e 2fdf 6d3e bc28 00bd d96c bcbd
00000010: 0071 bfbe c6b4 343e 217f 953e 6c8e 18bb
00000020: 40b8 80be 6f09 d2bd 6321 9f3d 0ff7 d53d
00000030: 1cb7 79be 0cc8 553e d751 a8bd c750 f13c
00000040: bfa9 4f3e fbe6 7abe 87f1 823e 3e36 4bbe
00000050: e5b0 e13d e7de 8d3e 0f93 a2be 12c5 823d
00000060: c605 523c a8d3 bbba 4d34 6d3d 98c2 b1be
00000070: 0f57 263e 7259 133e 632d ff3d 4410 dd3d
00000080: 3ff5 863c 1a0e 3b3e 544f eebe f4b1 3c3e
00000090: 62c1 dfbd da17 2fbe 1d91 01be 5742 df3e
000000a0: 217b c0bd 83ba d03e 4e43 4abe 7e92 ccbe
000000b0: f52a 8e3e 8551 d0be fa81 113e 045e 943e
000000c0: b462 60be 26f2 0b3e f07d 86be 3aac ab3e
000000d0: 7044 ab3c 6596 e7bd fa87 5ebd f5bc 473e
000000e0: 7ecc c33e adef 833e 6fb5 6abd 1974 653e
000000f0: 6120 253e 61ea 5c3e 9d21 963c b9fc 5dbd
00000100: 8dd6 0d3e 761f 9f3e 51d4 7e3e 2986 42bb
00000110: ce00 10be db42 96bc 36de 04be 65e4 98be
00000120: 5127 80bd fa88 58bd 5d7d 40be be9b 563e
00000130: d31f 333d 1138 41be 00d4 473e f8c3 eebd
00000140: ba3d b1be 5923 be3d 92a4 ce3d 822b 06bd
00000150: cff9 883c 8063 2c3e b7d6 773e cebf 55bd
00000160: b156 5cbd 33cf 5ebe 7f25 783e 1c3a 84be
00000170: 2c79 dabc dd59 0abe 1a5a e63d 0244 f1bd
00000180: 3987 743e 5527 35be b623 953d 726e d43e
00000190: ccf4 58bd 9ada 593e 3f79 43bb 0c72 063d
000001a0: 6626 783e 58fc 4a3e c769 d33d d11f 0bbe
000001b0: e1b1 b43c 27d1 593d f0bb 5b3d 9df7 b0ba
000001c0: 03a9 4f3e fab8 1b3c 9579 6bbd 5289 75be
000001d0: c45e 3fbe 0c00 7c3e 8416 ca3d bc7c a1bd
000001e0: a356 203e 7866 b33e 2787 2c3e f53f c3be
000001f0: c8ba 86be 0027 f4bd efb4 463e 8de6 75be
00000200: a436 b6be a040 b53e ffe4 90be accc 983d
00000210: 1af7 393e 4af3 51be 7299 713e f815 38bd
00000220: deba 533e e892 283e e7ce 5bbe 05e9 da3d
00000230: 455e ca3d 0825 97be 7441 18be 06df b5bd

bias f4 [12]
0.16673726 0.101152256 0.22973257 -0.48576668 -0.07286522 0.14777565 0.2228467 -0.24615955
0.12403422 -0.23264024 0.029745873 -0.08826602
00000000: 2cbd 2a3e ea28 cf3d 043f 6b3e 69b6 f8be
00000010: 5c3a 95bd 8052 173e ed31 643e 4011 7cbe
00000020: a705 fe3d 3e39 6ebe 9ead f33c d1c4 b4bd

weight f4 [12, 48]
0.16906904 0.23913416 0.038821552 0.060192164 -0.0904177 -0.04646669 -0.121607885 0.032784473
-0.04938488 0.13295674 0.025706386 -0.094177686 -0.034583054 -0.06682503 0.039218325 0.15721834
-0.019492757 0.12261352 0.05734669 -0.0621733 0.15282738 0.075716235 0.07866976 -0.009711475
-0.011001487 0.09875735 0.012567361 -0.030083286 0.29804918 0.053231824 0.19540468 0.23256204
0.02788654 0.15335761 0.029869763 -0.069020316 0.1636012 -0.023650877 0.064104185 -0.0063006766
0.05263551 -0.019374557 0.103342876 0.023498777 0.14297502 0.011143279 0.13098495 0.16867241
0.05314942 -0.041502703 -0.0357087 0.045916647 0.23850666 0.2310718 0.31284356 0.16967121
0.011292068 -0.041761354 -0.087069 -0.13795492 0.27399796 0.19371225 0.21755856 0.15123901
-0.124318585 -0.07861086 0.12861684 -0.11562782 -0.0144979665 -0.060295694 -0.28062016 -0.30611777
0.075498775 0.1565023 0.023194132 0.07551705 0.3203097 -0.20744082 0.062923186 -0.1410932
-0.065239675 0.032375667 -0.18885729 -0.14644696 0.1566416 -0.0027456707 -0.013070814 -0.031150362
0.037727498 0.24091716 0.060350593 0.09688943 -0.0039025235 -0.020662853 0.064838484 0.06894598
0.1722381 -0.1412907 0.20824455 0.0421745 0.105260186 -0.123299114 0.08391942 -0.11532198
-0.084332764 -0.08576613 -0.094753556 -0.025396572 0.03653889 -0.051481932 0.17960641 0.08719464
0.08440804 0.13456781 -0.091572255 0.09640545 -0.00572842 -0.09820303 -0.0945635 0.14569211
0.07088006 -0.004053623 0.053347364 -0.003441476 -0.3567713 -0.021629479 -0.09879376 -0.21120682
0.13481608 -0.010181485 -0.035828102 0.0027405433 -0.09214774 0.08277068 -0.043816168 0.042091466
0.048407666 0.01709504 0.16024736 0.12831672 0.018893143 0.14695881 0.2156368 0.15345804
0.11077348 -0.0065226727 0.1322722 -0.06659355 -0.012886492 -0.00011277435 0.034329932 -0.1362484
-0.07398456 0.029668732 0.06463051 0.00084584346 -0.035812166 -0.11045255 -0.008812786 0.0638584
0.11770632 -0.012667123 -0.09772322 -0.0446001 0.01000498 0.030833302 0.04598123 0.038391583
-0.017502546 0.067326926 -0.07325258 0.004879093 0.122126855 -0.053556163 0.107244626 -0.11525314
0.11825797 -0.034820005 -0.057095174 -0.019776212 0.13689364 0.0048881904 0.08387625 -0.12139378
-0.1279882 -0.035693202 -0.120160565 -0.035760213 0.12732962 -0.13625541 -0.07668693 0.053057227
0.17319986 0.0910735 0.06899249 0.04831145 0.022544596 -0.020682413 -0.10245888 0.09477288
0.11014168 -0.022208031 0.11342008 0.016160065 0.04697557 -0.017075775 -0.054892264 0.12377218
0.07555643 0.0044318885 -0.095096044 -0.05094204 0.0102628665 0.07363406 0.10197381 0.02507847
0.08517494 0.035255738 0.05068994 0.102774024 -0.20894217 0.0002835364 0.09908501 -0.21272343
0.20943381 0.12136171 0.116255246 0.19624624 -0.07324709 0.16225724 -0.227459 -0.18137582
-0.0967222 -0.098988466 0.030956268 -0.06668423 -0.03780592 0.18723331 0.03457567 0.03089146
0.0560207 0.03421972 -0.07516624 0.100648075 -0.059854973 -0.01410322 -0.0550608 0.100492775
-0.01403832 0.04586288 -0.060061608 -0.07324667 -0.068788685 0.18791467 -0.11444432 0.0121057695
00000000: 6f20 2d3e 96df 743e 5903 1f3d 0f8c 763d
00000010: ea2c b9bd db53 3ebd 8e0d f9bd 0349 063d
00000020: cd47 4abd d025 083e 3396 d23c 3be0 c0bd
00000030: f6a6 0dbd 90db 88bd 65a3 203d d8fd 203e
00000040: 46af 9fbc cc1c fb3d 5de4 6a3d 6ea9 7ebd
00000050: c87e 1c3e 1d11 9b3d 9c1d a13d e11c 1fbc
00000060: 953f 34bc 4b41 ca3d 55e7 4d3c 3971 f6bc
00000070: e799 983e 9d09 5a3d 2a18 483e be24 6e3e
00000080: 5072 e43c c709 1d3e 6fb1 f43c 865a 8dbd
00000090: 1387 273e 7cbf c1bc 0e49 833d e875 cebb
000000a0: 5598 573d 64b7 9ebc 6ea5 d33d 8280 c03c
000000b0: 0b68 123e 4d92 363c eb20 063e 76b8 2c3e
000000c0: 35b3 593d bdfe 29bd 4943 12bd 1813 3c3d
000000d0: 173b 743e 169e 6c3e 082d a03e 4abe 2d3e
000000e0: 5e02 393c f40d 2bbd 3b51 b2bd 0e44 0dbe
000000f0: 7649 8c3e 815c 463e acc7 5e3e 66de 1a3e
00000100: be9a febd bbfe a0bd 22b4 033e 47ce ecbd
00000110: e188 6dbc 9ef8 76bd 72ad 8fbe 78bb 9cbe
00000120: 1a9f 9a3d 2442 203e 9f01 be3c afa8 9a3d
00000130: a2ff a33e 5e6b 54be dfdd 803d bc7a 10be
00000140: 619c 85bd 599c 043d ce63 41be 31f6 15be
00000150: a866 203e b6f0 33bb f826 56bc 0b2f ffbc
00000160: 2688 1a3d fdb2 763e 2f32 773d f76d c63d
00000170: 7bc1 7fbb 2545 a9bc 0aca 843d 8d33 8d3d
00000180: 2f5f 303e 82ae 10be 0f3e 553e 2bbf 2c3d
00000190: a792 d73d 3f84 fcbd f2dd ab3d ee2d ecbd
000001a0: a8b6 acbd 27a6 afbd 270e c2bd 790c d0bc
000001b0: cea9 153d b8de 52bd beea 373e 1a93 b23d
000001c0: 1fde ac3d 25cc 093e 3c8a bbbd 3870 c53d
000001d0: 78b5 bbbb ac1e c9bd 82aa c1bd 5030 153e
000001e0: 9129 913d 41d4 84bb c482 5a3d 638a 61bb
000001f0: baaa b6be 4e30 b1bc 6254 cabd 9a46 58be
00000200: 3a0d 0a3e 3ed0 26bc 7dc0 12bd b09a 333b
00000210: f4b7 bcbd ad83 a93d 9578 33bd 1a68 2c3d
00000220: 1e47 463d e60a 8c3c e217 243e 7565 033e
00000230: cbc5 9a3c 5f7c 163e e5cf 5c3e 1b24 1d3e
00000240: 35dd e23d 25bc d5bb 5d72 073e 3362 88bd
00000250: dd21 53bc 4581 ecb8 8b9d 0c3d b384 0bbe
00000260: 3885 97bd d70b f33c 005d 843d 98bb 5d3a
00000270: c7af 12bd f234 e2bd 8163 10bc 31c8 823d
00000280: 0310 f13d c489 4fbc 1d23 c8bd 98ae 36bd
00000290: edeb 233c 1f96 fc3c d056 3c3d 7e40 1d3d
000002a0: 8061 8fbc b3e2 893d 7305 96bd cce0 9f3b
000002b0: a51d fa3d b55d 5bbd 12a3 db3d d709 ecbd
000002c0: 3c31 f23d 6c9f 0ebd a1dc 69bd b901 a2bc
000002d0: d92d 0c3e 1d2d a03b 50c7 ab3d 4d9d f8bd
000002e0: 570f 03be 0933 12bd be16 f6bd 4d79 12bd
000002f0: b262 023e 8a86 0bbe 0a0e 9dbd 8952 593d
00000300: 4e5b 313e be84 ba3d ef4b 8d3d 3ae2 453d
00000310: 72af b83c 2a6e a9bc f6d5 d1bd 4918 c23d
00000320: f691 e13d 9eed b5bc c948 e83d 1d62 843c
00000330: 7569 403d 7fe2 8bbc b6d6 60bd 457c fd3d
00000340: 54bd 9a3d 6039 913b b7c1 c2bd 9aa8 50bd
00000350: 9525 283c 74cd 963d a5d7 d03d 5d71 cd3c
00000360: 3370 ae3d 5268 103d 41a0 4f3d 307b d23d
00000370: f0f4 55be 9da7 9439 15ed ca3d 2cd4 59be
00000380: d175 563e 7d8c f83d 3b17 ee3d c6f4 483e
00000390: 9202 96bd c326 263e 03eb 68be 95ba 39be
000003a0: 4a16 c6bd 77ba cabd 0098 fd3c be91 88bd
000003b0: 61da 1abd 17ba 3f3e 389f 0d3d 1610 fd3c
000003c0: f675 653d fa29 0c3d c2f0 99bd 9420 ce3d
000003d0: 7d2a 75bd 3111 67bc 6f87 61bd 28cf cd3d
000003e0: fb00 66bc b7da 3b3d 2903 76bd 5a02 96bd
000003f0: 15e1 8cbd b46c 403e c961 eabd 4757 463c

bias f4 [12]
0.09369258 0.05827592 0.08934905 -0.092024885 0.19202934 0.18841253 -0.012635881 0.039148048
-0.11378009 -0.066531554 -0.06476844 -0.044167053
00000000: e5e1 bf3d bbb2 6e3d a2fc b63d 8b77 bcbd
00000010: 57a3 443e 37ef 403e ba06 4fbc b459 203d
00000020: 8905 e9bd b241 88bd 51a5 84bd 83e8 34bd

weight f4 [12, 12]
-0.033519145 0.05874769 0.22263262 -0.007437549 -0.17767796 0.13517185 -0.21503887 0.29740265
-0.1434408 0.3547659 -0.23909919 0.036213513 -0.15670967 -0.026496455 0.25952312 0.24519953
0.314988 0.015010599 0.26183355 -0.41181752 -0.19851388 -0.08934542 -0.27446526 -0.08517522
0.008507191 0.30624852 -0.3421729 -0.06522588 -0.35794082 0.114937015 0.27118322 0.12000036
0.1589654 0.23743434 -0.2689372 0.03230712 0.07850958 0.1953019 0.09280446 -0.19703661
-0.08888919 -0.20892611 0.0932364 -0.32948273 -0.025717549 0.20440122 0.2861681 -0.11447725
-0.005839967 -0.35815343 -0.30444175 0.036510345 0.1938966 -0.06964164 -0.07469564 -0.36386788
0.12292471 0.09802064 0.026305456 0.3853051 0.19523557 0.0038095168 -0.115188815 0.2583397
-0.010588969 0.012966318 -0.07006922 -0.12024202 -0.0094202515 0.42889604 -0.12602565 0.18526798
0.23170103 -0.005854852 -0.03547088 0.23813304 0.36006996 0.08966941 -0.27209613 -0.057860013
0.030346615 -0.046848807 0.27536428 0.04068027 -0.12764303 -0.23314928 -0.22478305 -0.24762596
0.10168251 -0.13091011 0.2795019 -0.23213854 -0.15211657 -0.2405013 -0.081889905 -0.09661461
0.04512287 -0.27646375 -0.2141702 -0.2222439 0.10303524 0.2535208 0.26285288 0.40110472
0.20619969 -0.2890471 -0.07206961 -0.03817194 -0.118194245 0.09938783 -0.26125917 0.1594002
-0.081273444 0.22315785 0.15694638 0.21039169 -0.22513366 0.26499182 -0.107180215 -0.21083945
0.09784125 0.02121942 0.10319149 -0.10895834 -0.08926108 -0.0955974 -0.10313898 -0.017326852
-0.041699726 0.38540047 0.05704785 0.37600732 -0.24595073 0.0597664 -0.12165613 -0.06256082
0.11109058 0.073808044 0.1824929 0.080139965 -0.2177925 0.0773488 -0.22060087 0.16361433
00000000: 5f4b 09bd 6ba1 703d cef9 633e afb6 f3bb
00000010: 36f1 35be 7d6a 0a3e 2633 5cbe 2945 983e
00000020: 25e2 12be e0a3 b53e 6bd6 74be 9f54 143d
00000030: 8078 20be 180f d9bc 37e0 843e 9615 7b3e
00000040: 1b46 a13e 04ef 753c 0c0f 863e bfd9 d2be
00000050: 3947 4bbe bbfa b6bd b686 8cbe 5970 aebd
00000060: bf61 0b3c 9bcc 9c3e 4931 afbe 2595 85bd
00000070: 0544 b7be 1964 eb3d 87d8 8a3e c0c2 f53d
00000080: d3c7 223e fd21 733e 23b2 89be 7854 043d
00000090: a1c9 a03d 39fd 473e 4410 be3d f7c3 49be
000000a0: 890b b6bd baf0 55be baf2 be3d f6b1 a8be
000000b0: 9cad d2bc 8e4e 513e a084 923e 0c73 eabd
000000c0: 325d bfbb e35f b7be cadf 9bbe df8b 153d
000000d0: d58c 463e 47a0 8ebd 07fa 98bd e44c babe
000000e0: f3bf fb3d 0cbf c83d 8a7e d73c b646 c53e
000000f0: d5eb 473e 16a9 793b 1de8 ebbd 1a45 843e
00000100: 5b7d 2dbc ae70 543c 7480 8fbd 7341 f6bd
00000110: 6657 1abc 4398 db3e de0c 01be e4b6 3d3e
00000120: 0943 6d3e 0fda bfbb ea49 11bd 26d9 733e
00000130: 175b b83e 98a4 b73d 2f50 8bbe 9ffe 6cbd
00000140: 7799 f83c 89e4 3fbd 8cfc 8c3e 5ba0 263d
00000150: dbb4 02be afbe 6ebe 872d 66be a991 7dbe
00000160: eb3e d03d 4d0d 06be df1a 8f3e bab5 6dbe
00000170: 72c4 1bbe f945 76be e5b5 a7bd e1dd c5bd
00000180: c2d2 383d a88c 8dbe 6f4f 5bbe e893 63be
00000190: 2404 d33d 7acd 813e a794 863e 995d cd3e
000001a0: 0326 533e fbfd 93be 3b99 93bd 2e5a 1cbd
000001b0: d30f f2bd d98b cb3d c3c3 85be ce39 233e
000001c0: b172 a6bd 7e83 643e 8db6 203e eb70 573e
000001d0: 7089 66be 02ad 873e 4d81 dbbd 4ce6 57be
000001e0: fe60 c83d 59d4 ad3c 0f56 d33d 8d25 dfbd
000001f0: 83ce b6bd 92c8 c3bd 883a d3bd 0bf1 8dbc
00000200: 55cd 2abd 3653 c53e 02ab 693d 0884 c03e
00000210: 82da 7bbe 9dcd 743d d926 f9bd e31f 80bd
00000220: 7583 e33d ac28 973d 6bdf 3a3e 6c20 a43d
00000230: ff04 5fbe 0c69 9e3d 32e5 61be 848a 273e

bias f4 [12]
-0.07257571 -0.046616044 -0.14170246 0.14434963 -0.08227278 -0.23333569 -0.1690439 -0.29604834
-0.26588032 -0.11965438 -0.3482623 0.10864122
00000000: 93a2 94bd 77f0 3ebd 731a 11be 64d0 133e
00000010: a27e a8bd 8def 6ebe d819 2dbe a693 97be
00000020: 7721 88be 5b0d f5bd 704f b2be 4a7f de3d

weight f4 [12, 48]
-0.051818434 -0.07360022 0.07557721 -0.06311988 0.14084353 -0.06640978 0.05656212 0.13643967
0.15074219 -0.08321691 0.14597088 -0.05512485 -0.10768137 0.09907906 -0.06756782 -0.11008103
-0.12673455 -0.16014315 0.034358464 -0.10539597 0.05718272 -0.006293674 -0.1253575 -0.13873294
0.06398957 0.05520514 -0.07059538 -0.06803467 0.07804513 -0.15020421 0.23883905 0.036956094
-0.07630753 0.0232884 -0.14144348 -0.15999678 -0.23316708 -0.014437181 0.035451695 -0.111592636
-0.11471051 -0.1534674 -0.2443893 0.001412761 -0.19491103 -0.15544908 -0.2527048 -0.23824976
-0.035918094 -0.038543273 -0.02623907 -0.11205589 -0.08162269 0.11991843 0.2512698 0.12999728
0.025192592 -0.008644277 -0.04825792 0.17851347 -0.062480517 0.08415582 0.07913781 0.07699553
-0.05532796 0.044736527 -0.04871006 0.039299358 0.14700864 0.11616423 -0.021748953 -0.071415916
0.12842403 0.1409288 0.015057229 -0.008969465 -0.11502231 0.054037403 0.031383526 0.035369206
-0.13239898 0.09681933 -0.30139026 -0.085046135 0.0139595885 -0.054904696 0.09098402 0.11719698
0.08137955 0.058398675 0.044680137 0.16727544 0.08699895 -0.06995634 -0.056047272 -0.019084563
-0.047445625 0.23954369 0.11938332 -0.06637884 -0.05888248 0.23548765 -0.08270089 -0.09167484
0.11146361 -0.22302301 -0.022442292 -0.15088864 -0.20325555 -0.027643377 -0.1764558 -0.038214907
-0.054592054 0.00015494066 -0.04919457 0.050741203 -0.12445412 -0.04654227 0.09520027 0.08284148
0.06565467 0.13517055 0.08449861 -0.023013502 0.07581739 -0.11722509 0.0006128434 -0.21431234
0.02592319 0.05185442 -0.0051022326 0.03296137 -0.12866527 -0.07608496 -0.19375384 -0.14251934
-0.0592981 0.063179016 0.08558303 -0.09170359 0.05528219 -0.04394528 0.0142564075 0.007033433
0.003475203 0.023490163 0.072557844 0.103011295 0.04453531 -0.2037402 0.16772063 -0.014834547
0.0036627126 0.066968165 -0.010624501 -0.0654035 -0.07056145 0.01280553 0.07717139 0.035309013
-0.01938092 -0.11063396 0.080598235 -0.013191005 0.04900581 -0.18930283 -0.14564341 0.06132876
-0.06255734 -0.11859227 0.09992805 0.12279841 -0.24380332 -0.25384426 0.14815933 -0.0012442106
-0.13512425 -0.17222509 -0.047673315 -0.17831276 0.05327184 -0.14525421 0.06282772 -0.12639342
-0.15695441 -0.12016082 -0.16828197 -0.07123291 -0.3198825 -0.1701746 -0.040514648 -0.010764553
-0.04790353 0.053791605 0.0059195175 0.19448812 0.12979846 0.25492623 -0.064533144 -0.016908081
-0.045295168 -0.045310955 0.1589579 -0.01700721 0.044410538 0.037077505 0.003526511 0.041729808
-0.040399347 -0.1892073 -0.039071336 0.1729842 -0.1201322 -0.0800113 0.03777833 0.038560603
0.05810475 0.19162394 0.052432064 -0.016403755 0.20031606 -0.11886982 -0.083663836 -0.16625558
-0.010309796 5.3766544e-05 0.027586736 -0.04681946 0.048160926 -0.20027858 -0.06596759 0.11293281
0.019710593 0.026619293 0.0236534 -0.06456562 -0.0154885175 0.021499187 -0.0076313308 0.0085888235
0.14806513 0.08206058 0.16330788 0.19792847 -0.015964225 0.024850106 -0.05462083 0.010109783
-0.08346179 0.1575174 0.034292884 -0.028372586 0.00094249286 -0.15011834 -0.13620429 -0.044939034
00000000: 913f 54bd b6bb 96bd 39c8 9a3d ff44 81bd
00000010: 4939 103e da01 88bd aead 673d d7b6 0b3e
00000020: 295c 1a3e a16d aabd 6479 153e 98ca 61bd
00000030: 0d88 dcbd f6e9 ca3d ff60 8abd 2a72 e1bd
00000040: b4c6 01be 91fc 23be 76bb 0c3d d8d9 d7bd
00000050: 6e38 6a3d 2a3b cebb b75d 00be 0210 0ebe
00000060: f70c 833d c91e 623d 5094 90bd c355 8bbd
00000070: 20d6 9f3d 22cf 19be 3992 743e 465f 173d
00000080: 1f47 9cbd 51c7 be3c 8fd6 10be 32d6 23be
00000090: 5ac3 6ebe ed89 6cbc cc35 113d ae8a e4bd
000000a0: 58ed eabd 8f26 1dbe 3041 7abe 652c b93a
000000b0: c296 47be 0b2e 1fbe 8662 81be bff7 73be
000000c0: da1e 13bd 8ddf 1dbd 51f3 d6bc 8f7d e5bd
000000d0: cc29 a7bd cb97 f53d 6fa6 803e 021e 053e
000000e0: b260 ce3c baa0 0dbc 19aa 45bd 3ccc 363e
000000f0: 92eb 7fbd e359 ac3d 0113 a23d d5af 9d3d
00000100: 929f 62bd a63d 373d 3384 47bd 5df8 203d
00000110: 6f89 163e 83e7 ed3d dc2a b2bc 8242 92bd
00000120: 9781 033e a44f 103e 99b2 763c aaf4 12bc
00000130: d190 ebbd 5356 5d3d 038c 003d 4ddf 103d
00000140: 9993 07be 3649 c63d d34f 9abe ab2c aebd
00000150: c2b6 643c bfe3 60bd d455 ba3d f804 f03d
00000160: 52aa a63d 7333 6f3d 8502 373d 414a 2b3e
00000170: 812c b23d 4545 8fbd d391 65bd 3b57 9cbc
00000180: 5856 42bd f14a 753e 3e7f f43d a1f1 87bd
00000190: c12e 71bd ad23 713e 165f a9bd 05c0 bbbd
000001a0: 0847 e43d 2560 64be e6d8 b7bc 8d82 1abe
000001b0: 3922 50be 5d74 e2bc d4b0 34be 3c87 1cbd
000001c0: eb9b 5fbd 9177 2239 3f80 49bd 02d6 4f3d
000001d0: cde1 febd 1ba3 3ebd 5cf8 c23d cba8 a93d
000001e0: f575 863d 266a 0a3e 9b0d ad3d d086 bcbc
000001f0: 2646 9b3d b513 f0bd 39a7 203a b274 5bbe
00000200: df5c d43c 4d65 543d a130 a7bb 8002 073d
00000210: d4c0 03be 6ed2 9bbd 6867 46be 97f0 11be
00000220: 91e2 72bd 0064 813d 2846 af3d 17cf bbbd
00000230: 946f 623d f7ff 33bd b593 693c b678 e63b
00000240: 3bc0 633b 716e c03c 3599 943d 96f7 d23d
00000250: a86a 363d 45a1 50be f5be 2b3e 9a0c 73bc
00000260: 1f0a 703b 9b26 893d 6312 2ebc 45f2 85bd
00000270: 8682 90bd 49ce 513c 090c 9e3d 2fa0 103d
00000280: bcc4 9ebc 0f94 e2bd b010 a53d 161f 58bc
00000290: 51ba 483d 9ad8 41be 8c23 15be de33 7b3d
000002a0: 101e 80bd 81e0 f2bd 14a7 cc3d bc7d fb3d
000002b0: 94a7 79be e0f7 81be 14b7 173e c814 a3ba
000002c0: 035e 0abe c65b 30be 1845 43bd 9f97 36be
000002d0: 9333 5a3d 85bd 14be d2ab 803d 476d 01be
000002e0: a8b8 20be e016 f6bd 1c52 2cbe 8fe2 91bd
000002f0: a4c7 a3be 4042 2ebe b0f2 25bd cf5d 30bc
00000300: 7e36 44bd 9654 5c3d 83f8 c13b e527 473e
00000310: e3e9 043e b185 823e f429 84bd d182 8abc
00000320: 6d87 39bd fb97 39bd dcc5 223e b452 8bbc
00000330: d3e7 353d 95de 173d 091d 673b e0ec 2a3d
00000340: c979 25bd 8fbf 41be 4409 20bd c522 313e
00000350: df07 f6bd f7dc a3bd 73bd 1a3d b9f1 1d3d
00000360: 3fff 6d3d 1139 443e 01c3 563d 2b61 86bc
00000370: a71f 4d3e 0572 f3bd f257 abbd e73e 2abe
00000380: 6bea 28bc 6383 6138 94fd e13c c3c5 3fbd
00000390: 6444 453d d415 4dbe 041a 87bd 5149 e73d
000003a0: 1c78 a13c b410 da3c c6c4 c13c fb3a 84bd
000003b0: 8dc3 7dbc 101f b03c 3e10 fabb 23b8 0c3c
000003c0: 639e 173e 610f a83d 2e3a 273e c3ad 4a3e
000003d0: 68c7 82bc 7392 cb3c 17ba 5fbd 81a3 253c
000003e0: 04ee aabd 3e4c 213e b276 0c3d a06d e8bc
000003f0: a011 773a 9fb8 19be 2379 0bbe fe11 38bd

bias f4 [12]
0.088769145 -0.033061657 0.14647721 0.1032021 -0.09078416 -0.108807385 0.16946472 -0.119162895
0.18680558 0.011039577 -0.011446247 -0.071397044
00000000: 99cc b53d a96b 07bd 1ffe 153e 9f5b d33d
00000010: 0ced b9bd 68d6 debd 2988 2d3e ad0b f4bd
00000020: f649 3f3e 58df 343c 0a89 3bbc 9d38 92bd

weight f4 [12, 12]
0.038856395 0.13446546 -0.03208015 -0.08498952 0.3457627 0.20366299 0.14302479 -0.2169014
-0.0031609249 -0.1643799 0.2716452 -0.17650686 0.2538033 0.024811538 0.024682507 -0.21299785
-0.02249843 0.22372094 -0.20256917 0.035870552 -0.15647092 -0.090137444 0.25640222 -0.22190247
-0.07450301 0.32566082 -0.031427436 -0.3049639 0.055728324 -0.04449483 0.094932765 0.05226472
-0.275094 0.4217465 0.018574035 -0.02125761 0.20198135 -0.19050995 -0.29229528 0.42955846
-0.14163114 0.034305774 -0.19683746 -0.041951146 -0.08626234 -0.32007048 0.24608542 0.09333668
-0.2948842 0.004382036 -0.048435636 -0.25416243 -0.108076826 -0.18358706 -0.035470728 -0.079855315
-0.20032384 0.33482495 -0.14530236 0.2454924 -0.0885884 -0.185248 -0.3200855 0.05316802
0.04851858 -0.23624048 -0.31156078 0.01469965 0.27433437 -0.029174052 -0.20837212 0.07780501
0.3258464 0.15397291 0.039003097 -0.11815245 0.032925416 0.24976005 -0.025588155 0.2001649
-0.123040676 0.37923485 -0.025724776 -0.1594644 0.12282233 -0.37667662 0.4543353 -0.32640865
0.42098185 -0.2876669 0.23409015 -0.1371531 -0.15932779 -0.19175196 0.22042161 0.025594639
0.0030999824 -0.32826608 -0.2619465 -0.022631375 0.015246048 0.33171234 0.19502904 0.05232773
-0.33231932 -0.17042775 0.054206185 0.19770789 -0.30914888 0.3305912 -0.08167853 0.07524713
-0.35847896 -0.09438491 -0.30967364 0.0327276 -0.023425594 0.06907848 -0.059962202 0.10148278
0.24244297 -0.01190352 -0.08719222 0.22327298 -0.23258767 -0.19182698 0.015445997 0.22969215
0.083859764 0.27854523 0.1843232 0.19713032 -0.016838599 0.0658472 -0.11809017 -0.08110129
-0.19961113 -0.21324392 -0.07779278 0.27508426 0.37215593 -0.19538285 0.26266745 0.08200976
00000000: e227 1f3d 50b1 093e 7a66 03bd fc0e aebd
00000010: cf07 b13e 088d 503e 1775 123e 671b 5ebe
00000020: 8527 4fbb 3453 28be 1415 8b3e 37be 34be
00000030: 82f2 813e 9141 cb3c f832 ca3c 1c1c 5abe
00000040: a14e b8bc 1a17 653e 4b6e 4fbe 00ed 123d
00000050: ea39 20be fb99 b8bd 2747 833e 673a 63be
00000060: 0995 98bd 04bd a63e 0eba 00bd 3a24 9cbe
00000070: 6243 643d 3640 36bd 1c6c c23d 8813 563d
00000080: 1fd9 8cbe 28ef d73e 9328 983c 7024 aebc
00000090: 33d4 4e3e 0a15 43be baa7 95be 16ef db3e
000000a0: c107 11be 3684 0c3d c28f 49be f7d4 2bbd
000000b0: 4faa b0bd 47e0 a3be d1fd 7b3e 4d27 bf3d
000000c0: 10fb 96be 2f97 8f3b 7264 46bd 9421 82be
000000d0: 6257 ddbd 3ffe 3bbe c149 11bd 2f8b a3bd
000000e0: b121 4dbe 2d6e ab3e 24ca 14be 5c62 7b3e
000000f0: d66d b5bd a7b1 3dbe 3fe2 a3be b6c6 593d
00000100: 6bbb 463d 06e9 71be e584 9fbe cdd6 703c
00000110: 8e75 8c3e 6cfe eebc 805f 55be 3c58 9f3d
00000120: 57d5 a63e 13ab 1d3e b6c1 1f3d e9f9 f1bd
00000130: cddc 063d 19c1 7f3e 409e d1bc 07f8 4c3e
00000140: c0fc fbbd 122b c23e c4bc d2bc a34a 23be
00000150: 468a fb3d c2db c0be a39e e83e 091f a7be
00000160: ef8a d73e 1349 93be 54b5 6f3e dd71 0cbe
00000170: d326 23be a05a 44be 34b6 613e d9ab d13c
00000180: 1329 4b3b 7e12 a8be da1d 86be 6f65 b9bc
00000190: 8fca 793c 33d6 a93e b1b5 473e 9a55 563d
000001a0: c225 aabe 9d84 2ebe 4e07 5e3d f073 4a3e
000001b0: c348 9ebe 4043 a93e 1347 a7bd 2b1b 9a3d
000001c0: 8e8a b7be e04c c1bd 8b8d 9ebe 600d 063d
000001d0: 08e7 bfbc 0579 8d3d ed9a 75bd 34d6 cf3d
000001e0: f842 783e fb06 43bc d691 b2bd aca1 643e
000001f0: 762b 6ebe 4b6e 44be 3511 7d3c 6b34 6b3e
00000200: abbe ab3d 7b9d 8e3e 39bf 3c3e 88dc 493e
00000210: 1af1 89bc e6da 863d 42d9 f1bd 6f18 a6bd
00000220: dc66 4cbe 9d5c 5abe d251 9fbd d8d7 8c3e
00000230: 398b be3e 7112 48be 597c 863e bcf4 a73d

bias f4 [12]
0.053437363 -0.04741107 -0.37304407 -0.07736542 0.089806266 -0.122894354 -0.27256316 -0.18402599
-0.2703674 0.07558142 -0.39394763 -0.08700471
00000000: 23e1 5a3d 1c32 42bd a2ff bebe c371 9ebd
00000010: 59ec b73d 09b0 fbbd 668d 8bbe 4f71 3cbe
00000020: 996d 8abe 6eca 9a3d 81b3 c9be 872f b2bd

weight f4 [12, 48]
-0.07104513 -0.0053373356 -0.16963258 -0.025201965 -0.082093745 0.107614346 0.16055615 0.2173544
0.065849565 -0.002986817 0.12123993 -0.01101914 -0.11332855 0.0497655 0.13752377 -0.110315315
0.09486914 -0.022645295 -0.09804947 0.021903496 0.19454187 0.15153193 0.11079041 0.10611851
0.02456856 0.10881991 -0.114071555 0.06276289 0.06942474 0.08607248 -0.1706847 -0.071607925
-0.019600905 -0.06268352 -0.07567407 0.061283845 0.1428318 -0.033362247 0.2285996 0.12016867
0.05729649 -0.010277973 0.14565842 0.066814475 0.19070438 0.021172594 0.07814796 -0.06005929
-0.23991856 0.08821175 -0.52159214 -0.29460832 -0.021895854 0.06511381 0.037252344 0.02137531
-0.120440334 0.015427779 0.1902685 0.0033504146 -0.009104275 0.020747669 -0.057591163 0.06978948
-0.05799965 0.023930948 -0.15633337 0.16903174 0.26196346 0.030344719 0.24701591 0.0001627876
0.080221504 0.23505677 -0.04632936 -0.031328715 -0.057544887 -0.010285157 -0.039525412 0.046348758
0.14479901 0.15588593 0.23134752 0.1710841 0.092149384 0.029705683 0.13386181 0.05102675
0.23357163 0.17877378 0.17439486 0.24984555 -0.091277495 -0.021673186 -0.004754149 -0.12499596
0.30155507 0.20809674 0.24863942 0.14268966 0.12423163 -0.0398661 -0.023392979 -0.14963299
0.14185426 -0.07971693 0.0525872 0.17053784 -0.12554753 0.050990947 -0.15180011 -0.055962857
-0.0726276 0.08830504 0.064459294 -0.14721987 0.0034211387 -0.19249505 -0.113959506 -0.08222578
0.06943204 -0.07399169 0.12292442 0.15824398 -0.077358395 -0.1590534 0.010461133 -0.003004513
-0.1030167 -0.06306745 -0.16660602 -0.04373912 -0.26120043 -0.20126934 -0.09937254 -0.064949736
-0.12292008 -0.05639586 -0.2043161 -0.004749364 -0.06356296 -0.20631607 0.0342013 -0.06771617
0.01608613 0.08860931 -0.2996741 -0.14825587 0.03712661 -0.04134834 0.2610253 -0.027082752
-0.16840103 -0.048179068 0.12433189 -0.042254377 -0.10901053 0.11692377 0.005582685 -0.06876534
0.19701234 -0.06926781 -0.048829332 0.041957196 0.010522449 0.09072954 0.037050493 0.06178349
0.14220455 0.19264862 -0.04655452 -0.0513969 -0.19010536 0.080999255 0.08278333 -0.14772356
0.09115611 -0.0685493 0.15411529 -0.02970022 -0.066437595 0.095348455 0.00027854022 0.095207915
0.2409729 0.10400977 -0.028558152 0.0779594 0.0843598 -0.11845386 -0.21148635 0.11745897
-0.1372739 -0.07443124 0.006105188 -0.10792772 -0.051206112 -0.11445219 -0.07635739 -0.032153457
0.11465976 0.031064501 -0.023548659 -0.12846047 -0.0740278 0.032446202 -0.028429762 0.054765526
-0.009727911 0.108131945 -0.04880959 -0.09209436 -0.10763837 0.09958872 0.07298668 -0.07160103
0.084086314 -0.10664031 -0.11948579 0.13957907 0.0077647967 -0.06834731 0.17897022 -0.061661933
0.098856 0.066240475 -0.082431175 -0.15827627 -0.13595414 0.1278404 0.088867925 0.03269439
0.044110775 -0.028360084 -0.0076867943 -0.043406546 0.0156264 -0.048026294 0.09269535 -0.0031061808
0.38287076 0.34688583 0.61024743 0.28150007 0.19766816 0.0037399551 0.014361707 0.029231858
0.25445285 0.07711787 0.04188994 0.22131506 0.20266527 0.0034570342 0.16399035 0.21252935
00000000: 1c80 91bd d1e4 aebb 2ab4 2dbe 5a74 cebc
00000010: c420 a8bd e964 dc3d d568 243e 2792 5e3e
00000020: 23dc 863d 79be 43bb a44c f83d 9f89 34bc
00000030: cc18 e8bd e9d6 4b3d 08d3 0c3e ffec e1bd
00000040: c04a c23d a082 b9bc 29ce c8bd f66e b33c
00000050: fc35 473e 302b 1b3e 15e6 e23d a954 d93d
00000060: 0144 c93c f9dc de3d 599e e9bd d489 803d
00000070: 8f2e 8e3d c546 b03d f8c7 2ebe 2da7 92bd
00000080: 1492 a0bc 3860 80bd 02fb 9abd c504 7b3d
00000090: 8042 123e daa6 08bd 0316 6a3e fe1a f63d
000000a0: b9af 6a3d f164 28bc 7b27 153e 07d6 883d
000000b0: 0248 433e 2672 ad3c 0a0c a03d bb00 76bd
000000c0: 36ad 75be 5da8 b43d 1087 05bf e7d6 96be
000000d0: ef5e b3bc 645a 853d ea95 183d 461b af3c
000000e0: 6ca9 f6bd ccc4 7c3c bfd5 423e a192 5b3b
000000f0: 192a 15bc 04f7 a93c b6e4 6bbd c9ed 8e3d
00000100: 0a91 6dbd d60a c43c db15 20be a816 2d3e
00000110: 1320 863e 7d95 f83c bdf1 7c3e f7b1 2a39
00000120: 2c4b a43d b9b2 703e dbc3 3dbd 8a52 00bd
00000130: 30b4 6bbd 1383 28bc 66e5 21bd 32d8 3d3d
00000140: 3146 143e 90a0 1f3e 5de6 6c3e ac30 2f3e
00000150: d1b8 bc3d 5559 f33c 1213 093e 6d01 513d
00000160: 672d 6f3e 7910 373e 9194 323e 83d7 7f3e
00000170: b2ef babd f78b b1bc b1c8 9bbb e2fd ffbd
00000180: 6d65 9a3e 5017 553e 559b 7e3e 3d1d 123e
00000190: 276d fe3d a34a 23bd a2a2 bfbc 6439 19be
000001a0: 3e42 113e a142 a3bd ad65 573d 79a1 2e3e
000001b0: 888f 00be e2db 503d 7d71 1bbe 4f39 65bd
000001c0: c7bd 94bd 46d9 b43d 3c03 843d cec0 16be
000001d0: 2f35 603b 6c1d 45be 9a63 e9bd fd65 a8bd
000001e0: 6332 8e3d f588 97bd ccbf fb3d b60a 223e
000001f0: 146e 9ebd e5de 22be 2c65 2b3c 5de7 44bb
00000200: 6bfa d2bd 8229 81bd c59a 2abe cb27 33bd
00000210: 10bc 85be 8d19 4ebe d583 cbbd 5e04 85bd
00000220: 86bd fbbd 58ff 66bd 3d38 51be 8ea0 9bbb
00000230: 4c2d 82bd 8544 53be aa16 0c3d c6ae 8abd
00000240: 0fc7 833c cc78 b53d e26e 99be 63d0 17be
00000250: 1212 183d e15c 29bd 1ca5 853e a6dc ddbc
00000260: 5271 2cbe 6a57 45bd b8a1 fe3d ed12 2dbd
00000270: ea40 dfbd bb75 ef3d f5ee b63b d8d4 8cbd
00000280: 9abd 493e 48dc 8dbd 4401 48bd 4fdb 2b3d
00000290: 5a66 2c3c 69d0 b93d 42c2 173d af10 7d3d
000002a0: 129e 113e ae45 453e f4af 3ebd 8e85 52bd
000002b0: fbaa 42be f0e2 a53d 4e8a a93d d844 17be
000002c0: 0eb0 ba3d 9363 8cbd 66d0 1d3e e04d f3bc
000002d0: 6f10 88bd 0d46 c33d 0909 9239 5efc c23d
000002e0: 9ac1 763e 1303 d53d c9f2 e9bc 2ea9 9f3d
000002f0: d5c4 ac3d f097 f2bd e18f 58be 548e f03d
00000300: 8791 0cbe 686f 98bd 070e c83b 3509 ddbd
00000310: 80bd 51bd e965 eabd 4361 9cbd 58b3 03bd
00000320: bcd2 ea3d fb7a fe3c 1ee9 c0bc 248b 03be
00000330: e39b 97bd 4fe6 043d 88e5 e8bc d151 603d
00000340: d161 1fbc 4874 dd3d 91ec 47bd f89b bcbd
00000350: 8171 dcbd 2cf5 cb3d 0a7a 953d 90a3 92bd
00000360: 7235 ac3d 3c66 dabd f7b4 f4bd d1ed 0e3e
00000370: d66f fe3b adf9 8bbd f843 373e 3991 7cbd
00000380: 0475 ca3d 16a9 873d add1 a8bd 2d13 22be
00000390: 9037 0bbe 98e8 023e 6300 b63d 8dea 053d
000003a0: 80ad 343d 6853 e8bc 81e1 fbbb 10cb 31bd
000003b0: f002 803c 38b7 44bd 0fd7 bd3d 1191 4bbb
000003c0: a307 c43e 059b b13e 2d39 1c3f c720 903e
000003d0: 8669 4a3e 091a 753b 5d4d 6b3c a677 ef3c
000003e0: a547 823e f9ef 9d3d c994 2b3d 6aa0 623e
000003f0: 7c87 4f3e 698f 623b 16ed 273e 4ba1 593e

bias f4 [12]
0.08563002 0.24044862 0.090484835 0.16842178 0.027590161 0.15904489 0.020413171 0.016399607
-0.062453743 0.07112024 -0.08060804 -0.12209524
00000000: cb5e af3d 2a38 763e 1d50 b93d c276 2c3e
00000010: c304 e23c aadc 223e 8639 a73c 7858 863c
00000020: 7fcf 7fbd 7da7 913d d415 a5bd 120d fabd

weight f4 [12, 12]
-0.22314823 -0.26445338 -0.124725886 -0.023765508 0.2275748 0.13531739 -0.15161003 0.11807831
-0.19904503 0.20668672 0.3130613 -0.19155982 0.30462286 0.26978242 -0.3406246 0.028328914
0.029926699 -0.40001735 0.3195405 0.26530418 0.22888345 0.07201588 0.37080005 -0.14852278
0.060790382 -0.370672 0.19104138 -0.30572832 -0.18373139 -0.206261 -0.20201972 0.033767197
0.042142928 0.22193205 0.18889289 0.090984404 -0.13167602 0.2833668 -0.39930782 0.17425857
-0.2656623 -0.5850711 0.189541 0.17812021 -0.045485977 0.22770387 0.3938718 0.25446463
0.182591 -0.41467312 -0.07614913 -0.066809386 0.112588674 -0.24001876 0.15075476 0.059678998
0.226592 0.2613762 -0.02997447 -0.051454093 -0.045126982 0.1392997 0.030882446 -0.21607102
-0.26218396 0.025670407 -0.16898043 0.10936084 0.3120145 0.3517516 0.12472218 0.2663717
-0.10171812 -0.017436352 0.21897547 0.026233712 -0.11412664 -0.41150412 0.19134259 -0.036302734
0.082293 -0.3818515 0.46350995 0.04721795 0.18321297 0.11988928 -0.14221023 0.28055045
-0.044060066 -0.3095275 0.18239763 -0.24095261 0.110130854 -0.16546987 0.085779704 -0.15904471
-0.38632208 -0.18328626 0.17417172 -0.42194045 -0.07110617 -0.0569955 -0.0249989 0.3641347
0.275189 0.1408711 0.20816764 0.27449656 0.01552991 -0.0630914 0.110647865 0.19883691
0.26290813 -0.17137837 -0.15009128 -0.4792498 0.038476046 -0.21174954 0.09703791 0.064054705
0.08462386 -0.020991525 -0.010319246 -0.2619093 0.23704995 0.048830427 -0.32368717 0.38370916
0.2732111 -0.16137198 0.020597411 -0.16437553 0.0546105 0.2932831 0.28945246 0.026327318
0.06920914 0.060447723 0.008222654 -0.2326537 -0.16302174 -0.26722157 0.029569814 0.21677074
00000000: f880 64be 6f66 87be 4970 ffbd e2af c2bc
00000010: 5e09 693e a490 0a3e a93f 1bbe 0ad3 f13d
00000020: 76d2 4bbe afa5 533e 9249 a03e 4228 44be
00000030: 87f7 9b3e ec20 8a3e 5966 aebe 0a12 e83c
00000040: d628 f53c 13cf ccbe d09a a33e f3d5 873e
00000050: 6c60 6a3e 107d 933d 81d9 bd3e 5b16 18be
00000060: 56ff 783d b8c8 bdbe 5aa0 433e 6c88 9cbe
00000070: 1524 3cbe 1536 53be 42de 4ebe 794f 0a3d
00000080: 109e 2c3d 2842 633e 236d 413e 0856 ba3d
00000090: 14d6 06be 7415 913e 1372 ccbe d770 323e
000000a0: e404 88be 38c7 15bf 0917 423e 2565 363e
000000b0: 814f 3abd 342b 693e 91a9 c93e 3049 823e
000000c0: 23f9 3a3e 0950 d4be 13f4 9bbd 5cd3 88bd
000000d0: e494 e63d 7ac7 75be 755f 1a3e f771 743d
000000e0: bc07 683e 1ad3 853e 058d f5bc 87c1 52bd
000000f0: 12d7 38bd 95a4 0e3e 2ffd fc3c b941 5dbe
00000100: fa3c 86be bf4a d23c 3509 2dbe 93f8 df3d
00000110: 5dc0 9f3e c918 b43e 586e ff3d df61 883e
00000120: 9751 d0bd aed6 8ebc 1b3b 603e 15e8 d63c
00000130: 3abb e9bd abb0 d2be 50ef 433e 2db2 14bd
00000140: 3b89 a83d 0a82 c3be 2d51 ed3e 9c67 413d
00000150: 2e9c 3b3e 8388 f53d 8f9f 11be 4fa4 8f3e
00000160: 5478 34bd 637a 9ebe 72c6 3a3e 48bc 76be
00000170: 498c e13d ef70 29be 45ad af3d 9edc 22be
00000180: 02cc c5be 65af 3bbe 125a 323e 9408 d8be
00000190: 1da0 91bd 1d74 69bd 7eca ccbc dd6f ba3e
000001a0: 93e5 8c3e 8340 103e e629 553e d08a 8c3e
000001b0: 2a71 7e3c 1036 81bd 599b e23d e79b 4b3e
000001c0: e59b 863e d07d 2fbe 87b1 19be 3b60 f5be
000001d0: 0f99 1d3d dfd4 58be d0bb c63d 1d2f 833d
000001e0: 464f ad3d 6bf6 abbc 0e12 29bc fa18 86be
000001f0: 39bd 723e 6a02 483d 53ba a5be 8775 c43e
00000200: 53e2 8b3e b23e 25be e7bb a83c 0f52 28be
00000210: 42af 5f3d 3429 963e 1d33 943e 63ac d73c
00000220: 86bd 8d3d 0898 773d 50b8 063c c63c 6ebe
00000230: 2cef 26be 44d1 88be 653c f23c 26f9 5d3e

bias f4 [12]
0.08259269 -0.22829147 0.050966933 -0.55385077 0.08030719 0.18106143 0.009129093 -0.11013976
0.010192183 0.13087995 -0.051730838 -0.23391402
00000000: 5b26 a93d 3dc5 69be b4c2 503d 2ac9 0dbf
00000010: 1978 a43d 2b68 393e 3192 153c f490 e1bd
00000020: 1dfd 263c 6505 063e b7e3 53bd 2887 6fbe
