MQCNN-QA-4qubits-7class-CIFAR-same-5filter/Models_V1/model_19.pt (torch, 158006 bytes, 47 tensors)

weights f4 [7]
0	0x40afcfc0	5.49411
1	0x4002d667	2.044336
2	0x401cbce6	2.4490294
3	0x3f1b98f4	0.6078026
4	0x4092bde2	4.585679
5	0x40c5ae09	6.1774945
6	0x40a9cad2	5.3060083

weights f4 [7]
0	0x3fb3670b	1.4015821
1	0x3e0d8691	0.13820864
2	0x40a880cd	5.2657228
3	0x40b093de	5.51805
4	0x40b47f22	5.640519
5	0x4025ac83	2.5886543
6	0x409c8867	4.8916507

weights f4 [7]
0	0x3d058cc6	0.032604955
1	0x401c1ece	2.4393802
2	0x407bd256	3.934713
3	0x40c32c57	6.0991626
4	0x3f927e5d	1.1444813
5	0x3fee0045	1.8593832
6	0x40b73314	5.724985

weights f4 [7]
0	0x40a37ac3	5.1087356
1	0x4087bace	4.2415533
2	0x4059653d	3.396804
3	0x409919a2	4.784379
4	0x3df0e8e7	0.117631726
5	0x4037b400	2.8703613
6	0x4033a9a1	2.8072283

weights f4 [7]
0	0x40b9d820	5.8076324
1	0x405be19f	3.4356458
2	0x400a8efe	2.1649776
3	0x4098598c	4.760931
4	0x40c30ee3	6.095567
5	0x4050cc3a	3.262465
6	0x40a88c14	5.2670994

weights f4 [7]
0	0x40a67d6a	5.2028093
1	0x4074f031	3.8271601
2	0x40a44b7d	5.134215
3	0x40c19018	6.0488396
4	0x40603359	3.503134
5	0x3f160859	0.5860649
6	0x40bcb24f	5.896766

weights f4 [8]
0	0x3fc08613	1.5040916
1	0x40ccc3c1	6.3988957
2	0x4025dd70	2.5916405
3	0x4069b9af	3.6519582
4	0x3faaa280	1.3330841
5	0x408b2f25	4.349505
6	0x403cfe50	2.953022
7	0x3f56d894	0.8392422

weights f4 [8]
0	0x4062d38c	3.5441618
1	0x402ab696	2.6673942
2	0x40b96b1d	5.7943254
3	0x401fe3e0	2.4982834
4	0x407cac77	3.9480264
5	0x3e2ff101	0.1718178
6	0x40bb96e2	5.8621683
7	0x4011c958	2.277914

weights f4 [8]
0	0x409d93ed	4.9243073
1	0x3f51a6f4	0.81895375
2	0x401e4ee4	2.473565
3	0x403e6103	2.9746711
4	0x3fe35e32	1.7763121
5	0x3fb96105	1.4482733
6	0x3f36e7e3	0.7144758
7	0x403abc7a	2.9177537

weights f4 [16]
0	0x408466b0	4.137535
1	0x3ffcd30f	1.975191
2	0x4014ab5e	2.3229594
3	0xbd6ea4f1	-0.05826277
4	0x40aca41a	5.395032
5	0x40722f23	3.784127
6	0x40a87e76	5.265437
7	0x40ca9bca	6.331517
8	0x40756893	3.8345077
9	0x3e824609	0.25444058
10	0x40adb6f1	5.4285817
11	0x40a81a87	5.253238
12	0x409daa0a	4.9270067
13	0x40261ec7	2.5956285
14	0x4057c0d5	3.3711445
15	0x3f930ded	1.1488625

weights f4 [16]
0	0x409e5c0c	4.948736
1	0x40a7e577	5.246761
2	0x403e458b	2.9729946
3	0x408f0258	4.469036
4	0x40986fe5	4.763659
5	0x40725cc2	3.7869115
6	0x404b1c72	3.1736112
7	0x4098f645	4.780062
8	0x402cccb6	2.6999946
9	0x40880d49	4.2516217
10	0x40c00afd	6.0013413
11	0x4048d3ad	3.1379197
12	0x40a2d66b	5.088674
13	0x40a58fa2	5.1737833
14	0x40680152	3.6250806
15	0x40b83927	5.7569766

weights f4 [16]
0	0x408b9b85	4.3627343
1	0x3ffaf58e	1.9606187
2	0x3f589f4f	0.84618086
3	0xbdb88891	-0.09010423
4	0x40b05e62	5.5115213
5	0x4089501f	4.2910304
6	0x4067452a	3.6135964
7	0x40bf959b	5.9870124
8	0x40a4a009	5.1445355
9	0x3f2e84d9	0.6817146
10	0x409a58de	4.823348
11	0x4083fa6d	4.1243196
12	0x407aa13c	3.916091
13	0x3edd22d8	0.43190646
14	0x3e52eb6c	0.20597619
15	0x40a8d772	5.2762995

weights f4 [12]
0	0x40af0fde	5.470687
1	0xbb5d0e3d	-0.003373041
2	0x3fcffe21	1.6249429
3	0x40394a9f	2.8951795
4	0x3f804945	1.002236
5	0x40180f44	2.3759317
6	0x40be1352	5.9398584
7	0x40699087	3.6494462
8	0x3fc30a9e	1.5237615
9	0x40b2799b	5.5773444
10	0x40c807f9	6.250973
11	0x4032787b	2.7886035

weights f4 [12]
0	0x3f4a4bcc	0.79021907
1	0x4042d89c	3.0444708
2	0x3ec5e0e3	0.38648137
3	0x403e0704	2.9691782
4	0x3f876f7d	1.0580899
5	0x4014942a	2.3215432
6	0x406f7986	3.7417922
7	0x40651bbf	3.5798185
8	0x3fc4a541	1.5362931
9	0x40a8725d	5.2639604
10	0x405f1c61	3.486107
11	0x3f0440aa	0.5166117

weights f4 [12]
0	0x40baf09d	5.8418717
1	0x3fe4df77	1.7880696
2	0x4062abf9	3.5417464
3	0x4055d21e	3.3409495
4	0x3fd5ce33	1.6703552
5	0x40a7f4d0	5.2486343
6	0x40a4d681	5.1511846
7	0x3fc9a37b	1.5753015
8	0x40663584	3.5970163
9	0x400d4079	2.20706
10	0x3ea5ebb3	0.32406387
11	0x40a2628f	5.074531

weight f4 [12, 48]
0	0x3dfcb79f	0.123397104
1	0xbd792695	-0.06082781
2	0xbd094950	-0.033517182
3	0xbe05fc0a	-0.13084427
4	0xbda13bb1	-0.07872713
5	0xbdcf5798	-0.10124129
6	0x3e19019f	0.14942025
7	0xbd851bd5	-0.06499449
8	0xbe044011	-0.12915064
9	0x3d6d2f5a	0.057906486
10	0x3d89ca6b	0.06728061
11	0x3cb693f4	0.022287346
12	0x3d353d00	0.044247627
13	0xbdb23ade	-0.08702634
14	0xbda29814	-0.07939163
15	0xbda7c9b7	-0.08192771
16	0xbd869b68	-0.0657261
17	0x3dd87c33	0.10570564
18	0xbd80102c	-0.062530845
19	0x3c94e9b5	0.018177846
20	0xbddf13df	-0.10892462
21	0x3d85edf1	0.06539524
22	0x3dbdc6fa	0.092664674
23	0xbd8f439b	-0.069953166
24	0xbd04a130	-0.032380283
25	0xbd9c2776	-0.07624714
26	0x3b9d6323	0.004803078
27	0x3e07cc27	0.13261472
28	0x3d8981cd	0.06714211
29	0x3de7d7f3	0.11320486
30	0x3dd1ba86	0.10240655
31	0x3abaa480	0.0014239699
32	0xbd3b7a2f	-0.04577082
33	0x3d9ef1a3	0.07760932
34	0xba5022bb	-0.00079397456
35	0xbdb62c05	-0.08895115
36	0x3db4374f	0.08799612
37	0xbd8ce90a	-0.06880386
38	0xbc3dde7d	-0.01158869
39	0xbd4fb0e0	-0.05070579
40	0xbd9ffea7	-0.07812243
41	0x3d6b9e5e	0.057524078
42	0xbd8466d2	-0.06464924
43	0x3d8a4395	0.067511715
44	0xbd9d9be7	-0.07695752
45	0x3cd9238c	0.026506208
46	0xbe04d536	-0.12971959
47	0xbdb879ad	-0.09007583
48	0xbdcd6d47	-0.100306086
49	0xbd83a130	-0.064272285
50	0xbc6a938d	-0.014317405
51	0xbe01ded3	-0.12682657
52	0xbdbd1b29	-0.09233696
53	0xbddd2664	-0.10798338
54	0xbd859f54	-0.0652453
55	0xbcd89737	-0.026439292
56	0xbb1f4c30	-0.0024306886
57	0xbdd6abeb	-0.104820095
58	0xbc62ca90	-0.01384224
59	0xbd402a11	-0.046915118
60	0x3dd76c69	0.105187245
61	0x3dde69c6	0.108600184
62	0xbe551136	-0.20807347
63	0x3e63d1b6	0.22247967
64	0xbced8de8	-0.02899833
65	0x3c0abaaa	0.008467356
66	0xbdb06919	-0.08613796
67	0xbde28f98	-0.110625446
68	0x3e4c0885	0.19925125
69	0xbd62daa0	-0.05538428
70	0x3e3d8885	0.1850911
71	0x3d822eb5	0.06356565
72	0x3e098c44	0.13432413
73	0xbdae92dc	-0.08524105
74	0x3c3f274f	0.011667087
75	0x3dc48756	0.09596126
76	0x3c42c54a	0.011887858
77	0x3df939c8	0.12169224
78	0xbe03593c	-0.12827009
79	0x3d155aef	0.036463674
80	0xbcbe8040	-0.023254514
81	0x3e6539fd	0.22385402
82	0xbd6a7963	-0.05724467
83	0x3c7db08c	0.015483987
84	0xbe5b3a46	-0.21408948
85	0xbd94b66f	-0.07261359
86	0xbe3fe486	-0.18739519
87	0x3ddf9302	0.109167114
88	0x3dcab285	0.09897331
89	0x3dfcd79a	0.1234581
90	0x3e26469e	0.16237876
91	0xbcff54c0	-0.031168342
92	0xbd8ce113	-0.06878867
93	0x3af5f638	0.0018765396
94	0xbc967d89	-0.018370407
95	0x3e8be0ac	0.2731985
96	0xbe248112	-0.16064861
97	0xbd1bb96c	-0.03801863
98	0xbc1479b8	-0.009062223
99	0x3e20ffa2	0.15722516
100	0x3db57249	0.08859689
101	0xbdb9d1a3	-0.09073188
102	0xbbc66dc3	-0.006055565
103	0x3c6bd6ef	0.014394506
104	0xbda97fc7	-0.08276325
105	0xbd944442	-0.07239582
106	0xbddd23ff	-0.10797881
107	0x3d406d84	0.046979442
108	0xbb3f2fa3	-0.002917268
109	0xbd91d8c9	-0.071214266
110	0xbd13b404	-0.03606035
111	0x3dd690c7	0.10476833
112	0xbe138b06	-0.14408502
113	0xbd1f2dfc	-0.038862213
114	0xbc1e28ba	-0.009653265
115	0xbd3bc864	-0.045845404
116	0x3d86e26d	0.06586156
117	0xb9c6cd6d	-0.00037918557
118	0x3ca1118f	0.019661693
119	0x3df14894	0.11781421
120	0x3de316c9	0.1108833
121	0x3d884f24	0.0665572
122	0x3db3899f	0.087664835
123	0xbb6dff83	-0.0036315627
124	0x3d2ce6f6	0.04221245
125	0x3dc3b12c	0.09555277
126	0xbe206279	-0.15662564
127	0xbc5a63e8	-0.013329484
128	0xbd46fb24	-0.04857935
129	0x3d8d2585	0.06891922
130	0x3e434935	0.19070895
131	0x3e244a24	0.16043907
132	0x3bbf4a74	0.005837733
133	0x3d0ecdf8	0.034864396
134	0xba95d970	-0.0011432599
135	0x3e01fb3e	0.12693498
136	0xbd8fee2a	-0.07027848
137	0xbe39d54b	-0.18147771
138	0xbc7f4720	-0.015580922
139	0x3d8ce82f	0.06880223
140	0x3def83a9	0.11695034
141	0xbd9e77b2	-0.07737674
142	0xbd2e13bf	-0.0424993
143	0x3e40637f	0.18787955
144	0xbdf43eab	-0.119260155
145	0xbc376fea	-0.011196116
146	0xbea2eb23	-0.3182002
147	0xbd16255c	-0.036656722
148	0xbd6ac4c7	-0.057316568
149	0xbccda5c6	-0.025103461
150	0xbdcc1c64	-0.099663526
151	0x3d1c2b73	0.038127374
152	0xbd87e307	-0.06635099
153	0x3b310ddb	0.0027016315
154	0x3d501d7b	0.050809365
155	0xbe1e5278	-0.15461147
156	0xbd857b8e	-0.06517707
157	0x3d069e98	0.03286609
158	0xbdc7f862	-0.09764172
159	0x3d2a30ab	0.04155032
160	0xbd8fc589	-0.07020099
161	0xbd935cf2	-0.07195462
162	0xbce8aef3	-0.028403735
163	0x3df8d8ff	0.12150764
164	0xbda3a92f	-0.079912536
165	0x3d982d75	0.07430545
166	0xbd3705f1	-0.0446834
167	0xbd4d47d4	-0.05011733
168	0xbe29d294	-0.16584235
169	0xbded158e	-0.11576377
170	0xbdf7a5ad	-0.12092147
171	0x3e1c6583	0.15273099
172	0xbda2245c	-0.07917091
173	0xbe23a053	-0.15979128
174	0x3db07928	0.08616859
175	0xbd800bf3	-0.06252279
176	0xbe02cfea	-0.12774625
177	0xbe118018	-0.1420902
178	0x3debe361	0.115179785
179	0x3d9b8108	0.0759297
180	0xbdb81b90	-0.08989632
181	0xbe39d038	-0.18145835
182	0x3e547323	0.20747046
183	0x3cb98adb	0.02264922
184	0xbd1c0b52	-0.038096733
185	0xbddf7f9d	-0.10913012
186	0xbde68355	-0.11255518
187	0x3e15bf91	0.14623858
188	0x3d061315	0.03273304
189	0x3dbd9ec6	0.09258799
190	0x3de20058	0.11035222
191	0x3d95de9a	0.073178485
192	0xbbc0dacd	-0.005885458
193	0x3be249b7	0.00690576
194	0x3c87608d	0.016525531
195	0x3de49470	0.11161125
196	0xbda5b131	-0.08090437
197	0xbaf2f852	-0.001853714
198	0xbdc9c199	-0.09851379
199	0xbd8a15ea	-0.06742461
200	0xbdd7da48	-0.10539681
201	0x3d211d52	0.039334603
202	0x3dcdeaa6	0.10054521
203	0x3e0adce9	0.13560833
204	0x3e25bf15	0.16186173
205	0xbcc58914	-0.024113216
206	0xbd5a9b22	-0.053370602
207	0x3e70a2b6	0.2349957
208	0x3d359747	0.044333722
209	0xbb077499	-0.0020668863
210	0xbd82b7d9	-0.063827224
211	0x3bd73d55	0.0065685906
212	0x3d4a163f	0.04933762
213	0x3e31a348	0.17347443
214	0x3be3586a	0.00693803
215	0x3d197fab	0.03747527
216	0x3d84777a	0.06468101
217	0xbc7962e4	-0.015221331
218	0x3de2acaf	0.11068093
219	0x3d265d0d	0.040616084
220	0x3d805f1d	0.062681414
221	0xbcc5dbd3	-0.024152672
222	0xbe127c88	-0.14305317
223	0x3d0718ba	0.032982565
224	0x3e561491	0.20906283
225	0x3e0b1622	0.13582662
226	0x3e6108b4	0.21975976
227	0x3e111339	0.14167489
228	0xbde5bae5	-0.11217288
229	0xbd8e0418	-0.069343746
230	0xbe1d5685	-0.15365036
231	0xbd7b125a	-0.0612968
232	0x3ba0e4d6	0.004910092
233	0xbd2e4419	-0.04254541
234	0x3d81f7a6	0.06346063
235	0x3dbb3692	0.09141268
236	0x3e0b5e55	0.13610204
237	0x3cc2fb5d	0.0238015
238	0xbd5ce183	-0.053926002
239	0x3d0651ca	0.032792844
240	0xbdbaac54	-0.091149
241	0xbdb50484	-0.08838752
242	0xbe0c0d60	-0.13676977
243	0xbdd0de33	-0.10198631
244	0xbd57f8a4	-0.052727357
245	0xbdcb7ff3	-0.09936514
246	0x3e24c593	0.16090994
247	0x3e0ff481	0.14058115
248	0x3de51090	0.111848
249	0x3d72801a	0.0592042
250	0xbd6160d8	-0.055023998
251	0x3dfe5018	0.124176204
252	0x3e0dab4e	0.13834879
253	0xbb28951c	-0.0025723642
254	0x3df11fbe	0.117736325
255	0x3bc65339	0.0060524014

bias f4 [12]
0	0xbdd4d295	-0.10391728
1	0x3e058b45	0.13041408
2	0x3da00bf1	0.07814778
3	0xbc5c609d	-0.013450769
4	0x3e9aa80c	0.30206335
5	0xbd247479	-0.04015014
6	0xbe0204cd	-0.12697144
7	0x3e06af66	0.13152847
8	0xbc1f5c94	-0.009726662
9	0xbd753ce0	-0.059872508
10	0xbd1104da	-0.035405017
11	0xbdccc07c	-0.09997651

weight f4 [12, 12]
0	0x3e307bff	0.17234801
1	0x3e75b316	0.23994097
2	0xbd43420c	-0.04767041
3	0xbd24fe73	-0.040281724
4	0xbe8b4ace	-0.2720551
5	0x3e22f9c5	0.15915592
6	0x3e957f21	0.29198554
7	0x3cc32d60	0.023825347
8	0xbe6dc366	-0.2321907
9	0xbdf8be89	-0.12145717
10	0x3db35a7f	0.08757495
11	0x3dcd4f7b	0.10024925
12	0xbe79b71c	-0.24386257
13	0x3e4f4cd7	0.20244156
14	0xbd907dbd	-0.07055233
15	0x3dc6a215	0.096988834
16	0x3e600ebe	0.21880624
17	0xbe897190	-0.26844454
18	0x3e82f187	0.25574896
19	0xbe5f239a	-0.21790925
20	0x3d897242	0.06711246
21	0x3e6c33df	0.23066662
22	0xbe7ad9c8	-0.2449714
23	0x3cf0b589	0.029383438
24	0x3c5205c6	0.012818759
25	0xbb9ac975	-0.0047237226
26	0x3d23f89d	0.040032018
27	0xbea3ba98	-0.31978297
28	0x3e39b781	0.18136407
29	0x3e207c0e	0.15672323
30	0x3dff2d63	0.12459829
31	0x3dd794ba	0.10526414
32	0x3e00815f	0.12549351
33	0x3e12c1b7	0.14331709
34	0xbee1aaf0	-0.44075727
35	0x3e44abbb	0.19206135
36	0xbddfc162	-0.10925557
37	0xbe3310ec	-0.17486924
38	0xbdc53cf4	-0.096307665
39	0x3ec901b6	0.39259118
40	0xbe0965d2	-0.13417748
41	0x3ecc6826	0.3992321
42	0xbe4a434e	-0.19752237
43	0xbed2745a	-0.41104394
44	0x3e6b6b9e	0.22990271
45	0xbeb58bfc	-0.35458362
46	0x3e16e7fd	0.14736934
47	0x3e9174ef	0.28409526
48	0xbe6062b4	-0.21912652
49	0x3e4c90fe	0.19977185
50	0xbe3617c0	-0.17782497
51	0x3e9b5d5e	0.3034467
52	0x3d27718f	0.040879782
53	0xbe10f33a	-0.14155284
54	0xbd5e87fa	-0.054328896
55	0x3e26c5aa	0.1628634
56	0x3ea01234	0.31263888
57	0x3e59f9ac	0.21286649
58	0xbccb6ba6	-0.024831604
59	0x3e191570	0.14949584
60	0x3e252061	0.16125633
61	0x3e442124	0.19153267
62	0x3c419da7	0.011817372
63	0xbd7b31c0	-0.061326742
64	0x3e0947c0	0.13406277
65	0x3eae0368	0.33986974
66	0x3e7ed451	0.2488568
67	0x3d2fb155	0.042893726
68	0xbddab1f9	-0.10678477
69	0x3b11aba9	0.0022227562
70	0xbdebb8b2	-0.11509837
71	0xbe878a85	-0.2647287
72	0xbd802751	-0.06257499
73	0xbda1b760	-0.07896304
74	0xbe454d86	-0.19267854
75	0x3e4f0021	0.20214893
76	0x3d3ab5a1	0.04558337
77	0xbe2d7c6a	-0.16941991
78	0x3e47d400	0.19514465
79	0xbd9faeb2	-0.07796992
80	0xbeaf40b0	-0.3422904
81	0x3e027523	0.12739997
82	0x3dd3299f	0.10310673
83	0xbc067768	-0.00820718
84	0x3c88f9cf	0.01672068
85	0x3e121ef5	0.14269622
86	0x3e55ddb2	0.20885351
87	0xbd8f194a	-0.069872454
88	0xbd41ec68	-0.047344595
89	0xbe278966	-0.16361007
90	0x3e78257f	0.24233054
91	0xbe47cf52	-0.1951268
92	0x3d7ba645	0.061437864
93	0xbddf2e3e	-0.10897492
94	0x3de52d9d	0.11190341
95	0xbd6d6fc9	-0.057967935
96	0x3e748739	0.23879708
97	0xbe133045	-0.14373882
98	0x3de2f1f6	0.11081307
99	0x3eb39263	0.35072622
100	0xbcabae67	-0.020957185
101	0x3e4c45a7	0.19948445
102	0xbb43793f	-0.0029826907
103	0x3c327e54	0.010894377
104	0x3e29f4c9	0.16597284
105	0x3e45f1d8	0.19330537
106	0x3ddfa182	0.10919477
107	0xbe3756a5	-0.17904146
108	0x3cb4b1e1	0.022057476
109	0x3d6ab443	0.057300817
110	0x3cc9c7e5	0.02463145
111	0x3d2249f2	0.0396213
112	0x3e4ebe3e	0.20189759
113	0x3cc48721	0.023990216
114	0xbd6b7995	-0.057488997
115	0xbe7201aa	-0.23633447
116	0xbdd75aa9	-0.10515339
117	0x3e699020	0.22808886
118	0x3d9a07d4	0.07521024
119	0xbd62f8fb	-0.055413228
120	0x3e2056a3	0.1565805
121	0x3ea6f9df	0.32612512
122	0x3e19ba2d	0.15012427
123	0xbea428cd	-0.3206238
124	0xbe4dcae8	-0.20096934
125	0xbdd8409e	-0.105592
126	0x3e46b4ef	0.19404958
127	0xbe58d005	-0.21173103
128	0xbe91f1df	-0.28504845
129	0x3ea485c2	0.321333
130	0xbe91247e	-0.28348154
131	0x3dc30c52	0.09523834
132	0x3e39f71a	0.18160668
133	0xbe437ecc	-0.19091338
134	0x3e80735f	0.2508802
135	0xbda71a60	-0.081593275
136	0x3e1dbd48	0.15404236
137	0x3e3cf65e	0.18453357
138	0xbe5bcee7	-0.21465646
139	0x3e06f9bd	0.13181205
140	0x3dae5cdf	0.085138075
141	0xbe836d50	-0.25669336
142	0xbe06bffa	-0.13159171
143	0xbd8e823c	-0.06958434

bias f4 [12]
0	0x3e59e6ff	0.21279524
1	0x3de5758f	0.11204063
2	0x3e81a199	0.25318602
3	0xbeea7923	-0.45795545
4	0x3d09710a	0.033555068
5	0x3e2e110a	0.16998687
6	0x3e6a0dd4	0.22856838
7	0xbe1d2459	-0.15345897
8	0x3e49bab5	0.1970013
9	0xbe61cae3	-0.22050051
10	0x3dbe27bf	0.09284925
11	0xbd82de97	-0.06390112

weight f4 [12, 48]
0	0x3e34f060	0.17669821
1	0x3e727039	0.23675622
2	0x3cc99de4	0.02461142
3	0x3d7812ac	0.060564682
4	0xbd98d86f	-0.074631564
5	0xbd40c5a2	-0.047063477
6	0xbdfabe8b	-0.122433744
7	0xbcba424e	-0.022736695
8	0xbcf7e1ec	-0.030259095
9	0x3e09acc9	0.13444819
10	0x3bff7840	0.0077963173
11	0xbde4a5cc	-0.11164436
12	0xbd04529a	-0.032305337
13	0xbdbd63d0	-0.09247553
14	0x3d52f0f9	0.05149934
15	0x3e089352	0.13337448
16	0x3c3609b4	0.011110712
17	0x3e11b3b3	0.14228706
18	0x3d683621	0.056692246
19	0xbd813ea9	-0.063107796
20	0x3e3000a7	0.17187749
21	0x3d9b1418	0.07572192
22	0x3dc44767	0.095839314
23	0x3cd91211	0.026497873
24	0xbc18780e	-0.009305967
25	0x3d9c9a54	0.07646623
26	0xbb422040	-0.0029621273
27	0xbd45d8ed	-0.04830258
28	0x3e8da2af	0.2766318
29	0x3dcf3589	0.10117633
30	0x3e5cbc24	0.21556145
31	0x3e79c5f3	0.24391918
32	0x3d9cc576	0.0765485
33	0x3e30b28e	0.17255613
34	0x3d51e728	0.05124584
35	0xbd768ba6	-0.060191773
36	0x3e1b3204	0.15155798
37	0xbcf837d0	-0.030300051
38	0x3d08c87c	0.03339432
39	0x3aae8f5e	0.0013317873
40	0x3d75eba6	0.060039185
41	0xbc325518	-0.010884546
42	0x3dfd9956	0.12382762
43	0x3d38d2bf	0.045122858
44	0x3e3129c1	0.17301084
45	0x3c4915a3	0.012273225
46	0x3e22fd2a	0.15916887
47	0x3e47ce6e	0.1951234
48	0x3d09f488	0.03368047
49	0xbd6d46b8	-0.05792877
50	0xbd882010	-0.066467404
51	0x3d6b931e	0.05751335
52	0x3e7a9bc7	0.24473487
53	0x3e6771d0	0.2260201
54	0x3e93d4e0	0.28873348
55	0x3daa9de2	0.08330895
56	0xbcc27639	-0.023738014
57	0xbcfd93ee	-0.030954327
58	0xbddc0ede	-0.10745023
59	0xbe1ec019	-0.15502967
60	0x3e850d62	0.25986773
61	0x3e2f61a7	0.17127095
62	0x3e59948b	0.21248071
63	0x3db11069	0.08645708
64	0xbe08e3d9	-0.13368167
65	0xbdb8e531	-0.0902809
66	0x3df8491b	0.12123319
67	0xbdcc71e2	-0.09982659
68	0xbd141ffa	-0.036163308
69	0xbdceb97c	-0.10093972
70	0xbe83bd00	-0.25730133
71	0xbe82c3ea	-0.25540096
72	0x3d896096	0.067078754
73	0x3dd8d583	0.10587599
74	0x3b35115b	0.0027628753
75	0x3c2514e2	0.01007578
76	0x3e5b9147	0.21442138
77	0xbe03e3d5	-0.1287988
78	0x3d3d0f44	0.046157137
79	0xbdfd2e58	-0.12362355
80	0xbc89bf2b	-0.016814789
81	0x3cb7f0d1	0.022453697
82	0xbdff102d	-0.12454257
83	0xbdef518d	-0.116854765
84	0x3de4a5f3	0.11164465
85	0xbced5442	-0.028970841
86	0xbd406d3e	-0.04697918
87	0xbc9fb705	-0.01949645
88	0x3bf3c852	0.0074396515
89	0x3e6fcd5c	0.23418182
90	0x3d77ca40	0.060495615
91	0x3df07378	0.11740774
92	0x3aa7c643	0.0012800175
93	0xbd037966	-0.032098196
94	0x3d91f222	0.07126261
95	0x3d98d064	0.07461622
96	0x3e2af213	0.16693906
97	0xbe041d71	-0.12901856
98	0x3e730811	0.23733546
99	0x3d8768eb	0.066118084
100	0x3dd55dab	0.10418256
101	0xbe0331d6	-0.1281198
102	0x3da84209	0.0821572
103	0xbd4a06ba	-0.04932282
104	0xbdd54959	-0.104143806
105	0xbdbded40	-0.092737675
106	0xbdaac0d6	-0.08337562
107	0xbb9a2898	-0.004704546
108	0x3d2e3523	0.042531144
109	0xbd0bb3ef	-0.034107145
110	0x3e2bcef1	0.1677816
111	0x3dd66bcb	0.104697786
112	0x3d731cd8	0.05935368
113	0x3e09fabc	0.13474554
114	0xbd85053a	-0.064951375
115	0x3e1536ec	0.14571732
116	0xbcc25dff	-0.023726461
117	0xbdba7856	-0.091049835
118	0xbdc3c238	-0.09558529
119	0x3e0e8d15	0.13921006
120	0x3d7b5dd1	0.061368767
121	0x3c876282	0.016526464
122	0x3d8f2514	0.06989494
123	0x3bc18170	0.0059053227
124	0xbea14ee6	-0.31505507
125	0xbd8db6f3	-0.069196604
126	0xbe0fb049	-0.14032091
127	0xbe618a71	-0.22025467
128	0x3dca2e08	0.09872061
129	0xbc9fc0e7	-0.019501163
130	0xbd0b55aa	-0.034017242
131	0xbc54690c	-0.012964498
132	0xbdd4d26b	-0.103916965
133	0x3d8e4545	0.06946806
134	0xbd024aa0	-0.03180945
135	0x3d11dd76	0.035611592
136	0x3cc09ab0	0.02351126
137	0xbc2120cf	-0.009834482
138	0x3debbe1e	0.11510871
139	0x3de825d0	0.11335337
140	0x3c1306f1	0.008973823
141	0x3e271ffb	0.16320793
142	0x3e4e98f6	0.20175537
143	0x3e17af2a	0.14812914
144	0x3de2dd35	0.11077348
145	0xbbd5bc25	-0.0065226727
146	0x3e07725d	0.1322722
147	0xbd886233	-0.06659355
148	0xbc5321dd	-0.012886492
149	0xb8ec8145	-0.00011277435
150	0x3d0c9d8b	0.034329932
151	0xbe0b84b3	-0.1362484
152	0xbd978538	-0.07398456
153	0x3cf30bd7	0.029668732
154	0x3d845d00	0.06463051
155	0x3a5dbb98	0.00084584346
156	0xbd12afc7	-0.035812166
157	0xbde234f2	-0.11045255
158	0xbc106381	-0.008812786
159	0x3d82c831	0.0638584
160	0x3df11003	0.11770632
161	0xbc4f89c4	-0.012667123
162	0xbdc8231d	-0.09772322
163	0xbd36ae98	-0.0446001
164	0x3c23ebed	0.01000498
165	0x3cfc961f	0.030833302
166	0x3d3c56d0	0.04598123
167	0x3d1d407e	0.038391583
168	0xbc8f6180	-0.017502546
169	0x3d89e2b3	0.067326926
170	0xbd960573	-0.07325258
171	0x3b9fe0cc	0.004879093
172	0x3dfa1da5	0.122126855
173	0xbd5b5db5	-0.053556163
174	0x3ddba312	0.107244626
175	0xbdec09d7	-0.11525314
176	0x3df2313c	0.11825797
177	0xbd0e9f6c	-0.034820005
178	0xbd69dca1	-0.057095174
179	0xbca201b9	-0.019776212
180	0x3e0c2dd9	0.13689364
181	0x3ba02d1d	0.0048881904
182	0x3dabc750	0.08387625
183	0xbdf89d4d	-0.12139378
184	0xbe030f57	-0.1279882
185	0xbd123309	-0.035693202
186	0xbdf616be	-0.120160565
187	0xbd12794d	-0.035760213
188	0x3e0262b2	0.12732962
189	0xbe0b868a	-0.13625541
190	0xbd9d0e0a	-0.07668693
191	0x3d595289	0.053057227
192	0x3e2f5206	0.17121133
193	0x3dc7141d	0.09720633
194	0x3dad91dd	0.08475087
195	0x3d4d2b8f	0.05009037
196	0x3c81e6e0	0.01585716
197	0xbcc8f2c7	-0.024529828
198	0xbdd2348e	-0.1026393
199	0x3df68935	0.12037889
200	0x3ddd81e2	0.10815789
201	0xbc9872d9	-0.018609451
202	0x3e01fd6d	0.1269433
203	0x3d14c45f	0.036320087
204	0x3d400141	0.046876196
205	0xbc275666	-0.01021347
206	0xbd7d3221	-0.061815385
207	0x3e12f34a	0.1435062
208	0x3d7db974	0.06194444
209	0xb991a0b4	-0.00027776288
210	0xbdc0c28e	-0.09412108
211	0xbd494fe1	-0.049148444
212	0xbaaf6997	-0.0013382909
213	0x3db6c43e	0.08924149
214	0x3dba8ff5	0.09109489
215	0x3b0c12d1	0.002137352
216	0x3dac4596	0.0841171
217	0x3d7f070a	0.062262572
218	0x3da172b6	0.078832075
219	0x3e072a76	0.13199791
220	0xbe179862	-0.14804223
221	0xbd7236ce	-0.059134297
222	0x3da4af3f	0.08041238
223	0xbe63d33b	-0.22248547
224	0x3e2e9b72	0.17051485
225	0x3dec3e44	0.11535314
226	0x3ddcf456	0.10788791
227	0x3e3df8df	0.18551968
228	0xbd834f29	-0.06411583
229	0x3e28d6e7	0.16488229
230	0xbe500c5b	-0.20317213
231	0xbe327f7c	-0.17431444
232	0xbddcf09a	-0.107880786
233	0xbde69a11	-0.112598546
234	0x3c1743fd	0.009232518
235	0xbda02ca5	-0.07821015
236	0xbd3c6fea	-0.046005167
237	0x3e3d187c	0.18466371
238	0x3cd0062c	0.025393568
239	0x3cbba262	0.022904579
240	0x3d7b2612	0.061315604
241	0x3cbbfb31	0.022946926
242	0xbdca9183	-0.098910354
243	0x3d8f241a	0.06989308
244	0xbd8741db	-0.06604358
245	0xbbf506e9	-0.0074776304
246	0xbd5d1873	-0.053978395
247	0x3d6ab830	0.05730456
248	0x3a8b9a2c	0.0010650805
249	0x3d423630	0.04741496
250	0xbda0d96c	-0.0785397
251	0xbdd60457	-0.104500465
252	0xbd7e795b	-0.062127452
253	0x3e3fcbab	0.18730037
254	0xbdbc6ee1	-0.09200836
255	0x3bfd814a	0.0077363597

bias f4 [12]
0	0x3dfcae34	0.12337914
1	0x3d803812	0.062606946
2	0x3dba3233	0.09091606
3	0xbdbc778b	-0.092024885
4	0x3e3e5783	0.1858807
5	0x3e433ed3	0.19066934
6	0xbb823673	-0.003973776
7	0x3d31a284	0.043367878
8	0xbde90589	-0.11378009
9	0xbd6e949a	-0.058247186
10	0xbd84a551	-0.06476844
11	0xbd248f84	-0.04017593

weight f4 [12, 12]
0	0xbc6269c0	-0.013819158
1	0x3daad85d	0.08342049
2	0x3e83c0ef	0.25733134
3	0xbbf3b6af	-0.007437549
4	0xbe1012bc	-0.14069647
5	0x3e1fa81b	0.15591471
6	0xbe48358e	-0.1955168
7	0x3e907d54	0.28220618
8	0xbe12e225	-0.1434408
9	0x3e9853e2	0.29751498
10	0xbe74d66b	-0.23909919
11	0xbcac7525	-0.021051953
12	0xbe2d51fa	-0.16925803
13	0xbbaaaa6f	-0.0052083055
14	0x3e7f3deb	0.24925964
15	0x3e7b1596	0.24519953
16	0x3eaa542b	0.3326734
17	0x3d4bcc31	0.04975528
18	0x3e67a809	0.22622694
19	0xbec4e81b	-0.38458332
20	0xbe4b4739	-0.19851388
21	0xbd89cf60	-0.06729007
22	0xbe8c86b6	-0.27446526
23	0xbd69e471	-0.057102624
24	0x3cb40acd	0.021977806
25	0x3e8e1150	0.27747583
26	0xbea4f4b3	-0.3221794
27	0xbd859525	-0.06522588
28	0xbeba1a36	-0.36348122
29	0x3df1af90	0.11801064
30	0x3e945c0c	0.28976476
31	0x3dd827db	0.10554477
32	0x3e22c7d3	0.1589654
33	0x3e7afb49	0.2450992
34	0xbe89b223	-0.2689372
35	0x3d1ade81	0.037809853
36	0x3dc9e754	0.098585755
37	0x3e231dc2	0.1592932
38	0x3e0b936e	0.13630459
39	0xbe49c3f7	-0.19703661
40	0xbddea47f	-0.10871219
41	0xbe466b52	-0.19376877
42	0x3ddfb4c5	0.10923151
43	0xbea2e096	-0.3181197
44	0xbcd2ad9c	-0.025717549
45	0x3e484606	0.19557962
46	0x3e9284a0	0.2861681
47	0xbe03b75c	-0.12862915
48	0xbbe1dfb8	-0.0068931244
49	0xbead4575	-0.33842054
50	0xbe94be60	-0.29051495
51	0x3d158bdf	0.036510345
52	0x3e5100dc	0.20410484
53	0xbd9a6e89	-0.07540614
54	0xbda2c7f6	-0.07948296
55	0xbec1ee38	-0.3787706
56	0x3dfbbff3	0.12292471
57	0x3d8e9e3a	0.06963773
58	0x3cd77e8a	0.026305456
59	0x3eb3c87d	0.35113898
60	0x3e4810b6	0.19537625
61	0x3d491fbb	0.049102526
62	0xbda8c16c	-0.08240017
63	0x3e84451a	0.2583397
64	0x3b337f45	0.002738909
65	0xb98b05d7	-0.00026516497
66	0xbd6c63ee	-0.057712488
67	0xbdfba37e	-0.12287043
68	0xbc1a5766	-0.0094202515
69	0x3ed20b9b	0.4102448
70	0xbe010cde	-0.12602565
71	0x3e2cb0b6	0.16864285
72	0x3e895bb1	0.26827767
73	0xbd2de76a	-0.04245702
74	0xbb50645f	-0.0031798107
75	0x3e73d926	0.23813304
76	0x3eb0261c	0.34404075
77	0x3dc8b5f0	0.09800327
78	0xbe605fdb	-0.21911566
79	0xbd51a016	-0.05117806
80	0x3cf89977	0.030346615
81	0xbd2df840	-0.042473078
82	0x3e8cfc8c	0.27536428
83	0x3d4a93ed	0.04945748
84	0xbd3cbd78	-0.04607913
85	0xbe678c6e	-0.22612163
86	0xbe6f577b	-0.23373215
87	0xbe7d91a9	-0.24762596
88	0x3d89f521	0.06736208
89	0xbdbaa4ac	-0.0911344
90	0x3ea36c26	0.31918448
91	0xbe616bba	-0.2201375
92	0xbe1bc472	-0.15211657
93	0xbe4d4c8a	-0.20048729
94	0xbda7b5e5	-0.081889905
95	0xbdcd5c8a	-0.10027416
96	0x3d8c2c34	0.068443686
97	0xbe8c5878	-0.27411246
98	0xbe6994b3	-0.2281063
99	0xbe6393e8	-0.2222439
100	0x3de8a07b	0.11358734
101	0x3e947810	0.2899785
102	0x3e943c21	0.28952125
103	0x3ecb8020	0.3974619
104	0x3e532603	0.20619969
105	0xbe9015f8	-0.2814176
106	0xbd93993b	-0.07206961
107	0xbd1c4e63	-0.038160693
108	0xbdddefdd	-0.10836766
109	0x3dc7efd2	0.09762539
110	0xbe804e02	-0.25059515
111	0x3e2339ce	0.1594002
112	0xbdb1fa4b	-0.08690318
113	0x3e5cc738	0.21560371
114	0x3e3515c9	0.17684092
115	0x3e539308	0.20661557
116	0xbe668970	-0.22513366
117	0x3e827718	0.25481486
118	0xbddb814d	-0.107180215
119	0xbe657dfe	-0.22411343
120	0x3d804c58	0.062645614
121	0x3c74da52	0.01494463
122	0x3dbe2fd0	0.09286463
123	0xbddf258d	-0.10895834
124	0xbded960d	-0.116008855
125	0xbe0e6f39	-0.13909616
126	0xbe19a541	-0.15004446
127	0xbcbb393c	-0.02285444
128	0xbd2acd55	-0.041699726
129	0x3ebbd78f	0.36687896
130	0x3d69ab02	0.05704785
131	0x3eb99f1e	0.3625421
132	0xbe8a4d18	-0.27011943
133	0x3daa324d	0.08310375
134	0xbe0ed070	-0.139467
135	0xbd801fe3	-0.06256082
136	0x3ddb8446	0.107185885
137	0x3d887b6d	0.066641666
138	0x3e1df141	0.15424062
139	0x3dbc07c2	0.09181167
140	0xbe5f04ff	-0.2177925
141	0x3d8e192f	0.06938397
142	0xbe61e532	-0.22060087
143	0x3e1a1352	0.15046433

bias f4 [12]
0	0xbcc12bf2	-0.023580525
1	0xbc976171	-0.01847908
2	0xbdeddd08	-0.11614424
3	0x3e13ac7d	0.14421268
4	0xbd526292	-0.051363535
5	0xbe51c883	-0.20486645
6	0xbe28acef	-0.16472219
7	0xbe8eb36d	-0.27871266
8	0xbe8ef080	-0.27917862
9	0xbdf14637	-0.117809705
10	0xbeb22602	-0.34794623
11	0x3db99082	0.09060766

weight f4 [12, 48]
0	0xbd8485ab	-0.06470808
1	0xbdae1faf	-0.08502137
2	0x3d86c768	0.065810025
3	0xbd9f4274	-0.07776347
4	0x3de47137	0.111544065
5	0xbdb63896	-0.08897512
6	0x3d080ff6	0.033218347
7	0x3ddfa462	0.109200254
8	0x3e05e1a6	0.1307436
9	0xbd975417	-0.07389086
10	0x3e1256eb	0.14290969
11	0xbd65399a	-0.055963136
12	0xbdb1cbd3	-0.086814545
13	0x3dae858e	0.08521567
14	0xbd5da8c9	-0.054116044
15	0xbde5c7e1	-0.112197645
16	0xbe008e42	-0.12554267
17	0xbe13186a	-0.14364782
18	0x3c04532f	0.008076473
19	0xbdc7b359	-0.09751005
20	0x3d61492f	0.055001434
21	0xbd0128a4	-0.0315329
22	0xbe0292fb	-0.12751381
23	0xbe2187c3	-0.15774445
24	0x3d88fe8a	0.066891745
25	0x3d96aebd	0.073575474
26	0xbd6a686f	-0.057228502
27	0xbd944173	-0.07239046
28	0x3d779ed5	0.06045421
29	0xbe044464	-0.12916714
30	0x3e77fb5b	0.24216978
31	0x3d87e162	0.06634785
32	0xbdcf68da	-0.10127421
33	0x3bf3242f	0.007420085
34	0xbe258253	-0.16162996
35	0xbe42c1f3	-0.19019298
36	0xbe4d3014	-0.20037872
37	0xbceddd42	-0.029036168
38	0x3d79ccc1	0.060986284
39	0xbdc253f1	-0.09488667
40	0xbdc4517c	-0.095858544
41	0xbe1837f5	-0.14865096
42	0xbe601754	-0.21883899
43	0x3d086532	0.033299632
44	0xbe4dcdb1	-0.20097996
45	0xbe4e5d6d	-0.20152827
46	0xbe53bcbc	-0.20677465
47	0xbe465594	-0.19368583
48	0xbd561f2e	-0.05227583
49	0xbd58a9be	-0.052896254
50	0xbc41f62a	-0.011838475
51	0xbdcc1541	-0.09964991
52	0xbd36f4a5	-0.044666905
53	0x3e06dc62	0.13170007
54	0x3e5e40d6	0.2170442
55	0x3e1d012c	0.15332478
56	0x3cbceae6	0.023061227
57	0xbc8eba2d	-0.01742276
58	0xbd15da35	-0.03658505
59	0x3e2a51bb	0.1663274
60	0xbd267ea3	-0.040648114
61	0x3dc8bc6f	0.09801566
62	0x3d49c15c	0.049256667
63	0x3da46b69	0.08028299
64	0xbd553717	-0.05205449
65	0x3d451e65	0.04812469
66	0xbd6b55e7	-0.05745497
67	0x3d74f075	0.05979963
68	0x3dfcfba4	0.12352684
69	0x3db5b58e	0.088725194
70	0xbce51584	-0.027964361
71	0xbdb9e018	-0.090759456
72	0x3dfc2007	0.12310796
73	0x3e14a831	0.14517285
74	0x3c5b2cc5	0.013377373
75	0xbc928000	-0.0178833
76	0xbdca2c0f	-0.09871685
77	0x3c92eb21	0.017934384
78	0x3d6ab10f	0.057297762
79	0xbc796327	-0.015221394
80	0xbe3857d2	-0.18002251
81	0x3dba7b0a	0.09105499
82	0xbe97cdc8	-0.29649186
83	0xbdaa40a8	-0.083131135
84	0x3c5004e1	0.012696476
85	0xbd175660	-0.036947608
86	0x3db6d18f	0.08926689
87	0x3de29072	0.11062707
88	0x3d85aeb9	0.06527466
89	0x3d78ec93	0.06077249
90	0x3cc6bc3f	0.024259685
91	0x3e1deda6	0.15422687
92	0x3d8a4c82	0.06752874
93	0xbd4f3e6d	-0.050596643
94	0xbd5cd4ca	-0.05391387
95	0xbcfef3f3	-0.031122183
96	0xbd08fa15	-0.03344162
97	0x3e60dc03	0.21958928
98	0x3de5967f	0.112103455
99	0xbd9da1fc	-0.07696912
100	0xbd168177	-0.03674456
101	0x3e4f117f	0.20221518
102	0xbdb42d1c	-0.087976664
103	0xbdc8e575	-0.098093905
104	0x3dec0bf4	0.115257174
105	0xbe6b2ef2	-0.22967127
106	0xbb6320d2	-0.0034657014
107	0xbdfe6419	-0.12421436
108	0xbe45c35a	-0.19312802
109	0xbcd527aa	-0.02601989
110	0xbe296a42	-0.1654444
111	0xbca0b0a2	-0.019615475
112	0xbd6d98b5	-0.05800696
113	0x3cb92379	0.022599922
114	0xbcfb3b33	-0.030667877
115	0x3d269e67	0.040678408
116	0xbe0fb1b7	-0.14032637
117	0xbd6c7e92	-0.057737894
118	0x3d8dcd49	0.06923921
119	0x3dc67035	0.096893705
120	0x3d77c70e	0.060492568
121	0x3ddde4b0	0.10834634
122	0x3dba105f	0.09085154
123	0xbd0ee202	-0.034883507
124	0x3d9400f3	0.072267435
125	0xbd90e9bb	-0.070758305
126	0xbc8ed252	-0.017434273
127	0xbe303b28	-0.17210066
128	0x3cb88917	0.022526307
129	0x3dba861d	0.09107611
130	0x3b6a9e0a	0.0035799765
131	0x3d8dab33	0.06917419
132	0xbe0ebea6	-0.13939914
133	0xbdb363bf	-0.087592594
134	0xbe3aebfb	-0.18254082
135	0xbe23faed	-0.1601369
136	0xbd4ba765	-0.049720187
137	0x3d85f496	0.06540792
138	0x3d7a8cef	0.06116956
139	0xbddd19c3	-0.10795929
140	0x3d029835	0.031883437
141	0xbcffc73e	-0.031222936
142	0x3d3ad35a	0.045611717
143	0xbca04a0d	-0.01956656
144	0xbcc9f5a9	-0.024653273
145	0x3cfb3432	0.030664537
146	0x3d435d71	0.047696535
147	0x3d968aed	0.07350717
148	0x3cafbf63	0.021453565
149	0xbe5f1cad	-0.21788283
150	0x3e1ba604	0.15200049
151	0xbc169f17	-0.009193203
152	0xbc195755	-0.0093592005
153	0x3d9a97f7	0.07548516
154	0xbc8d088f	-0.017215995
155	0xbd88bbdd	-0.06676457
156	0xbda0e725	-0.07856587
157	0xbc9ae909	-0.018909948
158	0x3d56a4d3	0.052403282
159	0x3c02a3ef	0.007973655
160	0xbcc554c2	-0.024088267
161	0xbdeebd65	-0.11657218
162	0x3da83cf5	0.08214752
163	0xbabfef9f	-0.0014643556
164	0x3d109f44	0.035308138
165	0xbe44a44b	-0.19203298
166	0xbe2e7e22	-0.17040303
167	0x3cdcb5fa	0.026942242
168	0xbd81d5ad	-0.063395835
169	0xbdf0da78	-0.117604196
170	0x3db6ee95	0.08932225
171	0x3de38271	0.11108864
172	0xbe63b01e	-0.22235152
173	0xbe4c484c	-0.19949454
174	0x3dd6805c	0.10473701
175	0xbcd84cfa	-0.026403893
176	0xbe035ca0	-0.12828302
177	0xbe3b0093	-0.18261938
178	0xbd9a0fb5	-0.07522527
179	0xbe2c24ee	-0.16810963
180	0x3d91c21c	0.071171016
181	0xbe06413d	-0.13110824
182	0x3d9a18f6	0.07524292
183	0xbddb19ab	-0.10698255
184	0xbe16c688	-0.14724171
185	0xbe00c5af	-0.1257541
186	0xbe25fd6e	-0.16209957
187	0xbd72c0c9	-0.059265886
188	0xbea09d90	-0.3137021
189	0xbe1b8aa5	-0.15189607
190	0xbcbc10c5	-0.022957215
191	0x3c32c2c9	0.010910698
192	0xbd2a703c	-0.04161094
193	0x3d33cca2	0.043896325
194	0xbc92a8ae	-0.017902698
195	0x3e35aab7	0.17740904
196	0x3df527b6	0.11970465
197	0x3e50ae37	0.20378958
198	0xbd8dd5f4	-0.06925574
199	0xbca3f5cc	-0.020014666
200	0xbd1e4d6d	-0.038648058
201	0xbd2a587e	-0.0415883
202	0x3e41db42	0.18931296
203	0x3d4be895	0.049782354
204	0x3d2523e7	0.040317442
205	0x3c8d75a2	0.017268006
206	0x3c32c39b	0.010910894
207	0x3d84e783	0.0648947
208	0xbd332592	-0.043737
209	0xbe111c8e	-0.14171049
210	0xbd041f13	-0.032256197
211	0x3e20580a	0.15658584
212	0xbe0ff164	-0.14056927
213	0xbdac6bda	-0.084190086
214	0x3c3acf3a	0.011401946
215	0x3d48f1ea	0.049058832
216	0x3d7f891f	0.06238663
217	0x3e1ecb25	0.15507181
218	0x3dab5c59	0.08367223
219	0x3bac3b75	0.0052561113
220	0x3e48af8c	0.19598216
221	0xbdae3f95	-0.08508221
222	0xbdac9fe4	-0.08428934
223	0xbdee03e9	-0.116218396
224	0xbc8c11fe	-0.017098423
225	0x3d0e4e09	0.03474239
226	0x3d456f94	0.048202112
227	0x3bd2690c	0.006421214
228	0x3d2d00db	0.042237144
229	0xbe4ee9d4	-0.20206386
230	0xbd769c28	-0.060207516
231	0x3dc88bc2	0.09792282
232	0x3cd5dd67	0.02610655
233	0x3d121559	0.03566489
234	0xbcfef814	-0.031124152
235	0xbdaeaee9	-0.08529455
236	0xbce95155	-0.028481165
237	0x3d24b686	0.04021313
238	0x3d0f2a40	0.034952402
239	0x3a33aa98	0.00068537286
240	0x3de39a38	0.11113399
241	0x3d7c73e9	0.061633978
242	0x3e0c9d69	0.13731922
243	0x3e3d00f5	0.18457396
244	0xbc2daf18	-0.010600828
245	0x3c48fcf6	0.012267342
246	0xbe05f53e	-0.13081834
247	0xbc54271c	-0.0129487775
248	0xbd88aeb0	-0.06673944
249	0x3e03ced3	0.12871866
250	0x3d2097fb	0.03920744
251	0xbcc720e7	-0.024307681
252	0x3c8f9a3a	0.017529596
253	0xbe0c8088	-0.13720906
254	0xbe184d7a	-0.14873305
255	0xbd249265	-0.040178675

bias f4 [12]
0	0x3db1cefe	0.08682059
1	0xbcda9dec	-0.026686631
2	0x3e16606e	0.14685223
3	0x3dd46cd3	0.10372319
4	0xbda22471	-0.07917107
5	0xbde1d3ed	-0.1102675
6	0x3e472a9d	0.1944985
7	0xbdf40bad	-0.119162895
8	0x3e3646b8	0.17800415
9	0x3b596aa8	0.0033175144
10	0xbc3b890a	-0.011446247
11	0xbd609034	-0.054825023

weight f4 [12, 12]
0	0x3d33c85b	0.043892246
1	0x3e09268d	0.13393612
2	0xbd8e0be8	-0.06935865
3	0xbe00627f	-0.12537573
4	0x3e90f643	0.28312883
5	0x3e778f63	0.24175791
6	0x3ddd5f21	0.1080916
7	0xbe5e1b67	-0.2169014
8	0xbd520918	-0.051278204
9	0xbdf1d10d	-0.118074514
10	0x3e8b1514	0.2716452
11	0xbe223764	-0.15841442
12	0x3e8b8ae3	0.272544
13	0x3cf8b970	0.030361861
14	0x3d222b05	0.039591808
15	0xbe542842	-0.20718482
16	0x3d9f4cae	0.07778297
17	0x3e3962c3	0.18104081
18	0xbda5b3af	-0.080909126
19	0x3d12ed00	0.035870552
20	0xbdbc6cca	-0.09200437
21	0xbdcbc0bd	-0.09948871
22	0x3e834727	0.25640222
23	0xbe5ecd17	-0.21757923
24	0xbdaf6c01	-0.08565522
25	0x3ea21d9b	0.31663212
26	0xbc7bcc6f	-0.015368565
27	0xbe9e389d	-0.30902568
28	0x3da9d6c2	0.08292915
29	0xbd1078ff	-0.03527164
30	0x3dae69f0	0.085163
31	0x3d561388	0.05226472
32	0xbe95b27c	-0.29237735
33	0x3ed132f3	0.40859184
34	0x3c982893	0.018574035
35	0xbd013743	-0.031546842
36	0x3e52520f	0.20539115
37	0xbe4a1104	-0.19733053
38	0xbe8f7ac1	-0.2802334
39	0x3eda4769	0.42632607
40	0xbe19bc7f	-0.15013312
41	0x3cb21b93	0.021741664
42	0xbe49998b	-0.19687478
43	0xbd2bd4f7	-0.041951146
44	0xbd7f9513	-0.062398028
45	0xbeacaf30	-0.33727407
46	0x3e7bfdd1	0.24608542
47	0x3daec129	0.08532936
48	0xbe9200a3	-0.2851611
49	0x3c362318	0.011116765
50	0xbb955dbd	-0.0045582936
51	0xbe981035	-0.29699865
52	0xbd7df142	-0.06199766
53	0xbe1203c9	-0.14259256
54	0x3cce8660	0.02521056
55	0xbda38b2f	-0.079855315
56	0xbe7c25de	-0.2462382
57	0x3eb1a99b	0.3469971
58	0xbe14ca24	-0.14530236
59	0x3e8040b3	0.25049362
60	0xbdbd2649	-0.09235818
61	0xbe296735	-0.16543277
62	0xbead0ec7	-0.33800337
63	0x3d46430b	0.04840378
64	0x3c5860d5	0.01320668
65	0xbe6eaf06	-0.23308954
66	0xbea9511d	-0.33069697
67	0x3c70d6cd	0.01469965
68	0x3e871613	0.2638403
69	0xbd0de65a	-0.03464351
70	0xbe555f80	-0.20837212
71	0x3da45830	0.08024633
72	0x3e9bb720	0.3041315
73	0x3e1079df	0.1410899
74	0x3c9069ae	0.017628517
75	0xbdfd6850	-0.12373412
76	0x3d16c164	0.036805525
77	0x3e788ac6	0.24271688
78	0xbd8a929f	-0.06766247
79	0x3e4cf807	0.2001649
80	0xbdecb0ad	-0.11557136
81	0x3eb38491	0.35062078
82	0xbcd2bcc4	-0.025724776
83	0xbe24546f	-0.16047834
84	0x3d58ad19	0.052899454
85	0xbe787d59	-0.24266566
86	0x3e9c384e	0.30511707
87	0xbe51adc2	-0.2047644
88	0x3ea4ee2e	0.32212967
89	0xbe71308e	-0.23553678
90	0x3e2b1c19	0.16709937
91	0xbe0c71dd	-0.1371531
92	0xbdc3ab6e	-0.09554182
93	0xbe3aa3eb	-0.18226592
94	0x3e61b634	0.22042161
95	0x3c1dffbb	0.00964349
96	0xbd42ddb5	-0.047574718
97	0xbeb2cceb	-0.34921965
98	0xbe7c0645	-0.24611767
99	0xbc99a45e	-0.018755134
100	0xbc9e3721	-0.019313397
101	0x3e9e0d49	0.3086951
102	0x3e112347	0.14173613
103	0x3d56559a	0.05232773
104	0xbe9646f3	-0.29351005
105	0xbe4dbf2d	-0.20092459
106	0x3d5e074e	0.054206185
107	0x3e37ac82	0.179369
108	0xbe94ca24	-0.2906047
109	0x3eb10166	0.3457138
110	0xbdb6739d	-0.0890877
111	0x3d90800c	0.07055673
112	0xbea69662	-0.32536608
113	0xbce23dc2	-0.027617339
114	0xbe87054c	-0.2637123
115	0x3d060d60	0.0327276
116	0xbd70ca0b	-0.058786433
117	0x3dae5e02	0.08514024
118	0xbd759aed	-0.059962202
119	0x3df088c3	0.11744835
120	0x3e6867ef	0.22695898
121	0xbcbd193c	-0.023083322
122	0xbdd6b9b2	-0.10484637
123	0x3e46513e	0.19366929
124	0xbe76af42	-0.24090293
125	0xbe3b1493	-0.18269567
126	0x3b5a671f	0.0033325625
127	0x3e6b346b	0.22969215
128	0x3d9262d1	0.07147754
129	0x3e644942	0.2229357
130	0x3e3cbf39	0.1843232
131	0x3e558924	0.20853096
132	0x3d4b8f12	0.04969699
133	0x3de9e2ff	0.11420249
134	0xbd9e0245	-0.07715277
135	0xbdae03c2	-0.084968105
136	0xbe007203	-0.12543492
137	0xbe5341bb	-0.20630543
138	0x3c9e2a95	0.019307414
139	0x3e8cd7d8	0.27508426
140	0x3ea368bc	0.31915843
141	0xbddda8df	-0.10823225
142	0x3e867c59	0.26266745
143	0x3db8b2c6	0.09018473

bias f4 [12]
0	0x3dd7de9e	0.10540508
1	0xbbfccc67	-0.0077147963
2	0xbec2715d	-0.37977114
3	0xbd9c86e3	-0.07642915
4	0x3d6883ef	0.056766447
5	0xbe0dc5a2	-0.13844922
6	0xbe750768	-0.23928607
7	0x3c846976	0.016163569
8	0xbe7c3342	-0.24628928
9	0x3dd31fbc	0.10308787
10	0xbebad264	-0.3648864
11	0x3cb6a9f7	0.022297842

weight f4 [12, 48]
0	0xbd9e8e33	-0.07741966
1	0xbbb4bfa0	-0.0055160075
2	0xbe246465	-0.16053922
3	0xbcc57444	-0.024103291
4	0xbd8f740f	-0.07004558
5	0x3dd38f56	0.103300735
6	0x3e122bac	0.14274472
7	0x3e68b17c	0.22723955
8	0x3d7f395a	0.062310554
9	0xbc8e97b5	-0.017406324
10	0x3dd016c7	0.101605944
11	0xbc3c4f31	-0.01149349
12	0xbe0e59e1	-0.13901474
13	0x3d26ba96	0.040705286
14	0x3e002b3c	0.12516493
15	0xbdd6ddaa	-0.10491498
16	0x3dbdb254	0.09262529
17	0xbd10596b	-0.035241526
18	0xbdba3406	-0.09091954
19	0x3c5da10b	0.013527165
20	0x3e490024	0.1962896
21	0x3e246ab7	0.16056333
22	0x3dc1c5d1	0.094615586
23	0x3de6eaa0	0.1127522
24	0x3c8ae594	0.016955175
25	0x3d509e1f	0.050932046
26	0xbdbd45ec	-0.09241852
27	0x3d84bbcf	0.06481134
28	0x3d873e7e	0.06603716
29	0x3dc54451	0.09632171
30	0xbe41fb02	-0.18943408
31	0xbd6a51cc	-0.057206914
32	0xbcb99c94	-0.02265767
33	0xbd717e2d	-0.05895822
34	0xbd978b6e	-0.07399641
35	0x3d865210	0.06558621
36	0x3e05bd25	0.13060434
37	0xbd779a21	-0.060449723
38	0x3e66b4ba	0.22529879
39	0x3dd00a32	0.101581946
40	0x3db561ef	0.0885657
41	0x3d0dda8c	0.03463225
42	0x3e3061cb	0.17224805
43	0x3d5d178e	0.05397754
44	0x3e390e59	0.1807188
45	0x3cda2738	0.02663003
46	0x3dbec486	0.093148276
47	0xbd81c5fd	-0.063365914
48	0xbe894c6e	-0.26816124
49	0x3db55576	0.08854191
50	0xbefc7762	-0.49309832
51	0xbea4a994	-0.32160628
52	0xbc5664b4	-0.013085533
53	0x3d8aaff0	0.06771839
54	0x3d2b1d78	0.04177615
55	0x3d441443	0.047870886
56	0xbe0e300b	-0.13885514
57	0xbd268aad	-0.040659595
58	0x3e13d4cb	0.14436643
59	0xbb14dd17	-0.0022714788
60	0xbb9f572e	-0.0048626876
61	0x3cbaf876	0.022823554
62	0xbd9e4b94	-0.07729259
63	0x3db8a7d5	0.090163864
64	0xbd7a1184	-0.06105186
65	0x3c62644f	0.013817861
66	0xbe0fbbef	-0.14036535
67	0x3e28e333	0.1649292
68	0x3e7a1c67	0.24424897
69	0x3d1b149c	0.03786145
70	0x3e5066df	0.20351742
71	0xbbc65bf6	-0.006053443
72	0x3db923fc	0.090400666
73	0x3e37ae69	0.17937626
74	0xbb8f407c	-0.004371701
75	0xbd206491	-0.039158408
76	0xbd32f287	-0.043688323
77	0xbb828334	-0.003982926
78	0xbda1b064	-0.07894972
79	0x3d337e0b	0.043821376
80	0x3e09b5e5	0.13448294
81	0x3e2849b8	0.16434371
82	0x3e76cb23	0.24100928
83	0x3e4a1f53	0.19738512
84	0x3d9a7bde	0.07543157
85	0x3c87ebdf	0.016591964
86	0x3e00c3db	0.12574713
87	0x3d3f3539	0.046681616
88	0x3e854d0b	0.26035342
89	0x3e61452a	0.2199904
90	0x3e3b11d8	0.18268526
91	0x3e644c8f	0.2229483
92	0xbda00da8	-0.07815105
93	0xb99f5479	-0.0003038978
94	0x3c2905c1	0.010316313
95	0xbe045dd0	-0.12926412
96	0x3e9d0479	0.30667475
97	0x3e466289	0.19373526
98	0x3e66bc68	0.22532809
99	0x3e25584f	0.16146968
100	0x3dda42a8	0.10657245
101	0xbd383dae	-0.044980697
102	0xbc627293	-0.013821262
103	0xbe257d1b	-0.16161005
104	0x3e086867	0.13321076
105	0xbd2e15d2	-0.04250128
106	0x3d9b3efc	0.07580373
107	0x3e2f6531	0.17128445
108	0xbdd3be9b	-0.103390895
109	0x3d8dbd59	0.06920881
110	0xbdfbd665	-0.12296752
111	0xbda3ae27	-0.07992201
112	0xbd991f3b	-0.0747666
113	0x3dca93c9	0.09891469
114	0x3d365501	0.04451466
115	0xbe1b7500	-0.1518135
116	0x3afad839	0.0019137926
117	0xbe073066	-0.13202056
118	0xbd73cbf5	-0.05952068
119	0xbd437dc7	-0.047727372
120	0x3d6a0bc1	0.057140116
121	0xbc33cb97	-0.010973833
122	0x3dbdb4c0	0.09262991
123	0x3e271512	0.16316631
124	0xbd929be3	-0.07158639
125	0xbe16638a	-0.14686409
126	0x3d8ba8dd	0.068193175
127	0x3c834870	0.016025752
128	0xbda581ce	-0.08081399
129	0xbd63d81a	-0.055626012
130	0xbe18a637	-0.14907156
131	0xbd7aadba	-0.061200835
132	0xbe6e3f16	-0.23266253
133	0xbe29be64	-0.16576535
134	0xbda5e6fe	-0.08100699
135	0xbd75a96b	-0.059976023
136	0xbe290de0	-0.16509199
137	0xbd7a990f	-0.061181124
138	0xbe47b350	-0.19501996
139	0x3d19c680	0.03754282
140	0xbd861f0e	-0.06548892
141	0xbe51433a	-0.20435801
142	0x3d014624	0.031561032
143	0xbd8f7ce9	-0.070062466
144	0x3af1a30c	0.0018435433
145	0x3dbb4403	0.091438316
146	0xbe8f2005	-0.27954116
147	0xbe23dd56	-0.16002402
148	0x3d637210	0.0555287
149	0xbcfc9c1b	-0.030836156
150	0x3e848739	0.25884417
151	0xbc1ce95c	-0.009577122
152	0xbe39f06c	-0.1815812
153	0xbda61308	-0.08109099
154	0x3dc97055	0.09835879
155	0xbd266cd5	-0.040631134
156	0xbdcd6c5e	-0.10030435
157	0x3df11e59	0.117733665
158	0xbbb61b0c	-0.0055574235
159	0xbd4704bc	-0.0485885
160	0x3e50fa59	0.20408
161	0xbd8aa3e6	-0.067695424
162	0xbd0a5667	-0.033773806
163	0x3d2af336	0.04173585
164	0x3cc8c14e	0.024506237
165	0x3de56aae	0.11201988
166	0x3c198c32	0.009371804
167	0x3d84cf30	0.064848304
168	0x3e2df008	0.16986096
169	0x3e1782e2	0.14796022
170	0xbb999698	-0.0046871416
171	0xbd5ca6fb	-0.053870182
172	0xbe347cee	-0.17625782
173	0x3db71560	0.08939624
174	0x3d3777aa	0.044791855
175	0xbe19d95a	-0.1502432
176	0x3da8e7c9	0.082473345
177	0xbd829148	-0.063753664
178	0x3e1e3562	0.15450051
179	0xbc8f7d01	-0.017515661
180	0xbd91675c	-0.07099792
181	0x3dbac3e7	0.09119397
182	0xbbb92dc9	-0.00565121
183	0x3db715e1	0.0893972
184	0x3e8c06b6	0.2734887
185	0x3e0b12ad	0.13581343
186	0xbc3a3bc3	-0.011366787
187	0x3d2a96cd	0.04164772
188	0x3dbc96c9	0.092084475
189	0xbdc07d4c	-0.093988985
190	0xbe429dcd	-0.19005509
191	0x3e001dc9	0.12511362
192	0xbe092b31	-0.13395382
193	0xbd90c784	-0.070693046
194	0x3c1f0b17	0.009707234
195	0xbdd62438	-0.10456127
196	0xbd6162bb	-0.055025797
197	0xbdf7d226	-0.121006295
198	0xbda05bc7	-0.07830005
199	0xbd1443e3	-0.036197554
200	0x3df28440	0.11841631
201	0x3d0f6069	0.035004053
202	0xbc9e9153	-0.019356405
203	0xbdfe4468	-0.12415391
204	0xbd97621c	-0.0739176
205	0x3d07f053	0.033188175
206	0xbce8bf69	-0.028411584
207	0x3d5a9519	0.053364847
208	0xbb4c46d7	-0.0031170154
209	0x3de357b4	0.111007124
210	0xbd3d3c6b	-0.046200197
211	0xbdb99207	-0.09061056
212	0xbdd4eab4	-0.103963286
213	0x3dcfe9de	0.101520285
214	0x3d994bae	0.07485138
215	0xbd903172	-0.07040681
216	0x3db0d354	0.08634058
217	0xbde0f9ab	-0.109851204
218	0xbdef9049	-0.11697442
219	0x3e0b5b88	0.13609135
220	0x3bba3d58	0.0056835823
221	0xbd911afe	-0.070852265
222	0x3e358b46	0.1772891
223	0xbd8300e7	-0.063966565
224	0x3dd1b544	0.10239652
225	0x3d8fc6d4	0.07020345
226	0xbda1f1a6	-0.07907419
227	0xbe1e3e92	-0.15453556
228	0xbe02d96b	-0.12778251
229	0x3e06cd5b	0.13164274
230	0x3dbdb452	0.09262909
231	0x3d13885e	0.03601872
232	0x3d3cc509	0.046086345
233	0xbcc603e2	-0.024171773
234	0xbc115e0e	-0.008872522
235	0xbd2bb1be	-0.041917555
236	0x3c92197d	0.01783442
237	0xbd3c5fe2	-0.04598988
238	0x3dc3080b	0.095230184
239	0xbaaee4e7	-0.0013343365
240	0x3ebeab23	0.37239942
241	0x3e9e5cad	0.3093008
242	0x3f0674a7	0.5252175
243	0x3e893d1e	0.2680444
244	0x3e3fbdad	0.187247
245	0x3b5aef29	0.003340671
246	0x3c9e23a5	0.019304106
247	0x3be71d79	0.007053074
248	0x3e6f2301	0.23353197
249	0x3ddb6240	0.10712099
250	0x3d738747	0.059455182
251	0x3e563561	0.209188
252	0x3e5eee1f	0.21770523
253	0x3c9de61d	0.019274766
254	0x3e3d3c16	0.18479952
255	0x3e41dad8	0.18931139

bias f4 [12]
0	0x3da33bd6	0.07970397
1	0x3e4a2eff	0.1974449
2	0x3ded3c84	0.11583808
3	0x3e1743d6	0.14771971
4	0x3cfe5e87	0.031050934
5	0x3dfa4354	0.12219873
6	0x3c49f569	0.012326577
7	0x3ce438da	0.02785914
8	0xbd7fcf7f	-0.062453743
9	0x3d913521	0.07090212
10	0xbdc130ea	-0.09433158
11	0xbdfa0d12	-0.12209524

weight f4 [12, 12]
0	0xbe6ceba5	-0.23136766
1	0xbe870e51	-0.2637811
2	0xbdfbc065	-0.12292556
3	0xbcb990a6	-0.022651982
4	0x3e68fb1e	0.22752044
5	0x3e0fb46c	0.14033669
6	0xbe238a43	-0.15970711
7	0x3e1fb67b	0.15596955
8	0xbe4bd276	-0.19904503
9	0x3e4bffe9	0.1992184
10	0x3e88ab8e	0.26693386
11	0xbe442842	-0.19155982
12	0x3ea1a8f0	0.31574202
13	0x3e823c7d	0.25436774
14	0xbeabd16c	-0.33558214
15	0x3cfaada7	0.030600382
16	0x3d009d59	0.03140006
17	0xbed0f129	-0.4080899
18	0x3e9a7203	0.3016511
19	0x3e618db0	0.22026706
20	0x3e6a606c	0.22888345
21	0x3d710da9	0.058850918
22	0x3e98a504	0.29813397
23	0xbe18165b	-0.14852278
24	0x3d037e9e	0.032103173
25	0xbebc8858	-0.36822772
26	0x3e5634cb	0.20918576
27	0xbea6c632	-0.32573086
28	0xbe3c6888	-0.1839925
29	0xbe58e898	-0.21182477
30	0xbe63cc68	-0.22245944
31	0x3dc28e28	0.094997704
32	0x3d2c9e10	0.042142928
33	0x3e5d92ec	0.21638077
34	0x3e45f72c	0.1933257
35	0x3dba5608	0.090984404
36	0xbe0fc32c	-0.14039296
37	0x3e9254d9	0.2858036
38	0xbeb59d68	-0.35471654
39	0x3e3336f8	0.17501438
40	0xbe87fdff	-0.2656097
41	0xbef69a25	-0.48164478
42	0x3e1308a8	0.14358771
43	0x3e203865	0.15646513
44	0xbd3a4f81	-0.045485977
45	0x3e632bbb	0.2218465
46	0x3eb1fe44	0.34764302
47	0x3e824930	0.25446463
48	0x3e192fbe	0.14959618
49	0xbee78e68	-0.45225835
50	0xbd80c063	-0.06286695
51	0xbdc4d62d	-0.09611163
52	0x3de6b74f	0.11265432
53	0xbe8289e9	-0.25495842
54	0x3df3c8ef	0.119035594
55	0x3d9b08f7	0.07570069
56	0x3e6807bc	0.226592
57	0x3e401754	0.18758899
58	0xbdf81c81	-0.12114812
59	0xbd52c187	-0.051454093
60	0xbc90d645	-0.017680297
61	0x3e03727d	0.12836643
62	0x3c30fe99	0.010802888
63	0xbe40c4b5	-0.18825038
64	0xbe8629dc	-0.2620381
65	0xbc5cb424	-0.013470683
66	0xbe0851bb	-0.13312428
67	0x3e03cf9e	0.12872168
68	0x3e9fc05d	0.3120145
69	0x3ebf6e4e	0.37388843
70	0x3e2537de	0.16134593
71	0x3e8861df	0.2663717
72	0xbdc6d55d	-0.097086646
73	0xbc64c585	-0.013963108
74	0x3e4cedd1	0.20012595
75	0x3c1d31df	0.00959441
76	0xbde4b33b	-0.11166998
77	0xbec0386a	-0.3754304
78	0x3e7642e4	0.24048954
79	0xbd681a11	-0.056665484
80	0x3da8893b	0.082293
81	0xbebc3a11	-0.3676305
82	0x3eb7aa3c	0.35872066
83	0x3d41679c	0.04721795
84	0x3e469049	0.19390978
85	0x3e174395	0.14771874
86	0xbe0fc80a	-0.14041153
87	0x3e909e9f	0.28246018
88	0xbd35832a	-0.04431454
89	0xbe9f91f0	-0.3116603
90	0x3e45720e	0.1928179
91	0xbe7e60db	-0.24841635
92	0x3de18c49	0.110130854
93	0xbe00597b	-0.12534134
94	0x3e092a9d	0.13395162
95	0xbe22dc9e	-0.15904471
96	0xbecac162	-0.39600664
97	0xbe5486ff	-0.20754622
98	0x3e54f11e	0.20795104
99	0xbed54a87	-0.41658422
100	0xbd927ec9	-0.071530886
101	0xbd926031	-0.07147253
102	0xbd0175e8	-0.031606585
103	0x3eb73ad3	0.35787067
104	0x3e8ce593	0.275189
105	0x3e0536cb	0.13009183
106	0x3e2b71d6	0.16742644
107	0x3e8c8ad0	0.27449656
108	0x3d3eae18	0.046552747
109	0xbc19a7d9	-0.009378397
110	0x3d2b49e2	0.041818507
111	0x3e52f5b2	0.20601538
112	0x3e878bf1	0.26473954
113	0xbd82308b	-0.06356915
114	0xbe1621f5	-0.14661391
115	0xbee21261	-0.44154647
116	0x3d1d990f	0.038476046
117	0xbe50aba8	-0.20377982
118	0x3d306773	0.043067407
119	0x3d832f1d	0.064054705
120	0x3d940128	0.07226783
121	0xbcd17de6	-0.025572728
122	0x3c4fc911	0.012682215
123	0xbe845828	-0.25848508
124	0x3e70d67a	0.23519316
125	0xbcf622e1	-0.030045928
126	0xbea9a4f6	-0.33133668
127	0x3ec8c4ea	0.39212734
128	0x3e8be253	0.2732111
129	0xbdd066f4	-0.10175887
130	0x3d646a6d	0.055765558
131	0xbe28520f	-0.16437553
132	0x3da46c8c	0.08028516
133	0x3e8d8502	0.2764054
134	0x3e80afd6	0.25134152
135	0x3c884e03	0.016638761
136	0x3d8d0bb0	0.06886995
137	0x3de6d240	0.11270571
138	0x3bd138ec	0.0063849594
139	0xbe6292f3	-0.22126369
140	0xbe26ef2c	-0.16302174
141	0xbe883e56	-0.2661006
142	0x3da8e7ad	0.08247314
143	0x3e5df926	0.21677074

bias f4 [12]
0	0x3da90b34	0.0825409
1	0xbe489dee	-0.19591495
2	0x3d383772	0.04497475
3	0xbee3afa8	-0.44469953
4	0x3d681de8	0.056669146
5	0x3e2ef84d	0.17086907
6	0x3d85b2a8	0.065282166
7	0xbe004383	-0.12525754
8	0x3c536240	0.012901843
9	0x3e397609	0.18111433
10	0xbd3ab591	-0.04558331
11	0xbe48d4ca	-0.19612423
