MQCNN-QA-4qubits-7class-CIFAR-same-5filter/Models_V1/model_10.pt (torch, 158006 bytes, 47 tensors)

weights f4 [7]
000000 51 0c b0 40 95 10 02 40 4d 79 1d 40 c2 fb 1f 3f
       5.5015035 2.032262 2.4605286 0.62493527
000010 7e 7e 93 40 b1 c6 c5 40 18 86 a9 40
       4.609191 6.1805043 5.297619

weights f4 [7]
000000 39 eb a8 3f 66 9c 3d 3e d4 34 aa 40 b6 91 b1 40
       1.3196784 0.18516693 5.3189487 5.549037
000010 de 4c b3 40 c0 43 24 40 ae 2b 9e 40
       5.603133 2.5666351 4.942832

weights f4 [7]
000000 e6 e0 86 3d 2b f2 1b 40 86 d2 7b 40 72 a7 c3 40
       0.06585865 2.4366558 3.9347243 6.11419
000010 3e a9 97 3f 61 30 ea 3f 37 26 b8 40
       1.1848524 1.8296014 5.754665

weights f4 [7]
000000 cf c6 a2 40 4e 37 88 40 e8 15 58 40 22 19 99 40
       5.0867686 4.256751 3.376337 4.784318
000010 3d a5 0a 3e 37 ee 36 40 b2 93 33 40
       0.13539596 2.8582895 2.8058896

weights f4 [7]
000000 f7 2c ba 40 cd 77 5f 40 7f e1 05 40 08 c6 97 40
       5.817989 3.491687 2.0918882 4.7429237
000010 ee 17 c4 40 f7 1b 4f 40 58 a3 a5 40
       6.127921 3.2360818 5.1761894

weights f4 [7]
000000 29 85 a6 40 69 f3 72 40 54 88 a4 40 c7 81 c2 40
       5.203755 3.7961066 5.1416416 6.078342
000010 5b d2 61 40 59 09 14 3f 0c dc bc 40
       3.528464 0.57826763 5.901861

weights f4 [8]
000000 b1 2e bc 3f 5f 72 cc 40 f5 98 26 40 09 2c 6a 40
       1.4701749 6.3889613 2.6030858 3.6589377
000010 a0 35 ae 3f ac cb 8a 40 77 2f 3c 40 f3 6d 45 3f
       1.3610115 4.3373623 2.940397 0.77120894

weights f4 [8]
000000 68 05 62 40 21 a2 2a 40 73 51 b9 40 35 09 1c 40
       3.53158 2.6661456 5.7911925 2.438062
000010 c3 8f 7b 40 5b 81 30 3e ce 35 bb 40 d4 85 12 40
       3.9306495 0.17236845 5.850318 2.2894182

weights f4 [8]
000000 3e 7a a0 40 bd 29 5b 3f 00 01 20 40 c8 20 43 40
       5.014922 0.8561056 2.500061 3.0488758
000010 50 02 ec 3f be 7c bb 3f 5c 38 3f 3f 40 4a 3d 40
       1.8438206 1.4647443 0.7469537 2.9576569

weights f4 [16]
000000 5b 0e 84 40 8a df f8 3f f1 44 11 40 d4 e0 83 bc
       4.1267524 1.9443219 2.2698328 -0.016098417
000010 7a 02 ae 40 8b b0 70 40 b9 1c aa 40 23 3d c9 40
       5.4378023 3.7607753 5.316006 6.288713
000020 24 03 76 40 57 4d 87 3e 91 dc ad 40 72 c8 a7 40
       3.8439417 0.26426193 5.4331746 5.2432184
000030 05 b3 9d 40 c6 90 24 40 6f ad 51 40 e4 fc 8c 3f
       4.928103 2.5713363 3.2762105 1.1014676

weights f4 [16]
000000 6d 9c a0 40 12 c2 a6 40 41 73 3b 40 dd 0b 8e 40
       5.019095 5.21119 2.9289095 4.438948
000010 ec e8 98 40 24 fc 6f 40 0c 79 4d 40 82 16 9b 40
       4.778433 3.7497644 3.210513 4.8464975
000020 ec 7a 2d 40 25 6a 89 40 14 ab c1 40 9c 0d 4c 40
       2.7106276 4.294207 6.0521336 3.1883307
000030 e7 9c a2 40 1f 85 a5 40 7c f2 69 40 87 f1 b7 40
       5.081653 5.1725 3.655425 5.7482333

weights f4 [16]
000000 00 ba 8d 40 f1 77 f0 3f 3d 51 5c 3f 61 ab 1b bd
       4.428955 1.8786603 0.8606146 -0.038005237
000010 c8 1a b1 40 29 10 88 40 53 f6 65 40 44 e1 c0 40
       5.534519 4.2519727 3.5931594 6.0274982
000020 ac 72 a2 40 d6 1e 1f 3f ec 41 9a 40 06 21 83 40
       5.076498 0.62156427 4.820547 4.097781
000030 c9 4d 7a 40 5f e7 f0 3e 24 5f b6 3d 5b f4 a6 40
       3.9109976 0.47051522 0.089048654 5.2173285

weights f4 [12]
000000 49 92 b0 40 f6 e4 49 bc 74 6c d3 3f 61 5d 39 40
       5.517857 -0.012322655 1.6517472 2.8963244
000010 da 35 84 3f cf 0a 17 40 e2 8e bd 40 01 73 68 40
       1.0328934 2.3600347 5.9236917 3.6320193
000020 f2 d0 c6 3f cb 84 b3 40 3a 56 c8 40 12 15 34 40
       1.5532515 5.60996 6.2605257 2.813786

weights f4 [12]
000000 5b d5 50 3f 5b ea 44 40 cb a5 cf 3e c6 b9 3b 40
       0.81575555 3.076804 0.40556177 2.9332137
000010 50 2d 91 3f 4a bc 17 40 86 08 72 40 d8 89 63 40
       1.1341953 2.3708673 3.7817702 3.5552883
000020 8a 0f ba 3f 49 44 a9 40 c1 fe 59 40 58 0c 17 3f
       1.4535992 5.2895856 3.406174 0.5900321

weights f4 [12]
000000 17 0f b9 40 8f b1 e8 3f 3a 5b 5f 40 fb fe 57 40
       5.783092 1.8179187 3.489943 3.3749378
000010 ae 80 cd 3f a0 ee a8 40 7b 11 a6 40 51 c8 c7 3f
       1.6054895 5.279129 5.189634 1.5608007
000020 25 64 65 40 f2 15 0f 40 79 60 a7 3e 2c e2 a1 40
       3.5842373 2.2357144 0.3269079 5.058859

weight f4 [12, 48]
000000 9f b7 fc 3d 95 26 79 bd 50 49 09 bd 0a fc 05 be
       0.123397104 -0.06082781 -0.033517182 -0.13084427
000010 b1 3b a1 bd 98 57 cf bd 9f 01 19 3e d5 1b 85 bd
       -0.07872713 -0.10124129 0.14942025 -0.06499449
000020 11 40 04 be 5a 2f 6d 3d 6b ca 89 3d f4 93 b6 3c
       -0.12915064 0.057906486 0.06728061 0.022287346
000030 00 3d 35 3d de 3a b2 bd 14 98 a2 bd b7 c9 a7 bd
       0.044247627 -0.08702634 -0.07939163 -0.08192771
000040 68 9b 86 bd 33 7c d8 3d 2c 10 80 bd b5 e9 94 3c
       -0.0657261 0.10570564 -0.062530845 0.018177846
000050 df 13 df bd f1 ed 85 3d fa c6 bd 3d 9b 43 8f bd
       -0.10892462 0.06539524 0.092664674 -0.069953166
000060 30 a1 04 bd 76 27 9c bd 23 63 9d 3b 27 cc 07 3e
       -0.032380283 -0.07624714 0.004803078 0.13261472
000070 cd 81 89 3d f3 d7 e7 3d 86 ba d1 3d 80 a4 ba 3a
       0.06714211 0.11320486 0.10240655 0.0014239699
000080 2f 7a 3b bd a3 f1 9e 3d bb 22 50 ba 05 2c b6 bd
       -0.04577082 0.07760932 -0.00079397456 -0.08895115
000090 4f 37 b4 3d 0a e9 8c bd 7d de 3d bc e0 b0 4f bd
       0.08799612 -0.06880386 -0.01158869 -0.05070579
0000a0 a7 fe 9f bd 5e 9e 6b 3d d2 66 84 bd 95 43 8a 3d
       -0.07812243 0.057524078 -0.06464924 0.067511715
0000b0 e7 9b 9d bd 8c 23 d9 3c 36 d5 04 be ad 79 b8 bd
       -0.07695752 0.026506208 -0.12971959 -0.09007583
0000c0 15 8a 1e bd cb 06 9b bb aa be 0b bd c0 f5 c9 bd
       -0.038705904 -0.0047310344 -0.03411738 -0.09861326
0000d0 95 4a c6 bd 79 5c e8 bd cb 72 96 bd ac d2 12 bd
       -0.09682194 -0.11345763 -0.07346114 -0.035845444
0000e0 01 30 86 bc dd a1 09 be 86 af 0a bd eb 87 98 bd
       -0.016380312 -0.13440652 -0.0338588 -0.07447799
0000f0 68 aa f1 3d f7 eb f6 3d f7 ee 3f be 45 e0 36 3e
       0.118000805 0.120567255 -0.18743502 0.1785899
000100 9e 78 be 3b 61 75 4b 3c bf 45 c0 bd 04 57 f4 bd
       0.0058127185 0.012418122 -0.09388303 -0.119306594
000110 66 a1 28 3e 1f 65 5e bd 81 fb 40 3e ae 11 94 3d
       0.16467819 -0.054295655 0.18845941 0.07229935
000120 4b e8 0b 3e 4b 5d 57 bd 13 3f c0 3c 78 a8 e8 3d
       0.13662831 -0.052579205 0.023467576 0.11360258
000130 64 ac 9c 3c d4 42 16 3e 5d a1 cc bd d9 31 7e 3d
       0.019125171 0.1467393 -0.09991715 0.062059257
000140 1a 86 cf 3c b1 d8 6e 3e e2 61 1d bd 78 ce 17 3d
       0.0253325 0.23324849 -0.038423426 0.03706214
000150 28 f4 4d be 9a 94 69 bd 5f dd 3d be cf 64 da 3d
       -0.2011267 -0.057026483 -0.18541478 0.10663759
000160 f8 c9 bb 3d 6f 94 d6 3d 7d 52 16 3e 09 a1 43 bd
       0.09169382 0.1047753 0.14679904 -0.047760997
000170 27 ab a4 bd a5 1f d9 3c 66 15 34 bd ee 66 53 3e
       -0.08040457 0.026504347 -0.04396572 0.20644733
000180 ca a7 d7 bd 9e e9 01 bb 2f 33 be bc e6 fc 2e 3e
       -0.1053005 -0.0019823085 -0.023217766 0.1708866
000190 6a f9 a2 3d 8e da ca bd b0 6c 7e bc 12 5e 3d 3c
       0.07957728 -0.09904967 -0.015528843 0.011558073
0001a0 9b 0c bc bd 38 27 c6 bd 2e ba 01 be 52 61 fc 3c
       -0.09182092 -0.09675449 -0.12668678 0.030808125
0001b0 cb 55 c6 3c 50 1d 19 bd 0a 4d 06 bb 47 56 bf 3d
       0.024210831 -0.03738147 -0.0020492696 0.09342628
0001c0 29 fc 01 be c8 1d 33 bd aa 7e 79 bc cd a9 4b bd
       -0.12693848 -0.043729573 -0.015227953 -0.04972248
0001d0 b2 d5 26 3d 7e 58 97 bb d1 0e 13 3d 8e 1f e5 3d
       0.04073114 -0.0046187034 0.035902802 0.11187659
0001e0 4b 2f ef 3d 7d 69 c0 3d c9 f9 e0 3d 36 fc 7c 39
       0.11678942 0.0939512 0.10985143 0.00024126549
0001f0 6f f4 3f 3d 02 e5 f6 3d 9a 05 02 be 2e 06 d2 3a
       0.04686397 0.120553985 -0.1269745 0.001602357
000200 1a 4c b0 bc 29 f2 93 3d d2 05 4c 3e 67 91 31 3e
       -0.021520663 0.07223923 0.19924095 0.17340623
000210 11 b5 8a 3c 07 e5 89 3d 04 a6 f6 bb 4b 5b 09 3e
       0.016932042 0.067331366 -0.007527115 0.13413732
000220 2a f7 91 bd fd c8 44 be 71 77 6c bc 46 39 65 3d
       -0.07127221 -0.19217296 -0.014432774 0.055962823
000230 1c 75 f3 3d 93 09 44 bd 2d 72 22 bd f7 32 1d 3e
       0.11887571 -0.047860693 -0.039659668 0.15351473
000240 98 80 04 be 34 2c 8b bd b9 37 4c be ab 8c 4d bd
       -0.1293968 -0.067955405 -0.19943132 -0.05018298
000250 ad ce 83 bd d2 91 16 bd 25 7a c9 bd 9b da d4 3c
       -0.06435905 -0.03676016 -0.0983775 0.025983145
000260 cd e8 85 bd 7f f9 5c 3b 17 1b 3d 3d 40 73 21 be
       -0.06538544 0.0033718047 0.046168413 -0.1576662
000270 c7 b4 81 bd 8d fe 0f 3d 61 60 c5 bd a2 af 2e 3d
       -0.06333309 0.035154868 -0.096375234 0.042647965
000280 df c9 8f bd 0e e0 60 bd b7 f9 b6 bc 72 e0 f9 3d
       -0.07020926 -0.054901175 -0.02233587 0.12201013
000290 77 24 69 bd e6 ef b0 3d ba 20 40 bd 01 65 77 bd
       -0.05691954 0.08639507 -0.04690621 -0.06039906
0002a0 d1 f2 17 be 71 da dd bd bf bb ef bd 98 d8 15 3e
       -0.14838721 -0.1083268 -0.117057316 0.14633405
0002b0 2b ee 5a bd e6 22 14 be 92 53 9c 3d fb 83 b3 bd
       -0.05344979 -0.14466438 0.07633127 -0.08765408
0002c0 db 5d 0d be 66 4a f8 bd cc 22 d8 3d e4 4d 8c 3d
       -0.13805334 -0.121235654 0.10553512 0.06850794
0002d0 58 1c f8 bd e9 72 2d be 98 96 2a 3e 6a 25 34 bd
       -0.12114781 -0.16938366 0.1665901 -0.043980993
0002e0 81 da 3a bd c7 c2 f2 bd 34 38 c6 bd 0b 53 0d 3e
       -0.045618538 -0.11853557 -0.09678689 0.1380121
0002f0 1e 4b 03 3d be 05 b2 3d d2 83 e6 3d b1 1b 9a 3d
       0.03205406 0.086925015 0.112556115 0.07524813
000300 da 41 1c 3d 96 c6 4c 3d a6 b7 6b bb 3d 14 02 3e
       0.03814874 0.049994074 -0.0035967617 0.12703033
000310 7a 9f b0 bd 7e 73 21 bc 00 f9 d5 bd 0e ba 8b bd
       -0.08624168 -0.009854196 -0.104478836 -0.068225965
000320 bb e0 f2 bd 14 58 89 3c 89 c3 a7 3d fe 9d f7 3d
       -0.1185927 0.016765632 0.08191592 0.120906815
000330 3a 1e 23 3e 67 b2 e5 bc 36 e1 60 bd c0 ca 42 3e
       0.159295 -0.02803917 -0.054902278 0.19022655
000340 62 1b 5b 3d f1 86 da bb 8f 7d 9f bd 51 3c 58 bb
       0.05349291 -0.0066689183 -0.0778762 -0.0032994936
000350 19 89 e9 3c ea 19 2d 3e b3 90 99 3c 77 e2 14 3d
       0.028507756 0.16904417 0.018745756 0.036348786
000360 1c fb 91 3d 8b d8 87 3c d4 1f 01 3e c3 ef 33 3d
       0.071279734 0.016582748 0.12609798 0.043929826
000370 dc 3e 96 3d 3a fb 83 bb 8d 18 e8 bd 15 37 37 3d
       0.07336208 -0.0040277513 -0.11332808 0.044730265
000380 c5 ab 61 3e 20 60 06 3e d7 32 63 3e 7e 86 12 3e
       0.22038181 0.13122606 0.22187363 0.14309117
000390 d8 27 bf bd 80 a9 82 bd db 6b 19 be 25 05 87 bd
       -0.093337715 -0.06379986 -0.1498255 -0.06592778
0003a0 95 ed 2a 3c 88 45 33 bd a7 a9 6e 3d a2 ef a2 3d
       0.0104326205 -0.043767482 0.05826726 0.079558626
0003b0 22 be 06 3e 4b 7a 13 3d a6 d0 83 bd 91 c0 a0 bc
       0.13158467 0.0360053 -0.06436281 -0.019623073
0003c0 37 f8 00 be ef 8b e8 bd 7c 38 03 be 2f 78 a7 bd
       -0.12594686 -0.11354815 -0.12814516 -0.0817722
0003d0 4b 53 91 bd 32 f6 d6 bd 46 6f 15 3e f0 38 0c 3e
       -0.07095965 -0.10496177 0.14593229 0.13693595
0003e0 7b 9a e6 3d 9a c1 b0 3d 97 89 5b bd 6a a0 ff 3d
       0.112599336 0.086306766 -0.053598013 0.124817684
0003f0 02 c9 0e 3e 30 c4 cb ba ed 74 fb 3d 32 4b 7a 3c
       0.13943866 -0.0015546139 0.12278161 0.015276717

bias f4 [12]
000000 95 d2 d4 bd e4 12 0b 3e 94 17 e1 3d f5 a2 56 bc
       -0.10391728 0.13581425 0.10990825 -0.013100375
000010 67 5f 8a 3e 27 27 13 bd cd 04 02 be ac 3b bd 3d
       0.2702591 -0.03592601 -0.12697144 0.09239897
000020 30 26 52 bc 56 19 65 bd e4 35 fc bc 13 b9 ba bd
       -0.012826487 -0.055932365 -0.030787416 -0.09117331

weight f4 [12, 12]
000000 ff 7b 30 3e 2a 00 81 3e c7 90 0a bd ba 7a 2d bc
       0.17234801 0.25195438 -0.033829477 -0.010588342
000010 6c b9 4a be 4d 70 23 3e 21 7f 95 3e 96 1e 55 3d
       -0.19797295 0.15960808 0.29198554 0.052031122
000020 e4 4c 5b be 51 cc 07 be 00 a4 9b 3d 84 1c b2 3d
       -0.2141605 -0.13261534 0.0759964 0.08696845
000030 1c b7 79 be e4 89 50 3e 62 1d 1d bd 46 31 03 3e
       -0.24386257 0.20365101 -0.0383581 0.12811765
000040 f0 ea 81 3e 31 20 8e be 87 f1 82 3e a8 47 5e be
       0.25374556 -0.27758935 0.25574896 -0.21707022
000050 e7 33 0a 3d 50 b5 57 3e aa 2a 44 be a3 17 2f 3b
       0.033740904 0.21065259 -0.191569 0.002671697
000060 c6 05 52 3c 25 91 4e ba d9 16 82 3d 8d f2 97 be
       0.012818759 -0.00078799046 0.06352014 -0.2967724
000070 a6 70 5c 3e 27 ce 34 3e 63 2d ff 3d a0 4a f5 3d
       0.21527347 0.17656766 0.12459829 0.11977124
000080 e7 8e 27 3e 8b 9a 00 3e 74 1b d8 be d4 e3 35 3e
       0.16363107 0.12558953 -0.42208445 0.17762691
000090 62 c1 df bd 60 5c 26 be 3e d1 b9 bd 90 60 b6 3e
       -0.10925557 -0.16246176 -0.09073113 0.35620546
0000a0 cf 33 1c be a1 86 be 3e 4e 43 4a be 9a f8 cb be
       -0.15254138 0.3721209 -0.19752237 -0.39838105
0000b0 28 17 50 3e e5 e9 a5 be e9 62 2b 3e d8 0c 8f 3e
       0.20321333 -0.3240501 0.1673695 0.27939487
0000c0 b4 62 60 be ea a6 58 3e c0 16 30 be 71 0b 8a 3e
       -0.21912652 0.21157423 -0.17196178 0.26961854
0000d0 18 c9 29 3d 47 91 2b be fa 87 5e bd 3b 51 01 3e
       0.041451544 -0.16754638 -0.054328896 0.12628643
0000e0 c3 66 8e 3e 42 a9 3b 3e 77 5f 0e 3c 66 d9 03 3e
       0.27812776 0.18326285 0.008689753 0.128759
0000f0 61 20 25 3e a0 68 22 3e 9c 02 0c bd aa 56 8e bd
       0.16125633 0.15860224 -0.034182176 -0.069501236
000100 c9 69 f0 3d 3f 39 b2 3e 51 d4 7e 3e 37 a9 56 3d
       0.11738927 0.348093 0.2488568 0.05240747
000110 34 9f a7 bd 17 9a 31 3c 34 c6 cd bd ef 9e 5f be
       -0.081846625 0.010839961 -0.1004757 -0.21837972
000120 51 27 80 bd 41 40 e5 bd 4c 56 73 be 86 cf 47 3e
       -0.06257499 -0.11193896 -0.23763388 0.19512758
000130 58 bb 88 3b 4b 43 30 be 00 d4 47 3e ab 4b b6 bd
       0.0041727237 -0.1721317 0.19514465 -0.08901151
000140 e4 34 a6 be e1 60 12 3e b2 70 d5 3d eb 25 b7 3c
       -0.32462227 0.14294769 0.104218856 0.022356948
000150 cf f9 88 3c c6 96 d9 3d e0 37 1d 3e 31 02 97 bd
       0.01672068 0.10624461 0.15353346 -0.07373465
000160 1b 1c 9f bd 7f f8 1b be 7f 25 78 3e 52 d3 3b be
       -0.077690326 -0.15231512 0.24233054 -0.18342331
000170 3a 11 e0 3d c1 0e c6 bd 2b d7 e1 3d 18 30 2a bc
       0.10940786 -0.09670783 0.11027368 -0.010387443
000180 39 87 74 3e 5a 52 0f be 4d 66 b7 3d 4a 5a 94 3e
       0.23879708 -0.13996258 0.08955059 0.28975135
000190 89 57 26 3b d0 04 2d 3e 3f 79 43 bb ca a9 76 bc
       0.0025381765 0.16896367 -0.0029826907 -0.015055129
0001a0 24 a6 05 3e 9a fe 38 3e 5b ac 02 3e db 1f 42 be
       0.13051659 0.18065873 0.12761061 -0.18957464
0001b0 e1 b1 b4 3c 96 a0 93 3d 5b 21 50 3d 7a e2 a4 3d
       0.022057476 0.07208364 0.05081306 0.080510095
0001c0 31 fd 69 3e 6b 41 37 3d 95 79 6b bd 04 62 5b be
       0.22850491 0.04474012 -0.057488997 -0.21424109
0001d0 d0 ba 84 bd e5 87 60 3e 78 49 49 3d b4 70 82 bd
       -0.06480944 0.2192684 0.04914233 -0.06369153
0001e0 a3 56 20 3e d3 6e a2 3e d6 ed 3d 3e 80 cd 86 be
       0.1565805 0.31725177 0.18547758 -0.2632866
0001f0 9c 4f 1e be 98 45 c4 bd ef b4 46 3e b5 08 3b be
       -0.15460056 -0.095835865 0.19404958 -0.1826504
000200 4b ee 80 be 46 09 a3 3e b9 4f a2 be 32 7d b0 3d
       -0.25181803 0.31843013 -0.3170145 0.08617629
000210 1a f7 39 3e 04 a8 38 be 6b 5e 7b 3e 07 35 c6 bd
       0.18160668 -0.18032843 0.24547736 -0.09678083
000220 51 b9 d9 3d d8 ef 40 3e e7 ce 5b be 5a 1e 09 3e
       0.106310494 0.18841493 -0.21465646 0.13390484
000230 3c d9 83 3d b1 2c 6e be f4 35 ef bd cc 28 4e bd
       0.064379185 -0.23259236 -0.116802126 -0.050331876

bias f4 [12]
000000 db 9e 6d 3e 34 ca e7 3d 2b 71 7e 3e f3 66 d2 be
       0.2320513 0.11317864 0.24847858 -0.4109417
000010 23 d2 b2 3d 8b cc 6d 3e bc 25 3d 3e 52 c2 d0 bd
       0.08731487 0.23222558 0.18471426 -0.10193314
000020 78 5f 8b 3e eb 45 64 be a1 f6 f1 3d c4 a6 da bc
       0.27221274 -0.22292297 0.11814619 -0.026690848

weight f4 [12, 48]
000000 58 2a 3e 3e 26 cf 5b 3e 93 08 a4 3c c7 5b 45 3d
       0.1857084 0.2146574 0.02002362 0.04818323
000010 cd 9e 61 bd d0 3b 8b bd 22 8f 12 be 3d e6 8d bd
       -0.055083085 -0.06798518 -0.14312413 -0.0692868
000020 2f 4e f8 bc 01 23 01 3e 48 d5 99 bc ef f7 20 be
       -0.030310718 0.12611009 -0.018778458 -0.15719579
000030 59 ee 0a bd 0e d1 05 be e0 88 5c 3d 17 cd e0 3d
       -0.033918712 -0.1306803 0.05384147 0.10976618
000040 9b ba 41 3d 45 97 14 3e e8 d8 5d 3d b3 dd 72 bd
       0.0472971 0.1451083 0.054161936 -0.05929346
000050 8a 2f 47 3e 41 86 96 3d 98 1e f0 3d ce c9 93 3d
       0.19451728 0.07349826 0.11724585 0.072162256
000060 8e 71 f3 bb fd f4 3c 3d a5 1a 26 bd 0c 64 76 bd
       -0.0074293083 0.046132077 -0.040552754 -0.060154006
000070 23 fa 81 3e 23 42 09 3e d9 2b 6f 3e e0 7c 83 3e
       0.25386152 0.13404135 0.2335657 0.2568121
000080 2f 9c fe 3d 7b 40 44 3e 8a c1 a2 3d 42 3c 26 bd
       0.124321334 0.19165222 0.07947071 -0.04058481
000090 8e dd fb 3d e7 bd 2c bd 02 66 50 bc 22 ca 1d bc
       0.122981176 -0.042173292 -0.012719633 -0.009630712
0000a0 45 57 33 3d ac 05 05 bd 90 4a 02 3e 45 59 02 3d
       0.0437844 -0.032476112 0.12723756 0.031823415
0000b0 9f 97 49 3e 63 fc 14 3b c5 a1 30 3e 16 ab 4e 3e
       0.19686745 0.0022733442 0.1724921 0.20182452
0000c0 01 ee e7 3c c2 e0 ae bd 04 fe a2 bd f8 43 8b 3d
       0.028311731 -0.08538963 -0.07958606 0.068000734
0000d0 94 80 5d 3e 2c 3c 31 3e 6c e4 6c 3e 64 1f 7d 39
       0.2163108 0.1730811 0.23134011 0.00024139654
0000e0 34 37 33 bd c7 6f 57 bc b5 a6 be bd cc b2 23 be
       -0.043753818 -0.013149208 -0.093091406 -0.15986174
0000f0 8b 63 53 3e e8 ec d6 3d a4 2a 25 3e c2 8b 57 3c
       0.20643441 0.10494405 0.16129547 0.013155879
000100 3f 6e 11 be 40 d0 00 be d4 81 c4 3d 9d c9 bf bd
       -0.14202212 -0.12579441 0.09595075 -0.093646266
000110 81 28 0d bd 42 f1 05 be dd db 5d be 26 ae 4a be
       -0.034462456 -0.13080314 -0.21665902 -0.19792995
000120 4a 8d 22 3d f6 74 e8 3c 39 d0 7d bd 2c 4b 88 bd
       0.039685525 0.028376084 -0.061966155 -0.06654963
000130 45 7f e6 3d 01 4c bf bd 60 02 f6 bc 1a 31 f5 bd
       0.112547435 -0.093406685 -0.03003043 -0.11972256
000140 13 71 3e 3c a3 cd 79 3a 3b d7 85 bd 56 27 a0 bd
       0.011623639 0.00095292385 -0.065351926 -0.07820003
000150 29 8f 96 3d 46 b3 49 bd 11 93 9b bd 3e 1f db bc
       0.073515244 -0.049243234 -0.0759641 -0.026748296
000160 ec 99 1f bd 3c 4b 48 3e e0 cf 5d 3d 25 f7 d5 3d
       -0.03896515 0.1955995 0.054153323 0.1044753
000170 0f e0 e0 bc cf 9a 96 bd 8f c4 10 3d 89 dd 00 3d
       -0.02745059 -0.07353746 0.035343703 0.031461272
000180 db 2e 26 3e 81 4b d1 bd 02 90 86 3e 52 3c d2 3d
       0.16228811 -0.10219479 0.26281744 0.102654114
000190 25 d3 ce 3d 37 ce dc bd 31 98 c1 3d 4d 17 e0 3a
       0.100988664 -0.1078152 0.09452856 0.0017096788
0001a0 46 65 da bd 5e 8a ac bd 93 6b 85 bd 05 69 38 3d
       -0.106638476 -0.08424829 -0.06514659 0.04502203
0001b0 d5 84 29 3d ec 86 19 bc e2 7c 1d 3e 50 e0 df 3d
       0.041386444 -0.009370547 0.1537967 0.10931456
0001c0 56 3d ff 3c c5 dd 18 3e e7 e5 04 bd 49 76 3d 3e
       0.031157177 0.14928348 -0.032445814 0.18502153
0001d0 1c 6b 31 bd eb 08 ad bd f8 52 c6 bd 20 c9 01 3e
       -0.043315038 -0.084489666 -0.09683794 0.1267438
0001e0 b2 f1 30 3d 83 8a 0e 3d 8e c3 b3 3d 49 e1 ca bb
       0.04319925 0.034800064 0.087775335 -0.006191407
0001f0 79 81 8f be 9d ab b8 bd 1e 82 2c be e7 22 5b be
       -0.28028467 -0.09017108 -0.16846511 -0.21400033
000200 10 de 5a 3d 8d 30 1a bd 48 33 6b bd c8 5a 5c bd
       0.05343443 -0.037643958 -0.057421952 -0.053797513
000210 73 06 da bd 1b fe 6f 3d 61 ae ee bb fa 5b 2f 3d
       -0.10645761 0.058591943 -0.007283971 0.042812325
000220 b4 1e b0 3c 74 e2 36 bb 6b 10 ce 3d 20 ab 0a 3e
       0.021499015 -0.0027905973 0.10061725 0.13541842
000230 1e 5f 5a 3c dd 07 4d 3e 8f 70 5e 3e 3f 3f 36 3e
       0.013328342 0.20022531 0.21722625 0.17797564
000240 35 dd e2 3d 25 bc d5 bb 5d 72 07 3e 33 62 88 bd
       0.11077348 -0.0065226727 0.1322722 -0.06659355
000250 dd 21 53 bc 45 81 ec b8 8b 9d 0c 3d b3 84 0b be
       -0.012886492 -0.00011277435 0.034329932 -0.1362484
000260 38 85 97 bd d7 0b f3 3c 00 5d 84 3d 98 bb 5d 3a
       -0.07398456 0.029668732 0.06463051 0.00084584346
000270 c7 af 12 bd f2 34 e2 bd 81 63 10 bc 31 c8 82 3d
       -0.035812166 -0.11045255 -0.008812786 0.0638584
000280 03 10 f1 3d c4 89 4f bc 1d 23 c8 bd 98 ae 36 bd
       0.11770632 -0.012667123 -0.09772322 -0.0446001
000290 ed eb 23 3c 1f 96 fc 3c d0 56 3c 3d 7e 40 1d 3d
       0.01000498 0.030833302 0.04598123 0.038391583
0002a0 80 61 8f bc b3 e2 89 3d 73 05 96 bd cc e0 9f 3b
       -0.017502546 0.067326926 -0.07325258 0.004879093
0002b0 a5 1d fa 3d b5 5d 5b bd 12 a3 db 3d d7 09 ec bd
       0.122126855 -0.053556163 0.107244626 -0.11525314
0002c0 3c 31 f2 3d 6c 9f 0e bd a1 dc 69 bd b9 01 a2 bc
       0.11825797 -0.034820005 -0.057095174 -0.019776212
0002d0 d9 2d 0c 3e 1d 2d a0 3b 50 c7 ab 3d 4d 9d f8 bd
       0.13689364 0.0048881904 0.08387625 -0.12139378
0002e0 57 0f 03 be 09 33 12 bd be 16 f6 bd 4d 79 12 bd
       -0.1279882 -0.035693202 -0.120160565 -0.035760213
0002f0 b2 62 02 3e 8a 86 0b be 0a 0e 9d bd 89 52 59 3d
       0.12732962 -0.13625541 -0.07668693 0.053057227
000300 70 6a 2d 3e c2 8e e6 3d 88 43 bc 3d 2d 5d 65 3d
       0.16935134 0.11257698 0.09192568 0.055997062
000310 5c 97 8c 3a 6b 0d fb bc ae 38 d9 bd 00 86 fe 3d
       0.0010726261 -0.030646047 -0.10606514 0.12427902
000320 8e 9b f7 3d 70 f5 a2 bb 19 07 15 3e d3 cb 7d 3d
       0.120902166 -0.004973106 0.14553489 0.06196196
000330 df dd 21 3d a5 2e 45 bc 64 84 8d bd 6f 00 18 3e
       0.039518233 -0.012035047 -0.06910017 0.14843915
000340 a7 9d 3f 3d 14 3e 6f bb 8f 22 c0 bd 46 b0 5d bd
       0.04678121 -0.0036505507 -0.093815915 -0.054123186
000350 b2 66 84 bc 6e 48 d8 3d d5 26 b2 3d 1d e8 0b bd
       -0.01616225 0.1056069 0.08698813 -0.034156907
000360 76 6e ae 3d 5e 62 ad 3d 4e 27 fd 3d cb 91 1e 3e
       0.085171625 0.08466028 0.123610124 0.15485303
000370 0c 17 d4 bd 8d 9e cd bd 44 c0 94 3d 7a a1 6a be
       -0.10355958 -0.10040007 0.07263234 -0.22913161
000380 86 c2 00 3e 56 5e ca 3d 7a be b7 3d d2 d5 1a 3e
       0.12574205 0.098812744 0.089718774 0.15120628
000390 83 04 33 bd 12 a9 2b 3e 11 8d 2c be 2d 6f 21 be
       -0.043705475 0.16763714 -0.16850688 -0.15765066
0003a0 2b 7f d7 bd f3 03 dd bd 0a 1f e3 bb 6c 5f 9c bd
       -0.10522302 -0.10791769 -0.0069311904 -0.07635388
0003b0 b6 a4 6f bd 43 6f 34 3e 49 33 67 3c 8c 40 57 3c
       -0.05850669 0.17620568 0.014111348 0.013137948
0003c0 6d 13 89 3d 3b 0e 75 bb 70 dc ed bd f6 e1 0a 3d
       0.06693158 -0.0037392515 -0.11614311 0.0339069
0003d0 f4 dc 9f bd 28 3e 27 bd 26 ac a9 bd 94 4d 5d 3b
       -0.07805815 -0.04083076 -0.08284788 0.0033768164
0003e0 87 e7 16 3c 4f 26 3b 3d 6d e8 c8 bd 8b 52 18 be
       0.009210474 0.04569083 -0.09809957 -0.14875238
0003f0 a7 f9 99 bd ea f5 1b 3e 4b ce b8 bd 1d 36 49 bc
       -0.075183205 0.15230528 -0.09023722 -0.012280968

bias f4 [12]
000000 09 03 17 3e 89 d2 f8 3c 0a 58 d5 3d 8b 77 bc bd
       0.14747252 0.030373828 0.10417183 -0.092024885
000010 7d 78 32 3e 25 25 2b 3e 09 9c 5a bc 04 b1 21 3d
       0.17428775 0.16713388 -0.013342866 0.039475456
000020 89 05 e9 bd 34 21 89 bd 51 a5 84 bd a2 eb fc bc
       -0.11378009 -0.06695786 -0.06476844 -0.030874077

weight f4 [12, 12]
000000 81 ea b9 3b 9c b6 d5 3d b5 7a 99 3e af b6 f3 bb
       0.005673707 0.104352206 0.2997643 -0.007437549
000010 c2 86 cd bd a8 84 16 3e 61 cd 36 be 95 22 8b 3e
       -0.10035469 0.14699042 -0.17851783 0.27174821
000020 25 e2 12 be 59 fc 63 3e 6b d6 74 be 2a 5b b9 bd
       -0.1434408 0.22264232 -0.23909919 -0.09050591
000030 ff ab 45 be c1 2f 89 3c 4e e0 87 3e 96 15 7b 3e
       -0.19303893 0.016746404 0.26538318 0.24519953
000040 8d fc aa 3e 45 b5 52 3d 60 d5 33 3e a1 bc b1 be
       0.33395806 0.051442403 0.17561865 -0.34714225
000050 39 47 4b be 74 09 37 bd b6 86 8c be b6 51 cc bc
       -0.19851388 -0.04468675 -0.27446526 -0.024941307
000060 28 da 23 3d 8f b2 73 3e c2 bc a6 be 25 95 85 bd
       0.040002972 0.23798583 -0.32565886 -0.06522588
000070 48 6a bd be 24 7e 00 3e fc 92 a3 3e 58 8f a2 3d
       -0.3699515 0.12548119 0.31948078 0.07937497
000080 d3 c7 22 3e 5c 71 7a 3e 23 b2 89 be c6 b8 1e 3d
       0.1589654 0.24457306 -0.2689372 0.038750432
000090 98 7b c0 3d 57 ee 0b 3e a9 79 2e 3e f7 c3 49 be
       0.09398574 0.13665138 0.17038597 -0.19703661
0000a0 bb 20 05 be 13 68 5a be 9c 2e ab 3d d8 ae 9a be
       -0.13000767 -0.21328764 0.083584994 -0.3021152
0000b0 9c ad d2 bc 71 69 55 3e a0 84 92 3e 85 9f ec bd
       -0.025717549 0.20841004 0.2861681 -0.115538634
0000c0 93 d0 1e bc 1d 54 97 be 81 a5 79 be df 8b 15 3d
       -0.009693283 -0.2955636 -0.24379541 0.036510345
0000d0 48 64 6c 3e 0e 56 c3 bd 93 8a b8 bd 0b be bb be
       0.2308513 -0.09537898 -0.09010806 -0.3666843
0000e0 f3 bf fb 3d 03 1d 34 3d 8a 7e d7 3c 03 da 9f 3e
       0.12292471 0.04397298 0.026305456 0.31221017
0000f0 75 89 54 3e fd 78 90 3d 8e b3 78 bd 1a 45 84 3e
       0.2075556 0.07054327 -0.06071811 0.2583397
000100 8b 87 52 3d 31 5b 03 bb 70 0d df bc f2 1a 0e be
       0.051398795 -0.0020043368 -0.027228087 -0.13877466
000110 66 57 1a bc eb c8 ba 3e de 0c 01 be 87 88 08 3e
       -0.0094202515 0.36481413 -0.12602565 0.13333331
000120 75 69 a0 3e 2d 76 d1 bd b0 39 5e bc 26 d9 73 3e
       0.31330457 -0.10227618 -0.013563558 0.23813304
000130 76 b2 94 3e 89 ef e2 3d ed 40 2c be c3 5d a0 bd
       0.29042405 0.11080844 -0.16821642 -0.07830384
000140 77 99 f8 3c 8c c2 ec bc 8c fc 8c 3e e5 f3 92 3d
       0.030346615 -0.02890136 0.27536428 0.071754254
000150 b1 38 a4 37 6b a2 36 be a9 92 7a be a9 91 7d be
       1.9576722e-05 -0.17835395 -0.24470009 -0.24762596
000160 11 cf 40 3d f2 83 b9 bc 7b 22 b7 3e 6b 16 33 be
       0.047072474 -0.022645924 0.35768494 -0.1748902
000170 72 c4 1b be bd 8c fd bd e5 b5 a7 bd 4a 22 52 bd
       -0.15211657 -0.12380359 -0.081889905 -0.05130223
000180 24 1b 9f 3d d2 5d 98 be 14 82 8a be e8 93 63 be
       0.077688485 -0.2975908 -0.27052367 -0.2222439
000190 5c 6a e6 3d 3b a8 a2 3e f1 91 a0 3e b0 b9 bd 3e
       0.11250755 0.31768975 0.31361344 0.3705573
0001a0 03 26 53 3e 02 32 90 be 3b 99 93 bd 19 0d 10 bd
       0.20619969 -0.28163153 -0.07206961 -0.03516874
0001b0 3c 2b c5 bd e3 2f 99 3d 0c 87 84 be ce 39 23 3e
       -0.09627387 0.07479837 -0.25884283 0.1594002
0001c0 72 30 9a bd 6a b2 64 3e af ff 51 3e 0a 02 40 3e
       -0.075287715 0.22333685 0.20507692 0.18750778
0001d0 70 89 66 be 3b bb 74 3e 4d 81 db bd 4f 86 70 be
       -0.22513366 0.23899548 -0.107180215 -0.23488735
0001e0 c5 66 01 3d 22 4d b5 3c c8 6b e6 3d 8d 25 df bd
       0.03159215 0.022131506 0.112510264 -0.10895834
0001f0 ce de a7 bd 71 c2 2e be 3a 3d 47 be c4 95 13 bc
       -0.081967935 -0.17066361 -0.1945695 -0.009007875
000200 55 cd 2a bd 56 7c aa 3e 02 ab 69 3d c8 dc ab 3e
       -0.041699726 0.33297986 0.05704785 0.3356688
000210 a7 a5 98 be 1c f2 f5 3d c6 87 0f be e3 1f 80 bd
       -0.29813883 0.12009069 -0.14016637 -0.06256082
000220 8b 6e dc 3d 3a a7 45 3d 92 c0 e5 3d a9 56 f1 3d
       0.10763272 0.048255183 0.112183705 0.11784107
000230 ff 04 5f be 8f 4f 6a 3d 32 e5 61 be e7 16 08 3e
       -0.2177925 0.05720478 -0.22060087 0.13289987

bias f4 [12]
000000 ca bf 2c 3c df 3f 75 3c 8c 9e ed bd 8b 52 0f 3e
       0.010543773 0.014968841 -0.11602506 0.13996331
000010 92 9a 9f 3c 2a 98 1b be 6c a3 3b be 21 9d 75 be
       0.019482885 -0.15194765 -0.18324059 -0.23985721
000020 fc f4 9d be 70 a8 f2 bd 62 a8 ab be 44 e0 90 3d
       -0.3085097 -0.11848533 -0.33526903 0.07074025

weight f4 [12, 48]
000000 2f 13 96 bd a3 d0 a2 bd 13 36 6e 3d 8d 90 bb bd
       -0.07327878 -0.079499505 0.058157038 -0.0915843
000010 0d 1a 9b 3d 73 ac a5 bd 7f 6b 50 bc 32 c0 43 3d
       0.07573328 -0.08089533 -0.012720942 0.047790714
000020 77 8a ed 3d 6f d0 9d bd c7 d8 0f 3e 6f 30 83 bd
       0.11598676 -0.07705771 0.14047538 -0.06405722
000030 08 9c c7 bd 4e d1 85 3d 56 67 83 bd 67 64 0d be
       -0.097465575 0.06534062 -0.06416194 -0.13807832
000040 0b 8f f7 bd 71 96 0a be 57 19 27 bc 3e 0a b1 bd
       -0.1208783 -0.13533951 -0.010198913 -0.08644532
000050 1e 50 3e 3d 9a 55 3f bd 54 a9 0f be 15 3a 36 be
       0.046463124 -0.046712495 -0.14029437 -0.17795594
000060 51 0e a3 3d ef e7 c8 3d 79 a9 33 bd ff ef 99 bd
       0.07961715 0.09809863 -0.043862794 -0.07516479
000070 53 60 96 3d ff 56 be bd b9 17 63 3e 37 58 97 3d
       0.07342591 -0.09293937 0.22177018 0.073898725
000080 00 c3 c5 bd c1 50 b3 3c a4 5e 24 be 81 c2 51 be
       -0.09656334 0.021889092 -0.16051728 -0.20484354
000090 9d d1 36 be 7b 82 0b bd 7c cc aa 3d 83 a7 94 bd
       -0.17853399 -0.034059983 0.083397835 -0.07258513
0000a0 1a d2 ae bd ce 58 08 be e1 f4 4b be 0a 54 7a 3d
       -0.085361674 -0.13315126 -0.19917633 0.061115302
0000b0 ae e8 3c be 73 10 5a be 09 90 27 be 59 30 23 be
       -0.18448135 -0.21295337 -0.16363539 -0.15936412
0000c0 01 9c 84 bd 16 46 6e bd 1f 81 60 3b 71 ce 96 bd
       -0.06475068 -0.058172308 0.003425665 -0.07363594
0000d0 ad 1b e8 bb d5 28 0f 3e e9 55 27 3e 94 48 12 3e
       -0.0070833773 0.1398042 0.16341366 0.14285499
0000e0 ec d9 f7 3c 54 36 9c bc 80 d4 ca bc 06 96 20 3e
       0.03025528 -0.019068874 -0.024759531 0.1568223
0000f0 50 bd 00 bd 43 ae a8 3d 53 8b ae 3c 06 32 89 3d
       -0.031430542 0.08236363 0.02130667 0.06698994
000100 66 e1 3f bd e9 2c 82 3d 75 ba 90 bd 1e 56 a4 3d
       -0.046845816 0.06356222 -0.07066814 0.08024238
000110 c9 1b cf 3d 7e fc 84 3d 36 b8 24 bd 5c 96 be bd
       0.101127215 0.064934716 -0.04021474 -0.093060225
000120 ce f1 fb 3d 95 ee 0b 3e aa fe 85 3c b5 77 04 bd
       0.1230198 0.1366523 0.016356785 -0.032340724
000130 97 24 89 bd 25 6f b9 bb 1b fd ad 3d 9f 5e 95 bd
       -0.06696432 -0.0056590014 0.08495542 -0.07293438
000140 92 95 46 be 0b 0f 9b 3d 18 de 7c be 6e f5 ef bd
       -0.19392994 0.075712286 -0.24694097 -0.11716734
000150 17 8f 4e 3c ec f3 91 bc 62 3a bb 3d ba 4d e7 3d
       0.012607357 -0.017816506 0.09141995 0.11294122
000160 45 a4 5f 3d c1 63 82 3d 44 a5 59 3c 2d 16 18 3e
       0.05460002 0.06366683 0.013284031 0.1485221
000170 af 11 83 3d a1 21 21 bd 96 68 90 bd cc d8 3b bd
       0.06399857 -0.03933871 -0.07051198 -0.04586105
000180 65 6e 89 bc f9 5a 38 3e 02 32 e7 3d 4e f9 b1 bd
       -0.016776273 0.18003453 0.11288835 -0.08690129
000190 c9 fd 77 3c f7 e9 44 3e d1 ee c0 bd 33 05 b0 bd
       0.015136191 0.19229876 -0.094205506 -0.08594742
0001a0 50 bf f3 3d fd 15 3e be 7e 63 d6 3c 4d a2 8a bd
       0.11901724 -0.18563075 0.026170488 -0.06769238
0001b0 5a ce 0c be eb f6 bb 3c 02 2d e8 bd 76 c3 f3 3c
       -0.13750592 0.022944888 -0.113367096 0.029756289
0001c0 89 5f 7e bd 9d b4 83 3d 8d 32 84 3b 0e 1b 92 3c
       -0.06210283 0.064309336 0.0040343464 0.017835166
0001d0 bd c1 02 be 81 8b 73 bd 3f 6d 44 3d 1e 9c c1 3d
       -0.12769218 -0.059459213 0.047955748 0.09453605
0001e0 21 fb 55 3d 81 a5 cd 3d fe 63 ce 3d 50 44 32 bd
       0.05224145 0.10041333 0.10077666 -0.04352218
0001f0 34 f5 95 3d 88 5f aa bc 2d de 7c bc 76 9b 25 be
       0.073221594 -0.020797506 -0.01543383 -0.16172585
000200 b1 f3 09 3d 1f 26 26 3e 99 ab 19 3d cb d6 ed 3d
       0.033679668 0.1622548 0.037517164 0.11613234
000210 de fc 02 be 53 0d b5 bd 2a e7 25 be 71 5b 30 be
       -0.12791774 -0.08840432 -0.16201463 -0.17222382
000220 e2 21 a4 bc 35 ef 2a 3d aa bd 01 3d 95 63 0b be
       -0.020035688 0.04173203 0.03167502 -0.13612206
000230 11 ce a0 3c 68 9d 0c bd e0 5a 56 3d 05 1f 88 bd
       0.01962951 -0.0343298 0.05233276 -0.066465415
000240 03 61 81 bd 16 06 37 3d b2 1e 9b 3c de 54 f8 3c
       -0.06317332 0.04468354 0.018935535 0.030313905
000250 c3 f1 f6 bc 4d 3e 74 be 09 12 0a 3e 57 52 72 bc
       -0.030144578 -0.23851891 0.13483442 -0.014790139
000260 cb d6 e7 bc ca 48 82 3d 9c 54 04 bd 28 80 a3 bd
       -0.028300663 0.0636154 -0.032307252 -0.07983428
000270 c7 17 b9 bd 71 3f 47 bd 83 b8 6d 3c a6 1d ab bc
       -0.09037738 -0.048644487 0.014509323 -0.02088816
000280 51 f9 1e bd 92 9a 0c be ff f5 86 3d e4 75 8c 3a
       -0.038811985 -0.13730839 0.06589889 0.0010716286
000290 8c 53 b3 3c 52 16 3d be cf 2a 4a be e7 71 78 bc
       0.021890424 -0.18465546 -0.19742893 -0.015163875
0002a0 30 bf 6d bd 66 8a e6 bd fc 5e a3 3d 01 cb d5 3d
       -0.05804366 -0.11256866 0.07977101 0.104391105
0002b0 a1 43 43 be da a8 21 be 8d c9 63 3d 03 ed 4a bd
       -0.19068767 -0.15787068 0.055612136 -0.04954244
0002c0 c4 b5 db bd 3d 64 47 be ca 7c c3 bd e1 c8 17 be
       -0.107280284 -0.19471832 -0.09545286 -0.14822723
0002d0 bb 09 bd 3d ee d8 d4 bd 23 d6 a2 3d 0f 0f d9 bd
       0.092303716 -0.103929386 0.079509996 -0.10598575
0002e0 88 6c 0c be 21 73 d0 bd ea 0c 14 be 40 d3 34 bd
       -0.13713276 -0.10178209 -0.14458051 -0.044146776
0002f0 23 c3 94 be a4 63 d3 bd fd 30 57 3c 72 04 0a 3d
       -0.29055128 -0.10321739 0.013134238 0.033695646
000300 6e 42 01 bd 29 a0 a5 3c bb 77 ca bc 3f 10 27 3e
       -0.031557493 0.020217972 -0.024715295 0.16314791
000310 7a 83 09 3e 5b 6d 25 3e d0 36 a7 bd ed a5 e0 bc
       0.1342906 0.16154997 -0.081647515 -0.02742287
000320 62 63 52 bd 1a ee 67 bc 6d c4 53 3e 69 93 cf 3d
       -0.05136431 -0.014155889 0.20680399 0.10135538
000330 34 5c 85 3d 33 f0 de 3c 26 f1 44 3d 7c a5 cb 3d
       0.06511727 0.027214145 0.04808154 0.09943673
000340 b3 59 75 bd 92 2d d8 bd ea 80 82 bc c7 9e f3 3d
       -0.059899997 -0.10555567 -0.015930612 0.11895519
000350 8f 3b 00 be 4a 29 94 bd 50 e6 24 bb 17 ac 45 3d
       -0.1252272 -0.07234438 -0.002516169 0.04825982
000360 3e 68 31 3d 62 fb fc 3d a3 2c c0 3d 45 53 ac 3b
       0.043312304 0.12352635 0.09383514 0.00525895
000370 1e c0 3c 3e 6e 2e 5b bd 3a c3 99 bd 0e b9 dc bd
       0.18432662 -0.053511076 -0.0750794 -0.10777484
000380 ed e8 a8 bc 62 a4 a0 3d 55 dd 9c 3d 85 2e 43 3d
       -0.02061888 0.078438535 0.07659403 0.047651786
000390 4f f6 42 3d 01 dc 50 be 35 63 66 bd 66 24 9e 3d
       0.04759818 -0.20396425 -0.056246955 0.07721786
0003a0 de 67 5c 3d 8f 3b 27 3c 34 c8 94 bd 1e c8 f0 bd
       0.053809993 0.010207071 -0.07264748 -0.11756919
0003b0 79 6f 28 bd 57 82 1e 3d 2a a7 0c 3d 7e c3 24 bd
       -0.041121934 0.03869852 0.034339108 -0.0402255
0003c0 46 03 fe 3d 19 5f 39 3d 92 0e 06 3e 20 d0 29 3e
       0.12402968 0.045256708 0.13091496 0.165833
0003d0 3f 35 89 3b 54 a8 6b bc 0e aa 35 be e6 dd fd bc
       0.0041872556 -0.014383394 -0.17740652 -0.030989598
0003e0 0c e5 47 bd 94 94 fe 3d 3f 87 5c 3d a0 4f d1 b9
       -0.04880242 0.12430683 0.05383992 -0.00039922912
0003f0 95 76 10 3d 9b f5 02 be 94 75 0e be 2b 73 96 bc
       0.03526934 -0.12789004 -0.1391204 -0.018365463

bias f4 [12]
000000 5a 8f ae 3d 71 3e aa bc 90 b1 26 3e eb 2e c7 3d
       0.08523436 -0.020781728 0.16278672 0.09725746
000010 34 67 ab bd 34 d5 c8 bd 1a 41 4a 3e ad 0b f4 bd
       -0.08369294 -0.0980629 0.19751397 -0.119162895
000020 2f d8 2a 3e 10 98 d6 bb 0a 89 3b bc 34 90 60 bd
       0.1668403 -0.006548889 -0.011446247 -0.054825023

weight f4 [12, 12]
000000 96 ca 4a 3d 55 08 23 3e 86 15 cb bd 6c 06 1a be
       0.049509607 0.15921147 -0.09916215 -0.15041512
000010 ce aa 8d 3e 99 9f 5e 3e 95 9b d8 3d 67 1b 5e be
       0.27669376 0.21740569 0.1057655 -0.2169014
000020 53 31 e2 bd 40 6b 99 bd 14 15 8b 3e 64 37 22 be
       -0.11044564 -0.074911594 0.2716452 -0.15841442
000030 88 d8 a4 3e d3 a9 b7 3b 7f 92 e4 3d d2 1e 3b be
       0.3219645 0.0056049614 0.111607544 -0.18273476
000040 45 a4 03 3e de f1 3f 3e 48 22 6b 3b 00 ed 12 3d
       0.12855633 0.18744609 0.0035878588 0.035870552
000050 ef c2 1a bc 78 f3 a4 bd 27 47 83 3e 17 cd 5e be
       -0.00944589 -0.080542505 0.25640222 -0.21757923
000060 77 56 c8 bd 6b 4a 98 3e 57 58 21 bd ac 88 98 be
       -0.09782117 0.29744276 -0.039390888 -0.29791772
000070 36 67 bd 3d 88 af c7 bc 19 74 88 3d 88 13 56 3d
       0.092482015 -0.024375692 0.06662769 0.05226472
000080 f6 13 a4 be 9d 65 c3 3e 93 28 98 3c 43 37 01 bd
       -0.3204648 0.38163462 0.018574035 -0.031546842
000090 64 28 4e 3e 3b 7d 3f be 2f 04 83 be b8 cf d1 3e
       0.20132595 -0.18700115 -0.2558913 0.4097879
0000a0 94 89 2d be e2 7c b3 3c 60 b1 49 be f7 d4 2b bd
       -0.16947013 0.021910135 -0.1969657 -0.041951146
0000b0 0c 08 b0 bc 92 25 b0 be d1 fd 7b 3e 29 c1 ae 3d
       -0.021488212 -0.34403664 0.24608542 0.08532936
0000c0 e1 d7 8a be 47 64 67 bb 38 b4 eb ba 33 32 97 be
       -0.27117828 -0.0035307573 -0.0017982787 -0.29530486
0000d0 17 6f 4b bd 9c 75 02 be 9e b3 59 3d 2f 8b a3 bd
       -0.04966649 -0.12740177 0.053149812 -0.079855315
0000e0 f0 f5 92 be 0b 62 b8 3e 24 ca 14 be b3 40 80 3e
       -0.2870326 0.360123 -0.14530236 0.25049362
0000f0 fe 2c d6 bd 02 4e 01 be c5 a8 aa be 69 8b a9 3c
       -0.104578 -0.12627414 -0.33331886 0.020696359
000100 f6 d1 1b ba af 40 72 be 81 44 a9 be cd d6 70 3c
       -0.00059440674 -0.23657487 -0.33060077 0.01469965
000110 40 7b 87 3e f5 e9 06 bd 80 5f 55 be 30 58 a4 3d
       0.2646122 -0.032937963 -0.20837212 0.08024633
000120 fa af 95 3e 71 92 ce 3d 97 31 d5 bc 4e b2 df bd
       0.29235822 0.10086525 -0.026024623 -0.10922681
000130 f8 78 09 3d f3 fd 7b 3e a0 44 e1 bd 07 f8 4c 3e
       0.03356263 0.24608593 -0.10999417 0.2001649
000140 5f 70 02 be 5b 59 a5 3e c4 bc d2 bc 6f 54 24 be
       -0.12738179 0.32294735 -0.025724776 -0.16047834
000150 b9 d4 0b bc 2e fe 16 be 15 cb 5d 3e fd 6c 10 be
       -0.008534604 -0.147454 0.21659501 -0.14104076
000160 41 3a 9c 3e 70 a3 31 be 76 46 18 3e dd 71 0c be
       0.30513194 -0.17347503 0.14870629 -0.1371531
000170 6f 61 3f bd 9b 50 49 be 34 b6 61 3e bb ff 1d 3c
       -0.04672378 -0.19659655 0.22042161 0.00964349
000180 58 ef 8b bd 2b 80 ac be 17 74 7c be 39 e5 d3 3b
       -0.068327606 -0.33691534 -0.2465366 0.0064665345
000190 4c ff 80 bd 06 29 a1 3e a3 f9 d1 3d 9a 55 56 3d
       -0.06298694 0.3147661 0.102526926 0.05232773
0001a0 9d 74 7f be ab f5 64 be 4e 07 5e 3d 82 ac 37 3e
       -0.24946828 -0.2235934 0.054206185 0.179369
0001b0 f2 6b 93 be 55 83 a8 3e 8a 05 c0 bd da ba 4e 3d
       -0.28793293 0.32912698 -0.093760565 0.050471164
0001c0 cd 95 97 be a5 30 0e 3c 9b 38 71 be 60 0d 06 3d
       -0.29606476 0.00867859 -0.2355675 0.0327276
0001d0 ed bb c2 bd a7 5a c7 3d ed 9a 75 bd c3 88 f0 3d
       -0.095085 0.097340874 -0.059962202 0.11744835
0001e0 f3 a6 49 3e 22 23 4c bc 19 9c cb bd e8 bf 0d 3e
       0.19692592 -0.012459548 -0.09941883 0.13842738
0001f0 03 6e 7a be e5 1e 32 be 20 8f 11 ba 6b 34 6b 3e
       -0.24456029 -0.17394598 -0.00055526383 0.22969215
000200 4e 9e 74 3d de e3 34 3e 39 bf 3c 3e 24 89 55 3e
       0.059721284 0.1766505 0.1843232 0.20853096
000210 04 c9 aa 3d 73 f2 f9 3d 0a 93 19 bd cd a8 ea bd
       0.08339122 0.12204447 -0.037493743 -0.114579774
000220 43 58 77 bd 6a b3 66 be 45 53 b7 3d d8 d7 8c 3e
       -0.060386907 -0.22529379 0.08951429 0.27508426
000230 8a fd 8b 3e bf 80 4a bd 59 7c 86 3e c6 b2 b8 3d
       0.27341872 -0.049439188 0.26266745 0.09018473

bias f4 [12]
000000 ef 4b e4 3d 8f ae 5c bd dd 2f bc be 1b 06 8a bd
       0.11147296 -0.05387741 -0.36755267 -0.06739446
000010 a6 06 fe 3c a4 76 12 be c9 49 5c be e3 e2 c2 3d
       0.03100903 -0.1430307 -0.21512522 0.095159315
000020 e5 13 77 be aa 1c f6 3d 33 9e a0 be 0c 0b 4b 3d
       -0.24128683 0.12017186 -0.31370696 0.049571082

weight f4 [12, 48]
000000 06 42 5c bd ec 5c 74 3b 0b 22 ff bd 8e de 58 bc
       -0.053773902 0.003728683 -0.12457665 -0.013236655
000010 51 0c 1f bd 22 15 db 3d 64 47 d6 3d 0b d5 76 3e
       -0.038830105 0.1069739 0.104628354 0.24104707
000020 73 18 94 3d 14 e4 1b bd e4 32 c1 3d fa 80 83 bb
       0.07231226 -0.03805931 0.09433535 -0.004013178
000030 a7 e5 1f be b8 3e eb 3c 24 be e9 3d 93 10 b1 bd
       -0.15614949 0.02871643 0.114132196 -0.086457394
000040 b5 b6 a5 3d 7a 24 57 bd d8 bf c6 bd d0 eb 5e bc
       0.08091489 -0.05252502 -0.0970456 -0.013606027
000050 31 dc 37 3e 8d 25 01 3e d8 e1 74 3d 7b 18 d1 3d
       0.1795509 0.1261198 0.059785694 0.102097474
000060 b6 16 06 3c 1e 80 79 3c 61 74 71 bd 0a 4d c6 3d
       0.008184126 0.015228299 -0.05894888 0.09682663
000070 7e 85 a2 3d 63 b3 f4 3d 6e 1a 55 be 1c 08 6b bd
       0.07935618 0.11948278 -0.20810863 -0.05738078
000080 31 1f cd bc 32 73 88 bd 77 94 bf bd cb 68 71 3d
       -0.025039287 -0.06662597 -0.09354489 0.05893783
000090 b5 e1 d2 3d e5 30 ae bd 1a cb 5c 3e 46 b3 ce 3d
       0.102969564 -0.0850542 0.21561852 0.100927874
0000a0 4a 62 d9 3d 20 f2 01 3d 12 ec 29 3e 12 6d 96 3c
       0.1061445 0.03172505 0.1659396 0.018362556
0000b0 82 09 37 3e 06 bc 41 3d 1e 9e 00 3e d6 c6 46 bd
       0.1787472 0.047298454 0.12560317 -0.04852947
0000c0 c3 5e 29 be f5 70 13 3e d1 3c b5 be 84 d5 8e be
       -0.16540055 0.14398558 -0.35397962 -0.27897274
0000d0 b8 85 24 3d a3 b6 b5 3d fb fc 82 3c fe 3a a4 3d
       0.040166587 0.08872726 0.015989771 0.08019064
0000e0 bd 6c fd bd d2 bf bd bd 48 cb 0e 3e 30 e0 91 3c
       -0.12374256 -0.092651024 0.13944733 0.017807096
0000f0 1e a6 91 bb a3 ab 64 3c a9 8d b9 bd 23 fd f5 3d
       -0.0044448515 0.013956937 -0.09060223 0.120111726
000100 3d 18 42 bd 6a 71 f2 3b 57 7a 07 be 34 86 16 3e
       -0.047386397 0.007398774 -0.13230263 0.14699632
000110 eb a8 6f 3e d6 c5 ef ba 43 88 13 3e 66 6d 7d bc
       0.23404281 -0.0018293213 0.14407448 -0.015467977
000120 3e 61 c2 3d 6c 9f 18 3e 4e 1e 40 3d 33 cb 59 bc
       0.09491204 0.14904565 0.0469039 -0.013293075
000130 16 f8 a0 bc 32 1f 81 3c a6 fe ea bd f1 a1 0e 3d
       -0.019649547 0.015761945 -0.114743516 0.034822408
000140 8c 83 16 3e 91 0b 25 3e 42 fe 55 3e 33 44 52 3e
       0.14698619 0.16117693 0.20897773 0.20533828
000150 6c 4e 84 3d f8 7d 25 3c fa c9 fc 3d a3 1e 8c 3d
       0.0646027 0.010100834 0.123432115 0.06841781
000160 f9 67 8e 3e de 1b 57 3e 46 fb 21 3e c3 0c 3a 3e
       0.278137 0.21006724 0.1581851 0.1816893
000170 b6 c2 70 bd 38 07 f2 3c 14 b3 2d 3d 75 ba e7 bd
       -0.05877944 0.029544458 0.04240711 -0.11314861
000180 72 ab 72 3e 61 51 1a 3e 0e 6e 0a 3e 0f 86 12 3e
       0.23698214 0.15070106 0.13518545 0.14308952
000190 0e 4e 4d 3d bd 6c 7a bd e1 45 91 3c 9c bf 38 be
       0.050123267 -0.061138857 0.017733516 -0.18041843
0001a0 f5 b0 e9 3d b8 10 1e 3b 7d 53 ae 3d e0 96 20 3e
       0.11410705 0.0024118852 0.08512018 0.15682554
0001b0 c8 b8 ad bd 99 a7 d4 3d 9b d2 be bd 53 8d c7 bd
       -0.0848251 0.10383529 -0.093175136 -0.09743752
0001c0 6e e2 b2 bd 57 e9 ee 3d f6 ad 34 3d 94 b0 fb bd
       -0.08734594 0.116656 0.044111215 -0.12289539
0001d0 03 e2 b3 3b ef bc a0 bd d5 bb a6 3c 39 10 ee bc
       0.005489589 -0.07848536 0.020353237 -0.02906047
0001e0 5d 93 84 3d 7e fb 11 3d bb b2 67 3d dd 6e 1d 3e
       0.0647342 0.035640232 0.056566935 0.15374322
0001f0 03 73 8a bd f4 8f 0a be 39 36 03 3e b3 f8 3e 3d
       -0.06760218 -0.13531476 0.12813653 0.046623897
000200 c7 66 b9 bd 0d b7 57 bd 20 16 c2 bd 8d 73 9d bd
       -0.09052806 -0.052664805 -0.09476876 -0.07688055
000210 27 2d 4b be 58 d5 03 be c3 bf 7c bd 54 94 72 bd
       -0.19841443 -0.12874353 -0.061706316 -0.059223488
000220 3a 76 42 be 4e 72 29 bd ad 64 1d be 5b 62 9c 3d
       -0.18990412 -0.041368775 -0.15370436 0.07635947
000230 e3 be 6a bd 45 cb 47 be 86 8f b5 3c a0 41 86 bd
       -0.05731095 -0.19511135 0.022163164 -0.06555486
000240 97 aa 56 3d f4 24 f8 3d 80 b6 56 be a7 d9 11 be
       0.05240878 0.12116423 -0.20968056 -0.14243184
000250 53 01 cd 3d d9 5e ad bc e4 3f 60 3e a0 65 a7 3b
       0.10010018 -0.021163391 0.21899372 0.00510855
000260 c5 b6 29 be ee 77 de bd 7e b9 c9 3d 46 01 b8 bc
       -0.16573627 -0.108627185 0.09849833 -0.022461545
000270 83 2a d4 bd 71 51 d7 3d a0 15 a6 bc ea 67 a8 bc
       -0.10359671 0.105135806 -0.020273983 -0.020557363
000280 00 95 56 3e a4 a4 a7 bd 91 72 27 bd be e9 47 3c
       0.20955276 -0.081856996 -0.040880743 0.012201725
000290 3c 28 aa 3c ee 1a 9f 3d 16 21 46 bd cb 24 43 3d
       0.020771138 0.07768808 -0.048371397 0.04764251
0002a0 6b 1b 35 3e 7c fe f0 3d 73 da 0e 3d 49 eb 05 bd
       0.1768624 0.11767289 0.0348763 -0.03269509
0002b0 3a a8 1e be a4 ab e0 3d 65 40 f7 3b de c4 25 be
       -0.15493861 0.10970238 0.007545518 -0.1618838
0002c0 30 d2 b4 3d 29 c6 8e bd 48 4c f9 3d b1 ed aa bc
       0.088291526 -0.0697139 0.121727526 -0.020865293
0002d0 ad 85 ad bd c9 1f a2 3d d2 c9 80 bc 83 78 c6 3d
       -0.08472762 0.07916219 -0.015721235 0.096909545
0002e0 81 ab 98 3e 9d 88 fa 3d 87 9d f1 bc fc 66 86 bb
       0.29818347 0.12233088 -0.02949406 -0.004101632
0002f0 12 bc d0 3d 78 3b 90 bd 9c 9b 20 be ac 23 13 3e
       0.101921216 -0.07042593 -0.1568436 0.14369076
000300 7b 6d 09 be d3 da 90 bd d7 fe 17 3c d8 90 d7 bd
       -0.1342067 -0.070729874 0.009277067 -0.10525674
000310 54 25 60 bd 67 05 00 be 5b 26 9c bd 50 31 18 bd
       -0.0547231 -0.12502061 -0.07624503 -0.037156403
000320 50 60 f1 3d d1 ea 0b 3d 42 32 a2 bc db 3c ff bd
       0.11785948 0.034159485 -0.019799355 -0.12462779
000330 5c bf 99 bd 68 b3 05 3d be 6d f1 bc ee 8b 50 3d
       -0.07507202 0.0326418 -0.029471274 0.050914697
000340 77 05 94 3b c6 70 e6 3d 0b 9e 34 bd 94 2d b9 bd
       0.004517253 0.112519786 -0.044096034 -0.090418965
000350 f9 5d ce bd f7 13 d0 3d 7d 45 9b 3d 4c 27 91 bd
       -0.100765176 0.10160058 0.07581613 -0.070875734
000360 4c 65 b7 3d 1b f2 e6 bd 59 47 e9 bd 8f 8d 08 3e
       0.08954868 -0.11276647 -0.113905616 0.1333525
000370 90 f8 92 3b 3d 56 94 bd 9b a0 34 3e ad dc 85 bd
       0.0044851974 -0.07243011 0.17639391 -0.06536231
000380 57 ea cf 3d b9 d1 8e 3d a7 f0 a3 bd bd e5 1e be
       0.10152119 0.06973595 -0.08004885 -0.15517326
000390 c6 67 f2 bd 2b 39 09 3e 14 b8 bf 3d fe b4 14 3d
       -0.118361995 0.13400714 0.09361282 0.03630542
0003a0 23 45 34 3d 81 2a c0 bc 7f a2 69 bc 92 9c 37 bd
       0.044011246 -0.023457767 -0.0142599335 -0.04482705
0003b0 13 bb 9a 3c ac 6c 3b bd 17 90 c5 3d e7 50 e0 ba
       0.018888032 -0.045757934 0.096466236 -0.0017113955
0003c0 8d f9 69 3e da eb 57 3e 79 b8 be 3e 11 cd 49 3e
       0.22849102 0.21086064 0.37250116 0.19707133
0003d0 27 0f 01 3e 8b ab c1 bc 59 d4 52 3d 26 37 ee bc
       0.12603436 -0.023641368 0.05147204 -0.029079031
0003e0 45 91 46 3e e0 42 01 3e ad b0 44 3d fa 2c 3f 3e
       0.19391353 0.12623167 0.048020054 0.18669501
0003f0 a1 cb 7a 3e 82 77 4b 3d b8 09 61 3e 0c 9d 2b 3e
       0.24491741 0.04967452 0.21976364 0.16759127

bias f4 [12]
000000 fc 49 8d 3d 17 9d 1a 3e 5b ad 1d 3e b5 ac 08 3e
       0.06898877 0.15098988 0.15398161 0.13347133
000010 89 d7 f9 3c af 50 ba 3d 40 07 15 3c 02 98 42 3d
       0.030498283 0.090974204 0.009095967 0.047508247
000020 16 06 73 bd b9 f6 9d 3d 60 8e 08 be 12 0d fa bd
       -0.059331976 0.07713074 -0.13335562 -0.12209524

weight f4 [12, 12]
000000 c7 49 74 be 10 d3 6e be 0f 01 f7 bd 0c 9f 2e bc
       -0.23856269 -0.23322701 -0.12060749 -0.010658037
000010 84 fb 68 3e d6 d2 fa 3d 16 41 3e be 76 50 38 3e
       0.22752196 0.12247245 -0.18579516 0.17999443
000020 c1 5e 49 be 06 37 38 3e 38 35 6a 3e 42 28 44 be
       -0.19665052 0.1798974 0.22871864 -0.19155982
000030 2c 7c 9b 3e 34 e0 84 3e 45 f3 9e be d4 b2 2a 3d
       0.30368173 0.25952303 -0.31044975 0.04167445
000040 2e 0a 00 3d 11 45 b8 be 4e d9 79 3e 65 49 46 3e
       0.031259708 -0.35990193 0.24399301 0.19363935
000050 c5 e0 68 3e c0 72 86 3d 60 9c 92 3e 5b 16 18 be
       0.22741993 0.065648556 0.2863493 -0.14852278
000060 0c e6 71 3c 88 b4 af be 13 6a 5a 3e 4c 86 aa be
       0.01476432 -0.34317422 0.21329527 -0.33305585
000070 28 4b 3c be c8 11 74 be 87 7f 7a be 6c 0b 03 3e
       -0.18388045 -0.23834908 -0.2446271 0.12797326
000080 93 5a 36 3d 2c 80 4e 3e 0d 24 45 3e 08 56 ba 3d
       0.044519972 0.20166081 0.19252034 0.090984404
000090 8b 81 18 be d4 28 87 3e f5 4c 97 be 66 63 35 3e
       -0.14893167 0.26398337 -0.295509 0.17713699
0000a0 13 c6 87 be 75 79 c8 be 31 ec 04 3e be 59 0e 3e
       -0.26518306 -0.39155164 0.12980725 0.13901421
0000b0 8e 80 4c bd e8 c4 56 3e a3 f3 95 3e 30 49 82 3e
       -0.049927287 0.20973551 0.29287443 0.25446463
0000c0 9f e5 87 3d 75 13 e1 be 15 a4 a9 bc ec 19 df bd
       0.066355936 -0.43960157 -0.020708123 -0.10893616
0000d0 43 3a e6 3d cb 15 8a be e8 69 ed 3c 10 17 db 3d
       0.11241581 -0.26969752 0.028981164 0.10697758
0000e0 13 fa 67 3e d0 73 b9 3d 73 0c f8 bd 87 c1 52 bd
       0.2265399 0.090552926 -0.121117495 -0.051454093
0000f0 6f 98 ee bb 63 cf 0d 3e de 54 f7 bc 21 52 1c be
       -0.007281355 0.13848643 -0.030191835 -0.15265705
000100 76 5c 86 be 01 e0 3a bd 2a 21 11 be 01 74 df 3d
       -0.26242417 -0.045623783 -0.14172807 0.10910798
000110 a9 7f a0 3e da e4 b8 3e 08 58 31 3e df 61 88 3e
       0.31347397 0.361121 0.17318738 0.2663717
000120 f9 1b 01 be 4d b2 37 bc 3e dc 57 3e 22 5c a7 bb
       -0.12608327 -0.011211944 0.2108011 -0.0051074186
000130 a5 ab e5 bd b2 d7 a2 be a2 4a 5c 3e e2 a6 8c bd
       -0.11214379 -0.31805187 0.21512845 -0.06867768
000140 54 6d a2 3d ef 47 b4 be 43 13 9f 3e 9c 67 41 3d
       0.07931009 -0.3521113 0.31069383 0.04721795
000150 f9 a8 67 3e 7f b5 05 3e 16 d5 0e be cd 12 95 3e
       0.22623052 0.13057517 -0.13948473 0.29115906
000160 d7 83 37 bd 0a 7d 98 be d7 4c 6c 3e 20 2e 8a be
       -0.044803467 -0.29782897 0.23076187 -0.26988316
000170 14 e5 dc 3d f0 b8 ca bd d8 56 09 3e 9e dc 22 be
       0.10785881 -0.09898555 0.13412035 -0.15904471
000180 88 2d c9 be d1 da 44 be 37 58 51 3e 6e 7d c7 be
       -0.3929255 -0.19224097 0.20443808 -0.38962883
000190 fe 84 92 bd 60 94 a6 bd 6c 2c 55 bd 14 75 b1 3e
       -0.071542725 -0.08133769 -0.052044317 0.34659636
0001a0 e0 56 91 3e c4 81 f3 3d 2b fc 19 3e d0 8a 8c 3e
       0.28386593 0.11889985 0.150376 0.27449656
0001b0 0b af 16 3d 2e 6c 3b 3d 6d a4 b5 3b 71 eb 38 3e
       0.036788028 0.045757465 0.0055432827 0.18058564
0001c0 fc 6b 87 3e f4 a7 d1 bb 42 df 4e be 97 3e cd be
       0.26449573 -0.0063981954 -0.20202354 -0.40086815
0001d0 95 66 18 3d 99 58 4e be 30 2b 87 3d 1d 2f 83 3d
       0.037207205 -0.20150985 0.06600034 0.064054705
0001e0 c3 8f a3 3d a8 f1 45 bc b9 1e 9f 3c 90 a1 71 be
       0.07986405 -0.012081541 0.01942383 -0.23596787
0001f0 af bf 6f 3e 86 f4 98 bd 10 c6 ad be 41 dc c4 3e
       0.23412965 -0.07468514 -0.33940172 0.3844929
000200 11 e8 8c 3e 94 c1 4d bd 2a b6 86 3c 0f 52 28 be
       0.27520803 -0.05023344 0.016444284 -0.16437553
000210 91 31 f6 3d 03 7c 7a 3e 70 a2 69 3e 0f 8b af bb
       0.12021173 0.24461369 0.22815871 -0.0053571532
000220 40 80 8b 3d 4b a9 0a 3e e3 ba cc 3c 2b 2f 4a be
       0.06811571 0.13541143 0.024991458 -0.19744556
000230 96 ff 2a be 15 35 7f be 53 87 21 3e 26 f9 5d 3e
       -0.16699061 -0.24922593 0.15774278 0.21677074
