MQCNN-QA-4qubits-5class-CIFAR-same-5filter/Models_V1/model_16.pt (torch, 148406 bytes, 47 tensors)

weights f4 [7]
6.2827926 5.8524346 5.5900326 3.397573 5.1657004 0.54488933 3.8581789
00000000: a30c c940 2547 bb40 8ce1 b240 d671 5940
00000010: 6b4d a540 de7d 0b3f 67ec 7640

weights f4 [7]
5.5475383 0.18015353 5.9675803 3.083801 3.9468896 4.7857385 1.6512835
00000000: 6f85 b140 2b7a 383e 6bf6 be40 ff5c 4540
00000010: d799 7c40 c524 9940 425d d33f

weights f4 [7]
3.2652326 1.8577398 3.753868 1.309113 0.8682025 2.3747401 2.1171267
00000000: 92f9 5040 6bca ed3f 603f 7040 0491 a73f
00000010: 8542 5e3f befb 1740 017f 0740

weights f4 [7]
5.4573097 3.0042098 4.4282885 2.9209998 2.0203853 3.5252 4.7214093
00000000: 48a2 ae40 f944 4040 8ab4 8d40 a9f1 3a40
00000010: fe4d 0140 e09c 6140 c915 9740

weights f4 [7]
1.7052903 3.1138074 3.20976 0.6717288 2.7746031 0.0141458865 1.6052619
00000000: f446 da3f 9f48 4740 b56c 4d40 6bf6 2b3f
00000010: 1993 3140 26c4 673c 3979 cd3f

weights f4 [7]
2.9523952 5.4772267 5.4619627 5.0863276 3.8438113 5.484322 3.468689
00000000: 0bf4 3c40 7145 af40 66c8 ae40 32c3 a240
00000010: 0101 7640 917f af40 00ff 5d40

weights f4 [8]
2.6774352 2.0966625 1.9294319 5.2383375 5.6065903 3.2036028 0.57742804 5.3422947
00000000: 195b 2b40 b82f 0640 a0f7 f63f 76a0 a740
00000010: 3069 b340 d407 4d40 53d2 133f 14f4 aa40

weights f4 [8]
1.9298401 6.121444 1.1113408 0.3443793 4.8381834 5.4580455 1.9694258 1.7932231
00000000: 0005 f73f dfe2 c340 6a40 8e3f 7c52 b03e
00000010: 66d2 9a40 4fa8 ae40 2516 fc3f 5688 e53f

weights f4 [8]
3.341985 4.5039887 1.8835894 1.6448141 3.872963 5.8771033 4.644809 0.20077592
00000000: 15e3 5540 ad20 9040 7519 f13f 4589 d23f
00000010: a0de 7740 3b11 bc40 46a2 9440 3498 4d3e

weights f4 [16]
4.668197 4.910941 3.7440197 4.6220174 2.4876425 1.6488475 2.3664882 5.1965423
3.0636215 3.3032207 3.7273388 1.4421549 3.3626385 4.2588377 5.081924 4.178991
00000000: df61 9540 6e26 9d40 059e 6f40 91e7 9340
00000010: 8935 1f40 6f0d d33f 8b74 1740 134a a640
00000020: 6012 4440 f867 5340 b88c 6e40 8898 b83f
00000030: 7835 5740 6648 8840 1f9f a240 4bba 8540

weights f4 [16]
0.5477974 4.7982025 2.835429 2.9562812 3.1523108 2.4445446 1.4420253 0.79901326
5.1032753 -0.1124524 2.739762 1.6768324 5.3143272 4.551785 5.4966626 1.1875094
00000000: 733c 0c3f e08a 9940 ab77 3540 b633 3d40
00000010: 76bf 4940 6b73 1c40 4994 b83f 228c 4c3f
00000020: 084e a340 724d e6bd 4358 2f40 72a2 d63f
00000030: f80e aa40 39a8 9140 a9e4 af40 4f00 983f

weights f4 [16]
0.6740904 0.22828005 1.4266229 1.6616023 3.526847 1.9511849 5.7653155 3.5541487
0.92660743 3.379821 1.6162549 5.260342 2.4555156 1.4103439 0.116768315 4.0435996
00000000: 3091 2c3f 3fc2 693e 949b b63f 62af d43f
00000010: dcb7 6140 6dc0 f93f 777d b840 2c77 6340
00000020: 2536 6d3f fd4e 5840 71e1 ce3f b954 a840
00000030: 2b27 1d40 2686 b43f 3a24 ef3d 2b65 8140

weights f4 [12]
1.2892451 1.5734963 3.2740016 4.5695944 4.1442337 3.2452493 1.9211632 5.756773
3.7912264 1.410128 4.711994 0.926913
00000000: fc05 a53f 5468 c93f 3e89 5140 1e3a 9240
00000010: 909d 8440 2ab2 4f40 ade8 f53f 7c37 b840
00000020: 74a3 7240 137f b43f a8c8 9640 2c4a 6d3f

weights f4 [12]
3.5462925 3.730134 4.069536 2.873943 4.26617 6.039992 3.8579645 5.302183
3.6897376 1.1216855 6.4006276 3.8968136
00000000: 75f6 6240 84ba 6e40 a439 8240 afee 3740
00000010: 7784 8840 9d47 c140 e4e8 7640 7cab a940
00000020: a924 6c40 6493 8f3f f1d1 cc40 6565 7940

weights f4 [12]
0.9602393 4.484042 2.3808403 5.8623543 1.7599671 4.6436663 2.1481369 1.1070188
3.0262692 4.423198 5.2722816 4.223865
00000000: 3ed2 753f 467d 8f40 b05f 1840 6898 bb40
00000010: 9a46 e13f ea98 9440 137b 0940 cbb2 8d3f
00000020: 65ae 4140 d78a 8d40 88b6 a840 e729 8740

weight f4 [12, 48]
-0.12721421 -0.105460614 0.007256119 0.008002101 0.13029556 -0.110392906 -0.052628066 0.013094055
-0.1370279 -0.07758833 -0.09543669 -0.029601078 -0.0009147771 0.020123444 -0.100757785 -0.104229875
-0.13363312 -0.14198038 0.029001161 0.08167835 -0.11274055 -0.007375824 0.017722793 -0.030582806
0.11506943 0.024202768 -0.055309474 0.10270255 0.052016705 0.05401769 -0.011321711 0.037366387
0.0350894 0.018973302 -0.07147595 -0.007633369 -0.08795305 0.06862991 -0.030259293 0.05853283
0.13946086 0.003696188 -0.1427515 0.07200816 0.027512724 0.098951645 0.10407949 0.02948454
-0.0065611647 -0.04849199 0.085893616 0.047018766 -0.089408666 -0.01060234 -0.07429536 0.02651759
0.05549227 0.10445422 -0.08383475 -0.11100111 -0.06716848 -0.08932202 0.21117958 0.16318884
-0.19039516 0.095407724 -0.08396618 0.053666394 0.042842057 -0.015636746 0.08531016 -0.019032247
0.1240794 -0.030127285 0.11188047 -0.083005436 0.08967753 -0.0043935827 -0.11318629 0.09728944
-0.14449982 0.027108464 -0.077825986 0.11421591 -0.17447366 -0.01986412 0.004557429 -0.018302333
-0.14938223 -0.09525322 0.11031668 0.03491994 0.011916178 -0.024939401 0.049076222 0.1151169
0.0008161796 0.042088326 0.10978233 -0.12015829 -0.047745172 -0.021750672 0.12077373 -0.20416611
0.118413955 0.07649695 0.051565807 0.12818861 -0.08445561 0.10571591 -0.08285579 -0.07812925
0.16581966 0.05003116 0.105688564 0.050781086 0.0743777 0.039436277 0.13994709 0.03980822
0.18950923 0.04821555 0.17184211 -0.018095694 0.15315181 -0.015519567 0.1978442 0.19695151
-0.021495504 -0.12658142 -0.11274516 -0.04391153 -0.08594798 0.07863086 0.072621584 -0.03726533
-0.02814292 -0.032564986 0.05884916 -0.111166716 0.05975802 -0.09627254 -0.013404211 -0.082766905
0.026964642 -0.050435074 0.039186254 0.14343362 0.10513261 0.15169169 0.095007256 0.08658181
0.0017953678 0.029588673 -0.14860445 0.056090694 -0.123508126 0.033895668 0.019795548 0.069570795
0.065253064 0.048132367 0.03224884 -0.032847803 0.0011847446 -0.0434043 0.010716878 0.02426952
-0.11220649 -0.12277641 -0.08824733 0.044184085 -0.045394525 0.052337028 0.074384235 0.033749092
-0.07718867 -0.14568801 0.05575694 0.11691386 0.0056989114 -0.07725721 -0.083505966 -0.022570383
-0.049314987 -0.17136888 -0.17509927 0.057116836 0.13593425 -0.057759903 -0.10754751 0.094854385
0.07796377 0.02032276 0.15836371 0.19344509 0.012638155 0.054601252 0.015880572 0.17286733
-0.007058976 0.18636292 -0.10477923 -0.036593847 -0.08330869 0.04728352 0.08781769 0.089762546
-0.15570658 0.07308701 -0.04597776 -0.10111239 0.08341137 0.115202904 -0.00027823023 -0.14478475
-0.06355287 0.15007329 -0.19994485 -0.062639944 0.01785098 -0.06957755 -0.15687704 0.045298044
0.014287919 -0.08636568 0.13090762 0.1803114 0.061854858 -0.08744977 -0.0038458703 -0.05835396
-0.048013065 0.06071253 0.019333376 0.023485245 0.17190991 0.13997284 0.20475549 0.08749618
0.14579955 0.057005838 0.08711221 -0.04502691 0.2323655 -0.0785081 0.15341796 0.091335446
-0.06382136 0.028278785 0.14223899 0.005013486 -0.12136909 0.05630379 -0.032215077 -0.07147264
00000000: 7144 02be bcfb d7bd bdc4 ed3b 3f1b 033c
00000010: 336c 053e ad15 e2bd 8790 57bd 7288 563c
00000020: 0b51 0cbe a1e6 9ebd 5074 c3bd f67d f2bc
00000030: a7cd 6fba ecd9 a43c 195a cebd 7976 d5bd
00000040: 1fd7 08be 4e63 11be d893 ed3c fb46 a73d
00000050: 84e4 e6bd e5b0 f1bb 642f 913c cb88 fabc
00000060: 85a9 eb3d e244 c63c 308c 62bd b755 d23d
00000070: 780f 553d a741 5d3d b37e 39bc 7f0d 193d
00000080: e7b9 0f3d e66d 9b3c fc61 92bd 5721 fabb
00000090: bb20 b4bd d78d 8c3d 56e2 f7bc 1fc0 6f3d
000000a0: d4ce 0e3e bf3b 723b 732d 12be 0479 933d
000000b0: 5d62 e13c 29a7 ca3d a127 d53d 9089 f13c
000000c0: 0aff d6bb 899f 46bd fee8 af3d c096 403d
000000d0: e41b b7bd 70b5 2dbc 2a28 98bd 6b3b d93c
000000e0: dd4b 633d 18ec d53d 8eb1 abbd 8d54 e3bd
000000f0: a18f 89bd 77ee b6bd 763f 583e fa1a 273e
00000100: f3f6 42be 2065 c33d 76f6 abbd 4bd1 5b3d
00000110: 277b 2f3d a218 80bc 18b7 ae3d 84e9 9bbc
00000120: 571d fe3d 7fcd f6bc 9621 e53d c1fe a9bd
00000130: daa8 b73d 0bf8 8fbb 37ce e7bd b03f c73d
00000140: c3f7 13be 9212 de3c 3b63 9fbd 08ea e93d
00000150: 39a9 32be 14ba a2bc 7c56 953b c6ee 95bc
00000160: a8f7 18be 1f14 c3bd b6ed e13d 3608 0f3d
00000170: 133c 433c b74d ccbc 2604 493d 69c2 eb3d
00000180: e3f4 553a cf64 2c3d 8fd5 e03d 8d15 f6bd
00000190: 7190 43bd 772e b2bc 3858 f73d ec10 51be
000001a0: 0483 f23d 6faa 9c3d ab36 533d e043 033e
000001b0: 10f7 acbd 9581 d83d 4cb0 a9bd 3a02 a0bd
000001c0: a1cc 293e 79ed 4c3d 3f73 d83d d4ff 4f3d
000001d0: 5653 983d ef87 213d 4a4e 0f3e f20d 233d
000001e0: b50e 423e ab7d 453d 61f7 2f3e 6c3d 94bc
000001f0: d4d3 1c3e c845 7ebc ac97 4a3e a8ad 493e
00000200: 5717 b0bc 8f9e 01be efe6 e6bd 94dc 33bd
00000210: 7f05 b0bd 3709 a13d a0ba 943d 88a3 18bd
00000220: fb8b e6bc dd62 05bd d10b 713d 60ab e3bd
00000230: d3c4 743d 8a2a c5bd 569d 5bbc b281 a9bd
00000240: f4e4 dc3c 0295 4ebd c481 203d 43e0 123e
00000250: c44f d73d 1155 1b3e 2a93 c23d ce51 b13d
00000260: 8c52 eb3a f263 f23c c42b 18be 5bbf 653d
00000270: d4f1 fcbd 2fd6 0a3d 462a a23c 227b 8e3d
00000280: 66a3 853d 7226 453d 5c17 043d 6b8b 06bd
00000290: 6f49 9b3a b5c8 31bd d895 2f3c dfd0 c63c
000002a0: 84cc e5bd 3372 fbbd 04bb b4bd 5ffa 343d
000002b0: 9cef 39bd 5a5f 563d c356 983d 7d3c 0a3d
000002c0: 1815 9ebd 3d2f 15be 6461 643d 8970 ef3d
000002d0: efbd ba3b 0739 9ebd 2d05 abbd 86e5 b8bc
000002e0: 83fe 49bd 537b 2fbe 394d 33be 58f3 693d
000002f0: 5932 0b3e a695 6cbd de41 dcbd 0443 c23d
00000300: 78ab 9f3d eb7b a63c 192a 223e 7816 463e
00000310: 4410 4f3c 90a5 5f3d f917 823c 2204 313e
00000320: fc4e e7bb ecd5 3e3e 7e96 d6bd 6ee3 15bd
00000330: bf9d aabd 5dac 413d c3d9 b33d 6dd5 b73d
00000340: 8c71 1fbe a4ae 953d 2d53 3cbd 0314 cfbd
00000350: 95d3 aa3d 80ef eb3d 6edf 91b9 7442 14be
00000360: 0228 82bd d0ac 193e 58be 4cbe 5f49 80bd
00000370: 383c 923c ad7e 8ebd 60a4 20be 718a 393d
00000380: e017 6a3c 7de0 b0bd a60c 063e 8da3 383e
00000390: 855b 7d3d dd18 b3bd ff0a 7cbb 9004 6fbd
000003a0: 59a9 44bd b4ad 783d 0761 9e3c 2164 c03c
000003b0: 2709 303e 0a55 0f3e 6cab 513e 3231 b33d
000003c0: 7a4c 153e f47e 693d e367 b23d 236e 38bd
000003d0: 39f1 6d3e dbc8 a0bd 9919 1d3e 140e bb3d
000003e0: c6b4 82bd e9a8 e73c 19a7 113e 2b48 a43b
000003f0: 5c90 f8bd ce9e 663d f5f3 03bd 3f60 92bd

bias f4 [12]
-0.13035788 0.11120913 -0.19321892 -0.0130537925 0.13585171 0.12772869 0.09838285 0.19489597
-0.096563 0.016520843 0.0045347563 0.09438189
00000000: 897c 05be 9dc1 e33d 2edb 45be 93df 55bc
00000010: b61c 0b3e 4fcb 023e f37c c93d cf92 473e
00000020: d2c2 c5bd b856 873c 4b98 943b 4b4b c13d

weight f4 [12, 12]
0.08432915 0.20520867 -0.2957173 0.12404796 -0.19681472 -0.26432142 0.0062028 -0.35167167
-0.07937588 0.024664456 -0.048680287 -0.054146074 0.20801683 -0.035477716 -0.24627475 0.2653951
-0.078412175 -0.0038446921 -0.056356493 -0.085271455 0.3437149 0.21350871 0.03508715 -0.056976132
-0.15010752 -0.2627298 0.103751585 0.25821072 0.0653475 -0.14246067 0.2986411 -0.10773043
-0.2136243 -0.2527526 -0.044323415 0.025199432 -0.18489131 0.088733315 0.037402276 0.237562
-0.2530168 0.30573887 0.0046194093 -0.018241737 0.19283642 -0.007191754 0.20272706 -0.15298334
-0.11076837 -0.054002915 -0.2516999 0.28493342 0.231974 -0.06594491 -0.17750256 0.018125053
0.05982419 -0.092290826 -0.39958134 0.1826263 0.07837436 0.16230538 -0.14994211 0.16547273
0.2909725 -0.3025863 -0.20501323 -0.19878857 0.2813031 -0.007532251 -0.28159443 -0.23022576
0.00517647 0.13468836 0.19172463 0.1763781 0.023758024 -0.35726568 -0.25582495 -0.28720492
0.068977386 0.3287212 0.023453355 -0.003805175 -0.26938534 -0.1539915 0.21306884 -0.17154336
-0.3718975 0.3486724 0.19368394 0.15882358 0.037910644 -0.107074805 -0.053664334 -0.08576391
-0.07615746 -0.26247546 0.30760083 0.14192063 0.017126065 0.10034889 0.103516616 0.3191698
0.20007266 0.13499264 0.14093399 0.029634707 -0.22503011 -0.29182202 -0.1210541 0.18690357
-0.12646767 -0.044258807 0.18351477 0.31994686 -0.23698191 -0.1022196 -0.13767079 0.005118245
0.15525632 -0.20815313 0.13451385 0.18688953 -0.15577275 -0.15629552 -0.22660038 0.2648336
0.14480881 -0.21797745 0.18643714 0.1826937 0.25044203 0.1051566 0.13189927 0.2522484
0.0017652981 0.2804677 -0.29647407 0.2310477 -0.0053117885 -0.23663656 0.35504076 0.027586354
00000000: c3b4 ac3d 3922 523e 4268 97be db0c fe3d
00000010: cc89 49be 2355 87be dc40 cb3b 4f0e b4be
00000020: d28f a2bd 1d0d ca3c fb64 47bd 46c8 5dbd
00000030: 5d02 553e 1551 11bd 732f 7cbe dee1 873e
00000040: 9096 a0bd 3bf7 7bbb 11d6 66bd cda2 aebd
00000050: 66fb af3e 07a2 5a3e 8bb7 0f3d ce5f 69bd
00000060: c9b5 19be 8584 86be b67b d43d 3234 843e
00000070: e9d4 853d 36e1 11be 7ce7 983e c6a1 dcbd
00000080: 54c0 5abe ca68 81be 788c 35bd 0a6f ce3c
00000090: 2654 3dbe d0b9 b53d 2133 193d 7443 733e
000000a0: 6b8b 81be ce89 9c3e 6a5e 973b b26f 95bc
000000b0: e976 453e cea8 ebbb af97 4f3e aaa7 1cbe
000000c0: 87da e2bd 2932 5dbd cfde 80be cbe2 913e
000000d0: 988a 6d3e 200e 87bd 3bc3 35be fe7a 943c
000000e0: 360a 753d f902 bdbd ed95 ccbe 6402 3b3e
000000f0: bd82 a03d 6233 263e 6d8a 19be af71 293e
00000100: 59fa 943e 97ec 9abe fdee 51be 3b8f 4bbe
00000110: f606 903e 1ad1 f6bb 252d 90be 4dc0 6bbe
00000120: 619f a93b bfeb 093e 7653 443e 769c 343e
00000130: 30a0 c23c 87eb b6be 7dfb 82be 860c 93be
00000140: 0444 8d3d 254e a83e 4021 c03c 3e60 79bb
00000150: e0ec 89be f3af 1dbe b82e 5a3e 10a9 2fbe
00000160: 5969 bebe 3085 b23e 1555 463e a6a2 223e
00000170: 3148 1b3d 094a dbbd 22cf 5bbd fda4 afbd
00000180: 71f8 9bbd 2f63 86be db7d 9d3e a453 113e
00000190: f64b 8c3c b883 cd3d 8500 d43d 396a a33e
000001a0: d9df 4c3e 833b 0a3e 0051 103e 7cc4 f23c
000001b0: 4b6e 66be b269 95be 36eb f7bd a663 3f3e
000001c0: be80 01be b948 35bd 4ceb 3b3e 13d0 a33e
000001d0: 63ab 72be 8258 d1bd 92f9 0cbe f3b6 a73b
000001e0: 83fb 1e3e 1826 55be 00be 093e f85f 3f3e
000001f0: e482 1fbe ef0b 20be ee09 68be 4598 873e
00000200: c348 143e 7b35 5fbe 61e9 3e3e 0f14 3b3e
00000210: f039 803e 585c d73d 9a10 073e b426 813e
00000220: 9361 e73a 7699 8f3e 73cb 97be c597 6c3e
00000230: 830e aebb db50 72be e7c7 b53e c7fc e13c

bias f4 [12]
0.17674765 0.14782396 -0.15525867 -0.24077289 -0.07526746 -0.31047037 0.11110816 -0.18511195
-0.06630515 -0.07550115 -0.3098438 0.061226834
00000000: 56fd 343e 2a5f 173e 21fc 1ebe 2b8d 76be
00000010: d325 9abd f9f5 9ebe ad8c e33d fd8d 3dbe
00000020: ffca 87bd 59a0 9abd d9a3 9ebe fdc8 7a3d

weight f4 [12, 48]
-0.093665704 -0.003851062 0.035579085 -0.056786288 0.060798794 0.031806428 0.058373194 -0.019831054
0.13694572 -0.036012102 -0.022607801 0.12201062 0.11991495 0.10422282 0.06548675 0.13493754
-0.05152351 -0.102513276 -0.15231816 0.049386222 -0.14400294 0.13521071 -0.03718484 -0.16979253
-0.2052961 -0.12156886 -0.076832265 0.042351626 -0.12295457 0.047416687 0.017274212 -0.015435219
-0.11967956 -0.065990575 0.10808638 -0.09628427 -0.09572604 0.022368997 -0.003537509 0.14889573
0.09882522 0.020742744 -0.05721749 -0.16859743 0.08693757 -0.066733055 -0.049274668 0.114363626
-0.14719275 0.050169636 -0.08982177 -0.08870593 0.10829481 -0.112642534 -0.018492788 0.014211498
-0.15451454 0.10567897 -0.03339927 0.13473473 -0.076540306 0.0144353965 0.08503482 -0.010968981
-0.11001607 -0.04985957 0.024653545 0.011015584 -0.15308736 -0.10206656 0.09477796 -0.07086207
-0.006909206 -0.055410784 -0.019032033 0.11608962 -0.07138817 0.042074814 -0.08063896 -0.027574072
-0.09412863 0.17392129 0.10596933 -0.02367821 -0.06335032 0.034981325 -0.025957284 -0.114978105
0.06932026 -0.13957039 0.11383175 0.09060339 -0.114017725 -0.009643478 -0.036438845 0.109333284
0.14639965 0.0371777 0.049468927 0.15958022 -0.17838754 -0.006658951 -0.077924974 -0.21238136
0.09677724 0.17617702 0.07439375 0.22039385 0.19087167 0.13214743 -0.117707945 -0.08764404
0.016115643 -0.042902127 -0.018948127 0.16113201 0.030223047 0.053842228 0.058428496 -0.19352591
-0.041827157 -0.044520974 0.029629013 0.08360646 0.12042658 0.20513335 -0.06856789 -0.08350487
0.21047166 0.31298646 0.3960824 0.15225074 -0.12697694 -0.027216773 0.08476154 -0.11913912
-0.12128914 0.123104095 0.11004621 0.1387984 -0.081049345 0.030624121 -0.17178568 -0.16668384
-0.05830891 0.14508384 -0.04301388 0.007057401 -0.035962276 -0.056207787 0.02399774 0.06609457
0.074515566 -0.0068488033 0.1333193 0.037339937 0.19976212 0.016385965 -0.04032487 0.17821229
-0.038584378 0.01783506 -0.07148025 0.011901132 -0.054233897 -0.040206946 -0.09782202 -0.122824006
-0.043720987 -0.00026122644 -0.14370716 0.11486113 0.090021975 -0.030056108 -0.08294728 0.08026901
0.12064191 0.054447066 0.0702922 -0.009090055 0.14103468 0.06301335 0.12310398 0.032486808
-0.056054123 -0.02268127 0.034047246 0.038948197 0.09078707 0.007890815 0.09115221 0.07383673
-0.0637919 -0.0477141 0.08222291 0.039603446 -0.056342278 -0.01386412 0.002165728 -0.012257178
-0.017474262 0.10653173 0.03137581 -0.048495937 -0.086732514 -0.015440823 0.13115661 0.09174212
-0.15975797 0.020569421 -0.018803485 0.013072149 -0.09277806 -0.04292858 -0.022172775 -0.2696065
0.03792244 -0.17877837 0.0502192 -0.08458234 0.15151067 0.17600702 0.12568954 -0.05801631
-0.07169062 -0.107825026 -0.04241943 -0.07818321 0.015195867 0.17177495 -0.024051767 -0.10573981
0.080924965 0.07874268 -0.14216258 -0.023432381 0.08426615 0.005205017 -0.046202578 0.08837309
0.034747254 -0.041972082 0.033226598 -0.052194446 0.12542036 0.06457978 0.029235242 -0.017692804
-0.055790354 -0.045785498 0.1284773 0.06989684 -0.055584516 -0.1205711 -0.022588521 0.015525435
00000000: ced3 bfbd 1962 7cbb 60bb 113d bd98 68bd
00000010: 2808 793d 7547 023d bb18 6f3d bc74 a2bc
00000020: 803b 0c3e 6d81 13bd ff33 b9bc b4e0 f93d
00000030: f895 f53d c672 d53d eb1d 863d 112d 0a3e
00000040: 510a 53bd 7bf2 d1bd 4bf9 1bbe 3549 4a3d
00000050: 8275 13be ad74 0a3e 214f 18bd 18de 2dbe
00000060: 2439 52be 18f9 f8bd 3c5a 9dbd e678 2d3d
00000070: 9bcf fbbd 0038 423d a682 8d3c 00e4 7cbc
00000080: 8f1a f5bd 1126 87bd 645c dd3d b030 c5bd
00000090: 040c c4bd 303f b73c 8dd5 67bb 1f78 183e
000000a0: e064 ca3d b0ec a93c e35c 6abd cea4 2cbe
000000b0: 530c b23d 57ab 88bd 3cd4 49bd 7a37 ea3d
000000c0: b2b9 16be ad7e 4d3d 7af4 b7bd 74ab b5bd
000000d0: abc9 dd3d 21b1 e6bd 307e 97bc 58d7 683c
000000e0: 0f39 1ebe 376e d83d accd 08bd e7f7 093e
000000f0: 2ac1 9cbd 7182 6c3c bc26 ae3d 3eb7 33bc
00000100: 1b50 e1bd 8c39 4cbd 3bf6 c93c b57a 343c
00000110: efc2 1cbe 4608 d1bd f21a c23d 2220 91bd
00000120: 9f66 e2bb 6bf6 62bd 11e9 9bbc 65c0 ed3d
00000130: f633 92bd a456 2c3d 0a26 a5bd 05e3 e1bc
00000140: 83c6 c0bd 6c18 323e 7306 d93d cef8 c1bc
00000150: d0bd 81bd 9448 0f3d 5fa4 d4bc a479 ebbd
00000160: c8f7 8d3d 8aeb 0ebe 9f20 e93d 458e b93d
00000170: 2082 e9bd aeff 1dbc e640 15bd 21ea df3d
00000180: cae9 153e a547 183d ee9f 4a3d ff68 233e
00000190: 39ab 36be 5433 dabb 2197 9fbd 807a 59be
000001a0: 2533 c63d c067 343e c05b 983d edae 613e
000001b0: dd73 433e a851 073e dd10 f1bd b87e b3bd
000001c0: f404 843c 24ba 2fbd 1a39 9bbc caff 243e
000001d0: 5396 f73c ab89 5c3d b852 6f3d a82b 46be
000001e0: f452 2bbd a05b 36bd 8bb8 f23c dd39 ab3d
000001f0: 36a2 f63d 7a0e 523e 526d 8cbd 9a04 abbd
00000200: e285 573e c33f a03e 50cb ca3e 9ee7 1b3e
00000210: 3e06 02be b6f5 debc 7597 ad3d 36ff f3bd
00000220: 7166 f8bd 001e fc3d e85f e13d 2b21 0e3e
00000230: 33fd a5bd 70df fa3c 96e8 2fbe 2baf 2abe
00000240: 53d5 6ebd dc90 143e 522f 30bd c541 e73b
00000250: 2e4d 13bd 233a 66bd e996 c43c 975c 873d
00000260: 9e9b 983d ed6b e0bb db84 083e c3f1 183d
00000270: 718e 4c3e dc3b 863c b12b 25bd 487d 363e
00000280: a70a 1ebd d51a 923c 3d64 92bd f7fc 423c
00000290: 5d24 5ebd 0ab0 24bd e956 c8bd 278b fbbd
000002a0: c714 33bd 38f5 88b9 f827 13be 503c eb3d
000002b0: 715d b83d 3a38 f6bc 43e0 a9bd 1464 a43d
000002c0: 1b13 f73d e303 5f3d 5bf5 8f3d 74ee 14bc
000002d0: 656b 103e 250d 813d f11d fc3d e310 053d
000002e0: 0299 65bd 12ce b9bc 2075 0b3d 2588 1f3d
000002f0: 92ee b93d 7a48 013c 03ae ba3d b637 973d
00000300: 54a5 82bd dc6f 43bd 7c64 a83d 3937 223d
00000310: 29c7 66bd 5526 63bc e3ee 0d3b 55d2 48bc
00000320: 2f26 8fbc 4f2d da3d ec83 003d ada3 46bd
00000330: d1a0 b1bd 81fb 7cbc eb4d 063e 4be3 bb3d
00000340: 9897 23be 3481 a83c c409 9abc 912c 563c
00000350: 6c02 bebd e1d5 2fbd aea3 b5bc dd09 8abe
00000360: 8f54 1b3d ad11 37be a6b2 4d3d 8239 adbd
00000370: 9d25 1b3e 2f3b 343e c2b4 003e 83a2 6dbd
00000380: 88d2 92bd 5ed3 dcbd ffbf 2dbd 851e a0bd
00000390: 16f8 783c c6e5 2f3e 3608 c5bc 1d8e d8bd
000003a0: fdbb a53d d843 a13d 1193 11be 44f5 bfbc
000003b0: bb93 ac3d d98e aa3b ea3e 3dbd f3fc b43d
000003c0: 2353 0e3d ebea 2bbd 9d18 083d d8c9 55bd
000003d0: 326e 003e 6742 843d bf7e ef3c 80f0 90bc
000003e0: 6d84 64bd 9389 3bbd 8e8f 033e 1326 8f3d
000003f0: 97ac 63bd fbed f6bd 900b b9bc 655e 7e3c

bias f4 [12]
-0.09672676 0.099502325 -0.035891727 -0.06311045 0.010384287 0.020968832 -0.020435918 -0.06656492
0.03264896 0.022917967 0.05121578 0.077265054
00000000: ae18 c6bd e0c7 cb3d 3403 13bd 0d40 81bd
00000010: db22 2a3c d4c6 ab3c 3a69 a7bc 3053 88bd
00000020: eaba 053d 76be bb3c a3c7 513d 243d 9e3d

weight f4 [12, 12]
-0.14287128 0.1869249 -0.22339119 0.18328138 -0.0033329255 0.17581086 -0.16758965 -0.24555299
0.19257578 -0.08486888 -0.33887297 -0.21086156 0.1254935 0.05946498 -0.49388954 0.14420198
-0.07592014 0.33706778 -0.18838666 0.36674723 -0.03503089 0.05651886 -0.19271715 0.18835428
0.008088432 -0.22876863 -0.22764824 -0.124642305 -0.17954853 -0.026672276 -0.14829989 -0.20080674
-0.18063179 -0.19582964 0.2673094 0.21507621 0.0010960078 0.24776237 -0.2847513 0.3429114
-0.25107858 0.40190935 0.17014697 -0.09959753 -0.069799304 0.24058378 -0.06847583 0.064031534
-0.1881623 0.020565132 -0.13612948 -0.1680069 0.17867069 0.12558018 0.20097964 0.28018287
0.23965234 -0.082998306 0.12991855 0.11059147 -0.26232317 0.28459227 -0.18415923 0.19908468
0.05402446 -0.18825696 -0.18883382 -0.17366314 0.1787316 0.23475358 0.0109603265 -0.3564305
-0.05571836 0.112671755 -0.34502062 -0.2353574 -0.08906979 0.2741074 0.18371303 -0.0016057155
0.30867493 0.06316138 -0.22827895 -0.088740915 0.054142524 -0.2552395 0.029337052 -0.2379906
-0.12485809 0.013934966 -0.27208564 -0.1713508 -0.38096946 -0.2509591 -0.24820524 -0.28154042
-0.32355747 0.20373519 0.08642046 -0.25895125 -0.05373086 0.32980508 0.22951013 -0.075438716
-0.22102612 0.17976315 -0.20508508 0.07341689 0.26168835 -0.26484212 -0.07687309 -0.052050013
-0.07687841 -0.32796952 0.07286862 -0.3097471 -0.1899133 0.13807124 -0.08363578 -0.20364365
0.044990864 0.067173496 -0.02935487 0.11915367 0.15911652 -0.23498023 0.02495182 0.08499688
0.05153309 0.2314622 0.22032 -0.09066407 -0.18302666 0.0930549 0.09785027 -0.14449903
-0.2318666 0.10432864 -0.3174495 0.18152021 0.32252812 -0.16212758 0.23200719 -0.0021619187
00000000: d94c 12be 3e69 3f3e a9c0 64be 1dae 3b3e
00000010: 366d 5abb c307 343e 9f9c 2bbe 3e72 7bbe
00000020: 9632 453e bccf adbd c280 adbe 18ec 57be
00000030: 5e81 003e 8d91 733d 17df fcbe afa9 133e
00000040: 057c 9bbd 2694 ac3e 6fe8 40be 4bc6 bb3e
00000050: 8d7c 0fbd 5280 673d a557 45be f2df 403e
00000060: 5885 043c 5342 6abe 9f1c 69be 7744 ffbd
00000070: 92db 37be d17f dabc eddb 17be 48a0 4dbe
00000080: 8af7 38be 9187 48be c7dc 883e f03c 5c3e
00000090: eba7 8f3a 6bb5 7d3e ecca 91be 1592 af3e
000000a0: 5f8d 80be 10c7 cd3e 023b 2e3e caf9 cbbd
000000b0: f0f2 8ebd 985b 763e 0e3d 8cbd f722 833d
000000c0: 9ead 40be 3578 a83c 8765 0bbe 000a 2cbe
000000d0: 73f5 363e 1798 003e 9bcd 4d3e 2174 8f3e
000000e0: 6c67 753e 04fb a9bd 5e09 053e c87d e23d
000000f0: 394f 86be 14b6 913e 3d94 3cbe dbdc 4b3e
00000100: c148 5d3d 6fc6 40be a75d 41be c0d4 31be
00000110: 6b05 373e 3e63 703e f192 333c 0f7e b6be
00000120: ef38 64bd 73c0 e63d 8ba6 b0be 8801 71be
00000130: 396a b6bd ce57 8c3e 451f 3c3e df76 d2ba
00000140: a40a 9e3e c15a 813d f5c1 69be ccbd b5bd
00000150: 8dc4 5d3d c0ae 82be 4254 f03c cfb3 73be
00000160: 99b5 ffbd 7c4f 643c cf4e 8bbe 9676 2fbe
00000170: 6e0e c3be b67d 80be 8429 7ebe 1126 90be
00000180: 53a9 a5be f59f 503e 36fd b03d 4295 84be
00000190: e414 5cbd 36dc a83e b404 6b3e 9d7f 9abd
000001a0: ac54 62be d513 383e d301 52be 985b 963d
000001b0: 04fc 853e 6399 87be a36f 9dbd 6532 55bd
000001c0: 6e72 9dbd 9feb a7be 253c 953d 2c97 9ebe
000001d0: a278 42be 8c62 0d3e 3c49 abbd f687 50be
000001e0: 5748 383d 4292 893d a079 f0bc d706 f43d
000001f0: 71ef 223e a89e 70be c267 cc3c d812 ae3d
00000200: 5d14 533d 6d04 6d3e 919b 613e 15ae b9bd
00000210: 576b 3bbe 9193 be3d b965 c83d 8ef7 13be
00000220: 706e 6dbe 41aa d53d be88 a2be 6fe0 393e
00000230: 6822 a53e c604 26be 4b93 6d3e faae 0dbb

bias f4 [12]
-0.008769237 -0.37136683 -0.054026615 -0.1186128 -0.01202803 0.13174394 0.16749041 -0.3618164
-0.1794796 -0.02587837 0.05353664 -0.19606772
00000000: d9ac 0fbc cb23 bebe 034b 5dbd 45eb f2bd
00000010: 3711 45bc e2e7 063e 9b82 2b3e 0040 b9be
00000020: 80c9 37be e0fe d3bc 3c49 5b3d fac5 48be

weight f4 [12, 48]
-0.032303717 0.17096798 -0.20491612 -0.20620096 0.15088716 -0.005385927 -0.037612647 -0.092603005
-0.088469826 -0.16773093 0.044363525 -0.13618927 -0.086634524 0.073418595 0.09006221 0.00795006
0.1816443 -0.0032450673 0.113703504 0.020572646 0.051097326 0.08443192 -0.09631402 -0.1302466
0.12892874 -0.12689492 0.01905906 -0.049844038 0.16402861 0.067116514 -0.074750155 -0.0878071
0.09061483 0.18773155 -0.14166035 -0.026011331 0.1558135 0.27204975 0.0053680316 0.09736249
-0.09735666 0.17017756 0.024185108 0.0019584664 0.14955133 0.16528958 0.14676002 0.04202569
0.10844752 0.04375425 -0.05810805 0.059083186 0.008969407 0.08857385 -0.06908816 0.06938182
-0.033576943 0.04747735 0.07928725 -0.097155295 -0.108504854 -0.094169825 0.12269315 -0.11611723
0.012265653 -0.007294559 0.048019815 0.040138386 -0.012033265 -0.10967857 -0.06668484 0.030694665
-0.0012994857 0.015754163 -0.12956622 0.07431293 -0.0072125327 0.020489689 0.033659883 -0.011227698
-0.06879475 -0.058227163 0.0007328169 -0.053452607 0.01849815 0.06389005 0.043956313 -0.054127216
0.14492714 0.00037814165 -0.026286047 -0.12973085 -0.10575946 0.07736137 -0.070231125 0.008317652
0.060116757 0.04949918 0.12834428 0.18980217 -0.06506218 0.03851669 -0.0070367493 0.08005669
-0.013291556 0.25523078 0.22485678 0.008934448 0.06593551 -0.060976177 0.0025137786 -0.2382638
0.09791792 0.06336735 -0.0767269 0.0068872077 0.19264564 0.1788182 0.20575626 0.007784664
0.0126647055 0.23166764 -0.031154992 0.008329199 -0.04437292 0.029360559 0.077237226 0.05178375
0.14397179 0.08856054 0.034346856 0.08082608 0.044117324 -0.13312127 -0.13607143 -0.13777429
0.11033434 0.049382973 -0.05734197 -0.031015156 -0.0022234828 0.17304233 0.09725392 0.1335926
-0.0027691436 0.114583455 -0.16397375 0.018726587 0.10698308 -0.031080227 -0.04165427 0.081100844
0.20152947 0.01214641 -0.14025593 -0.159849 0.08450602 -0.16867767 0.03962535 -0.0038480056
0.24647546 -0.12028495 0.02893212 -0.1573672 0.16123566 -0.040371973 -0.015669683 -0.023520911
0.01440539 0.06915128 -0.026556687 0.02906724 0.033884853 0.045024 0.010570749 -0.12640007
-0.011222174 -0.20395997 -0.024854537 -0.18286233 0.13894261 0.07725078 0.012349503 -0.104724094
-0.10721676 -0.011178185 0.10227773 -0.042577296 0.19534397 -0.13979727 -0.111949556 -0.24879944
0.027617991 -0.04323543 -0.05295652 0.14115235 -0.020803614 0.07649302 -0.026699116 0.16804105
0.15490384 0.25927383 0.1758681 0.14134675 0.25305226 0.1504313 -0.0095498 0.008129971
-0.08058139 0.17580491 0.1480107 0.09241499 0.07422246 0.15619655 0.028526876 0.14941777
0.049277343 0.036598306 -0.025449079 0.14199594 0.13519298 0.030885097 0.24524793 0.24812217
0.10391129 0.023090042 0.1934647 0.22128344 0.031050365 -0.23699136 0.02982698 -0.14332956
0.17226104 -0.16629788 0.009337433 0.13615614 0.028701568 0.17854185 0.093818 -0.051919825
-0.07748447 -0.23361449 0.04583123 0.048643876 0.015652647 -0.14569399 -0.026501443 -0.14913233
-0.05587518 0.09853979 -0.060045652 -0.13318875 0.06444671 0.03701963 0.04291643 -0.28811145
00000000: e750 04bd 3b12 2f3e 88d5 51be 5826 53be
00000010: 2a82 1a3e 6e7c b0bb b80f 1abd a5a6 bdbd
00000020: ab2f b5bd a8c1 2bbe 87b6 353d 3375 0bbe
00000030: 716d b1bd 7d5c 963d 8972 b83d f840 023c
00000040: f700 3a3e 32ab 54bb 62dd e83d f787 a83c
00000050: 6e4b 513d a4ea ac3d 4940 c5bd 5d5f 05be
00000060: e505 043e bef0 01be bf21 9c3c 4329 4cbd
00000070: 1ef7 273e 6274 893d 9c16 99bd 35d4 b3bd
00000080: 4594 b93d b33c 403e 690f 11be b715 d5bc
00000090: 938d 1f3e 1b4a 8b3e 50e6 af3b fc65 c73d
000000a0: ee62 c7bd 0743 2e3e d91f c63c 9d59 003b
000000b0: fc23 193e ac41 293e 4248 163e 2123 2c3d
000000c0: bc19 de3d a837 333d b502 6ebd 3601 723d
000000d0: 6bf4 123c 3566 b53d 187e 8dbd 0e18 8e3d
000000e0: fa87 09bd 9c77 423d 5b61 a23d 5bf9 c6bd
000000f0: cb37 debd 1cdc c0bd 8c46 fb3d dfce edbd
00000100: e1f5 483c 3207 efbb 6db0 443d 2668 243d
00000110: 2c27 45bc 289f e0bd 1092 88bd 6173 fb3c
00000120: 8153 aaba e00e 813c 02ad 04be 6131 983d
00000130: 1c57 ecbb fed9 a73c f2de 093d 61f4 37bc
00000140: 43e4 8cbd 9b7f 6ebd 821a 403a 1ff1 5abd
00000150: 6f89 973c c9d8 823d 890b 343d 80b4 5dbd
00000160: c867 143e 5041 c639 d655 d7bc 2ad8 04be
00000170: 6a98 d8bd a36f 9e3d 56d5 8fbd c346 083c
00000180: fd3c 763d a7bf 4a3d af6c 033e 805b 423e
00000190: 523f 85bd adc3 1d3d 8894 e6bb c3f4 a33d
000001a0: d4c4 59bc 9cad 823e db40 663e ca61 123c
000001b0: 3209 873d 28c2 79bd 35be 243b 6dfb 73be
000001c0: 3189 c83d bec6 813d fe22 9dbd 16ae e13b
000001d0: e644 453e 1e1c 373e c5b1 523e 7f16 ff3b
000001e0: a07f 4f3c 483a 6d3e c138 ffbc 3177 083c
000001f0: 61c0 35bd 8e85 f03c 8d2e 9e3d 331b 543d
00000200: 576d 133e 3a5f b53d 4aaf 0c3d 2588 a53d
00000210: 5eb4 343d f150 08be 4f56 0bbe b414 0dbe
00000220: f8f6 e13d cd45 4a3d 6adf 6abd 7f13 febc
00000230: dab7 11bb 0232 313e 102d c73d 80cc 083e
00000240: 857a 35bb bbaa ea3d bce8 27be 8068 993c
00000250: f219 db3d f69b febc ab9d 2abd 3318 a63d
00000260: be5d 4e3e bc01 473c 409f 0fbe 75af 23be
00000270: 7e11 ad3d d7b9 2cbe 314e 223d d22e 7cbb
00000280: 1064 7c3e f557 f6bd 0e03 ed3c de24 21be
00000290: f61a 253e 155d 25bd b55d 80bc edae c0bc
000002a0: 9604 6c3c 309f 8d3d 698d d9bc 6c1e ee3c
000002b0: d8ca 0a3d 166b 383d ef30 2d3c 056f 01be
000002c0: 36dd 37bc e2da 50be be9b cbbc 4340 3bbe
000002d0: f946 0e3e a835 9e3d 9255 4a3c 9679 d6bd
000002e0: 7694 dbbd b524 37bc fd76 d13d 8865 2ebd
000002f0: 4008 483e 0427 0fbe cf45 e5bd 48c5 7ebe
00000300: 203f e23c a217 31bd f0e8 58bd 3e8a 103e
00000310: 576c aabc 5fa8 9c3d 1bb8 dabc f412 2c3e
00000320: 1d9f 1e3e 8abf 843e c416 343e 34bd 103e
00000330: 1190 813e aa0a 1a3e c476 1cbc 9233 053c
00000340: db07 a5bd 3406 343e 1e90 173e 1244 bd3d
00000350: f201 983d fdf1 1f3e 32b1 e93c f900 193e
00000360: 0ad7 493d 1be8 153d 967a d0bc 6267 113e
00000370: 0770 0a3e be02 fd3c 4622 7b3e bd13 7e3e
00000380: 71cf d43d 5427 bd3c 9c1b 463e 2098 623e
00000390: 565d fe3c ddad 72be b657 f43c fcc4 12be
000003a0: 3365 303e fe49 2abe 08fc 183c 846c 0b3e
000003b0: 8d1f eb3c add3 363e a723 c03d e2a9 54bd
000003c0: 2eb0 9ebd a338 6fbe 87b9 3b3d cd3e 473d
000003d0: fb39 803c ce30 15be 8e19 d9bc 25b6 18be
000003e0: 5fdd 64bd 3bcf c93d 6ef2 75bd a262 08be
000003f0: a3fc 833d e5a1 173d 23c9 2f3d 5883 93be

bias f4 [12]
0.028463298 -0.040440273 0.19000238 -0.08275474 0.14678302 0.17399447 0.10485219 0.031282444
0.311091 -0.06675911 -0.055071775 -0.11373032
00000000: dd2b e93c b3a4 25bd fc8f 423e 517b a9bd
00000010: 4a4e 163e 9b2b 323e bfbc d63d 0522 003d
00000020: 5247 9f3e 00b9 88bd f192 61bd 71eb e8bd

weight f4 [12, 12]
0.0262547 0.18557598 -0.25852087 0.23042202 -0.16839083 0.53555584 0.4982299 -0.059614606
-0.39248818 -0.1263244 -0.27595517 0.13491827 -0.14794953 0.02991475 0.13048042 -0.122175895
-0.29680824 0.12797937 -0.42262757 0.26946297 -0.04868177 0.21331617 0.08873553 -0.043639127
0.17071496 -0.01883047 -0.15541713 0.29534152 -0.099809594 0.13781619 0.18421522 -0.2700668
0.2337668 -0.32967263 -0.3150814 -0.37027842 -0.25067446 -0.2675694 -0.038807824 0.21647549
-0.12807924 0.35426676 0.04031046 0.29282886 -0.46550092 0.04674482 -0.21303275 0.32192242
0.20693761 -0.09256484 0.012580566 0.18337555 0.041804798 0.30691615 -0.07673127 0.099316426
0.10752968 -0.30943924 -0.41906446 -0.27133325 0.36421904 0.29739735 -0.30912143 -0.3193007
-0.33943605 -0.42916676 -0.14251728 -0.21414071 -0.06977408 0.06648022 0.13252755 0.36149454
0.23143001 -0.2536506 -0.3562963 -0.0426389 -0.34611124 -0.13098821 -0.4630757 -0.21819891
0.024796916 0.23994783 0.2879486 0.15046382 0.17208286 -0.16372797 -0.09342468 0.22954917
-0.3482452 -0.42777887 -0.020660736 0.21232146 -0.031681575 0.22490259 0.15302591 -0.30087546
0.31743318 0.16352913 0.14274313 0.26367152 0.093999095 -0.30219108 -0.31075865 0.23143223
-0.08605206 0.0056523727 0.1538629 -0.20887128 -0.45591527 -0.23258317 0.3464464 0.06015011
0.0215873 0.3167468 -0.2645947 0.0062705977 -0.048247594 0.078065835 0.33610258 -0.20289166
-0.05836157 0.23734646 -0.22726996 0.2594204 0.25765258 0.21739171 0.38397625 0.038725376
-0.09699046 -0.21480231 -0.36181605 0.09454749 0.32398805 0.14322114 -0.08718325 0.2178888
-0.11261523 -0.31439397 -0.004986757 -0.2162509 0.2944347 0.15160452 0.021013992 -0.096909925
00000000: 1914 d73c a107 3e3e d95c 84be c0f3 6b3e
00000010: a56e 2cbe 301a 093f fd17 ff3e 722e 74bd
00000020: 36f4 c8be 2f5b 01be ff49 8dbe 0428 0a3e
00000030: 1580 17be c70f f53c a99c 053e 5b37 fabd
00000040: 40f7 97be 060d 033e a462 d8be 0df7 893e
00000050: 8966 47bd 8e6f 5a3e f9ba b53d f1be 32bd
00000060: e7cf 2e3e 5c42 9abc ab25 1fbe 0137 973e
00000070: f968 ccbd b01f 0d3e eaa2 3c3e 3246 8abe
00000080: 9060 6f3e daca a8be 5952 a1be 2295 bdbe
00000090: 6758 80be dbfe 88be f4f4 1ebd c0ab 5d3e
000000a0: 3427 03be 7462 b53e 951c 253d aaed 953e
000000b0: 2356 eebe 7f77 3f3d 4225 5abe 04d3 a43e
000000c0: 74e7 533e a392 bdbd b81e 4e3c cdc6 3b3e
000000d0: 823b 2b3d 1d24 9d3e 4925 9dbd 6966 cb3d
000000e0: 8538 dc3d d26e 9ebe 9e8f d6be 31ec 8abe
000000f0: eb7a ba3e 7744 983e 2a45 9ebe 627b a3be
00000100: 90ca adbe bfbb dbbe 0df0 11be b447 5bbe
00000110: b6e5 8ebd c826 883d 4db5 073e d015 b93e
00000120: fdfb 6c3e 7ede 81be 786c b6be 21a6 2ebd
00000130: 7e35 b1be c621 06be 4218 edbe 896f 5fbe
00000140: e722 cb3c e2b4 753e 006e 933e 3013 1a3e
00000150: 7d36 303e 4ea8 27be 7055 bfbd f00e 6b3e
00000160: 324d b2be d505 dbbe b440 a9bc cc6a 593e
00000170: 8ac4 01bd dd4c 663e d3b2 1c3e 590c 9abe
00000180: 9a86 a23e 2e74 273e 412b 123e f4ff 863e
00000190: 9982 c03d cab8 9abe c21b 9fbe 92fc 6c3e
000001a0: 103c b0bd 8a37 b93b 3c8e 1d3e 5ae2 55be
000001b0: ba6d e9be 482a 6ebe 6c61 b13e f65f 763d
000001c0: d9d7 b03c a32c a23e f578 87be 9679 cd3b
000001d0: 459f 45bd fbe0 9f3d a315 ac3e d5c2 4fbe
000001e0: 8b0c 6fbd f30a 733e 75b9 68be c0d2 843e
000001f0: 0aeb 833e ef9b 5e3e 8998 c43e 809e 1e3d
00000200: efa2 c6bd 23f5 5bbe f43f b9be 1da2 c13d
00000210: c3e1 a53e 90a8 123e 228d b2bd 3e1e 5f3e
00000220: d0a2 e6bd 3ff8 a0be f367 a3bb e070 5dbe
00000230: 25c0 963e 373e 1b3e 8925 ac3c b678 c6bd

bias f4 [12]
-0.41804865 0.05936594 -0.4283386 -0.057943318 0.079281285 -0.1961093 -0.026477586 -0.06519962
0.16235453 -0.042122655 -0.02193806 -0.27108335
00000000: 790a d6be b329 733d 324f dbbe f955 6dbd
00000010: 3a5e a23d e0d0 48be 86e7 d8bc 6187 85bd
00000020: 4440 263e ce88 2cbd 72b7 b3bc 70cb 8abe

weight f4 [12, 48]
0.15510295 -0.046094272 -0.11121771 0.07246496 0.06534795 -0.028449878 -0.0056245127 0.0883407
0.1837417 0.10849397 0.0047716456 0.021071788 0.0002215826 0.08597585 -0.059959013 -0.051315483
0.049243804 0.06676917 0.12923369 0.038070213 0.08051213 0.036731005 0.09278614 -0.04452916
-0.006895792 -0.023912253 0.057852145 -0.058594298 0.14767681 0.083150916 0.11412383 0.05996552
0.13822044 0.19290379 0.12618826 0.027435675 -0.05636132 0.082241386 -0.046816587 0.14991193
0.095655575 0.03765331 -0.11896679 -0.1301768 0.0763137 -0.007306628 -0.15362552 -0.048605878
0.013762968 -0.075242214 -0.030376596 0.043062694 0.017177537 0.068447866 -0.119023286 0.012338064
0.08706289 0.15586953 -0.103739776 -0.1269053 -0.10080938 -0.1340882 -0.007893618 0.0064528272
0.038664848 -0.09181765 0.018650511 -0.121497825 -0.039968524 -0.14742616 0.10220514 -0.14440885
-0.043232247 -0.15075894 0.036214303 0.078894876 -0.07284971 0.068780854 0.024677107 0.084670186
-0.08297477 -0.0072625373 0.1009095 -0.10827464 0.010254909 0.043668356 0.09837524 0.0059773093
-0.0036025303 -2.452191e-05 0.01727272 0.048933223 -0.0061897705 -0.14347532 -0.042906813 0.11944218
-0.087130204 -0.116751686 -0.014040748 -0.1336218 -0.12334287 -0.03659442 -0.018444221 0.08128298
0.01181818 0.08997011 -0.08172067 0.0018067965 -0.123675704 -0.035818275 -0.11285604 0.0307054
0.051862594 -0.011107648 -0.08731463 0.08147727 -0.044169944 -0.15323368 -0.031362947 0.0024867686
-0.12261644 0.027560672 0.0141027 0.107994154 -0.10357477 0.024924511 -0.14040682 -0.096981205
-0.15014613 -0.039029934 0.013983031 -0.08750457 -0.08060072 -0.13121532 -0.10039965 -0.030429468
0.04245549 -0.08578642 0.0021131113 -0.026925052 0.001950756 0.02941679 -0.11889124 -0.07490186
0.105969094 0.07692821 0.037272066 0.11554757 -0.0145934615 0.06446492 -0.09736288 -0.08717486
-0.092064515 0.12114132 0.11004067 -0.019189648 -0.15345745 0.13677803 -0.09917282 -0.1355218
0.008882731 0.13085687 -0.03063963 -0.06710696 -0.035568133 -0.11888516 -0.017119665 -0.11382989
-0.094816856 0.114316 0.104506224 -0.11808649 0.06508141 -0.13391286 0.12480874 -0.11511484
0.008763382 0.07528052 -0.008092295 -0.08539225 0.02685118 -0.047861338 -0.079353645 0.13392344
-0.05312698 0.08639158 -0.11183904 0.01876129 0.11735363 -0.09946156 0.10072553 0.012611674
0.059681337 -0.09999385 0.11698852 0.049512472 -0.21435444 -0.02043236 -0.013235241 -0.10125676
0.117863804 0.020147922 -0.16579916 -0.14754225 0.05260624 0.032319568 0.09055662 0.022116637
-0.11863752 -0.07886302 -0.11628706 -0.18561333 0.005957284 -0.040495813 0.10351789 -0.00082222547
-0.1562348 -0.039387308 0.1035506 0.067892216 -0.08843654 -0.048135187 -0.07842441 -0.016465098
0.18696916 -0.036721494 -0.026019307 0.035645444 -0.19176161 0.07797521 -0.051008746 -0.11912225
-0.10949146 -0.049608838 0.08613255 -0.047853574 0.07605233 -0.05776092 0.109166875 -0.009832643
-0.014097335 -0.07618458 0.012286876 -0.08204403 -0.13863236 0.07146045 0.074555404 -0.06511711
-0.11294033 0.10085125 -0.12438366 -0.025689956 0.07929606 0.09206353 -0.08551857 -0.07601283
00000000: 4fd3 1e3e 59cd 3cbd 1cc6 e3bd 8268 943d
00000010: 25d5 853d b80f e9bc d54d b8bb f8eb b43d
00000020: c926 3c3e 1632 de3d 775b 9c3b be9e ac3c
00000030: a058 6839 1b14 b03d 9597 75bd 2f30 52bd
00000040: dfb3 493d 46be 883d d655 043e 83ef 1b3d
00000050: 8be3 a43d 4073 163d a906 be3d 3564 36bd
00000060: 19f6 e1bb a1e3 c3bc 5ff6 6c3d 9300 70bd
00000070: 9738 173e 074b aa3d c1b9 e93d 689e 753d
00000080: a989 0d3e 9288 453e 7f37 013e c8c0 e03c
00000090: 21db 66bd 2c6e a83d c0c2 3fbd 8382 193e
000000a0: 12e7 c33d 5b3a 1a3d dca4 f3bd 114d 05be
000000b0: 5b4a 9c3d 706c efbb 0250 1dbe f516 47bd
000000c0: 127e 613c 9718 9abd 57d8 f8bc 8262 303d
000000d0: e8b7 8c3c 652e 8c3d 7bc2 f3bd 9725 4a3c
000000e0: 074e b23d 439c 1f3e 8575 d4bd 77f3 01be
000000f0: 2675 cebd 6b4e 09be 3c54 01bc 3d72 d33b
00000100: 085f 1e3d e40a bcbd f5c8 983c dad3 f8bd
00000110: 09b6 23bd e2f6 16be ee50 d13d eadf 13be
00000120: 4c14 31bd 8d60 1abe 7355 143d a393 a13d
00000130: 3b32 95bd fadc 8c3d a527 ca3c 9067 ad3d
00000140: adee a9bd 94fa edbb a4a9 ce3d 18bf ddbd
00000150: 3504 283c 97dd 323d f578 c93d 4edd c33b
00000160: 6e18 6cbb 67b4 cdb7 857f 8d3c 346e 483d
00000170: 8fd3 cabb 32eb 12be 0ebf 2fbd 1a9e f43d
00000180: 5271 b2bd 821b efbd 2a0b 66bc 27d4 08be
00000190: 309b fcbd 08e4 15bd 5618 97bc b177 a63d
000001a0: 0aa1 413c 4042 b83d 2b5d a7bd 08d2 ec3a
000001b0: b049 fdbd 2fb6 12bd 1121 e7bd e489 fb3c
000001c0: df6d 543d dafc 35bc 03d2 b2bd 8edd a63d
000001d0: 8beb 34bd 4ae9 1cbe 6f76 00bd 0ef9 223b
000001e0: 541e fbbd ebc6 e13c 030f 673c 0a2c dd3d
000001f0: 021f d4bd 7d2e cc3c cec6 0fbe 159e c6bd
00000200: e8bf 19be dadd 1fbd 1519 653c 9935 b3bd
00000210: fe11 a5bd 4f5d 06be 559e cdbd 3847 f9bc
00000220: cfe5 2d3d cab0 afbd 207c 0a3b ed91 dcbc
00000230: 82b0 ff3a 7bfb f03c 407d f3bd 2566 99bd
00000240: 5306 d93d 8a8c 9d3d 98aa 183d 34a4 ec3d
00000250: 6a19 6fbc 2f06 843d 3166 c7bd bc88 b2bd
00000260: 528c bcbd f118 f83d 015d e13d 9c33 9dbc
00000270: f323 1dbe 8a0f 0c3e 1f1b cbbd 3ac6 0abe
00000280: e088 113c 58ff 053e f6ff fabc 606f 89bd
00000290: e4af 11bd 107a f3bd 8a3e 8cbc a51f e9bd
000002a0: 572f c2bd 821e ea3d 5c07 d63d 54d7 f1bd
000002b0: 6749 853d 7420 09be ba9b ff3d 54c1 ebbd
000002c0: 4a94 0f3c ac2c 9a3d 8c95 04bc 22e2 aebd
000002d0: 01f7 db3c 400a 44bd 2a84 a2bd 3a23 093e
000002e0: ad9b 59bd 12ee b03d de0b e5bd 47b1 993c
000002f0: 1a57 f03d 81b2 cbbd 3049 ce3d 32a1 4e3c
00000300: 6b74 743d 93c9 ccbd ad97 ef3d 97cd 4a3d
00000310: bb7f 5bbe c461 a7bc a0d8 58bc b45f cfbd
00000320: 9462 f13d 410d a53c 41c7 29be 5115 17be
00000330: a479 573d 8661 043d c075 b93d f32d b53c
00000340: 3af8 f2bd ef82 a1bd e927 eebd 6c11 3ebe
00000350: 5235 c33b f0de 25bd 3001 d43d 9e8a 57ba
00000360: 04fc 1fbe 9654 21bd 5612 d43d 130b 8b3d
00000370: 371e b5bd 6729 45bd fa9c a0bd d0e1 86bc
00000380: d874 3f3e 4769 16bd 7126 d5bc f500 123d
00000390: 285d 44be 78b1 9f3d 8cee 50bd 5ef6 f3bd
000003a0: 0f3d e0bd a332 4bbd 4366 b03d 1c02 44bd
000003b0: 53c1 9b3d b796 6cbd e292 df3d 1819 21bc
000003c0: 82f8 66bc a906 9cbd e54e 493c b306 a8bd
000003d0: a4f5 0dbe db59 923d 81b0 983d 1f5c 85bd
000003e0: 424d e7bd 1a8b ce3d dcbc febd be73 d2bc
000003f0: f965 a23d ce8b bc3d 5c24 afbd 9dac 9bbd

bias f4 [12]
-0.049938876 0.011913597 -0.04815599 -0.12770332 0.11298889 0.006028936 -0.12567985 0.09812729
0.12678769 -0.124379784 0.014275059 -0.14538765
00000000: b58c 4cbd 3f31 433c 373f 45bd a9c4 02be
00000010: b866 e73d 618e c53b 38b2 00be f6f6 c83d
00000020: a2d4 013e d4ba febd f0e1 693c 80e0 14be

weight f4 [12, 12]
-0.37376222 -0.14925386 0.18385327 -0.13375956 -0.1771893 -0.054888476 -0.26766607 -0.09073098
0.13396469 0.03217338 -0.07093524 0.10803887 -0.13216905 0.066111796 0.2720319 -0.087880984
-0.015085696 0.09621147 0.1707202 0.12654641 -0.23691872 0.25332913 0.08633418 -0.033078123
0.11601243 -0.10524243 -0.01803041 0.18115412 -0.13327777 -0.18952815 -0.03081862 -0.3004323
-0.25098327 -0.15466648 0.045372523 -0.17239091 -0.1630462 -0.19379164 0.21994199 0.2765161
-0.13072996 0.058531955 0.14473318 -0.002710686 -0.31715742 -0.20607719 -0.18401119 -0.3273682
-0.03680327 -0.07882923 0.24700548 0.089482956 -0.091818094 0.19252092 0.07490607 -0.17922099
0.059270743 -0.120522454 -0.0024440144 -0.23778944 -0.3857612 0.071881644 0.20495407 -0.13311411
-0.06899683 -0.2688181 -0.2546519 0.27228537 -0.026044607 -0.12724131 -0.1777489 0.02862497
-0.20714834 0.07206855 0.16565377 0.22237377 -0.32902232 -0.1306142 -0.2044128 0.15910797
-0.34731853 -0.18780796 0.23128785 0.22616501 0.18259652 0.029164536 0.07183832 0.21131015
0.23717761 -0.06883744 -0.0024182533 -0.094445065 -0.215158 -0.14821416 -0.31701943 0.1422507
0.35993975 0.2229922 0.1745711 -0.18428577 -0.10365379 0.24595365 0.0717996 -0.03816197
0.020960016 0.19305512 0.31057435 0.1480386 0.145611 0.2577325 -0.08863451 -0.0058286646
0.014808274 0.082061656 0.11175501 -0.47292206 0.09127904 0.21323156 -0.09692436 0.14191295
-0.05402874 0.22626258 -0.03145811 -0.16273732 0.007091557 0.12044991 0.001435184 -0.18421522
-0.2858359 0.16888545 -0.4223804 -0.0048886463 -0.23064883 -0.24030222 0.015863225 0.16917759
0.004910166 -0.04923047 -0.1977737 0.008983792 -0.08655101 -0.0089798365 0.025189586 0.2782196
00000000: c35d bfbe 01d6 18be 0844 3c3e 44f8 08be
00000010: 1d71 35be bdd2 60bd 870b 89be 2ad1 b9bd
00000020: 0a2e 093e 3cc8 033d 7f46 91bd 7c43 dd3d
00000030: 5357 07be 9f65 873d c447 8b3e f2fa b3bd
00000040: ff29 77bc 850a c53d 47d1 2e3e 6295 013e
00000050: d29a 72be 5bb4 813e f9cf b03d ed7c 07bd
00000060: ed97 ed3d 5889 d7bd 83b4 93bc 7780 393e
00000070: f879 08be ab13 42be 5577 fcbc 43d2 99be
00000080: e180 80be e460 1ebe 8ad8 393d 3e87 30be
00000090: 95f5 26be 5171 46be 7938 613e 8593 8d3e
000000a0: 13de 05be 34bf 6f3d ef34 143e c4a5 31bb
000000b0: 7562 a2be e605 53be 6e6d 3cbe ce9c a7be
000000c0: 07bf 16bd 3871 a1bd 01ef 7c3e d742 b73d
000000d0: 200b bcbd 3424 453e 5b68 993d b585 37be
000000e0: e1c5 723d 7ad4 f6bd c22b 20bb 137f 73be
000000f0: 7e82 c5be af36 933d 7bdf 513e 114f 08be
00000100: 364e 8dbd 87a2 89be bc61 82be fd68 8b3e
00000110: 805b d5bc 8c4b 02be cf03 36be ea7e ea3c
00000120: b21e 54be ad98 933d 24a1 293e f3b5 633e
00000130: 9d75 a8be bbbf 05be 9751 51be 33ed 223e
00000140: bcd3 b1be bb50 40be b9d6 6c3e cd97 673e
00000150: 95fa 3a3e 77ea ee3c f81f 933d b061 583e
00000160: b0de 723e a5fa 8cbd 8f7b 1ebb 6a6c c1bd
00000170: 6152 5cbe 74c5 17be 5f50 a2be 2baa 113e
00000180: 064a b83e 1158 643e c4c2 323e 69b5 3cbe
00000190: 7048 d4bd 46db 7b3e ab0b 933d ba4f 1cbd
000001a0: 57b4 ab3c 3eb0 453e 9a03 9f3e 6e97 173e
000001b0: 0d1b 153e 84f5 833e 0386 b5bd 62fe bebb
000001c0: 679e 723c f10f a83d d0df e43d d722 f2be
000001d0: 81f0 ba3d 6059 5a3e 4780 c6bd a151 113e
000001e0: 3d4d 5dbd 61b1 673e 38da 00bd 9da4 26be
000001f0: 4b60 e83b 71ae f63d c91c bc3a eaa2 3cbe
00000200: 1559 92be 4ff0 2c3e 3e42 d8be f030 a0bb
00000210: 352f 6cbe c911 76be 98f3 813c e43c 2d3e
00000220: 75e5 a03b e4a5 49bd 3085 4abe c130 133c
00000230: a841 b1bd 2a20 13bc 645a ce3c cd72 8e3e

bias f4 [12]
-0.15169932 -0.15058045 0.07737814 -0.18387973 -0.13112667 -0.3199263 -0.041426517 -0.2530648
0.040125195 -0.085899964 -0.13071904 0.028970039
00000000: 1157 1bbe c331 1abe 6e78 9e3d f84a 3cbe
00000010: 1246 06be 61cd a3be daae 29bd b691 81be
00000020: 515a 243d 52ec afbd 36db 05be 9352 ed3c
