MQCNN-QA-4qubits-5class-CIFAR-same-5filter/Models_V1/model_8.pt (torch, 148352 bytes, 47 tensors)

weights f4 [7]
000000 df 8d c9 40 cf b3 bb 40 ba fa b2 40 f1 60 59 40
       6.2985682 5.8656993 5.5931063 3.3965418
000010 5d ec a4 40 b1 07 09 3f e4 de 74 40
       5.153853 0.5352736 3.8261042

weights f4 [7]
000000 07 0e b1 40 c0 d4 15 3e ea 7d bf 40 7a fd 45 40
       5.5329623 0.14631939 5.9841204 3.093596
000010 25 76 7e 40 16 fd 9a 40 6f 2e d9 3f
       3.975961 4.8433943 1.6967295

weights f4 [7]
000000 ba be 51 40 c9 07 f1 3f 75 b8 6f 40 06 ba a6 3f
       3.277266 1.8830501 3.7456334 1.302552
000010 72 9c 62 3f 7f dc 18 40 53 36 08 40
       0.88519967 2.388458 2.1283157

weights f4 [7]
000000 8e 6c ae 40 19 96 3f 40 56 58 8d 40 cd 8a 3b 40
       5.4507513 2.9935362 4.417033 2.9303467
000010 1a 85 00 40 fa 6d 64 40 57 37 97 40
       2.0081239 3.5692124 4.7255054

weights f4 [7]
000000 1d eb da 3f 95 54 48 40 b6 35 4d 40 fc 93 37 3f
       1.7103001 3.1301625 3.2064033 0.7171018
000010 95 8a 32 40 11 e1 6a 3d f5 c9 cc 3f
       2.7897084 0.057343546 1.5999132

weights f4 [7]
000000 f9 4d 3e 40 23 e6 ae 40 4d ef ae 40 d3 03 a3 40
       2.973509 5.465593 5.4667115 5.094217
000010 b0 6d 71 40 54 f7 ad 40 b2 b3 5f 40
       3.7723198 5.4364414 3.4953427

weights f4 [8]
000000 a3 91 29 40 d4 26 07 40 85 e4 ef 3f b1 66 a7 40
       2.649514 2.1117449 1.8741614 5.2312856
000010 47 cd b2 40 a0 64 4d 40 41 b3 0f 3f 35 4e aa 40
       5.5875583 3.2092667 0.56132895 5.3220468

weights f4 [8]
000000 18 d2 f5 3f 75 50 c4 40 fa 87 95 3f 24 f7 a9 3e
       1.920474 6.1348214 1.1682122 0.33196366
000010 88 bf 99 40 4a 6d ad 40 1c 67 00 40 79 56 ed 3f
       4.8046303 5.419591 2.0062933 1.8542014

weights f4 [8]
000000 bc e8 56 40 ba 57 91 40 a1 be ef 3f 9f ee cf 3f
       3.357955 4.541959 1.873005 1.6244696
000010 de 56 78 40 10 6b ba 40 22 af 94 40 44 df 37 3e
       3.880302 5.825569 4.6463785 0.17956263

weights f4 [16]
000000 a4 8a 94 40 85 80 9b 40 f9 f9 70 40 16 55 94 40
       4.641924 4.8594384 3.7652571 4.6353865
000010 5f 6c 1d 40 a0 56 d5 3f 43 30 1a 40 14 76 a5 40
       2.4597394 1.6667061 2.4091957 5.170664
000020 23 3f 43 40 a9 8c 50 40 9a c2 70 40 b3 69 bb 3f
       3.0507286 3.2585852 3.7618775 1.4641632
000030 02 d4 57 40 bb 28 88 40 81 01 a1 40 56 c6 86 40
       3.372315 4.254972 5.0314336 4.211711

weights f4 [16]
000000 b7 22 0b 3f 77 ec 98 40 ab 7f 34 40 a4 d4 39 40
       0.54349846 4.7788653 2.8202922 2.9036036
000010 ac 4f 49 40 56 37 1e 40 75 b2 ae 3f 00 54 59 3f
       3.1454878 2.4721274 1.3648211 0.848938
000020 03 24 a3 40 51 3f 7d bc 8b 17 2c 40 72 d9 d8 3f
       5.098146 -0.01545699 2.688937 1.6941359
000030 d9 34 a7 40 30 c5 91 40 16 88 b0 40 14 41 98 3f
       5.225201 4.5553207 5.516612 1.189486

weights f4 [16]
000000 83 75 28 3f f4 b5 9d 3e 26 3e b6 3f d9 ff d1 3f
       0.6580431 0.30802882 1.4237716 1.6406204
000010 f3 95 5f 40 0d 3a f3 3f 5d b7 b8 40 68 ba 65 40
       3.4935272 1.9002091 5.772383 3.5895023
000020 bd b5 74 3f bb 03 53 40 3b b3 d3 3f 03 0d a8 40
       0.9558981 3.2971027 1.6539072 5.2515883
000030 56 5b 1c 40 f0 34 af 3f f6 fd 87 3d 56 41 83 40
       2.4430747 1.368803 0.06640236 4.1017256

weights f4 [12]
000000 c5 04 a6 3f 24 4d c0 3f c6 3e 4f 40 59 82 91 40
       1.2970206 1.5023541 3.2382064 4.5471616
000010 29 be 84 40 3a 11 50 40 c9 46 f6 3f 70 21 b9 40
       4.148213 3.2510514 1.9240352 5.7853317
000020 2f 8b 72 40 2f 6f b6 3f 52 08 97 40 46 1f 67 3f
       3.789745 1.425268 4.7197657 0.90282094

weights f4 [12]
000000 18 ca 62 40 3e b5 6e 40 12 ce 82 40 c1 c8 37 40
       3.5435848 3.7298121 4.087655 2.871628
000010 97 dc 87 40 96 53 c1 40 0c cd 76 40 7a fa a9 40
       4.2456775 6.0414534 3.856265 5.3118258
000020 42 15 6c 40 5c 27 8a 3f 0d 2d cb 40 2b 0b 79 40
       3.6887975 1.0793262 6.3492494 3.8913066

weights f4 [12]
000000 f4 39 84 3f 0c eb 8f 40 cd 10 18 40 c2 09 bd 40
       1.0330186 4.4974422 2.3760254 5.907441
000010 b5 1b e9 3f ee 3e 95 40 38 17 07 40 28 b4 8c 3f
       1.821158 4.663932 2.1107922 1.0992479
000020 b4 80 42 40 d3 2a 8c 40 12 99 a9 40 5e 64 89 40
       3.0391054 4.3802276 5.2999353 4.293502

weight f4 [12, 48]
000000 71 44 02 be bc fb d7 bd bd c4 ed 3b 3f 1b 03 3c
       -0.12721421 -0.105460614 0.007256119 0.008002101
000010 33 6c 05 3e ad 15 e2 bd 87 90 57 bd 72 88 56 3c
       0.13029556 -0.110392906 -0.052628066 0.013094055
000020 0b 51 0c be a1 e6 9e bd 50 74 c3 bd f6 7d f2 bc
       -0.1370279 -0.07758833 -0.09543669 -0.029601078
000030 a7 cd 6f ba ec d9 a4 3c 19 5a ce bd 79 76 d5 bd
       -0.0009147771 0.020123444 -0.100757785 -0.104229875
000040 1f d7 08 be 4e 63 11 be d8 93 ed 3c fb 46 a7 3d
       -0.13363312 -0.14198038 0.029001161 0.08167835
000050 84 e4 e6 bd e5 b0 f1 bb 64 2f 91 3c cb 88 fa bc
       -0.11274055 -0.007375824 0.017722793 -0.030582806
000060 85 a9 eb 3d e2 44 c6 3c 30 8c 62 bd b7 55 d2 3d
       0.11506943 0.024202768 -0.055309474 0.10270255
000070 78 0f 55 3d a7 41 5d 3d b3 7e 39 bc 7f 0d 19 3d
       0.052016705 0.05401769 -0.011321711 0.037366387
000080 e7 b9 0f 3d e6 6d 9b 3c fc 61 92 bd 57 21 fa bb
       0.0350894 0.018973302 -0.07147595 -0.007633369
000090 bb 20 b4 bd d7 8d 8c 3d 56 e2 f7 bc 1f c0 6f 3d
       -0.08795305 0.06862991 -0.030259293 0.05853283
0000a0 d4 ce 0e 3e bf 3b 72 3b 73 2d 12 be 04 79 93 3d
       0.13946086 0.003696188 -0.1427515 0.07200816
0000b0 5d 62 e1 3c 29 a7 ca 3d a1 27 d5 3d 90 89 f1 3c
       0.027512724 0.098951645 0.10407949 0.02948454
0000c0 ac bd 98 39 9e 8f 4a bd ec f1 a6 3d 99 86 21 3d
       0.00029133016 -0.04945337 0.08151612 0.039435003
0000d0 bb be a7 bd 54 07 da bc 04 b3 a2 bd 7e 8d 70 3c
       -0.08190676 -0.026614822 -0.07944301 0.014682172
0000e0 5d 41 8a 3d 2a 11 d3 3d 20 08 b8 bd 1e 30 fa bd
       0.06750748 0.10306008 -0.08985925 -0.12216209
0000f0 fd ab 2a bd 2e f9 53 bd 80 f0 45 3e 39 4e 29 3e
       -0.041667927 -0.05175131 0.19330025 0.16533746
000100 1a 10 2d be 8b 63 c9 3d 20 2c ba bd 52 65 46 3d
       -0.16900674 0.098334394 -0.090904474 0.04843647
000110 dc 52 21 3d 9a 20 ad bc 13 d5 b4 3d 9d e4 9b bc
       0.03938566 -0.02113371 0.08829703 -0.01902991
000120 d9 9a 01 3e 81 e7 11 bd a7 71 dd 3d 86 f7 ab bd
       0.12656726 -0.03562117 0.10812693 -0.08396821
000130 f2 03 d3 3d 2d c9 01 bc 3d f1 db bd 13 4b d4 3d
       0.10303487 -0.007921499 -0.10739372 0.10365882
000140 db 32 0e be 3d 76 d1 3c 38 31 a1 bd 9a 96 c4 3d
       -0.13886587 0.025569076 -0.07870716 0.095990375
000150 ef bb 1c be 35 15 08 bd ca 27 20 3d 7b 04 f4 bc
       -0.15306066 -0.03322335 0.039100446 -0.029787293
000160 47 55 14 be 0d ad 8d bd 3c 57 f4 3d 27 21 d7 3c
       -0.14485656 -0.069177724 0.11930701 0.026260925
000170 3f b0 67 3c f5 be 15 bd 8f 15 4a 3d 44 a5 9e 3d
       0.014141141 -0.036559064 0.049336966 0.07746366
000180 02 b0 2b bd e9 ad f8 3c ab 06 d0 3d 73 fb ae bd
       -0.0419159 0.030356364 0.10157522 -0.08544054
000190 05 08 8f bd 62 fa c7 3c e4 7d f2 3d fb 2b 2b be
       -0.069839515 0.024411384 0.11840418 -0.16715996
0001a0 05 c0 d3 3d bc b2 af 3d 91 de 43 3d 1f cc 10 3e
       0.10339359 0.08579013 0.047819678 0.14140366
0001b0 ee 0e e0 bd 13 ea a9 3d 07 db 9b bd fb 48 94 bd
       -0.109403476 0.08296599 -0.076101355 -0.072404824
0001c0 0b 6c 01 3e ab 45 f5 3c 04 90 c8 3d 4e 4e 52 3d
       0.12638871 0.029940447 0.09793094 0.05134421
0001d0 63 68 87 3d b9 08 42 3d f9 e5 4e 3d 85 97 92 bc
       0.06611707 0.0473716 0.050512288 -0.017894516
0001e0 d6 d2 0d 3e e7 ad 10 3d 94 a9 14 3e 5c eb 5c bd
       0.13849959 0.035322096 0.14517814 -0.053935394
0001f0 2e 64 21 3e da 4e dc 3b 1c 9e 4f 3e bc 30 43 3e
       0.15760872 0.006723267 0.20275158 0.1906156
000200 0d 2d b1 bc 49 54 fa bd 46 28 d5 bd 2e b2 de bc
       -0.021627927 -0.12223107 -0.10408072 -0.027184572
000210 a9 fd d7 bd e1 63 a5 3d 2c ff 05 3d a0 a1 23 bd
       -0.10546429 0.08075691 0.032714054 -0.03994906
000220 a5 87 b5 bc f3 51 54 bd 7e ba 30 3d dc e2 db bd
       -0.022159407 -0.051835965 0.043146603 -0.10736629
000230 01 4b 8f 3d ca 34 af bd c7 e0 b6 bc ae 32 7f bd
       0.06996728 -0.085549906 -0.022323979 -0.06230419
000240 a0 72 18 3d 3d 13 4a bd 4f 47 26 3d 61 5d 09 3e
       0.03721869 -0.049334753 0.04059535 0.13414527
000250 d1 a4 e1 3d 6b 5a f6 3d 93 7c c1 3d 4a 9d 8b 3d
       0.11017764 0.120289646 0.09447589 0.0681711
000260 3d 1e 35 bb eb 83 99 3c b1 9f 16 be 98 e1 3b 3d
       -0.0027636432 0.018739661 -0.14709355 0.04586944
000270 2f bc bf bd 73 71 2d 3d d5 54 80 3c 27 cc 48 3d
       -0.09362065 0.04234452 0.015665451 0.04902282
000280 a4 dc ad 3d 14 ed 80 3d 3c 6b 1b 3d 3d fb 03 bd
       0.084893495 0.06295219 0.037944064 -0.03222202
000290 4e f4 05 bc c1 b2 86 bd 63 dc 28 3d 44 d9 38 3d
       -0.008175923 -0.06577063 0.041225802 0.045129076
0002a0 33 4f ce bd 5d bb f5 bd 27 af a0 bd d6 f1 68 3d
       -0.100737 -0.11998627 -0.07845908 0.056871258
0002b0 0e c3 0c bd a2 be 38 3d 99 79 94 3d 74 72 57 3d
       -0.034365706 0.045103677 0.072497554 0.052599385
0002c0 bf c9 92 bd 58 27 0b be 5f c0 ff 3c 4c 0f e4 3d
       -0.07167386 -0.13589227 0.03121966 0.1113573
0002d0 5f 50 20 3d 2e 84 69 bd 16 21 04 bd c9 42 8d 3b
       0.039139148 -0.057010822 -0.032258116 0.00431094
0002e0 65 2b 74 bd b8 72 09 be f6 f9 1e be 4c ad 8a 3d
       -0.059611697 -0.13422668 -0.1552504 0.06771335
0002f0 2f 48 0e 3e c7 75 49 bd cc 8a 9f bd 8f 99 d2 3d
       0.13894723 -0.049184587 -0.07790145 0.10283195
000300 5d 46 de 3d e3 b3 d5 3c 27 98 1f 3e af f1 30 3e
       0.108532645 0.026086753 0.15585385 0.17279695
000310 86 e4 0c 3d f4 77 44 3c 84 1d d8 3b 07 7f 0f 3e
       0.034397624 0.01199149 0.0065953154 0.14013301
000320 13 b4 e1 3b f5 7e 33 3e 3b 28 d5 bd 9f f5 53 bd
       0.0068879216 0.17528899 -0.10408064 -0.051747914
000330 b1 df 72 bd a6 aa 97 3d de 20 a4 3d 7a 70 b3 3d
       -0.05929536 0.074055955 0.080140814 0.087616876
000340 a6 27 ee bd fa ef af 3d 46 21 66 bd 2f cb dc bd
       -0.11628656 0.08590694 -0.056184076 -0.10780942
000350 b5 3f bd 3d 57 a8 e3 3d 08 85 31 3d c6 3f ed bd
       0.09240667 0.11116093 0.04333976 -0.115844294
000360 6e 36 18 bd 1e 20 17 3e 33 e1 43 be 2c 40 42 bd
       -0.037161283 0.14758345 -0.19128875 -0.04742448
000370 0d 89 2a 3c 52 bd c0 bd 99 0c 27 be 11 a6 58 3d
       0.010408652 -0.0941111 -0.163134 0.05289275
000380 1d 6a 29 3c fd 20 c3 bd d4 94 ea 3d 1a ee 23 3e
       0.010340241 -0.095277764 0.11454168 0.16008797
000390 22 19 98 3d 70 da c9 bd 3a 5d d1 3c e5 9a 73 bd
       0.07426669 -0.09856117 0.02555715 -0.05947389
0003a0 f6 2e 73 bd 7b 26 9e 3d db 15 d6 3c 97 31 84 3c
       -0.059370957 0.07722183 0.026133468 0.016136928
0003b0 99 43 21 3e 71 d5 fd 3d 98 ae 4f 3e 44 b9 7a 3d
       0.15748443 0.12394226 0.20281446 0.06121184
0003c0 b4 d5 c6 3d b7 aa e9 3c b9 40 70 3d b1 12 2d bd
       0.097087294 0.028523786 0.058655474 -0.042254154
0003d0 01 5b 4f 3e ad fd 41 bd 15 6d 12 3e 61 9c e8 3d
       0.20249559 -0.047361065 0.14299424 0.11357952
0003e0 17 eb ac bd 13 c1 e2 3c 33 2a 07 3e 53 5f 48 3c
       -0.08443277 0.027679956 0.13199691 0.012229758
0003f0 67 53 14 be ac a2 1a 3d 9c 6b c5 bc 8a a9 80 bd
       -0.1448494 0.037752792 -0.024099164 -0.06282337

bias f4 [12]
000000 89 7c 05 be 26 ab d8 3d 44 9e 48 be ce 74 84 bc
       -0.13035788 0.10579519 -0.19591624 -0.016168978
000010 69 3d 09 3e b2 d4 b2 3d cb 60 cf 3d c0 39 1b 3e
       0.13402332 0.08731975 0.10125884 0.15158749
000020 f1 c1 c5 bd d5 28 6f 3c 89 6f 06 3c 56 4a df 3d
       -0.09656132 0.014597137 0.008205303 0.1090285

weight f4 [12, 12]
000000 c3 b4 ac 3d 72 7b 3b 3e 97 70 8d be a6 46 bf 3d
       0.08432915 0.1830881 -0.27624962 0.09339647
000010 88 3a 4c be ed e0 82 be a4 51 b3 bb 4e 7b a5 be
       -0.19944203 -0.2556223 -0.005472379 -0.32320637
000020 c1 8f a2 bd 48 e0 e0 3c 1a a0 e3 bc 7b 19 35 bd
       -0.07937575 0.027450696 -0.027786303 -0.044213753
000030 5d 02 55 3e 0a 49 4a bd 05 18 74 be 9e 54 6d 3e
       0.20801683 -0.04938606 -0.23837288 0.2317681
000040 56 0f a5 bd 2e 8e aa bb 5d b0 ad bd b0 39 94 bd
       -0.08059566 -0.0052049374 -0.08480904 -0.072375655
000050 66 fb af 3e 5e 18 5c 3e 9f ac 49 3d fb 30 85 bd
       0.3437149 0.2149367 0.04923689 -0.06503483
000060 c9 b5 19 be 8e 39 8e be 3b ff e7 3d 66 c4 6a 3e
       -0.15010752 -0.27778286 0.11327978 0.22926483
000070 84 b6 7b 3d f8 c2 15 be 9c 9b 90 3e 64 1f bc bd
       0.061453357 -0.14625156 0.2824372 -0.09185675
000080 52 c0 5a be 05 04 80 be a6 56 05 bd e2 65 b1 3c
       -0.21362427 -0.25003067 -0.032553338 0.021655027
000090 26 54 3d be c5 12 e5 3d 2d c6 e0 3c c3 b8 8c 3e
       -0.18489131 0.11185221 0.027438248 0.27484712
0000a0 a4 c0 80 be c5 73 97 3e 26 e3 fa 3c 01 27 54 bd
       -0.25146973 0.29580513 0.030625891 -0.05179501
0000b0 e2 76 45 3e 92 9e 1c ba 8e 74 39 3e 98 e5 13 be
       0.19283631 -0.00059745566 0.18110868 -0.14443052
0000c0 87 da e2 bd e7 7b 5d bd 23 0f 72 be dc 51 88 3e
       -0.11076837 -0.05407324 -0.23638587 0.26624954
0000d0 5c 85 5f 3e fa 8b 90 bd 3a 08 3d be cb ba d9 3c
       0.21828216 -0.070579484 -0.1846017 0.026578328
0000e0 50 0a 75 3d 54 66 a6 bd 9e 8a c9 be 99 88 41 3e
       0.059824288 -0.08124986 -0.3936357 0.18899764
0000f0 bd 82 a0 3d 83 71 1b 3e 21 7e 09 be 11 e3 1c 3e
       0.07837436 0.1518002 -0.1342702 0.15320994
000100 da 54 91 3e a3 29 a4 be 59 20 60 be 8d 1e 3b be
       0.2838505 -0.32063016 -0.2188734 -0.18273373
000110 fc 06 90 3e c5 79 61 3c 22 b6 8d be 64 7b 61 be
       0.2813033 0.013761942 -0.2767802 -0.22019726
000120 61 9f a9 3b 04 75 e5 3d 0f 2d 61 3e 97 8a 13 3e
       0.00517647 0.112039596 0.21989845 0.14408337
000130 89 73 7d 3c ff b4 b1 be 53 20 83 be 0b 28 85 be
       0.01546944 -0.34708402 -0.256106 -0.26007113
000140 16 44 8d 3d 31 89 a7 3e 8a b5 43 3d ee 0e dc 3b
       0.06897752 0.32721856 0.04778055 0.006715647
000150 e0 ec 89 be e7 3c 0d be 2e 0f 48 3e 2b f2 1d be
       -0.26938534 -0.13792764 0.1953704 -0.15424411
000160 7c f0 b9 be ff 11 b3 3e 68 7f 51 3e a1 6e fc 3d
       -0.36316288 0.34974667 0.20458758 0.12325788
000170 0b 48 1b 3d 1a 01 e2 bd 15 94 88 bd 9e 3d b8 bd
       0.037910502 -0.11035366 -0.066688694 -0.089961275
000180 71 f8 9b bd 1f 87 6f be c5 5f 8c 3e f4 bc 14 3e
       -0.07615746 -0.23391388 0.27416816 0.14525205
000190 4f e1 29 3d 31 ed 0d 3e 90 90 1b 3e eb 66 9c 3e
       0.041474637 0.13860013 0.15191865 0.3054727
0001a0 d0 df 4c 3e 2e 83 08 3e 75 80 15 3e 08 d7 f1 3c
       0.20007253 0.13331291 0.14599784 0.02952148
0001b0 4b 6e 66 be 9b ab 9c be c2 63 31 be 82 2a 13 3e
       -0.22503011 -0.30599675 -0.17323211 0.14371684
0001c0 1c f9 e2 bd a6 67 e2 3b c7 11 32 3e 0c 25 9f 3e
       -0.1108267 0.0069093285 0.17389594 0.31082952
0001d0 6b ab 72 be 81 17 18 be 7f cc b9 bd 1d 01 7c bd
       -0.23698203 -0.14852716 -0.09072208 -0.0615245
0001e0 83 fb 1e 3e 55 e4 37 be 67 51 f9 3d 22 87 5e 3e
       0.15525632 -0.17958196 0.121737294 0.21731237
0001f0 31 83 16 be bf d5 19 be e1 5c 40 be 86 f3 6e 3e
       -0.14698483 -0.15022944 -0.1878543 0.23335084
000200 b2 48 14 3e 34 53 5a be ff 96 2a 3e 66 74 3c 3e
       0.14480856 -0.21320802 0.16659163 0.18403777
000210 f0 39 80 3e 50 d5 ca 3d 7f 17 c1 3d a3 09 74 3e
       0.25044203 0.099039674 0.0942831 0.23831801
000220 1c 45 25 3c 9d 24 98 3e 4a e9 9d be 49 ea 48 3e
       0.010087278 0.29715434 -0.30842048 0.19620623
000230 be 0f ae bb c4 41 85 be 96 83 ba 3e 44 d3 ed ba
       -0.005311935 -0.26026738 0.36428517 -0.0018144627

bias f4 [12]
000000 a2 c4 51 3e 47 29 1f 3e 5c 6d 0a be 07 b6 77 be
       0.20485166 0.1554309 -0.1351828 -0.24190532
000010 59 e6 7d bd b2 04 9b be 49 7a 02 3e 6e 43 37 be
       -0.061987255 -0.3027702 0.1274196 -0.17896816
000020 cc e8 25 bc b0 76 d1 bd a5 08 85 be 4d 04 32 3d
       -0.010126304 -0.10227716 -0.25983158 0.043461133

weight f4 [12, 48]
000000 21 e1 b6 bd 49 0f e1 bb c2 26 e8 3c 54 e3 3c bd
       -0.08929659 -0.006868277 0.028338794 -0.046115234
000010 37 88 9f 3d 8e 1b 76 3d 1f 8f ae 3d b5 7d 92 3c
       0.07789653 0.060084872 0.08523392 0.017882207
000020 8e b1 13 3e aa 4d d9 bc b7 3d 82 bc fd 35 0c 3e
       0.144232 -0.02652629 -0.015898569 0.1369247
000030 74 22 cd 3d 98 cc d6 3d c3 ad 9e 3d 28 9e 0d 3e
       0.10016337 0.10488242 0.07747986 0.13829863
000040 fc 48 b6 bd 5f 82 05 be ce 18 3c be 28 73 3e 3c
       -0.089006394 -0.13038014 -0.18368837 0.011624135
000050 61 97 24 be 98 03 f7 3d da 51 1b bd a1 c2 1e be
       -0.16073371 0.12061232 -0.037919857 -0.15503933
000060 cf 96 39 be b9 2b dd bd a0 cc 60 bd fd 84 57 3c
       -0.18123935 -0.10799355 -0.054882646 0.0131542655
000070 15 71 0e be 3b c3 6d 3d 9e f9 b5 3c 79 65 e4 3b
       -0.13910325 0.058047514 0.022213753 0.0069701043
000080 fd a4 01 be 99 c4 8d bd 58 e8 aa 3d 93 52 c7 bd
       -0.12660594 -0.06922264 0.08345097 -0.09732547
000090 b2 ed c0 bd 84 99 d3 3c b4 ee 4b bc 90 d9 10 3e
       -0.09420337 0.025830038 -0.012447048 0.14145494
0000a0 8e 7e cd 3d 3c ba 02 3d 92 e9 4c bd f2 c3 29 be
       0.10033904 0.03191589 -0.050027438 -0.16578653
0000b0 29 67 ad 3d 02 73 69 bd c8 c9 4b bd 47 53 f9 3d
       0.08466942 -0.056994446 -0.04975298 0.12174087
0000c0 f1 a3 1c be b4 68 33 3d de c0 c3 bd 07 33 c2 bd
       -0.15296914 0.043801025 -0.09558271 -0.09482389
0000d0 a0 80 cc 3d 06 4a f7 bd 01 13 d9 bc 13 ea d4 3b
       0.09985471 -0.12074666 -0.02649832 0.0064976304
0000e0 db 38 18 be d5 33 de 3d 25 f0 08 bd 1f 91 09 3e
       -0.14865439 0.1084973 -0.033432145 0.13434266
0000f0 cb 11 ab bd 4c ef fc 3b 0e 06 a2 3d 24 23 87 bc
       -0.08353003 0.007718956 0.07911311 -0.016496249
000100 21 78 cd bd fe 10 26 bd 70 ec c0 3c 27 a6 8b 3c
       -0.100326784 -0.04054355 0.023550242 0.017047001
000110 ae d5 12 be 9a 90 c6 bd 71 0e c7 3d c5 dc 89 bd
       -0.14339325 -0.09695549 0.09719551 -0.067315616
000120 9a f3 d3 bb a7 ff 59 bd 5e 02 94 bc 50 a9 f1 3d
       -0.0064682486 -0.053222325 -0.018067535 0.11799872
000130 8b 1b 9b bd 4e f4 1a 3d cb 50 ad bd 4b 34 02 bd
       -0.07573613 0.037830643 -0.08462676 -0.03178815
000140 22 1b ca bd 92 c5 2b 3e c6 f0 c8 3d ac 33 fc bc
       -0.098684564 0.16774586 0.09811549 -0.030786358
000150 bf 9a 7c bd af 37 1c 3d ac cf e7 bc 38 ef e2 bd
       -0.061671015 0.03813904 -0.028297268 -0.110807836
000160 88 52 94 3d 30 9a 0c be 1c 2a e8 3d ee ed ba 3d
       0.07242304 -0.13730693 0.11336157 0.09127413
000170 25 8a e1 bd c7 a0 10 bb 60 85 0c bd 3c dd eb 3d
       -0.11012677 -0.0022068487 -0.034306884 0.115168065
000180 4d 9b 17 3e 4d 7c 54 3d f7 4e 45 3d cc 1b 39 3e
       0.14805336 0.051876355 0.04817101 0.1807701
000190 5b 3a fd bd 78 02 93 3d 01 97 bd bc 4d d7 04 be
       -0.12364646 0.07178205 -0.023143293 -0.12972756
0001a0 2f 92 42 3d 5c 22 16 3e 55 5f 0b 3d 31 b2 44 3e
       0.047502693 0.14661545 0.034026463 0.192086
0001b0 86 d0 43 3e 17 e5 20 3e d2 50 be bd c3 ff 8a bd
       0.19122514 0.15712391 -0.09292759 -0.06787064
0001c0 0c a9 62 bd 91 00 c3 bd da 2c 8c bd 50 74 bd 3d
       -0.055336997 -0.095215924 -0.06844492 0.092507005
0001d0 23 e4 10 bc 01 c3 e1 3c 4a 1d 52 3d 7b 26 3e be
       -0.0088434545 0.027558805 0.051297463 -0.18569367
0001e0 72 b0 cc bc cd c4 d5 bc ff 90 1a 3d 50 29 93 3d
       -0.02498648 -0.026094818 0.037735935 0.07185614
0001f0 e8 82 d8 3d 61 62 4b 3e d5 50 a0 bd fc 20 a7 bd
       0.105718434 0.19861747 -0.078279175 -0.08160588
000200 cc b6 1f 3e d3 50 80 3e d0 40 89 3e 09 9a 85 3d
       0.15597075 0.25061664 0.2680726 0.065235205
000210 7c 6a 01 be ae 7d 5e bc 43 ab 90 3d cb 22 08 be
       -0.12638277 -0.013579769 0.070639156 -0.13294522
000220 96 94 f0 bd 2e a6 0c 3e a9 ae f0 3d 5c 20 09 3e
       -0.117470905 0.13735268 0.11752064 0.1339125
000230 43 83 9e bd af a8 50 3d 6f 92 31 be af 31 2b be
       -0.0773988 0.05094212 -0.17341016 -0.16718172
000240 88 a7 77 bd e5 b5 00 3e 29 ad 4e bd 51 ec bb bb
       -0.060462505 0.12569387 -0.050458107 -0.005734958
000250 ce 7a f5 bc f6 f0 6a bd b0 15 df 3c 7e 66 6c 3d
       -0.029965784 -0.057358705 0.027232021 0.05771493
000260 ac 75 f3 3d 4c 67 a8 3c d2 30 26 3e a4 de a1 3d
       0.118876785 0.020557068 0.16229561 0.079037935
000270 03 7a 39 3e 4d e0 a1 3b 68 6f 11 bd 87 93 23 3e
       0.1811295 0.004940069 -0.035506636 0.15974246
000280 a3 50 22 bd 18 26 c5 3b 24 2e d3 bd 5a f4 e4 bc
       -0.039627682 0.006016504 -0.10311535 -0.027948547
000290 01 85 31 bd 70 41 51 bd 09 90 fc bd af dc ec bd
       -0.043339733 -0.051087797 -0.1233216 -0.115655296
0002a0 35 a9 3f bc 0b 3f 24 3c 5b 2c d1 bd 2c 55 cf 3d
       -0.011698057 0.010024796 -0.10213538 0.10123667
0002b0 a6 82 8f 3d e5 36 0d bd 4f 86 b0 bd 3e ed ae 3d
       0.07007341 -0.03447618 -0.08619367 0.08541344
0002c0 67 90 af 3d 00 4c bd 3c 49 53 11 3d dc 72 2f bd
       0.085724644 0.023107529 0.035479818 -0.042834148
0002d0 53 be 29 3e ee 20 9d 3d 91 ce e6 3d 05 25 13 3d
       0.16576509 0.076722965 0.11269868 0.035923976
0002e0 db a0 0a bd 18 15 a7 ba 01 e3 17 3d 5a 64 75 3d
       -0.03384481 -0.0012747375 0.037081722 0.059910156
0002f0 63 36 d7 3d 77 cb bd 3c 14 64 ba 3d 15 30 b9 3d
       0.1050842 0.023168309 0.0910112 0.09042374
000300 a3 45 8e bd b0 b8 57 bd e1 11 95 3d 53 00 ff 3c
       -0.06946876 -0.052666366 0.07278801 0.031128084
000310 a9 91 4a bd 60 48 4e bb ad e0 74 3c f1 8c f3 3b
       -0.04945532 -0.0031476244 0.014946145 0.007432573
000320 a5 be 06 bc 08 25 e9 3d 57 bb 0e 3d 37 44 43 bd
       -0.008224164 0.11384016 0.03484663 -0.047672477
000330 4d 7e ca bd fa 95 8b bc 67 b5 0b 3e f6 66 b3 3d
       -0.09887371 -0.017039288 0.13643418 0.087598726
000340 05 2f 28 be 3b 94 66 3c 41 26 a4 bc da 33 cb 3b
       -0.16424187 0.014073427 -0.020037772 0.0062012495
000350 b7 f5 c3 bd 15 4f 23 bd 68 37 d5 bc 5e bf 85 be
       -0.09568351 -0.03987034 -0.026027396 -0.26122564
000360 5c f3 68 3d 8d 64 26 be 7c da a1 3d 34 f0 a5 bd
       0.05687271 -0.16249295 0.07903001 -0.08102456
000370 a9 15 09 3e c0 2c 31 3e db da ed 3d 5f 38 75 bd
       0.13387169 0.17302227 0.11614009 -0.059868213
000380 f6 eb b1 bd c0 c2 fa bd 69 74 71 bd ed d5 93 bd
       -0.08687584 -0.12244177 -0.058948908 -0.072185375
000390 57 10 d1 3c d6 00 3b 3e 0c db dd bc c5 15 e8 bd
       0.025520487 0.18262038 -0.027081989 -0.11332277
0003a0 95 e6 b1 3d 35 e0 b4 3d ca e0 08 be 3c 57 c1 bc
       0.08686558 0.088318266 -0.13367 -0.023601167
0003b0 a6 aa c1 3d 33 37 af 3c 65 77 1b bd ec 76 c5 3d
       0.09456377 0.021388626 -0.03795566 0.09641823
0003c0 6d 52 06 3d 04 3c 3b bd 4e db 2b 3d 47 03 71 bd
       0.03279345 -0.045711532 0.041957192 -0.058841016
0003d0 1d bd d8 3d ae ce f8 3c 32 f1 6b bb ac 24 8e bd
       0.105829455 0.03037199 -0.0036001918 -0.06940588
0003e0 db a0 7a bd 04 d6 5b bd 44 c9 e9 3d 34 dd 75 3d
       -0.06118856 -0.053670898 0.114153415 0.06002541
0003f0 77 92 0a bd 30 df 01 be 4c 14 1d bd 32 c9 36 3c
       -0.033831086 -0.12682796 -0.038349435 0.011156367

bias f4 [12]
000000 91 a0 e3 bd b1 8f c6 3d 5e 26 3a bd b6 f9 9f bd
       -0.1111461 0.09695376 -0.045446746 -0.078113005
000010 57 50 0b bd 2a a0 d0 3c 07 ec 8c bc 2d 9f af bd
       -0.034012165 0.025466997 -0.01720239 -0.08575282
000020 fe bc 8e 3c 76 be bb 3c 13 ae de 3b 5c 25 a0 3d
       0.017424103 0.022917967 0.0067956536 0.07819626

weight f4 [12, 12]
000000 2b ed 53 bd 0d a8 50 3e d8 31 81 be 5b 4e 33 3e
       -0.051739853 0.20376606 -0.2523334 0.17510359
000010 a6 97 5d 3d d0 0f 16 3e 4c 3b 12 be 65 5b 73 be
       0.0540997 0.1465447 -0.14280432 -0.23765333
000020 f9 81 51 3e bc cf ad bd d1 63 80 be 87 30 72 be
       0.20459737 -0.08486888 -0.25076154 -0.23651324
000030 f9 eb fe 3d 80 ac 88 3d 41 ed d5 be 65 f2 1b 3e
       0.12447352 0.06673527 -0.41782573 0.15229185
000040 37 ef cb bd f7 d9 b4 3e df 2e 4e be d6 ff a2 3e
       -0.09957736 0.35322544 -0.20135067 0.31835812
000050 2c fb 76 bd 52 80 67 3d fd 28 45 be 97 95 27 3e
       -0.06029813 0.05651886 -0.19253917 0.16365658
000060 a7 7c 22 bd 80 1f 7e be 98 1d 5c be 06 34 d1 bd
       -0.03966966 -0.24816704 -0.21495664 -0.10215001
000070 db 90 52 be e7 4c 4f 3c 80 da 2a be ab 2f 26 be
       -0.2056307 0.012652612 -0.16684914 -0.16229121
000080 71 e2 03 be 91 87 48 be 74 cc 3c 3e b1 2d 76 3e
       -0.1287935 -0.19582964 0.18437368 0.24040867
000090 a3 19 6b 3d b0 df 88 3e 3b 67 96 be 2f dd aa 3e
       0.057397496 0.2673316 -0.29375634 0.33371875
0000a0 6c 4c 54 be 25 d7 bd 3e 27 d8 49 3e ba 87 f8 bd
       -0.20732278 0.37078205 0.19711362 -0.12135263
0000b0 2f 15 c3 bd 98 5b 76 3e fb fe 8f 3b dd b8 ea 3c
       -0.09525525 0.24058378 0.0043944097 0.028652603
0000c0 75 32 80 be fd 4c 5d 3c d3 ca d0 bd 29 4f 1b be
       -0.25038496 0.013507125 -0.10194936 -0.15166916
0000d0 cf 0c 18 3e be e5 2e 3e 59 eb 6f 3e dd 7f 88 3e
       0.14848636 0.17079827 0.23429622 0.26660052
0000e0 ff 29 4b 3e 04 fb a9 bd 21 e1 69 3d c3 93 11 3e
       0.19840239 -0.082998306 0.057099465 0.14216523
0000f0 26 f0 91 be 63 c2 8b 3e 8a 0d 68 be a0 92 62 3e
       -0.2850353 0.27296743 -0.22661415 0.22126245
000100 e4 b0 4a 3d 15 14 21 be e9 d8 2b be 82 b6 14 be
       0.049485102 -0.15730317 -0.16781963 -0.14522746
000110 79 c3 33 3e 3e 63 70 3e 4e 1d 93 bd 5e 08 a7 be
       0.17555036 0.23475358 -0.07183324 -0.3262357
000120 b7 69 b8 bd d9 b7 dc 3d 59 f4 91 be 9c 2f 7d be
       -0.090045385 0.10777254 -0.28506735 -0.24725193
000130 96 4f 0c be fc 99 8d 3e 62 d5 21 3e e0 95 1a bd
       -0.13702235 0.27656543 0.15804055 -0.03774059
000140 63 49 93 3e c1 5a 81 3d 18 f4 88 be 31 00 ef bd
       0.28766927 0.06316138 -0.2674873 -0.116699584
000150 e7 5e eb 3d 28 cb 72 be d6 18 3a bd 66 d2 6e be
       0.114927106 -0.2371031 -0.04543384 -0.23322448
000160 07 00 6b bd 5d 69 63 3b de 3b 6d be b8 e0 05 be
       -0.057373073 0.0034700253 -0.23167369 -0.13074005
000170 53 c4 a8 be b6 7d 80 be 5d a2 11 be f3 4a 8a be
       -0.32962283 -0.2509591 -0.14222093 -0.27010307
000180 79 04 af be 1b 2a 5a 3e 6d 4e f9 3d fd 75 90 be
       -0.341831 0.21305124 0.12173162 -0.28215018
000190 e6 36 bd bd e3 fd 9f 3e 4a 10 54 3e 54 fd b9 bd
       -0.09238987 0.31248388 0.20709339 -0.09081522
0001a0 76 3b 4e be d5 13 38 3e f0 a1 54 be 66 ce 15 3d
       -0.2013987 0.17976315 -0.20764899 0.03657379
0001b0 98 d4 8f 3e 60 2a 89 be cd f9 da bd 0c c6 0d bd
       0.28091884 -0.26790142 -0.10692177 -0.0346127
0001c0 2d c5 09 bd 25 02 a2 be 52 b5 c7 3d 77 3b 9c be
       -0.033635307 -0.3164226 0.09751381 -0.30514118
0001d0 31 9b 5c be 8c 62 0d 3e 01 82 94 bd 01 26 2e be
       -0.21543576 0.13807124 -0.07251359 -0.17006685
0001e0 68 91 a2 3d 21 3a 81 3d 53 8e 91 bd 00 c9 fa 3d
       0.0793789 0.06309915 -0.07107224 0.12245369
0001f0 32 a7 59 3e 45 5c 7e be 7f 83 54 3d 0f 96 ad 3d
       0.21255186 -0.24839886 0.051883217 0.08475887
000200 dc 20 4a 3c 6d 04 6d 3e 61 05 7a 3e 42 d6 73 bd
       0.012336936 0.2314622 0.24416114 -0.059530504
000210 d0 62 1d be d2 ce a5 3d 8b a1 00 3e 92 0d d9 bd
       -0.15369725 0.080960885 0.12561624 -0.105982915
000220 49 92 4f be c0 6c 17 3e d3 69 95 be 78 a7 41 3e
       -0.20270647 0.14787579 -0.291823 0.1891154
000230 6c 47 82 3e c6 04 26 be e8 41 4e 3e d6 b0 19 3d
       0.25445116 -0.16212758 0.20142329 0.03752216

bias f4 [12]
000000 79 42 01 3d 2c 15 af be 45 68 12 3c e5 a1 d5 bd
       0.031557534 -0.3419584 0.008935993 -0.104312696
000010 80 f7 8f 3a 6e 1b fc 3d 40 c1 2c 3e 13 a6 99 be
       0.0010983795 0.12309919 0.16870594 -0.30009517
000020 ed ce 3f be b4 e6 93 bc c6 29 1f 3c e0 f8 e7 bd
       -0.1873128 -0.018054344 0.009714549 -0.11326766

weight f4 [12, 48]
000000 18 88 10 bd 8b 47 17 3e 0b 3b 0d be 33 ef 31 be
       -0.03528604 0.14773385 -0.13792054 -0.17376404
000010 b0 3b 23 3e 0d e8 a0 3b fd cd 30 bd 3b 3b ac bd
       0.15940738 0.004910475 -0.043165196 -0.08409735
000020 16 4c a8 bd 94 6a 18 be c8 5f bf 3d 40 b3 bd bd
       -0.08217637 -0.14884406 0.09344441 -0.09262705
000030 90 67 ec bc 4f 1f f6 3d 04 63 0d 3e 00 d1 38 bb
       -0.028857976 0.120176904 0.13807303 -0.0028200746
000040 82 1a 46 3e 35 35 1e 3b d6 40 05 3e 43 6f 81 3d
       0.1934605 0.00241406 0.13013014 0.063200496
000050 37 ba 33 3d d0 5e 83 3d e2 fc d1 bd d2 91 0a be
       0.04387876 0.064145684 -0.10253312 -0.13532189
000060 47 d4 fa 3d 1a 44 f6 bd e8 b4 bc 3c 52 10 88 bd
       0.1224752 -0.12024708 0.023035482 -0.06643738
000070 17 5d 4d 3e 0b 2e 97 3d 50 31 11 bd ba f5 35 bd
       0.20055042 0.07381829 -0.03544742 -0.044423796
000080 5e d1 a2 3d f5 9d 22 3e 04 b0 0a be 6f 52 90 bb
       0.0795009 0.15880568 -0.13543707 -0.004404358
000090 e7 a0 20 3e e2 66 4c 3e 73 93 26 bc b5 20 09 3d
       0.1568638 0.19961122 -0.010166991 0.033478457
0000a0 9a c1 ce bd b0 22 04 3e 0f 11 52 3b be c4 33 bc
       -0.1009552 0.12903857 0.0032053625 -0.0109722
0000b0 09 23 fa 3d 9d 4a 04 3e 14 b9 02 3e b3 0e 76 3c
       0.12213714 0.12919088 0.12765914 0.015018153
0000c0 bc 19 de 3d a8 37 33 3d b5 02 6e bd 36 01 72 3d
       0.10844752 0.04375425 -0.05810805 0.059083186
0000d0 6b f4 12 3c 35 66 b5 3d 18 7e 8d bd 0e 18 8e 3d
       0.008969407 0.08857385 -0.06908816 0.06938182
0000e0 fa 87 09 bd 9c 77 42 3d 5b 61 a2 3d 5b f9 c6 bd
       -0.033576943 0.04747735 0.07928725 -0.097155295
0000f0 cb 37 de bd 1c dc c0 bd 8c 46 fb 3d df ce ed bd
       -0.108504854 -0.094169825 0.12269315 -0.11611723
000100 e1 f5 48 3c 32 07 ef bb 6d b0 44 3d 26 68 24 3d
       0.012265653 -0.007294559 0.048019815 0.040138386
000110 2c 27 45 bc 28 9f e0 bd 10 92 88 bd 61 73 fb 3c
       -0.012033265 -0.10967857 -0.06668484 0.030694665
000120 81 53 aa ba e0 0e 81 3c 02 ad 04 be 61 31 98 3d
       -0.0012994857 0.015754163 -0.12956622 0.07431293
000130 1c 57 ec bb fe d9 a7 3c f2 de 09 3d 61 f4 37 bc
       -0.0072125327 0.020489689 0.033659883 -0.011227698
000140 43 e4 8c bd 9b 7f 6e bd 82 1a 40 3a 1f f1 5a bd
       -0.06879475 -0.058227163 0.0007328169 -0.053452607
000150 6f 89 97 3c c9 d8 82 3d 89 0b 34 3d 80 b4 5d bd
       0.01849815 0.06389005 0.043956313 -0.054127216
000160 c8 67 14 3e 4b 41 c6 39 d6 55 d7 bc 2a d8 04 be
       0.14492714 0.0003781415 -0.026286047 -0.12973085
000170 6a 98 d8 bd a3 6f 9e 3d 56 d5 8f bd c3 46 08 3c
       -0.10575946 0.07736137 -0.070231125 0.008317652
000180 3b 36 c1 3d 84 24 ba 3d c8 b1 c6 3d 68 21 3a 3e
       0.09434172 0.09088996 0.09701878 0.18176806
000190 c8 d9 e6 bd 4c 7c 67 bc 5e 2a 16 bd 6c 98 0b 3d
       -0.11272007 -0.014128756 -0.0366615 0.034080908
0001a0 70 88 97 bb d8 09 73 3e e2 dd 41 3e 4b 10 a2 bc
       -0.004624419 0.23734224 0.18932298 -0.01978316
0001b0 a2 62 12 bc 64 4a 0c be d4 45 71 bd 4f ea 81 be
       -0.008934649 -0.13700253 -0.058904484 -0.25374076
0001c0 f3 be d8 3d f3 28 83 3d 69 61 ac bd 33 a4 2e bd
       0.10583296 0.06404295 -0.08417017 -0.04263706
0001d0 ef e0 15 3e 69 72 0d 3e fd 54 20 3e ba ba 29 bd
       0.14636587 0.13813175 0.1565742 -0.041437842
0001e0 7b 3e 35 bc 23 29 40 3e 1a d2 8d bd a6 05 97 bc
       -0.01106226 0.18765692 -0.06924839 -0.01843531
0001f0 c9 9a 9a bd 3b 13 89 3c f6 d7 ec 3c a2 4b 0b bc
       -0.07549054 0.016732803 0.028911572 -0.008501919
000200 b4 d8 19 3e 33 bf ec 3d f2 84 03 3a 7f 27 05 3d
       0.15024072 0.11559906 0.0005017064 0.03250837
000210 9e 46 70 3b 83 ae c9 bd a2 af 10 be 32 bc d0 bd
       0.0036663185 -0.098477386 -0.14129499 -0.101921454
000220 65 df f5 3d bc e5 c2 3d 7e 7d 04 bd 45 de a4 bc
       0.120055 0.095164746 -0.03234624 -0.020125518
000230 41 c6 47 b9 cc 95 3f 3e 3e 58 b4 3d f2 f3 06 3e
       -0.00019051974 0.18709487 0.08805893 0.13178995
000240 5c 12 32 bd 3a 3b 13 3e cb dd ed bd 4e 09 7c 3d
       -0.04347454 0.14378062 -0.11614569 0.06153231
000250 a6 31 e4 3d c3 a0 f8 bc f9 da 98 bc fc 6b a5 3d
       0.11142282 -0.030350095 -0.018659102 0.08077237
000260 bf 4e 1d 3e b7 9c 3c 3d fb 0c ae bd 8d c9 01 be
       0.1536207 0.046047892 -0.084985696 -0.12674542
000270 f3 e0 03 3e 1d 1b 18 be aa b4 2b 3d 26 ab 92 3c
       0.1287878 -0.14854093 0.04192034 0.017903876
000280 28 93 35 3e bf fe bb bd a4 9a be 3d 78 96 e7 bd
       0.17731917 -0.09179448 0.09306839 -0.113079965
000290 0d b2 15 3e 70 ae 58 bd 2c 7d c7 bc b1 a4 fb bc
       0.14618702 -0.05290073 -0.024351679 -0.03071818
0002a0 4a bc 1e bc 6f aa 92 3d 12 5b 94 bc c4 2d f3 3c
       -0.009688446 0.07161414 -0.018109832 0.029684909
0002b0 16 bc ce bc 88 b0 ec 3c bb 28 ee 3c aa b9 f6 bd
       -0.02523617 0.02889277 0.029072156 -0.12047131
0002c0 b6 ee bd bc 74 49 2a be a3 08 a2 3c 38 ad 0e be
       -0.023185115 -0.16629583 0.019779509 -0.13933265
0002d0 fe 81 0f 3e 1b 70 af 3d 97 a7 f9 3c 3b 12 bd bd
       0.14014432 0.08566304 0.03047542 -0.09231993
0002e0 fe 3e a2 bd 16 a9 0e 3d 49 61 e0 3d 22 d2 ca bc
       -0.07922171 0.03482922 0.10956056 -0.024758402
0002f0 94 6e 4e 3e 1e 72 f0 bd 20 80 84 bd 2b c2 3a be
       0.2015937 -0.11740516 -0.064697504 -0.18238132
000300 be dd 14 3d 05 93 84 bc b8 3c 69 bd cb 3f 1a 3e
       0.036344282 -0.016183386 -0.05694267 0.15063398
000310 ad 2a 77 bd 95 e6 d6 3c f7 cc 50 bd 7b 6a dc 3d
       -0.060343433 0.026232997 -0.05097672 0.10762497
000320 07 8c 2b 3e 6b 77 7e 3e 32 a9 21 3e 91 d4 00 3e
       0.16752635 0.24850242 0.15787199 0.12581088
000330 4c fd 3a 3e b1 0e 80 3d ee f9 75 bd ce e8 a9 3b
       0.18260688 0.06252802 -0.060052805 0.005185223
000340 65 c3 e2 bd 0e f6 2c 3e 30 4f 11 3e 08 2e 63 3d
       -0.11072425 0.16890737 0.14190364 0.05546382
000350 e2 39 cf 3c cc b5 da 3d f5 91 d6 bc 28 c6 b6 3d
       0.025296155 0.10679206 -0.026192645 0.08924514
000360 1f af e3 3c 09 03 4c b8 5c a9 67 bd 3b c7 00 3e
       0.027793465 -4.8640217e-05 -0.056557998 0.12576
000370 9e 94 9d 3d d4 94 98 3c a0 77 46 3e 25 a3 43 3e
       0.07694362 0.018625654 0.19381571 0.19105203
000380 f1 f9 c2 3d 50 90 4e 3d 46 25 1e 3e 9a ea 42 3e
       0.09520329 0.050430596 0.15443906 0.19034806
000390 19 ad ad 3c 05 be 31 be 86 83 09 3d 6e a2 a8 bd
       0.021200703 -0.17357643 0.033572696 -0.08234106
0003a0 c1 64 36 3e 4f 25 e4 bd 8c d8 8a 3c 2b 69 11 3e
       0.17811872 -0.111399285 0.01694896 0.14200275
0003b0 7b 2d 32 3d ff 07 4b 3e 18 00 a5 3d f9 8f 19 bd
       0.043500405 0.19827269 0.080566585 -0.03749082
0003c0 b2 11 a3 bd 31 d6 3d be 68 7b 2b 3d 0f 75 9c 3d
       -0.079623595 -0.18538739 0.041865736 0.07639515
0003d0 3d 1e d2 3c c5 ba 19 be 7d 20 63 bc 04 ed 1d be
       0.025649184 -0.15012653 -0.013862726 -0.15422446
0003e0 d9 28 99 bd 3e 95 9a 3d 27 1c 91 bd f6 94 0c be
       -0.07478494 0.07547997 -0.07085448 -0.13728699
0003f0 98 07 a3 3c f1 63 4a bb 82 9d e8 3c b3 a9 7e be
       0.019901082 -0.0030882324 0.028395418 -0.24869423

bias f4 [12]
000000 31 5e 31 3b b3 a4 25 bd c3 2c 1c 3e 77 00 bb bd
       0.00270642 -0.040440273 0.1525145 -0.09130948
000010 59 e4 ca 3d 7e ed 31 3e 0a ff ca 3d 74 b6 e6 3c
       0.09906835 0.17375752 0.09911926 0.028163172
000020 f3 be 81 3e 6e a3 2d bd be d4 a4 bd e1 02 cb bd
       0.25340995 -0.042392187 -0.0804839 -0.099126585

weight f4 [12, 12]
000000 47 a4 69 3d a1 07 3e 3e 00 9e 82 be 5a d4 f2 3d
       0.057041433 0.18557598 -0.2551117 0.11856909
000010 5f 85 25 be c6 14 f0 3e 73 b4 e1 3e 83 80 aa bd
       -0.16164158 0.4689085 0.44082984 -0.08325293
000020 e4 54 ac be 40 61 ce bd e7 c8 74 be ed c0 30 3e
       -0.33658516 -0.10077143 -0.23904763 0.17261095
000030 9b ea cb bd c7 0f f5 3c b8 6d 11 3e 4c 1f 23 3c
       -0.09956857 0.02991475 0.1420201 0.009956192
000040 50 50 95 be e7 43 16 3e 62 4e c8 be dc b0 8d 3e
       -0.29162836 0.1467434 -0.391223 0.27673995
000050 37 5d 87 bd 57 56 37 3e df 74 97 3d d7 4e 98 bd
       -0.06609576 0.1790403 0.07395338 -0.074369125
000060 97 17 18 3e 5c 42 9a bc dc cf 28 be b6 29 41 3e
       0.14852749 -0.01883047 -0.16485542 0.18863568
000070 31 02 e7 bd 38 36 22 3e fd d6 3b 3e 5b c1 87 be
       -0.11279715 0.15840995 0.1834373 -0.26514706
000080 eb 7a 85 3e a4 cf 91 be 41 4c 92 be 11 72 a9 be
       0.2607034 -0.2847873 -0.28573802 -0.33094838
000090 93 58 25 be db fe 88 be 0a b6 87 bd 70 04 9f 3e
       -0.1614707 -0.2675694 -0.06626518 0.31058073
0000a0 b5 7d 2e be 2a eb 6b 3e 34 6e 3e bd c7 0b 87 3e
       -0.17040141 0.23038927 -0.046491817 0.26376173
0000b0 b6 8d e6 be 48 14 29 3d 36 cf 21 be 5e a0 a2 3e
       -0.45029992 0.041279107 -0.15801701 0.31762975
0000c0 d0 fa 21 3e a3 92 bd bd a9 4e c0 3c ac bb e0 3d
       0.15818334 -0.09256484 0.023475008 0.109732956
0000d0 eb 94 22 3d 24 da 9d 3e 35 21 ac bd 99 e1 d2 3d
       0.0396928 0.3083049 -0.08404771 0.102969356
0000e0 ca 21 ef 3d d3 98 90 be 90 b4 c6 be 4b b5 70 be
       0.116763666 -0.28241596 -0.38809633 -0.23506658
0000f0 68 e4 ae 3e 77 44 98 3e c0 a8 a7 be f4 7c 6d be
       0.34158635 0.29739735 -0.32745934 -0.23192197
000100 2b 93 9e be 4a b1 c0 be 1b 23 c2 bd d0 08 49 be
       -0.30971655 -0.3763526 -0.09479352 -0.19632268
000110 74 19 79 bd ec 8c a5 3d b2 34 1a 3e 5b 8e ac 3e
       -0.06081529 0.08083519 0.15059164 0.3370236
000120 49 b1 4f 3e 7e de 81 be f8 4d 9b be d6 f6 7f bd
       0.20282473 -0.2536506 -0.30332923 -0.06249126
000130 31 1b 80 be 4c 80 48 bd ca 1d cc be 57 1d 4d be
       -0.25020745 -0.04895048 -0.39866477 -0.20030724
000140 a2 26 cd 3d ec 3d 78 3e 17 a4 8d 3e 26 cb ca 3d
       0.10017134 0.24242371 0.27664253 0.09902029
000150 64 ec bd 3d 4e a8 27 be 26 36 3d bd 25 41 0f 3e
       0.092736036 -0.16372797 -0.046194218 0.13989694
000160 11 b9 8e be 97 d5 ad be 49 3b 33 3d af 9a 6d 3e
       -0.2787557 -0.3395202 0.04375771 0.23203538
000170 58 1e dc 37 35 a1 77 3e d3 25 15 3e fb 04 93 be
       2.6240174e-05 0.2418259 0.1456521 -0.28714737
000180 f7 42 75 3e 2e 74 27 3e 0a e2 36 3e a1 bc 34 3e
       0.23951326 0.16352913 0.17859665 0.17650081
000190 9a 88 1f 3e 69 50 85 be 33 b1 9a be d4 8d 88 3e
       0.15579453 -0.2603791 -0.30213317 0.26670706
0001a0 0f fe ac bd 3a 60 5a 3c 43 04 2a 3e f5 7c 4a be
       -0.08446895 0.013328606 0.16603188 -0.1977423
0001b0 09 89 c4 be 48 2a 6e be 93 dd a6 3e ce 45 1c 3e
       -0.383858 -0.23258317 0.32590923 0.15261003
0001c0 3a 39 4d bc a7 8c 91 3e 2b 76 84 be 29 24 c7 bc
       -0.012525851 0.28427622 -0.25871405 -0.024309235
0001d0 e6 9e 87 bc 1a d3 8a 3d 84 ea ac 3e 6f 09 4e be
       -0.01655526 0.06778546 0.3377267 -0.20120786
0001e0 78 85 9e bc f3 0a 73 3e 46 82 68 be 48 71 46 3e
       -0.019350752 0.23734646 -0.22705945 0.19379151
0001f0 b8 c9 73 3e 46 b9 36 3e 0c c0 a8 3e 9d eb 68 3d
       0.23807418 0.17844114 0.3295902 0.056865323
000200 ad ba 94 bd ea cc 41 be d4 4b 9f be 29 1b 11 3e
       -0.07262168 -0.18925825 -0.3111254 0.14170517
000210 e6 6b 8b 3e 90 a8 12 3e 1d 28 2f bd 50 4a dc 3d
       0.27230757 0.14322114 -0.042762864 0.107563615
000220 2d 4d 25 bd 91 ef 82 be 84 cb 0c 3c 4c 14 47 be
       -0.040356804 -0.255734 0.008593444 -0.19441336
000230 ed 92 b1 3e f2 ad 2d 3e 7b ea e8 3c 18 cc b9 bd
       0.34682408 0.16960886 0.028432122 -0.09072131

bias f4 [12]
000000 bb 7b b9 be 21 fd a4 3d 1a 71 cc be d6 61 20 bd
       -0.3622721 0.08056093 -0.3993004 -0.039155804
000010 31 66 e9 3d 4b fa 26 be 96 03 12 3d 7e 7e 04 3c
       0.113964446 -0.16306417 0.03564795 0.008086799
000020 82 87 25 3e d6 2a c5 3d 6d 59 37 3d 9a 9e 81 be
       0.16164973 0.09627311 0.044763017 -0.25316316

weight f4 [12, 48]
000000 3c b4 f7 3d 40 5c 20 bd 8d fe c4 bd 32 43 72 3d
       0.12094924 -0.039150476 -0.09618864 0.059146114
000010 ad 10 83 3d be 02 a4 bc 95 59 62 bc 71 df 8b 3d
       0.06399665 -0.020020839 -0.013815303 0.068297274
000020 c3 ed ce 3d 92 c5 9f 3d 44 1d f9 3c 3b 67 94 3c
       0.10103943 0.078013554 0.030409463 0.01811563
000030 10 50 c9 bc 93 09 a2 3d fa 46 59 bd c1 e0 7e bd
       -0.02457431 0.079119824 -0.053046204 -0.06222606
000040 3b 35 0e 3d cf e2 ca 3c 8e d2 fe 3d 42 19 bb 3d
       0.034718733 0.024766354 0.12442504 0.09135677
000050 75 0c a8 3d a2 fc 2b 3d 7d 49 be 3d d6 89 60 bd
       0.08205501 0.041988976 0.092913605 -0.05481895
000060 2f 60 65 bc 90 f2 02 bd 9c fe 5e 3d 25 07 7e bd
       -0.013999983 -0.031969607 0.054442033 -0.062018532
000070 ce 1b ca 3d b7 ae 5a 3d 8f c7 e3 3d 13 16 6b 3d
       0.098685846 0.053389277 0.11122047 0.0573941
000080 6d a4 91 3d 98 70 19 3e cd 8a b2 3d cc 94 2e 3c
       0.0711144 0.14984357 0.087178804 0.010655593
000090 08 33 bb bc 49 64 66 3d 3d d2 5e bd 3c 14 05 3e
       -0.022851482 0.056247983 -0.054399718 0.12996
0000a0 33 44 e7 3d f6 d9 6c 3d 35 71 c0 bd 68 3c 0e be
       0.11292305 0.05782505 -0.093965925 -0.1389023
0000b0 9d 59 50 3d ad 00 30 bc 51 19 1e be 82 fe 6e bd
       0.050866712 -0.010742349 -0.15439345 -0.058348186
0000c0 23 51 61 3c db 23 9a bd 24 ef f8 bc 39 56 30 3d
       0.013752255 -0.0752637 -0.030387469 0.04305098
0000d0 f3 cd 8c 3c 72 33 8c 3d 26 be f3 bd e6 4d 4a 3c
       0.017188048 0.0684575 -0.11901502 0.012347674
0000e0 0b 48 b2 3d be 94 1f 3e ce 7f d4 bd 11 fb 01 be
       0.08705147 0.15584084 -0.10375939 -0.1269343
0000f0 b6 7e ce bd d6 53 09 be a0 a8 01 bc 97 a9 d2 3b
       -0.10082762 -0.13410887 -0.0079137385 0.006428908
000100 4a 5a 1e 3d 6d 0d bc bd 2a c0 98 3c e3 d6 f8 bd
       0.038660325 -0.09182248 0.018646318 -0.121503614
000110 95 ac 23 bd 70 f4 16 be 94 55 d1 3d 76 dd 13 be
       -0.03995951 -0.14741683 0.10221401 -0.1443995
000120 89 09 31 bd fd 5d 1a be 0d 60 14 3d 01 99 a1 3d
       -0.043221984 -0.15074916 0.036224414 0.07890511
000130 ed 35 95 bd 31 d9 8c 3d 7d 19 ca 3c 8b 63 ad 3d
       -0.07285676 0.068773635 0.024670357 0.08466252
000140 f2 ef a9 bd 72 4c ee bb bf ab ce 3d 82 c0 dd bd
       -0.08297719 -0.0072722966 0.10091352 -0.108277336
000150 fd 2c 28 3c f3 e7 32 3d bb 82 c9 3d fe 74 c4 3b
       0.010264632 0.043678235 0.09839388 0.005995392
000160 6d 38 6b bb 11 2e 2c b7 60 a1 8d 3c 1b 7f 48 3d
       -0.0035891787 -1.0262725e-05 0.017288864 0.048949342
000170 d7 6b ca bb a2 e8 12 be 21 b1 2f bd e0 a3 f4 3d
       -0.0061774063 -0.14346555 -0.042893533 0.11945319
000180 69 a1 17 bd e6 61 a8 bd f6 3d 3a 3c 05 93 f1 bd
       -0.037019167 -0.08221798 0.011367312 -0.1179562
000190 a0 ad 03 be f0 0b 2e bd 9a a1 f7 bc 06 0b 90 3d
       -0.12859201 -0.042491853 -0.030228425 0.070333526
0001a0 5d 74 91 3d d4 45 0b 3e e7 ab 5b bd 0a c4 c6 3c
       0.07102273 0.13600856 -0.053630736 0.0242634
0001b0 c3 a6 b4 bd d5 97 cc 3a bf be bc bd 9c 0e 38 3d
       -0.0882087 0.0015609214 -0.092160694 0.044935808
0001c0 59 36 96 3d 24 99 ae 3b 81 05 9c bd 70 d2 ba 3d
       0.07334585 0.0053283144 -0.07618237 0.09122169
0001d0 10 7b 25 bd 2e cc 19 be 3a 9a 29 bd aa 25 4a bc
       -0.040400565 -0.15019295 -0.041406848 -0.012338081
0001e0 a9 ae 06 be 45 3d 9b 3c eb 9b 51 3b 81 50 c7 3d
       -0.13152565 0.018950114 0.0031983803 0.09732152
0001f0 98 36 b7 bd ec af 19 3d 58 bc 02 be 4c 26 ae bd
       -0.0894596 0.037521288 -0.1276716 -0.08503398
000200 b8 b4 1c be 21 b6 3d bd 2d 52 29 3c 37 fc bf bd
       -0.15303314 -0.04631627 0.010334534 -0.09374278
000210 d1 44 8f bd b7 01 f8 bd 59 82 bb bd c8 6f b0 bc
       -0.069955476 -0.12109702 -0.09155721 -0.021537676
000220 34 11 61 3d 81 00 99 bd 88 35 5d 3c ee c4 8b bc
       0.054948047 -0.07470799 0.013501532 -0.017061677
000230 a1 ca e4 bb d6 15 a0 3c 50 4c 03 be 59 6f ae bd
       -0.006982163 0.019541662 -0.1282208 -0.08517332
000240 e1 c2 dc 3d 7a 04 9d 3d 63 7c 3a 3d 14 bc f3 3d
       0.10779358 0.076668695 0.04552878 0.119011074
000250 99 45 5e bc 6c 87 8a 3d 16 08 c5 bd 84 6d af bd
       -0.013566398 0.06764111 -0.09620683 -0.0856581
000260 cb 10 b9 bd 07 14 e8 3d f8 50 f6 3d 14 00 7b bc
       -0.09036406 0.11331945 0.12027162 -0.015319843
000270 b0 33 25 be c2 76 0b 3e 43 36 d0 bd a2 07 00 be
       -0.16132998 0.13619521 -0.101665996 -0.12502912
000280 ef 18 17 3c 9c d4 05 3e ae 3e f8 bc bf 63 88 bd
       0.009222253 0.13069385 -0.030303326 -0.0665965
000290 5e 3f 09 bd e4 13 f1 bd 93 1f 4b bc 5e cf e2 bd
       -0.033507697 -0.11771372 -0.012397665 -0.110747084
0002a0 13 16 be bd a6 e5 ee 3d 18 13 da 3d 3b 56 ed bd
       -0.09281554 0.11664896 0.10648173 -0.11588713
0002b0 30 25 7e 3d 95 ec 0c be 16 4a f8 3d 9f 2d f2 bd
       0.062047184 -0.13762124 0.12123506 -0.11825108
0002c0 17 ad 4d 3c 57 a2 9e 3d b5 be 9f bb f6 37 ab bd
       0.012553475 0.077458076 -0.004875029 -0.08360283
0002d0 c8 21 d9 3c 88 a1 58 bd 8b 13 9d bd 50 2c 0a 3e
       0.026505366 -0.052888423 -0.07669743 0.13493466
0002e0 1f 7b 5d bd 79 07 ac 3d 03 ed e5 bd 1e 01 bb 3c
       -0.054072496 0.08399863 -0.11226847 0.022827681
0002f0 4f a8 f4 3d d2 df c6 bd 6d 5e d2 3d 15 db 6e 3c
       0.11946165 -0.09710659 0.102719165 0.0145786
000300 27 68 69 3b 0e 1f d4 bd 33 e9 76 3d 28 dd 72 3c
       0.0035615058 -0.10357486 0.06028099 0.014823236
000310 20 bc 4b be ef 1e ed 3b a6 4a 86 3c d1 fd f3 bd
       -0.19895983 0.0072363536 0.016393017 -0.11913646
000320 2f 2f 1f 3d c1 a9 ef 3b b1 41 dc bd 46 30 25 be
       0.038863357 0.0073139374 -0.10754717 -0.16131696
000330 d7 df 53 3d 62 cb e0 3b 51 8e 98 3d da 33 3b bc
       0.051727142 0.0068601826 0.0744902 -0.011425937
000340 3b b4 dd bd 57 e0 a7 bd d5 72 bf bd 82 b9 20 be
       -0.10825392 -0.08197086 -0.09348074 -0.15695766
000350 d7 7f 27 3c dd 55 e0 bc 72 95 d1 3d 64 1d 79 3b
       0.0102233505 -0.027384693 0.102335826 0.0038011903
000360 e3 25 28 be 22 42 40 bd 5d 08 d5 3d 87 b1 8a 3d
       -0.16420703 -0.04693807 0.10401986 0.06772142
000370 31 eb da bd 2a d5 4d bd fb 88 98 bd d6 d9 54 bd
       -0.106893905 -0.050252117 -0.07448002 -0.051965557
000380 9e 79 18 3e 24 88 52 bd 14 6e a3 bd 1b 7a 6a bc
       0.14890143 -0.051399365 -0.0797998 -0.014311339
000390 36 d8 4d be 98 fe 0b 3d 64 0c c5 bd 21 dc d7 bd
       -0.20102009 0.034178346 -0.09621504 -0.10540033
0003a0 ae 6a ab bd c0 0a 4d bc aa 0e 2d 3d a3 76 7b bd
       -0.08369957 -0.01251477 0.042250313 -0.061392438
0003b0 a8 25 e5 3c 37 ac 47 bd 3d e6 db 3d 1b 8b 0c bd
       0.027972057 -0.04874822 0.10737274 -0.03431235
0003c0 82 f8 66 bc a9 06 9c bd e5 4e 49 3c b3 06 a8 bd
       -0.014097335 -0.07618458 0.012286876 -0.08204403
0003d0 a4 f5 0d be db 59 92 3d 81 b0 98 3d 1f 5c 85 bd
       -0.13863236 0.07146045 0.074555404 -0.06511711
0003e0 42 4d e7 bd 1a 8b ce 3d dc bc fe bd be 73 d2 bc
       -0.11294033 0.10085125 -0.12438366 -0.025689956
0003f0 f9 65 a2 3d ce 8b bc 3d 5c 24 af bd 9d ac 9b bd
       0.07929606 0.09206353 -0.08551857 -0.07601283

bias f4 [12]
000000 8b e3 5d bd 10 5b 43 3c 6b d7 6e bd 1f 77 00 be
       -0.05417208 0.011923566 -0.058310907 -0.12545441
000010 05 f3 dd 3d 61 8e c5 3b 38 b2 00 be 6a 08 bd 3d
       0.10837368 0.006028936 -0.12567985 0.092301205
000020 8b ab 36 3d d4 ba fe bd fe c6 a4 3c 7a ee 10 be
       0.04459719 -0.124379784 0.020114418 -0.14153472

weight f4 [12, 12]
000000 9e 13 9f be 67 d6 18 be c8 02 5b 3e 66 85 0e be
       -0.31069654 -0.14925538 0.2138778 -0.13918075
000010 17 bd 44 be bd d2 60 bd 87 0b 89 be 4b 60 f1 3c
       -0.19212757 -0.054888476 -0.26766607 0.029464861
000020 2e a7 20 3e 3c c8 03 3d f7 db 1a bc 45 73 28 3e
       0.15688774 0.03217338 -0.009451858 0.16450222
000030 64 f7 0b be ab 66 87 3d f0 a5 75 3e 75 99 b4 bd
       -0.13668591 0.06611379 0.23989081 -0.08818332
000040 e9 2a 78 bb 85 0a c5 3d 47 d1 2e 3e 7a 67 53 3d
       -0.0037867373 0.09621147 0.1707202 0.051612355
000050 52 3b 67 be 5b b4 81 3e 58 50 28 3d 39 c3 cb bd
       -0.22581223 0.25332913 0.041092247 -0.09949345
000060 e7 bd d9 3d 0b 8a d7 bd a2 63 73 3c cf 8f 39 3e
       0.10631924 -0.105243765 0.014855297 0.18121265
000070 3e 1a 1f be ab 13 42 be 55 77 fc bc 77 ca 30 be
       -0.15537354 -0.18952815 -0.03081862 -0.17264734
000080 e5 7c 98 be e4 60 1e be 20 e0 e7 3d 22 3f cb bd
       -0.29782787 -0.15466648 0.11322045 -0.09924151
000090 bb f1 07 be 3f 72 46 be 5c bd 7f 3e 5b bb 8f 3e
       -0.13275807 -0.19379519 0.24974579 0.28072628
0000a0 8d 1e e0 bd 34 bf 6f 3d ef 34 14 3e 1e 8c 21 3d
       -0.10943327 0.058531955 0.14473318 0.039440267
0000b0 cd f9 92 be e6 05 53 be 96 b8 1d be a3 5a 89 be
       -0.28706208 -0.20607719 -0.15402445 -0.26826963
0000c0 c0 f7 c0 bd 68 71 a1 bd 7b f9 83 3e f0 36 bb 3d
       -0.094222546 -0.07882959 0.25776276 0.09141338
0000d0 f1 4c 17 be 34 24 45 3e 5b 68 99 3d ce 6a 8b bd
       -0.14775445 0.19252092 0.07490607 -0.06807481
0000e0 39 0d 9c 3c 7a d4 f6 bd 3e 4a 48 3d 3a 3d 51 be
       0.019049274 -0.120522454 0.048898928 -0.20433512
0000f0 24 f3 a3 be f9 36 93 3d b1 0e 67 3e 3f 9b 0b be
       -0.3202144 0.071882196 0.22564198 -0.1363344
000100 72 a0 23 bd 87 a2 89 be bc 61 82 be dd 11 7c 3e
       -0.039947934 -0.2688181 -0.2546519 0.2461619
000110 ad 44 b4 3c 8c 4b 02 be 5f 21 2d be 19 f5 8e 3c
       0.022005403 -0.12724131 -0.16907261 0.017450856
000120 b8 9e 20 be 68 99 93 3d f6 48 06 3e 77 90 61 3e
       -0.15685546 0.07206994 0.1311377 0.22027765
000130 65 ad 9a be bb bf 05 be 97 51 51 be ad 85 c5 3d
       -0.30210415 -0.1306142 -0.2044128 0.09644637
000140 98 77 9a be bb 50 40 be de 43 54 3e b9 b8 2b 3e
       -0.30169368 -0.18780796 0.20729014 0.16769685
000150 0e 9c 0c 3e ba e8 ee 3c e0 dd bd 3d 5a f0 5a 3e
       0.13731405 0.029163707 0.09270835 0.2138075
000160 39 e2 32 3e a5 fa 8c bd 8f 7b 1e bb a9 80 62 bb
       0.1746911 -0.06883744 -0.0024182533 -0.003456155
000170 44 85 5f be 74 c5 17 be 14 d9 84 be 6e 4e 4e 3e
       -0.2182818 -0.14821416 -0.25946867 0.20147106
000180 61 72 a6 3e ef 57 64 3e 99 f7 19 3e 64 20 34 be
       0.3250914 0.22299169 0.15035857 -0.17590481
000190 44 59 26 be 46 db 7b 3e ab 0b 93 3d 58 6f 20 bd
       -0.1624499 0.24595365 0.0717996 -0.039168686
0001a0 88 59 3f bc 3e b0 45 3e 50 8a 8f 3e be 94 11 3e
       -0.011679061 0.19305512 0.28035212 0.14216897
0001b0 53 2a 07 3e 6f f5 83 3e 72 9f 79 bd 0a e2 e1 bb
       0.13199739 0.25773188 -0.060943075 -0.006893401
0001c0 56 5f df 3c f1 0f a8 3d d0 df e4 3d e5 ac a5 be
       0.02726714 0.082061656 0.11175501 -0.3235847
0001d0 53 ac ef 3d 60 59 5a 3e 1d 14 8b 3b b0 28 3b 3e
       0.1170279 0.21323156 0.004244341 0.1827724
0001e0 70 80 ed bc 4c b1 67 3e 66 e8 e7 39 f2 d1 24 be
       -0.028991908 0.22626227 0.00044232904 -0.16095713
0001f0 23 8e 73 3d 71 ae f6 3d c9 1c bc 3a e0 78 01 be
       0.059461724 0.12044991 0.001435184 -0.12643766
000200 5a 19 7d be 4f f0 2c 3e a1 ec ba be f2 53 15 3d
       -0.24716702 0.16888545 -0.3650866 0.03645701
000210 35 1f 31 be 5f 11 76 be a1 bd 7f bc 9c 7d 2b 3e
       -0.17297061 -0.24030064 -0.015609176 0.16747135
000220 34 b5 87 3c e4 a5 49 bd 30 85 4a be 76 29 93 bd
       0.016565897 -0.04923047 -0.1977737 -0.071856424
000230 8a 1b 33 bd 2a 20 13 bc 14 00 2d bc 02 4f 6e 3e
       -0.043727435 -0.0089798365 -0.010559101 0.23272327
