MQCNN-QA-4qubits-5class-CIFAR-same-5filter/Models_V1/model_19.pt (torch, 148406 bytes, 47 tensors)

weights f4 [7]
6.292573 5.853561 5.58691 3.391834 5.179475 0.5478951 3.861775
00000000: c25c c940 5f50 bb40 f7c7 b240 cf13 5940
00000010: 42be a540 da42 0c3f 5227 7740

weights f4 [7]
5.5692983 0.2091742 5.965861 3.0858288 3.9292681 4.7573924 1.6257732
00000000: b137 b240 c331 563e 55e8 be40 387e 4540
00000010: 2179 7b40 8f3c 9840 5619 d03f

weights f4 [7]
3.264121 1.8559121 3.75925 1.3117491 0.86650044 2.377943 2.1129773
00000000: 5ce7 5040 878e ed3f 8d97 7040 65e7 a73f
00000010: f9d2 5d3f 3830 1840 053b 0740

weights f4 [7]
5.4621863 3.0092745 4.4358993 2.917398 2.0205016 3.5125558 4.730532
00000000: 3bca ae40 f497 4040 e3f2 8d40 a6b6 3a40
00000010: e64f 0140 b7cd 6040 8560 9740

weights f4 [7]
1.7036386 3.1133056 3.216536 0.6666031 2.7715237 0.010076789 1.60672
00000000: d410 da3f 6640 4740 badb 4d40 80a6 2a3f
00000010: a560 3140 1e19 253c 00a9 cd3f

weights f4 [7]
2.9394095 5.489422 5.469025 5.087893 3.8493276 5.5048084 3.4565647
00000000: 491f 3c40 58a9 af40 4102 af40 05d0 a240
00000010: 625b 7640 6427 b040 5b38 5d40

weights f4 [8]
2.6814415 2.094311 1.9472001 5.241831 5.607607 3.2012975 0.5838074 5.3466682
00000000: bd9c 2b40 3109 0640 da3d f93f 14bd a740
00000010: 8471 b340 0fe2 4c40 6774 153f e817 ab40

weights f4 [8]
1.9383509 6.1153817 1.1012602 0.36006993 4.8578877 5.4710574 1.9535803 1.7925415
00000000: e21b f83f 35b1 c340 18f6 8c3f 165b b83e
00000010: d173 9b40 e712 af40 eb0e fa3f 0072 e53f

weights f4 [8]
3.3396523 4.4992642 1.8910818 1.6550758 3.875088 5.8857117 4.641366 0.19517043
00000000: ddbc 5540 f9f9 8f40 f80e f23f 86d9 d33f
00000010: 7101 7840 c057 bc40 1286 9440 c2da 473e

weights f4 [16]
4.6707687 4.921261 3.7438717 4.6244807 2.4954972 1.6401006 2.3522615 5.2132583
3.0727715 3.31388 3.7217693 1.4383029 3.361715 4.259327 5.086754 4.164297
00000000: f076 9540 f87a 9d40 989b 6f40 bffb 9340
00000010: 3ab6 1f40 d1ee d13f 748b 1640 03d3 a640
00000020: 4aa8 4440 9c16 5440 7831 6e40 4f1a b83f
00000030: 5726 5740 684c 8840 b0c6 a240 ec41 8540

weights f4 [16]
0.5559428 4.8084927 2.8391826 2.9802244 3.160585 2.4312863 1.4644799 0.79415256
5.1115313 -0.13583559 2.748964 1.6708441 5.329643 4.5579896 5.4955134 1.1881782
00000000: 4452 0e3f 2cdf 9940 2bb5 3540 ffbb 3e40
00000010: 0647 4a40 329a 1b40 1474 bb3f 954d 4b3f
00000020: aa91 a340 7c18 0bbe 07ef 2f40 38de d53f
00000030: 6f8c aa40 0ddb 9140 3fdb af40 3916 983f

weights f4 [16]
0.6825412 0.22311243 1.429043 1.6609619 3.5409095 1.9484247 5.7562165 3.5326715
0.9308843 3.384769 1.6131321 5.2652707 2.4588714 1.4009652 0.12626699 4.0411825
00000000: 05bb 2e3f 9677 643e e2ea b63f 669a d43f
00000010: 439e 6240 fb65 f93f ed32 b840 4a17 6240
00000020: 6f4e 6e3f 0ea0 5840 1d7b ce3f 197d a840
00000030: 265e 1d40 d452 b33f 224c 013e 5e51 8140

weights f4 [12]
1.2909088 1.5916437 3.28665 4.575645 4.146152 3.243829 1.9150395 5.7537594
3.7928517 1.4071985 4.7126436 0.9339474
00000000: 803c a53f fbba cb3f 7958 5240 af6b 9240
00000010: 47ad 8440 e59a 4f40 0420 f53f cc1e b840
00000020: 15be 7240 151f b43f facd 9640 2d17 6f3f

weights f4 [12]
3.5426676 3.7293105 4.070312 2.8679588 4.2714496 6.0392866 3.8560379 5.3049746
3.6934476 1.127078 6.4091997 3.9082937
00000000: 11bb 6240 06ad 6e40 ff3f 8240 a38c 3740
00000010: b7af 8840 d641 c140 53c9 7640 5ac2 a940
00000020: 7261 6c40 1844 903f 2a18 cd40 7c21 7a40

weights f4 [12]
0.9490565 4.4900603 2.374879 5.850834 1.7491361 4.6392603 2.1588361 1.116293
3.0321863 4.4268456 5.269517 4.2050915
00000000: 5ef5 723f 93ae 8f40 04fe 1740 083a bb40
00000010: b1e3 df3f d274 9440 5f2a 0a40 b0e2 8e3f
00000020: 570f 4240 b8a8 8d40 e29f a840 1c90 8640

weight f4 [12, 48]
-0.12721421 -0.105460614 0.007256119 0.008002101 0.13029556 -0.110392906 -0.052628066 0.013094055
-0.1370279 -0.07758833 -0.09543669 -0.029601078 -0.0009147771 0.020123444 -0.100757785 -0.104229875
-0.13363312 -0.14198038 0.029001161 0.08167835 -0.11274055 -0.007375824 0.017722793 -0.030582806
0.11506943 0.024202768 -0.055309474 0.10270255 0.052016705 0.05401769 -0.011321711 0.037366387
0.0350894 0.018973302 -0.07147595 -0.007633369 -0.08795305 0.06862991 -0.030259293 0.05853283
0.13946086 0.003696188 -0.1427515 0.07200816 0.027512724 0.098951645 0.10407949 0.02948454
-0.007658585 -0.04714772 0.08966075 0.05116848 -0.091228575 -0.007289376 -0.07063734 0.031573698
0.050568864 0.10253669 -0.08080213 -0.10842091 -0.068988845 -0.09818631 0.21712033 0.16611856
-0.19540225 0.096416906 -0.07930142 0.057928015 0.045909766 -0.010706696 0.08694886 -0.01611333
0.12510411 -0.027185462 0.11530392 -0.080736905 0.08522363 -0.00870282 -0.11838125 0.09504195
-0.14562905 0.023801008 -0.078604035 0.11626986 -0.18082859 -0.01721087 0.00079855975 -0.015988767
-0.14734559 -0.10391974 0.10898073 0.035643987 0.0063857455 -0.024836069 0.05345007 0.12440378
0.014704184 0.04749837 0.097817324 -0.1378411 -0.038084157 -0.03294909 0.116785035 -0.2166747
0.12836191 0.077984035 0.049184676 0.12745842 -0.079379536 0.11071233 -0.08469345 -0.08029229
0.17604643 0.04984081 0.09921783 0.047084678 0.06159686 0.020248638 0.1696008 0.055433024
0.20626773 0.053103793 0.17519838 -0.0052101766 0.15651111 -0.014483967 0.19566137 0.20001112
-0.021868953 -0.12515979 -0.12238518 -0.044900317 -0.08029263 0.08116369 0.08190964 -0.035565868
-0.032147 -0.020741196 0.057153 -0.11024598 0.060283747 -0.09291293 -0.017478772 -0.0885819
0.020241331 -0.054049682 0.041737527 0.14641869 0.09858169 0.16000856 0.09675254 0.092355385
-0.0029527575 0.030042222 -0.14811383 0.055073343 -0.12785202 0.034597605 0.022153448 0.077043355
0.057056066 0.046971448 0.035070665 -0.031855762 0.010135055 -0.027202211 -0.006248266 0.012312952
-0.121191286 -0.12786302 -0.09437128 0.033563953 -0.050458226 0.047494657 0.07963017 0.028838936
-0.07676709 -0.14892718 0.07218161 0.115117885 -0.0033431705 -0.08413745 -0.09476699 -0.029188799
-0.04202774 -0.18653339 -0.17157294 0.052965343 0.13050209 -0.06709876 -0.1048284 0.09636965
0.052914202 -0.0023454495 0.13532883 0.17239588 -0.008562756 0.04133077 -0.0015552928 0.15773419
-0.022325903 0.17234 -0.12062022 -0.050525535 -0.07351691 0.05721161 0.09823167 0.09984569
-0.17000611 0.060181394 -0.059513588 -0.1112765 0.06404474 0.099190325 -0.030222962 -0.16982007
-0.087407865 0.12707075 -0.22456099 -0.0866926 0.028775064 -0.058816846 -0.14184704 0.05607061
0.019422105 -0.08320355 0.13973136 0.18318771 0.06486555 -0.08399487 -0.0031892983 -0.05632366
-0.038526263 0.063213535 0.026625697 0.028081562 0.17997836 0.14790824 0.21561171 0.096213676
0.16070668 0.0676558 0.08341776 -0.050814826 0.24386968 -0.08469026 0.15198006 0.084081315
-0.053429637 0.032119833 0.14170498 0.005865317 -0.11745391 0.059138365 -0.03466392 -0.07488111
00000000: 7144 02be bcfb d7bd bdc4 ed3b 3f1b 033c
00000010: 336c 053e ad15 e2bd 8790 57bd 7288 563c
00000020: 0b51 0cbe a1e6 9ebd 5074 c3bd f67d f2bc
00000030: a7cd 6fba ecd9 a43c 195a cebd 7976 d5bd
00000040: 1fd7 08be 4e63 11be d893 ed3c fb46 a73d
00000050: 84e4 e6bd e5b0 f1bb 642f 913c cb88 fabc
00000060: 85a9 eb3d e244 c63c 308c 62bd b755 d23d
00000070: 780f 553d a741 5d3d b37e 39bc 7f0d 193d
00000080: e7b9 0f3d e66d 9b3c fc61 92bd 5721 fabb
00000090: bb20 b4bd d78d 8c3d 56e2 f7bc 1fc0 6f3d
000000a0: d4ce 0e3e bf3b 723b 732d 12be 0479 933d
000000b0: 5d62 e13c 29a7 ca3d a127 d53d 9089 f13c
000000c0: def4 fabb f81d 41bd 0ea0 b73d 0a96 513d
000000d0: 0cd6 babd b8db eebb 4faa 90bd 6c53 013d
000000e0: 4c21 4f3d c2fe d13d 967b a5bd c80b debd
000000f0: 064a 8dbd e715 c9bd cb54 5e3e fc1a 2a3e
00000100: 8717 48be 3a76 c53d c868 a2bd ed45 6d3d
00000110: e10b 3c3d 236b 2fbc 3e12 b23d 1a00 84bc
00000120: 4b1b 003e 0cb4 debc 7624 ec3d 6459 a5bd
00000130: ba89 ae3d 4696 0ebc de71 f2bd 5ba5 c23d
00000140: c81f 15be 55fa c23c 27fb a0bd e41e ee3d
00000150: 212b 39be cffd 8cbc 7056 513a e0fa 82bc
00000160: c3e1 16be dfd3 d4bd 4a31 df3d 6eff 113d
00000170: 843f d13b 0375 cbbc 76ee 5a3d 69c7 fe3d
00000180: d1e9 703c a78d 423d 7354 c83d 3826 0dbe
00000190: 22fe 1bbd a0f5 06bd fe2c ef3d f9df 5dbe
000001a0: 4e71 033e 18b6 9f3d df75 493d 7684 023e
000001b0: bd91 a2bd 25bd e23d c273 adbd 4970 a4bd
000001c0: 8445 343e e125 4c3d b832 cb3d dddb 403d
000001d0: fd4c 7c3d 79e0 a53c d5ab 2d3e bd0d 633d
000001e0: d937 533e 5d83 593d 3467 333e 21ba aabb
000001f0: 7344 203e 294e 6dbc 745b 483e b7cf 4c3e
00000200: 8526 b3bc e329 00be 15a5 fabd 65e9 37bd
00000210: 7670 a4bd 2639 a63d 3ec0 a73d 84ad 11bd
00000220: 93ac 03bd 71e9 a9bc 4419 6a3d a5c8 e1bd
00000230: 17ec 763d 2249 bebd a42f 8fbc 6d6a b5bd
00000240: 26d1 a53c 3363 5dbd f8f4 2a3d c8ee 153e
00000250: 32e5 c93d 49d9 233e 3226 c63d d224 bd3d
00000260: 0d83 41bb 1b1b f63c 27ab 17be 9694 613d
00000270: a4eb 02be 38b6 0d3d 267b b53c e8c8 9d3d
00000280: 9fb3 693d 2265 403d 42a6 0f3d 307b 02bd
00000290: 800d 263c 2cd7 debc 41be ccbb 44bc 493c
000002a0: 2333 f8bd 86ee 02be bb45 c1bd 5b7a 093d
000002b0: 49ad 4ebd c289 423d 2415 a33d a23f ec3c
000002c0: 1038 9dbd 5e80 18be f4d3 933d edc2 eb3d
000002d0: 1819 5bbb 4150 acbd 3215 c2bd 591d efbc
000002e0: 4825 2cbd 9c02 3fbe d1b0 2fbe 30f2 583d
000002f0: 57a2 053e 136b 89bd 46b0 d6bd 735d c53d
00000300: 90bc 583d 1db6 19bb a493 0a3e 8c88 303e
00000310: cd4a 0cbc 744a 293d f7da cbba 1285 213e
00000320: d0e4 b6bc e679 303e bc07 f7bd ddf3 4ebd
00000330: 0990 96bd b956 6a3d b02d c93d e67b cc3d
00000340: 1516 2ebe c480 763d 85c4 73bd efe4 e3bd
00000350: e329 833d 4c24 cb3d 2596 f7bc 50e5 2dbe
00000360: e502 b3bd d61e 023e 51f3 65be e48b b1bd
00000370: afb9 eb3c efe9 70bd 5a40 11be 4caa 653d
00000380: 1b1b 9f3c 9f66 aabd bd15 0f3e 8f95 3b3e
00000390: 3bd8 843d 8105 acbd 8c03 51bb a3b3 66bd
000003a0: b7cd 1dbd 1976 813d 221e da3c 4e0b e63c
000003b0: 3f4c 383e 4275 173e 51c9 5c3e ad0b c53d
000003c0: 4b90 243e 208f 8a3d eed6 aa3d 3523 50bd
000003d0: f9b8 793e 1672 adbd a9a0 1b3e d332 ac3d
000003e0: 09d9 5abd 1690 033d 1c1b 113e d831 c03b
000003f0: ad8b f0bd 123b 723d c1fb 0dbd 445b 99bd

bias f4 [12]
-0.13035788 0.11452976 -0.19610314 -0.0149393035 0.11047558 0.13540177 0.098937824 0.20474993
-0.096563 0.01248084 0.011674804 0.08878176
00000000: 897c 05be 948e ea3d 43cf 48be fbc3 74bc
00000010: 0541 e23d c3a6 0a3e ea9f ca3d f7a9 513e
00000020: d2c2 c5bd 707c 4c3c ad47 3f3c 36d3 b53d

weight f4 [12, 12]
0.08432915 0.21148153 -0.3053466 0.13431937 -0.19660328 -0.26859254 1.4281649e-05 -0.36307496
-0.07937588 0.028810216 -0.0592646 -0.056475196 0.20801683 -0.03290962 -0.25386032 0.27747023
-0.079231754 -0.007460237 -0.060889967 -0.0934957 0.3437149 0.21796216 0.027275976 -0.053410854
-0.15010752 -0.26085663 0.09724863 0.26782203 0.066039056 -0.14102876 0.29488918 -0.11161746
-0.2136243 -0.2503855 -0.04857072 0.029715506 -0.18489131 0.08371359 0.04100283 0.22364298
-0.25397032 0.30878928 0.0001874695 -0.009198434 0.19283642 -0.014468459 0.21324962 -0.16023597
-0.11076837 -0.051789343 -0.2657796 0.29225722 0.23398338 -0.06962803 -0.19063765 0.008945295
0.05982419 -0.09209541 -0.40332475 0.17604434 0.07837436 0.16288252 -0.15536946 0.16538793
0.29316416 -0.2877275 -0.2044768 -0.19558796 0.2813031 -0.014919776 -0.28066215 -0.23384292
0.00517647 0.1421345 0.1750029 0.18430603 0.02488243 -0.36467156 -0.26893672 -0.30105653
0.068977386 0.33408272 0.013140715 -0.011359351 -0.26938534 -0.15831624 0.21811637 -0.17756002
-0.37432185 0.34511256 0.19164687 0.16350663 0.037910644 -0.10992214 -0.048503157 -0.08751636
-0.07615746 -0.27131283 0.31956074 0.13961095 0.013617775 0.08367761 0.086254686 0.31538007
0.20007266 0.12972887 0.1436459 0.024510374 -0.22503011 -0.2896106 -0.10453055 0.2015349
-0.13022342 -0.066842176 0.18708007 0.31392175 -0.23698191 -0.09016195 -0.15307324 0.023448905
0.15525632 -0.2153649 0.14110646 0.17633332 -0.15619418 -0.15669411 -0.23387465 0.2753799
0.14480881 -0.22544299 0.1976442 0.1779147 0.25044203 0.10554635 0.14637691 0.25755507
2.6711845e-05 0.27828833 -0.28959748 0.24326372 -0.0053117885 -0.23245473 0.3530135 0.036580563
00000000: c3b4 ac3d 9d8e 583e 6456 9cbe 048b 093e
00000010: 5f52 49be f684 89be 379b 6f37 f6e4 b9be
00000020: d28f a2bd 6703 ec3c 70bf 72bd 8952 67bd
00000030: 5d02 553e 3dcc 06bd fbf9 81be 9410 8e3e
00000040: 4244 a2bd 0175 f4bb c267 79bd ac7a bfbd
00000050: 66fb af3e 7931 5f3e de71 df3c 57c5 5abd
00000060: c9b5 19be 008f 85be 4a2a c73d f81f 893e
00000070: 7c3f 873d d869 10be b7fb 963e b297 e4bd
00000080: 54c0 5abe 8732 80be 17f2 46bd ef6d f33c
00000090: 2654 3dbe 0872 ab3d 95f2 273d aa02 653e
000000a0: 6608 82be a119 9e3e 7693 4439 07b5 16bc
000000b0: e976 453e 1e0d 6dbc 1c5e 5a3e e614 24be
000000c0: 87da e2bd 1021 54bd 4414 88be bda2 953e
000000d0: 5799 6f3e 2499 8ebd 8436 43be 498f 123c
000000e0: 360a 753d 859c bcbd 9580 cebe f844 343e
000000f0: bd82 a03d adca 263e 2c19 1fbe 745b 293e
00000100: 9d19 963e 0551 93be 5e62 51be 3648 48be
00000110: f606 903e 1372 74bc f3b2 8fbe 8574 6fbe
00000120: 619f a93b b58b 113e f633 333e b8ba 3c3e
00000130: 3dd6 cb3c 3bb6 babe 13b2 89be 1524 9abe
00000140: 0444 8d3d e40c ab3e 274c 573c 921c 3abc
00000150: e0ec 89be a71d 22be e659 5f3e 4bd2 35be
00000160: 1da7 bfbe 98b2 b03e 143f 443e 486e 273e
00000170: 3148 1b3d dc1e e1bd 3fab 46bd c73b b3bd
00000180: 71f8 9bbd 84e9 8abe 779d a33e 2cf6 0e3e
00000190: 171d 5f3c 2b5f ab3d 4ca6 b03d 7f79 a13e
000001a0: d9df 4c3e a5d7 043e e917 133e fbc9 c83c
000001b0: 4b6e 66be d747 94be 1d14 d6bd 2a5f 4e3e
000001c0: 4a59 05be 8de4 88bd eb91 3f3e 5aba a03e
000001d0: 63ab 72be d4a6 b8bd 3bbf 1cbe eb17 c03c
000001e0: 83fb 1e3e 9e88 5cbe 367e 103e b990 343e
000001f0: 5ef1 1fbe 6c74 20be d67c 6fbe 98fe 8c3e
00000200: c348 143e 87da 66be 3e63 4a3e 452f 363e
00000210: f039 803e af28 d83d d4e3 153e 42de 833e
00000220: 4013 e037 cf7b 8e3e 1f46 94be 201a 793e
00000230: 830e aebb 9d08 6ebe 2fbe b43e 80d5 153d

bias f4 [12]
0.16579452 0.1368 -0.15618905 -0.24714538 -0.0844365 -0.30231655 0.10047435 -0.19171613
-0.09040586 -0.078579955 -0.32805955 0.06589454
00000000: 0ac6 293e 4d15 0c3e 06f0 1fbe ae13 7dbe
00000010: 0bed acbd 3cc9 9abe 7fc5 cd3d 3c51 44be
00000020: b526 b9bd 87ee a0bd 6cf7 a7be b7f3 863d

weight f4 [12, 48]
-0.090981916 -0.00083051954 0.04117357 -0.05831993 0.058256134 0.02830698 0.05017755 -0.029095061
0.13415661 -0.03802222 -0.029591724 0.11708338 0.1308837 0.10591825 0.06638446 0.1374211
-0.04283556 -0.09525012 -0.15041664 0.059267107 -0.14200696 0.13208283 -0.033584844 -0.17073104
-0.2159982 -0.12680078 -0.08822737 0.05031768 -0.115082376 0.043834575 0.017622914 -0.021087416
-0.1208873 -0.06442769 0.11516975 -0.09359388 -0.10012227 0.017428413 -0.0037058191 0.15108962
0.096373335 0.016710449 -0.060649857 -0.16896586 0.084245645 -0.07339747 -0.050071653 0.11256085
-0.15374528 0.045088366 -0.09595647 -0.09264836 0.116016455 -0.10046533 -0.0032611925 0.030976329
-0.17160586 0.09059414 -0.04619369 0.121393435 -0.08394574 0.0069597582 0.08015327 -0.013605328
-0.11199868 -0.052700773 0.031553037 -0.0047669113 -0.17277311 -0.106782764 0.07839343 -0.087320484
0.0065192976 -0.044997375 -0.005312041 0.12588388 -0.08067584 0.032928944 -0.08965408 -0.03648216
-0.095543556 0.17540728 0.10937274 -0.02422896 -0.06743177 0.02672495 -0.025021179 -0.12436931
0.05808488 -0.14674538 0.1042157 0.08010332 -0.112589896 -0.013950064 -0.035680193 0.10389408
0.13926299 0.029642735 0.045507643 0.14832349 -0.19890265 -0.026678603 -0.098685764 -0.2347648
0.10558585 0.18600942 0.07370322 0.2210249 0.18545355 0.12141901 -0.12722099 -0.095100485
0.03154156 -0.027232345 -0.012598334 0.18148492 0.03331021 0.054549832 0.06364593 -0.1893374
-0.047059856 -0.048872855 0.026857605 0.08856977 0.11752236 0.2017443 -0.07050554 -0.08878353
0.2029265 0.31635445 0.42578664 0.1769272 -0.13070992 -0.032040138 0.08875552 -0.11272176
-0.12532721 0.11952324 0.1087516 0.14097975 -0.08300957 0.030057222 -0.16553754 -0.15927981
-0.05153512 0.15782316 -0.041639026 0.013515679 -0.039126698 -0.04898155 0.015634004 0.07117325
0.062383156 -0.008667203 0.11913544 0.024869125 0.20834717 0.024836302 -0.041788556 0.18583082
-0.04283693 0.020260016 -0.06752565 0.023936056 -0.06042415 -0.037568748 -0.083496206 -0.11955557
-0.06413132 -0.008064563 -0.16614924 0.11148045 0.10530612 -0.019514572 -0.07745253 0.08333728
0.12836455 0.06427579 0.079342365 0.0066694026 0.13189891 0.057691813 0.12352694 0.027777227
-0.06273524 -0.024624305 0.03260435 0.030029265 0.08561988 0.0031496969 0.089121655 0.06603954
-0.061954588 -0.048439134 0.08566252 0.044520635 -0.055731215 -0.01373454 0.0037047355 -0.013696721
-0.019468097 0.102906406 0.034291454 -0.042360228 -0.08494903 -0.016236778 0.13274695 0.094154514
-0.16398787 0.016346008 -0.0201349 0.008964258 -0.09465914 -0.05095029 -0.019424306 -0.2711562
0.041068446 -0.1797358 0.04979031 -0.089120746 0.15254907 0.17585376 0.12836774 -0.05544465
-0.07049707 -0.1056933 -0.045437593 -0.08822914 0.017730288 0.1720102 -0.020003445 -0.09973174
0.08535654 0.081372365 -0.14003061 -0.018164411 0.08473455 0.0050075566 -0.045380145 0.090489626
0.033210594 -0.04193259 0.028699463 -0.051740624 0.1300463 0.071269564 0.037608348 -0.00465261
-0.05478779 -0.04361984 0.13276896 0.06773706 -0.065986514 -0.11965704 -0.022316935 0.012643271
00000000: ba54 babd 39b7 59ba 9ea5 283d e1e0 6ebd
00000010: fc9d 6e3d 0ae4 e73c fa86 4d3d c458 eebc
00000020: 5a60 093e 30bd 1bbd 586a f2bc 69c9 ef3d
00000030: 6006 063e abeb d83d 93f4 873d 1eb8 0c3e
00000040: 5774 2fbd 7f12 c3bd d206 1abe 11c2 723d
00000050: 466a 11be b940 073e 4390 09bd 1ed4 2ebe
00000060: a22e 5dbe 10d8 01be 8db0 b4bd e919 4e3d
00000070: 4fb0 ebbd e28b 333d ee5d 903c 84bf acbc
00000080: c393 f7bd aaf2 83bd 1ede eb3d 26ae bfbd
00000090: e80c cdbd 08c6 8e3c 54dd 72bb 3db7 1a3e
000000a0: 625f c53d 5ae4 883c fc6b 78bd 6305 2dbe
000000b0: fb88 ac3d 6a51 96bd ef17 4dbd 4e86 e63d
000000c0: 676f 1dbe 94ae 383d d384 c4bd 6cbe bdbd
000000d0: 099a ed3d c4c0 cdbd bbb9 55bb 12c2 fd3c
000000e0: 72b9 2fbe 6c89 b93d 9835 3dbd 1f9d f83d
000000f0: beeb abbd af0e e43b 6627 a43d e2e8 5ebc
00000100: 905f e5bd c4dc 57bd c23d 013d c033 9cbb
00000110: 6feb 30be ecb0 dabd bc8c a03d 15d5 b2bd
00000120: d59f d53b 2b4f 38bd a110 aebb b4e7 003e
00000130: 6039 a5bd 80e0 063d 8f9c b7bd 516e 15bd
00000140: 57ac c3bd f79d 333e d1fe df3d d07b c6bc
00000150: ab19 8abd 48ee da3c 37f9 ccbc 56b5 febd
00000160: 69ea 6d3d 6c44 16be 0a6f d53d 360d a43d
00000170: 8895 e6bd cf8e 64bc 6525 12bd 6bc6 d43d
00000180: f59a 0e3e 52d5 f23c 3966 3a3d 1de2 173e
00000190: 23ad 4bbe 168d dabc c31b cabd 2f66 70be
000001a0: 653d d83d 4179 3e3e b7f1 963d 5a54 623e
000001b0: 89e7 3d3e 88aa f83d 3846 02be 0bc4 c2bd
000001c0: b931 013d 5e16 dfbc 3e69 4ebc 2fd7 393e
000001d0: 4970 083d a56f 5f3d cc58 823d aae1 41be
000001e0: d6c1 40bd e72e 48bd 7b04 dc3c 1164 b53d
000001f0: 90af f03d 0f96 4e3e 3565 90bd 24d4 b5bd
00000200: f7cb 4f3e 36f9 a13e b500 da3e 672c 353e
00000210: d2d8 05be 853c 03bd 74c5 b53d abda e6bd
00000220: c755 00be 9ac8 f43d 29b9 de3d ff5c 103e
00000230: ec00 aabd 903a f63c ac82 29be 3f1a 23be
00000240: 7d16 53bd 659c 213e af8d 2abd de70 5d3c
00000250: 5143 20bd e1a0 48bd e212 803c 48c3 913d
00000260: 7b85 7f3d e200 0ebc 48fd f33d 56ba cb3c
00000270: f658 553e 8075 cb3c 7a2a 2bbd 6f4a 3e3e
00000280: c775 2fbd 55f8 a53c e34a 8abd 8c15 c43c
00000290: 507f 77bd b0e1 19bd 0f00 abbd 8dd9 f4bd
000002a0: 4857 83bd 3b21 04bc 0723 2abe dd4f e43d
000002b0: bcaa d73d 06dd 9fbc 6f9f 9ebd bcac aa3d
000002c0: ff71 033e 06a3 833d 407e a23d 018b da3b
000002d0: 8210 073e 404e 6c3d b1fb fc3d 118d e33c
000002e0: 557b 80bd e9b8 c9bc 248c 053d efff f53c
000002f0: 7a59 af3d 256b 4e3b 6a85 b63d bd3f 873d
00000300: 18c4 7dbd 1d68 46bd d56f af3d 455b 363d
00000310: 6a46 64bd d606 61bc 26cb 723b 3668 60bc
00000320: 8f7b 9fbc 98c0 d23d 3275 0c3d eb81 2dbd
00000330: c2f9 adbd fe02 85bc d1ee 073e 15d4 c03d
00000340: 70ec 27be 10e8 853c f2f1 a4bc d3de 123c
00000350: a7dc c1bd 40b1 50bd b91f 9fbc fcd4 8abe
00000360: 6337 283d a90c 38be edf0 4b3d f084 b6bd
00000370: d335 1c3e 0213 343e d572 033e ee19 63bd
00000380: c560 90bd bb75 d8bd c51c 3abd 7bb1 b4bd
00000390: 1c3f 913c 7123 303e 44de a3bc 2840 ccbd
000003a0: 69cf ae3d 8ea6 a63d 2f64 0fbe 88cd 94bc
000003b0: 4f89 ad3d 6e16 a43b 88e0 39bd a052 b93d
000003c0: d507 083d 82c1 2bbd 231b eb3c faed 53bd
000003d0: db2a 053e c7f5 913d 360b 1a3d ec74 98bb
000003e0: 2969 60bd b8aa 32bd 96f4 073e bab9 8a3d
000003f0: f023 87bd c00e f5bd 01d2 b6bc b925 4f3c

bias f4 [12]
-0.095622756 0.090308994 -0.038685005 -0.053863116 0.016679158 0.019560298 -0.021657445 -0.06349081
0.031340107 0.022917967 0.058581416 0.08139521
00000000: ddd5 c3bd ecf3 b83d 2b74 1ebd 929f 5cbd
00000010: bba2 883c eb3c a03c f46a b1bc 7807 82bd
00000020: 7c5e 003d 76be bb3c 11f3 6f3d 88b2 a63d

weight f4 [12, 12]
-0.16041085 0.1636152 -0.21833594 0.18455568 -0.0129924165 0.17324704 -0.19354315 -0.25207853
0.18393813 -0.08486888 -0.3500452 -0.21134233 0.118945144 0.04978251 -0.5127329 0.13444488
-0.06971742 0.32167065 -0.17945868 0.37124807 -0.031266645 0.05651886 -0.18774046 0.19358863
0.014777155 -0.20338002 -0.22716093 -0.12854956 -0.1765017 -0.025224354 -0.13500732 -0.20668656
-0.1892095 -0.19582964 0.27474567 0.21338283 -0.00733295 0.22168 -0.28344852 0.34424803
-0.25572634 0.39529085 0.1548208 -0.09799516 -0.06520871 0.24058378 -0.071425095 0.069760315
-0.17921117 0.030945797 -0.1437875 -0.17099869 0.17968622 0.119545855 0.19252843 0.2812441
0.24697317 -0.082998306 0.14244606 0.10579899 -0.25626445 0.3003461 -0.16346723 0.19882135
0.045396447 -0.1948712 -0.20164512 -0.18459988 0.17589033 0.23475358 0.031763848 -0.36611128
-0.05679165 0.120011576 -0.35648036 -0.2386703 -0.082709126 0.27259338 0.2013138 0.00017161589
0.30748007 0.06316138 -0.22093362 -0.07806891 0.056768384 -0.27863604 0.043272194 -0.23581298
-0.13660863 0.012819875 -0.29657587 -0.17545688 -0.38721496 -0.2509591 -0.26501465 -0.29477
-0.32568127 0.19314213 0.07217919 -0.2587632 -0.04034774 0.33831248 0.24277903 -0.06827385
-0.22434795 0.17976315 -0.20933647 0.083728634 0.26561996 -0.2645462 -0.06671996 -0.05035289
-0.089970246 -0.33175993 0.058948424 -0.31317928 -0.18611574 0.13807124 -0.08472957 -0.2126292
0.044173602 0.0721968 -0.017072896 0.12274652 0.1422849 -0.23707235 0.008187467 0.07928806
0.057724603 0.2314622 0.2184332 -0.09983627 -0.1943228 0.11064001 0.10158449 -0.14578234
-0.24844085 0.09503432 -0.33236527 0.16641656 0.3267774 -0.16212758 0.24121065 -0.012983206
00000000: be42 24be be8a 273e 7593 5fbe 2afc 3c3e
00000010: 25de 54bc ac67 313e 2d30 46be 7010 81be
00000020: 475a 3c3e bccf adbd 2039 b3be 206a 58be
00000030: 8399 f33d bfe8 4b3d 7742 03bf ebab 093e
00000040: 02c8 8ebd 04b2 a43e 04c4 37be 3a14 be3e
00000050: 7411 00bd 5280 673d 093f 40be 193c 463e
00000060: e11b 723c da42 50be e09c 68be 7fa2 03be
00000070: ddbc 34be 4ea3 cebc 5c3f 0abe a4a5 53be
00000080: 23c0 41be 9187 48be 77ab 8c3e 0781 5a3e
00000090: 3e49 f0bb 1500 633e 2a20 91be 4741 b03e
000000a0: 90ee 82be 9063 ca3e 5889 1e3e b0b1 c8bd
000000b0: 258c 85bd 985b 763e 5247 92bd 7fde 8e3d
000000c0: 2283 37be 0a82 fd3c 083d 13be 481a 2fbe
000000d0: aaff 373e 75d4 f43d 2c26 453e 3aff 8f3e
000000e0: 89e6 7c3e 04fb a9bd 61dd 113e 24ad d83d
000000f0: 1835 83be f7c6 993e f463 27be d397 4b3e
00000100: a0f1 393d 518c 47be 0f7c 4ebe c007 3dbe
00000110: 981c 343e 3e63 703e cf1a 023d f072 bbbe
00000120: 5c9e 68bd a1c8 f53d 9884 b6be fd65 74be
00000130: 6763 a9bd 5c91 8b3e 3425 4e3e caf3 3339
00000140: 076e 9d3e c15a 813d 6c3c 62be 98e2 9fbd
00000150: f785 683d 62a9 8ebe 2f3e 313d f578 71be
00000160: 22e3 0bbe 740a 523c cbd8 97be f8aa 33be
00000170: 0a41 c6be b67d 80be 00b0 87be 18ec 96be
00000180: b2bf a6be 0dc7 453e afd2 933d 9c7c 84be
00000190: ac43 25bd 4b37 ad3e 119b 783e 29d3 8bbd
000001a0: 78bb 65be d513 383e 4d5c 56be eb79 ab3d
000001b0: 57ff 873e 9972 87be 79a4 88bd d53e 4ebd
000001c0: 5242 b8bd 70dc a9be e773 713d 0959 a0be
000001d0: 2095 3ebe 8c62 0d3e b286 adbd 78bb 59be
000001e0: 61ef 343d eadb 933d 75dc 8bbc 8762 fb3d
000001f0: 22b3 113e 18c3 72be ba24 063c c761 a23d
00000200: a270 6c3d 6d04 6d3e f4ac 5f3e f576 ccbd
00000210: 8efc 46be 3b97 e23d 870b d03d f747 15be
00000220: 4767 7ebe 5ba1 c23d c82b aabe 1a69 2a3e
00000230: 5e4f a73e c604 26be edff 763e 83b7 54bc

bias f4 [12]
-0.01449782 -0.37367207 -0.0651478 -0.11024663 -0.019928956 0.13040334 0.1632417 -0.3728707
-0.18389034 -0.030182263 0.057424877 -0.20728044
00000000: 4488 6dbc f251 bfbe 366c 85bd fcc8 e1bd
00000010: 0d42 a3bc 7488 053e d528 273e e9e8 bebe
00000020: c04d 3cbe cb40 f7bc 5936 6b3d 5341 54be

weight f4 [12, 48]
-0.029403135 0.18563625 -0.22062804 -0.21014261 0.15427825 0.00072460127 -0.028742608 -0.09094156
-0.088841036 -0.1678409 0.030248458 -0.14926542 -0.092744395 0.06348864 0.08556501 0.009758109
0.17833674 -0.0053270194 0.114413574 0.012066566 0.052451823 0.090683304 -0.09724105 -0.12872255
0.12875776 -0.1281407 0.014024959 -0.044107083 0.15226565 0.064703174 -0.088699624 -0.09863879
0.096350014 0.19558455 -0.13895337 -0.0313545 0.1452339 0.2810272 0.007855881 0.1052482
-0.09329281 0.18021867 0.038987037 0.0068377787 0.16330887 0.17561705 0.15450974 0.045138862
0.10844752 0.04375425 -0.05810805 0.059083186 0.008969407 0.08857385 -0.06908816 0.06938182
-0.033576943 0.04747735 0.07928725 -0.097155295 -0.108504854 -0.094169825 0.12269315 -0.11611723
0.012265653 -0.007294559 0.048019815 0.040138386 -0.012033265 -0.10967857 -0.06668484 0.030694665
-0.0012994857 0.015754163 -0.12956622 0.07431293 -0.0072125327 0.020489689 0.033659883 -0.011227698
-0.06879475 -0.058227163 0.0007328169 -0.053452607 0.01849815 0.06389005 0.043956313 -0.054127216
0.14492714 0.00037814165 -0.026286047 -0.12973085 -0.10575946 0.07736137 -0.070231125 0.008317652
0.049816206 0.028798817 0.12910303 0.18318321 -0.061343394 0.038618606 -0.008124626 0.08503068
-0.021762429 0.2495225 0.23142178 0.014315865 0.07258351 -0.045928292 0.008174739 -0.23650774
0.09797471 0.06292482 -0.077841915 0.018080229 0.20786302 0.19043444 0.22377859 0.024151573
0.019854432 0.24179971 -0.015902389 0.0150910895 -0.032654844 0.031069105 0.09709811 0.070063695
0.14408183 0.08247383 0.047493953 0.09879495 0.062222563 -0.13536362 -0.13493264 -0.1428495
0.106964484 0.03835407 -0.06972576 -0.032546267 -0.00821277 0.16733421 0.10153755 0.1400169
0.0004040426 0.10243511 -0.1768801 -0.00021284763 0.11113496 -0.02265542 -0.04394184 0.087014176
0.20817342 -0.008516705 -0.14740634 -0.17559859 0.07865736 -0.16435662 0.04510764 -0.0040375316
0.2619727 -0.13249467 0.012823249 -0.18489553 0.16366595 -0.038413666 -0.014294897 -0.0230038
0.019263687 0.06588798 -0.027446121 0.026090307 0.04539917 0.04181858 0.005285689 -0.14314686
-0.0031310318 -0.20911503 -0.03709703 -0.20012039 0.14292243 0.082162604 0.00794203 -0.10422322
-0.102815636 -0.012297811 0.109861635 -0.0430789 0.19502689 -0.14042574 -0.120298244 -0.26679742
0.028787166 -0.05528925 -0.054271713 0.12707488 -0.016779464 0.080259636 -0.027368462 0.18119612
0.1472689 0.2519777 0.1789724 0.14163353 0.2606079 0.17101182 -0.00036039864 0.01268446
-0.06815939 0.18053587 0.1469661 0.09661478 0.08773749 0.16868825 0.045140814 0.16495295
0.053203527 0.040689513 -0.015338916 0.14078823 0.15310992 0.033231404 0.26243165 0.2590616
0.10778748 0.01982649 0.20347694 0.22885083 0.041128583 -0.24756737 0.029486667 -0.15415485
0.16996051 -0.17546709 0.006582672 0.1369686 0.019921167 0.1752893 0.0979555 -0.05455285
-0.07795845 -0.25336996 0.05579833 0.042415716 0.012522868 -0.1429093 -0.034833718 -0.15214965
-0.04993295 0.101811126 -0.048059568 -0.12232425 0.07203422 0.050096173 0.038846746 -0.29808992
00000000: d8de f0bc 6e17 3e3e 51ec 61be a02f 57be
00000010: 1efb 1d3e 2bf3 3d3a 9e75 ebbc 923f babd
00000020: 4af2 b5bd 7cde 2bbe 9dcb f73c 09d9 18be
00000030: c6f0 bdbd 5506 823d b53c af3d 7ae0 1f3c
00000040: e89d 363e 478e aebb aa51 ea3d d9b2 453c
00000050: b9d7 563d 2bb8 b93d 5126 c7bd d8cf 03be
00000060: 13d9 033e 5137 03be f1c8 653c a1a9 34bd
00000070: 87eb 1b3e 1983 843d 26a8 b5bd 2203 cabd
00000080: 2853 c53d 5147 483e cb49 0ebe 946d 00bd
00000090: 32b8 143e cce2 8f3e f4b5 003c 5e8c d73d
000000a0: 4d10 bfbd 3e8b 383e dfb0 1f3d 720f e03b
000000b0: 713a 273e f5d4 333e cd37 1e3e 87e3 383d
000000c0: bc19 de3d a837 333d b502 6ebd 3601 723d
000000d0: 6bf4 123c 3566 b53d 187e 8dbd 0e18 8e3d
000000e0: fa87 09bd 9c77 423d 5b61 a23d 5bf9 c6bd
000000f0: cb37 debd 1cdc c0bd 8c46 fb3d dfce edbd
00000100: e1f5 483c 3207 efbb 6db0 443d 2668 243d
00000110: 2c27 45bc 289f e0bd 1092 88bd 6173 fb3c
00000120: 8153 aaba e00e 813c 02ad 04be 6131 983d
00000130: 1c57 ecbb fed9 a73c f2de 093d 61f4 37bc
00000140: 43e4 8cbd 9b7f 6ebd 821a 403a 1ff1 5abd
00000150: 6f89 973c c9d8 823d 890b 343d 80b4 5dbd
00000160: c867 143e 5041 c639 d655 d7bc 2ad8 04be
00000170: 6a98 d8bd a36f 9e3d 56d5 8fbd c346 083c
00000180: 140c 4c3d 7feb eb3c 9633 043e 6194 3b3e
00000190: 3643 7bbd 8b2e 1e3d 271d 05bc 9124 ae3d
000001a0: 1f47 b2bc d482 7f3e d5f9 6c3e 178d 6a3c
000001b0: aaa6 943d 4e1f 3cbd 57ef 053c 162f 72be
000001c0: f7a6 c83d bade 803d 956b 9fbd fd1c 943c
000001d0: 0bda 543e 3f01 433e 3726 653e 85d9 c53c
000001e0: c3a5 a23c 589a 773e ba45 82bc 9e40 773c
000001f0: 16c1 05bd a384 fe3c 60db c63d 8e7d 8f3d
00000200: 308a 133e 0ae8 a83d 0589 423d 0255 ca3d
00000210: 16dd 7e3d c39c 0abe c82b 0abe 2447 12be
00000220: 3210 db3d 2819 1d3d 61cc 8ebd 3c4f 05bd
00000230: db8e 06bc a959 2b3e ebf2 cf3d 9760 0f3e
00000240: aed5 d339 80c9 d13d 0f20 35be da2f 5fb9
00000250: ba9a e33d dc97 b9bc 5cfc 33bd 7d34 b23d
00000260: 6a2b 553e a689 0bbc b0f1 16be 1ed0 33be
00000270: 1c17 a13d 1a4d 28be cac2 383d 454d 84bb
00000280: 4921 863e afac 07be 9b18 523c 4155 3dbe
00000290: 0c98 273e a657 1dbd 2535 6abc 7772 bcbc
000002a0: e1ce 9d3c 47f0 863d b0d6 e0bc 57bb d53c
000002b0: 7bf4 393d f649 2b3d 9333 ad3b 1795 12be
000002c0: ff31 4dbb 4022 56be 0ef3 17bd 5cec 4cbe
000002d0: 425a 123e de44 a83d 4a1f 023c fc72 d5bd
000002e0: 0191 d2bd c27c 49bc 23ff e03d 8073 30bd
000002f0: 21b5 473e c4cb 0fbe ed5e f6bd ac99 88be
00000300: 10d3 eb3c fb76 62bd 044c 5ebd eb1f 023e
00000310: 1675 89bc 2a5f a43d d333 e0bc 7a8b 393e
00000320: a9cd 163e 3903 813e 8a44 373e 6108 113e
00000330: 666e 853e b91d 2f3e e3f3 bcb9 7bd2 4f3c
00000340: 2697 8bbd 65de 383e 487e 163e f8dd c53d
00000350: b7af b33d 9dbc 2c3e 93e5 383d 6de9 283e
00000360: f1eb 593d 0caa 263d 1450 7bbc ca2a 103e
00000370: d9c8 1c3e a71d 083d 715d 863e b9a3 843e
00000380: afbf dc3d 2a6b a23c 425c 503e df57 6a3e
00000390: 7276 283d 4d82 7dbe 068e f13c c5da 1dbe
000003a0: 210a 2e3e a5ad 33be 74b3 d73b 7f41 0c3e
000003b0: b731 a33c 0a7f 333e e59c c83d cf72 5fbd
000003c0: aea8 9fbd b5b9 81be ca8c 643d 1abc 2d3d
000003d0: b72c 4d3c d156 12be cdad 0ebd 1ecd 1bbe
000003e0: 7e86 4cbd 5a82 d03d 1cda 44bd 2385 fabd
000003f0: ad86 933d a531 4d3d c41d 1f3d 3e9f 98be

bias f4 [12]
0.034644086 -0.040440273 0.20213099 -0.08149124 0.15855783 0.17488654 0.106515385 0.044696297
0.3222842 -0.067631625 -0.039393365 -0.116453946
00000000: f5e6 0d3d b3a4 25bd 6dfb 4e3e e1e4 a6bd
00000010: fc5c 223e 7515 333e bd24 da3d 7713 373d
00000020: 6f02 a53e 7382 8abd f05a 21bd 687f eebd

weight f4 [12, 12]
0.023360744 0.18557598 -0.26221326 0.26480114 -0.17094257 0.5416237 0.5078887 -0.039333105
-0.40568453 -0.13209473 -0.27898446 0.12351631 -0.1712975 0.02991475 0.13573222 -0.16498825
-0.29244745 0.13070387 -0.43038034 0.28155527 -0.045995805 0.22508487 0.08172265 -0.038560227
0.18443911 -0.01883047 -0.15456937 0.3315723 -0.0950227 0.121212214 0.1738759 -0.2736066
0.23004761 -0.34738046 -0.32015315 -0.38349912 -0.28478053 -0.2675694 -0.027239947 0.17896931
-0.115061864 0.38665208 0.06775514 0.31008914 -0.46834925 0.049083307 -0.22827008 0.3174417
0.22936678 -0.09256484 0.0094523225 0.20073237 0.04678227 0.29286256 -0.08642838 0.10380053
0.111518286 -0.31814477 -0.42688662 -0.28356108 0.36283788 0.29739735 -0.30516955 -0.3497318
-0.34461117 -0.43292868 -0.15400173 -0.21886262 -0.073041506 0.06986297 0.12865411 0.3738146
0.23325418 -0.2536506 -0.3677864 -0.05190911 -0.36293608 -0.14506361 -0.48105198 -0.22196661
0.009359776 0.24488403 0.28555742 0.17451806 0.19731411 -0.16372797 -0.10461584 0.24441652
-0.35848674 -0.44845858 -0.040430587 0.21001464 -0.031662308 0.2233941 0.15325633 -0.29946697
0.33872697 0.16352913 0.13446002 0.27311438 0.08730035 -0.309362 -0.3130131 0.22341888
-0.07624009 0.006537622 0.1460329 -0.20655228 -0.47287348 -0.23258317 0.34961534 0.045437947
0.02235736 0.3177907 -0.26990694 0.014567513 -0.06376172 0.07811517 0.33933222 -0.20860364
-0.06665126 0.23734646 -0.22449401 0.28043807 0.26926464 0.21535502 0.39371666 0.033155877
-0.09868483 -0.22444294 -0.37240794 0.07854434 0.33596602 0.14322114 -0.098577924 0.24884622
-0.12486616 -0.3264069 -0.00537703 -0.22130013 0.28431144 0.14289801 0.010194059 -0.09822538
00000000: 085f bf3c a107 3e3e d140 86be 0494 873e
00000010: 920b 2fbe daa7 0a3f fe04 023f c01b 21bd
00000020: e2b5 cfbe d743 07be 0dd7 8ebe 1ef6 fc3d
00000030: 9d68 2fbe c70f f53c 63fd 0a3e aef2 28be
00000040: acbb 95be 3cd7 053e d05a dcbe 0328 903e
00000050: 1966 3cbd a67c 663e 345e a73d 54f1 1dbd
00000060: 9bdd 3c3e 5c42 9abc 6f47 1ebe d8c3 a93e
00000070: 439b c2bd 1c3e f83d 860c 323e 2a16 8cbe
00000080: 9a91 6b3e dadb b1be 1deb a3be ff59 c4be
00000090: c1ce 91be dbfe 88be 4f26 dfbc bb43 373e
000000a0: 8ea5 ebbd 43f7 c53e 35c3 8a3d 01c4 9e3e
000000b0: 79cb efbe 940b 493d a2bf 69be b887 a23e
000000c0: 20df 6a3e a392 bdbd eadd 1a3c c98c 4d3e
000000d0: c49e 3f3d 15f2 953e 5d01 b1bd 5f95 d43d
000000e0: b363 e43d dfe3 a2be e290 dabe eb2e 91be
000000f0: e3c5 b93e 7744 983e 2f3f 9cbe 0c10 b3be
00000100: e070 b0be d4a8 ddbe a1b2 1dbe 861d 60be
00000110: c996 95bd 5114 8f3d e7bd 033e a164 bf3e
00000120: 2fda 6e3e 7ede 81be 804e bcbe a69e 54bd
00000130: c2d2 b9be 8e8b 14be 724c f6be 374b 63be
00000140: bf59 193c e1c2 7a3e 9534 923e ddb4 323e
00000150: b60c 4a3e 4ea8 27be d440 d6bd 5348 7a3e
00000160: 938b b7be 5d9c e5be 8b9a 25bd 140e 573e
00000170: 56b0 01bd 6cc1 643e 3aef 1c3e bc53 99be
00000180: 9f6d ad3e 2e74 273e e3af 093e a6d5 8b3e
00000190: 87ca b23d b264 9ebe 4143 a0be ebc7 643e
000001a0: c423 9cbd 8c39 d63b a689 153e 7182 53be
000001b0: 791c f2be 482a 6ebe c800 b33e 241d 3a3d
000001c0: c826 b73c 76b5 a23e 3e31 8abe 94ac 6e3c
000001d0: 8195 82bd d9fa 9f3d f4bc ad3e 319c 55be
000001e0: 7580 88bd f30a 733e c2e1 65be 9495 8f3e
000001f0: 0edd 893e 0786 5c3e 3b95 c93e 75ce 073d
00000200: 461b cabd 5fd4 65be 41ac bebe dbdb a03d
00000210: bd03 ac3e 90a8 123e 39e3 c9bd 8bd1 7e3e
00000220: d4b9 ffbd ce1e a7be cc31 b0bb 809c 62be
00000230: 4591 913e db53 123e fc04 273c 632a c9bd

bias f4 [12]
-0.42854244 0.0496461 -0.43869483 -0.06071652 0.067735806 -0.20207608 -0.041539382 -0.07971936
0.16247816 -0.07947123 -0.03373629 -0.27650598
00000000: ea69 dbbe b559 4b3d 9c9c e0be e3b1 78bd
00000010: 12b9 8a3d 08ed 4ebe 3325 2abd e743 a3bd
00000020: ad60 263e d0c1 a2bd 102f 0abd 3192 8dbe

weight f4 [12, 48]
0.1616393 -0.054423973 -0.114641994 0.07316937 0.06574349 -0.028572435 0.00074514106 0.09892447
0.19448152 0.10347897 0.008956558 0.029170925 0.0038693324 0.0809563 -0.059803545 -0.052046843
0.048377942 0.08340038 0.15046519 0.045369714 0.0810403 0.03482269 0.09407798 -0.04362035
-0.004348994 -0.020809446 0.060010124 -0.056041557 0.16212852 0.09101973 0.119288206 0.0646941
0.15983891 0.21254961 0.1392033 0.033580337 -0.06910076 0.073682874 -0.03678415 0.16464962
0.09280658 0.028139716 -0.12160715 -0.12543125 0.08378924 -0.003968223 -0.15170322 -0.042888876
0.013762968 -0.075242214 -0.030376596 0.043062694 0.017177537 0.068447866 -0.119023286 0.012338064
0.08706289 0.15586953 -0.103739776 -0.1269053 -0.10080938 -0.1340882 -0.007893618 0.0064528272
0.038664848 -0.09181765 0.018650511 -0.121497825 -0.039968524 -0.14742616 0.10220514 -0.14440885
-0.043232247 -0.15075894 0.036214303 0.078894876 -0.07284971 0.068780854 0.024677107 0.084670186
-0.08297477 -0.0072625373 0.1009095 -0.10827464 0.010254909 0.043668356 0.09837524 0.0059773093
-0.0036025303 -2.452191e-05 0.01727272 0.048933223 -0.0061897705 -0.14347532 -0.042906813 0.11944218
-0.10316709 -0.11446391 -0.011187837 -0.11839879 -0.13632226 -0.049138803 -0.024383143 0.07515176
-0.025575487 0.074395046 -0.08777708 0.0077372645 -0.1315936 -0.04181586 -0.10574762 0.04479387
0.047522075 -0.01272777 -0.088111274 0.08489055 -0.0461792 -0.14910753 -0.020039005 0.021883313
-0.13237564 0.018064326 0.005981846 0.10012989 -0.098089 0.026908873 -0.13848934 -0.09526617
-0.15801741 -0.048900757 -0.0004084648 -0.09986014 -0.07540144 -0.12572499 -0.09422494 -0.024710387
0.04554185 -0.08056125 0.0053524952 -0.021631878 -0.0077044195 0.01999516 -0.12879896 -0.08462544
0.10886381 0.06816154 0.035372965 0.108939506 -0.021718718 0.05652776 -0.10517963 -0.09545799
-0.08427921 0.11088758 0.11265906 -0.032105964 -0.1403174 0.12762174 -0.08964013 -0.13616325
0.011359824 0.13254187 -0.028186146 -0.06493463 -0.03582005 -0.12694454 -0.021651728 -0.12036831
-0.102130726 0.10644713 0.09679311 -0.12609367 0.0710327 -0.12775977 0.13118616 -0.10966946
-0.000116756986 0.067752555 -0.016232805 -0.09348835 0.034162123 -0.054404553 -0.07301758 0.13135011
-0.044485558 0.081302665 -0.102933064 0.018223725 0.108846 -0.10793171 0.09234182 0.0041658967
0.059504647 -0.10757522 0.11513366 0.049380753 -0.23045793 -0.038529187 -0.027489098 -0.102633074
0.12114194 -0.0021267815 -0.18224114 -0.14833294 0.04138787 0.026354829 0.07866621 0.012828494
-0.121203 -0.090610795 -0.121750064 -0.20087184 -0.004476672 -0.051020186 0.08620934 -0.014887078
-0.16103701 -0.04431666 0.097100236 0.061943967 -0.07850448 -0.04892737 -0.08083217 -0.0076188995
0.1946803 -0.033294473 -0.014964314 0.043333188 -0.19013254 0.08676087 -0.045154605 -0.12276443
-0.11882215 -0.058014832 0.09459181 -0.04429067 0.08251795 -0.066375844 0.100908846 -0.007856298
-0.014097335 -0.07618458 0.012286876 -0.08204403 -0.13863236 0.07146045 0.074555404 -0.06511711
-0.11294033 0.10085125 -0.12438366 -0.025689956 0.07929606 0.09206353 -0.08551857 -0.07601283
00000000: c684 253e aceb 5ebd 6cc9 eabd d3d9 953d
00000010: 86a4 863d bd10 eabc 9255 433a ea98 ca3d
00000020: 2a26 473e c8ec d33d 87be 123c ddf7 ee3c
00000030: a094 7d3b 6bcc a53d 90f4 74bd 122f 55bd
00000040: f327 463d d2cd aa3d 8c13 1a3e 98d5 393d
00000050: 75f8 a53d 3da2 0e3d f5ab c03d 41ab 32bd
00000060: 0282 8ebb 9278 aabc 2dcd 753d d58b 65bd
00000070: 0505 263e 8d68 ba3d 604d f43d 577e 843d
00000080: d0ac 233e 9ba6 593e 4f8b 0e3e 898b 093d
00000090: b384 8dbd 0ce7 963d faaa 16bd e999 283e
000000a0: 6011 be3d 4385 e63c 2b0d f9bd 0d71 00be
000000b0: b199 ab3d de07 82bb 1758 1bbe 3fac 2fbd
000000c0: 127e 613c 9718 9abd 57d8 f8bc 8262 303d
000000d0: e8b7 8c3c 652e 8c3d 7bc2 f3bd 9725 4a3c
000000e0: 074e b23d 439c 1f3e 8575 d4bd 77f3 01be
000000f0: 2675 cebd 6b4e 09be 3c54 01bc 3d72 d33b
00000100: 085f 1e3d e40a bcbd f5c8 983c dad3 f8bd
00000110: 09b6 23bd e2f6 16be ee50 d13d eadf 13be
00000120: 4c14 31bd 8d60 1abe 7355 143d a393 a13d
00000130: 3b32 95bd fadc 8c3d a527 ca3c 9067 ad3d
00000140: adee a9bd 94fa edbb a4a9 ce3d 18bf ddbd
00000150: 3504 283c 97dd 323d f578 c93d 4edd c33b
00000160: 6e18 6cbb 67b4 cdb7 857f 8d3c 346e 483d
00000170: 8fd3 cabb 32eb 12be 0ebf 2fbd 1a9e f43d
00000180: 4449 d3bd 0e6c eabd 314d 37bc 117b f2bd
00000190: 1098 0bbe c545 49bd 28bf c7bc 2ae9 993d
000001a0: af83 d1bc 6e5c 983d 78c4 b3bd e188 fd3b
000001b0: 79c0 06be 1b47 2bbd 3592 d8bd c779 373d
000001c0: 82a6 423d 2388 50bc af73 b4bd 19db ad3d
000001d0: 6726 3dbd a5af 18be d728 a4bc a244 b33c
000001e0: 7b8d 07be a3fb 933c 5c03 c43b e610 cd3d
000001f0: e3e2 c8bd ff6f dc3c 26d0 0dbe e91a c3bd
00000200: 51cf 21be 294c 48bd 3827 d6b9 7983 ccbd
00000210: 126c 9abd 0dbe 00be 01f9 c0bd 706d cabc
00000220: 178a 3a3d 4cfd a4bd fc63 af3b 5635 b1bc
00000230: 5b75 fcbb e4cc a33c e0e3 03be 1a50 adbd
00000240: fdf3 de3d 4798 8b3d 3ee3 103d ad1b df3d
00000250: 74eb b1bc a789 673d 6b68 d7bd 7b7f c3bd
00000260: 949a acbd 0719 e33d cbb9 e63d 8b81 03bd
00000270: 5daf 0fbe 46af 023e 3f95 b7bd 616e 0bbe
00000280: 8e1e 3a3c 0eb9 073e a2e6 e6bc 73fc 84bd
00000290: 0bb8 12bd c0fd 01be f75e b1bc a983 f6bd
000002a0: ea29 d1bd f400 da3d 773b c63d b31e 01be
000002b0: 9879 913d 75d3 02be aa55 063e 629a e0bd
000002c0: 6edb f4b8 dac1 8a3d a9fa 84bc d276 bfbd
000002d0: 95ed 0b3d 4fd7 5ebd 3e8a 95bd a580 063e
000002e0: 7d36 36bd 0382 a63d 92ce d2bd ec49 953c
000002f0: a7ea de3d 4d0b ddbd b51d bd3d 1382 883b
00000300: 25bb 733d 6650 dcbd 32cb eb3d 7943 4a3d
00000310: 2afd 6bbe c8d0 1dbd d130 e1bc 4a31 d2bd
00000320: 4419 f83d 7961 0bbb 6c9d 3abe 97e4 17be
00000330: 5486 293d 15e6 d73c c01b a13d 9b2e 523c
00000340: 4739 f8bd 2792 b9bd 1958 f9bd 59b1 4dbe
00000350: 0cb1 92bb 8bfa 50bd 868e b03d eee8 73bc
00000360: e3e6 24be 6385 35bd 7ddc c63d f5b8 7d3d
00000370: f5c6 a0bd 1168 48bd 568b a5bd f6a7 f9bb
00000380: 465a 473e c95f 08bd e22c 75bc 247e 313d
00000390: 1bb2 42be afaf b13d 09f4 38bd eb6b fbbd
000003a0: 0759 f3bd f6a0 6dbd 5ab9 c13d 226a 35bd
000003b0: 2cff a83d 0ff0 87bd 4ca9 ce3d b4b7 00bc
000003c0: 82f8 66bc a906 9cbd e54e 493c b306 a8bd
000003d0: a4f5 0dbe db59 923d 81b0 983d 1f5c 85bd
000003e0: 424d e7bd 1a8b ce3d dcbc febd be73 d2bc
000003f0: f965 a23d ce8b bc3d 5c24 afbd 9dac 9bbd

bias f4 [12]
-0.047440704 0.011913597 -0.057351563 -0.1360571 0.10757142 0.006028936 -0.12567985 0.09950318
0.1496182 -0.124379784 0.021328595 -0.14957774
00000000: 2f51 42bd 3f31 433c 79e9 6abd 8d52 0bbe
00000010: 684e dc3d 618e c53b 38b2 00be 53c8 cb3d
00000020: 8335 193e d4ba febd 4eb9 ae3c e82a 19be

weight f4 [12, 12]
-0.39327338 -0.14925386 0.17538698 -0.13157554 -0.18024646 -0.054888476 -0.26766607 -0.115737304
0.1288073 0.03217338 -0.079795666 0.093766436 -0.13582422 0.066111796 0.28267238 -0.08905142
-0.014493505 0.09621147 0.1707202 0.14202413 -0.2414871 0.25332913 0.096092805 -0.021864856
0.1201792 -0.10524243 -0.03343206 0.18327095 -0.13507216 -0.18952815 -0.03081862 -0.32625234
-0.24530497 -0.15466648 0.034077212 -0.18872477 -0.17166504 -0.19379164 0.20729698 0.27646443
-0.14101353 0.058531955 0.14473318 -0.00892553 -0.32879847 -0.20607719 -0.18417981 -0.34345445
-0.015500223 -0.07882923 0.24928536 0.089394644 -0.0726529 0.19252092 0.07490607 -0.2088137
0.062086083 -0.120522454 -0.018466162 -0.23518962 -0.4108236 0.071881644 0.19185254 -0.1327787
-0.081017576 -0.2688181 -0.2546519 0.2770856 -0.036792383 -0.12724131 -0.18176724 0.017680984
-0.22605659 0.07206855 0.1722221 0.22068647 -0.3370871 -0.1306142 -0.2044128 0.17122976
-0.35355556 -0.18780796 0.23562159 0.23795456 0.20304663 0.029164536 0.067319326 0.21149603
0.25542545 -0.06883744 -0.0024182533 -0.11840487 -0.21992098 -0.14821416 -0.332078 0.13355508
0.36947396 0.2229922 0.18003653 -0.18567814 -0.08163968 0.24595365 0.0717996 -0.040751103
0.017361235 0.19305512 0.3162761 0.15614317 0.15775391 0.2577325 -0.099888444 -0.0042748516
0.0064138067 0.082061656 0.11175501 -0.49656147 0.08883482 0.21323156 -0.11934924 0.1332563
-0.058717016 0.22626258 -0.043152336 -0.16168232 -0.015177837 0.12044991 0.001435184 -0.18885936
-0.28793535 0.16888545 -0.431297 -0.013443419 -0.24921764 -0.24030222 0.024165511 0.16783702
0.0027768875 -0.04923047 -0.1977737 0.025891889 -0.09610502 -0.0089798365 0.031561814 0.2909728
00000000: 215b c9be 01d6 18be a598 333e bdbb 06be
00000010: 8792 38be bdd2 60bd 870b 89be ae07 edbd
00000020: 10e6 033e 3cc8 033d e96b a3bd 9e08 c03d
00000030: 8115 0bbe 9f65 873d 6fba 903e 9760 b6bd
00000040: 2a76 6dbc 850a c53d 47d1 2e3e c66e 113e
00000050: 6548 77be 5bb4 813e 4ecc c43d ed1d b3bc
00000060: 8320 f63d 5889 d7bd 0ef0 08bd 61ab 3b3e
00000070: 5b50 0abe ab13 42be 5577 fcbc 8c0a a7be
00000080: 3a31 7bbe e460 1ebe 8c94 0b3d 1141 41be
00000090: f6c8 2fbe 5171 46be a945 543e bf8c 8d3e
000000a0: da65 10be 34bf 6f3d ef34 143e 633c 12bc
000000b0: 4658 a8be e605 53be a299 3cbe 43d9 afbe
000000c0: a6f4 7dbc 3871 a1bd a944 7f3e 8a14 b73d
000000d0: 0bcb 94bd 3424 453e 5b68 993d 42d3 55be
000000e0: fa4d 7e3d 7ad4 f6bd 5946 97bc 8cd5 70be
000000f0: 7957 d2be af36 933d fe74 443e 24f7 07be
00000100: 8bec a5bd 87a2 89be bc61 82be 2ade 8d3e
00000110: 9cb3 16bd 8c4b 02be 3121 3abe b6d7 903c
00000120: 617b 67be ad98 933d fd5a 303e a2fb 613e
00000130: ae96 acbe bbbf 05be 9751 51be db56 2f3e
00000140: 3c05 b5be bb50 40be c946 713e 5caa 733e
00000150: 75eb 4f3e 77ea ee3c b7de 893d 6a92 583e
00000160: 20c7 823e a5fa 8cbd 8f7b 1ebb 417e f2bd
00000170: f732 61be 74c5 17be 2106 aabe aac2 083e
00000180: b12b bd3e 1158 643e 7f5b 383e 6922 3ebe
00000190: b432 a7bd 46db 7b3e ab0b 933d a1ea 26bd
000001a0: 2639 8e3c 3eb0 453e f1ee a13e ffe3 1f3e
000001b0: 3e8a 213e 84f5 833e 5092 ccbd 0e14 8cbb
000001c0: e92a d23b f10f a83d d0df e43d 4e3d febe
000001d0: 08ef b53d 6059 5a3e 606d f4bd 5774 083e
000001e0: 4181 70bd 61b1 673e 81c0 30bd 0d90 25be
000001f0: 76ac 78bc 71ae f63d c91c bc3a 5964 41be
00000200: 436c 93be 4ff0 2c3e f6d2 dcbe c941 5cbc
00000210: e932 7fbe c911 76be c0f6 c53c 78dd 2b3e
00000220: 71fc 353b e4a5 49bd 3085 4abe 3a1b d43c
00000230: b5d2 c4bd 2a20 13bc f646 013d 63fa 943e

bias f4 [12]
-0.18243848 -0.16238569 0.057584736 -0.19747691 -0.14773129 -0.34808204 -0.057489075 -0.27766687
0.03679286 -0.11561404 -0.13774309 0.0106401695
00000000: 27d1 3abe 6f48 26be f9dd 6b3d 6337 4abe
00000010: df46 17be cf37 b2be aa79 6bbd 5a2a 8ebe
00000020: 1cb4 163d 0ec7 ecbd 860c 0dbe 1b54 2e3c
