MQCNN-4qubits-10class-CIFAR/Models_V1/model_21.pt (torch, 134248 bytes, 23 tensors)

weights f4 [7]
0	0x3e76b794	0.24093467
1	0x40b91674	5.783991
2	0x40af01e2	5.46898
3	0x3e079443	0.13240151
4	0x3e2ef690	0.17086244
5	0x40bc0f4b	5.876867
6	0x3fa17c01	1.2615968

weights f4 [7]
0	0x40012623	2.0179527
1	0x409662ea	4.6995745
2	0x406a75c1	3.6634371
3	0x408ef350	4.467201
4	0x3843a762	4.664751e-05
5	0x4077d443	3.8723304
6	0x3f46c70c	0.7764747

weights f4 [7]
0	0x40b508d2	5.6573267
1	0x40c72dd6	6.224345
2	0x3fc20b67	1.515973
3	0x408b3b86	4.351016
4	0x4081f423	4.061052
5	0x40016ae4	2.022149
6	0x402b64c9	2.6780264

weights f4 [7]
0	0x4000ed77	2.0144937
1	0x40afe69f	5.496902
2	0x3ebe0246	0.3711111
3	0x408b1f55	4.3475747
4	0x40ab85c3	5.3600783
5	0x409bdf3e	4.8710012
6	0x40226ad4	2.5377703

weights f4 [7]
0	0x404afc13	3.1716354
1	0x4075e531	3.8421137
2	0x409ee24e	4.965125
3	0x40a650f2	5.197381
4	0x3f9aa365	1.2081114
5	0x40b036b6	5.5066786
6	0x40bf48fd	5.9776597

weights f4 [7]
0	0x4077a86a	3.8696542
1	0x409cd06c	4.900442
2	0x3ed429fd	0.41438285
3	0x3fb64acf	1.424158
4	0x40ac56b4	5.385584
5	0x3f28ae31	0.65890795
6	0x3f273c41	0.65326315

weights f4 [8]
0	0x40bbb16b	5.8654075
1	0x401df358	2.4679775
2	0x3f3b003f	0.7304725
3	0x3fd051c1	1.6274949
4	0x40057492	2.08524
5	0x3f6581dc	0.89651275
6	0x3fd8c83e	1.6936109
7	0x4078acbb	3.8855426

weights f4 [8]
0	0x3f75ec41	0.9606362
1	0x40bc03b0	5.87545
2	0x3fdd7624	1.7301679
3	0x401b26e4	2.4242487
4	0x3fadad03	1.3568424
5	0x4030d612	2.7630658
6	0x40841df1	4.128655
7	0x3fac5670	1.3463879

weights f4 [8]
0	0x3f10f840	0.566288
1	0x408b16b8	4.3465233
2	0x3f3a45ce	0.72762764
3	0x3e1f7552	0.15572098
4	0x3fa81bc6	1.3133476
5	0x40157403	2.3352058
6	0x409ab7da	4.834943
7	0x40744689	3.8168051

weights f4 [16]
0	0x409cfcae	4.9058447
1	0x40a87125	5.2638116
2	0x4041d865	3.0288327
3	0x4002f942	2.0464635
4	0x40a53f04	5.1639423
5	0x40af268a	5.4734545
6	0x408fb993	4.491403
7	0x40aca1cd	5.394751
8	0x40c115d5	6.033915
9	0x403d2c83	2.9558418
10	0x3fad34f6	1.3531787
11	0x4083fb98	4.124462
12	0x3f999b99	1.200061
13	0x40aedafc	5.4642315
14	0x40c81f44	6.2538166
15	0x40013486	2.0188308

weights f4 [16]
0	0x4086a62a	4.2077837
1	0x3fb2d12c	1.3970084
2	0x402b09d3	2.6724746
3	0x3f61a4e9	0.8814226
4	0x40839ed7	4.1131396
5	0x40074a2b	2.1139019
6	0x4092655d	4.5748734
7	0x406288bf	3.5395963
8	0x40b840e0	5.7579193
9	0x3fbd7563	1.4801449
10	0x409d3e0c	4.913824
11	0x4018e85d	2.3891823
12	0x4043cd78	3.0594158
13	0x4054c777	3.3246744
14	0x3d81fab9	0.0634665
15	0x3f97ce9a	1.1859925

weights f4 [16]
0	0x3ca20eb4	0.019782402
1	0x40612cb9	3.5183547
2	0x3fda2730	1.7043209
3	0x409df7d7	4.936504
4	0x409b6683	4.8562636
5	0x3feae977	1.8352498
6	0x406869fd	3.631469
7	0x400c90dc	2.1963415
8	0x3eaa3c76	0.33249253
9	0x3ffcbc30	1.974493
10	0x40ba6dbb	5.825895
11	0x409d5401	4.9165044
12	0x408730b4	4.224695
13	0x407e1585	3.9700634
14	0x4016213a	2.345778
15	0x3efee908	0.49787164

weights f4 [12]
0	0x3ea02d3b	0.31284508
1	0x40c48524	6.1412525
2	0x400d8611	2.2113078
3	0x40a36339	5.105862
4	0x403bb9fa	2.933226
5	0x40333a13	2.8004196
6	0x407e1da8	3.97056
7	0x4061204d	3.5175965
8	0x406cfbb6	3.7028632
9	0x404dffe8	3.2187443
10	0x40a2e346	5.0902433
11	0x3f492a97	0.7858061

weights f4 [12]
0	0x40addf25	5.4334893
1	0x40661ce2	3.5955129
2	0x40bcc2bc	5.8987713
3	0x3f50295b	0.81313103
4	0x3fafebd7	1.3743848
5	0x404249de	3.0357585
6	0x3fdfd0d1	1.7485601
7	0x3f204f15	0.6262067
8	0x401475da	2.319693
9	0x3d4de915	0.050271112
10	0x4027f216	2.6241508
11	0x40817793	4.0458465

weights f4 [12]
0	0x409b675b	4.8563666
1	0x403f8394	2.992406
2	0x3f76ab4a	0.96355116
3	0x3f9cf526	1.2262313
4	0x4067dc27	3.622812
5	0x40654b13	3.5827072
6	0x40b31b3b	5.597074
7	0x4099c831	4.8056874
8	0x3fcf9434	1.6217103
9	0x40973f64	4.726488
10	0x40817208	4.04517
11	0x40a806a3	5.25081

weight f4 [5]
0	0x3fb402fd	1.4063412
1	0x3fb4c1d3	1.412165
2	0x3fb2a251	1.3955785
3	0x3fbbe73b	1.4679941
4	0x3fbac152	1.4590247

bias f4 [5]
0	0xbc47277b	-0.012155409
1	0xbdc19f2a	-0.09454186
2	0xbe22f66a	-0.15914312
3	0xbae70c36	-0.001762754
4	0x3dcc7855	0.09983889

running_mean f4 [5]
0	0x3f32f986	0.6991199
1	0x3e0aeb1b	0.13566248
2	0xbf70d0f7	-0.94068855
3	0xbf5ddfc2	-0.8666955
4	0x3f9e0fba	1.2348549

running_var f4 [5]
0	0x3d1e275b	0.03861175
1	0x3f0ee43f	0.55817026
2	0x3da4f16e	0.080538616
3	0x3da313e9	0.07962782
4	0x3d86ee4c	0.0658842

weight f4 [32, 80]
0	0x3a986b60	0.001162868
1	0xbda18f38	-0.07888645
2	0xbcc9dc5e	-0.024641212
3	0x3e04a7b2	0.12954596
4	0xbda465b8	-0.08027214
5	0xbe2561bc	-0.16150564
6	0xbe561826	-0.2090765
7	0xbe177d5b	-0.14793913
8	0x3e6fb2a5	0.23407991
9	0x3b058874	0.0020375522
10	0x3cab8d75	0.020941475
11	0x3e37929e	0.17927024
12	0x3d629e43	0.05532671
13	0x3e56ab3b	0.20963757
14	0x3de4bf3a	0.11169286
15	0x3d94a33f	0.07257699
16	0xbd80b909	-0.06285293
17	0x3ca5e061	0.020248594
18	0xbdb67c00	-0.0891037
19	0xbd2e2e97	-0.0425249
20	0xbddee1a0	-0.10882878
21	0xbe989fe9	-0.29809502
22	0xbe24d397	-0.1609634
23	0xbdf0027e	-0.11719225
24	0x3d48185d	0.04885136
25	0xbc938020	-0.01800543
26	0xbdc0915b	-0.09402724
27	0xbd73f19a	-0.05955658
28	0xbd98e185	-0.074648894
29	0x3df3a034	0.11895791
30	0x3cb689a4	0.022282429
31	0xbce5efd9	-0.02806847
32	0xbdf41c2c	-0.11919436
33	0xbe1340be	-0.14380166
34	0xbd5f816a	-0.05456678
35	0x3c475320	0.012165815
36	0xbb29c5c4	-0.002590523
37	0x3ddcd4ba	0.10782762
38	0xbcee09dc	-0.029057436
39	0x3c3059c5	0.01076359
40	0x3dd24323	0.102667116
41	0xbd3e042e	-0.046390705
42	0x3cb6848c	0.02228
43	0x3d8f904e	0.07009946
44	0x3dcb828b	0.099370085
45	0x3e50e927	0.2040144
46	0x3e1794ff	0.14802931
47	0x3cc4cf2d	0.02402457
48	0x3e36e90e	0.17862341
49	0xbbe67a73	-0.00703364
50	0xbc922d01	-0.017843725
51	0x3c67768f	0.014127388
52	0xbdd29dd7	-0.10284012
53	0x3d8e7574	0.06955996
54	0xbda13894	-0.078721195
55	0x3e09a623	0.13442282
56	0xbdf957f0	-0.12174976
57	0xbe45d222	-0.1931844
58	0xbd54d8b9	-0.051964495
59	0xbe1843a5	-0.14869554
60	0x3d9f1e73	0.077694796
61	0xbe157fc0	-0.14599514
62	0x3e48c584	0.19606596
63	0x3e6b808a	0.22998253
64	0xbda7ce6d	-0.081936695
65	0x3aeb6cd7	0.0017961514
66	0xbd291fe3	-0.041290175
67	0xbe476e37	-0.19475637
68	0x3e516fcd	0.20452805
69	0xbd24ad9a	-0.04020462
70	0xbdff8161	-0.12475849
71	0x3d2b0be1	0.041759375
72	0x3e6292bc	0.22126287
73	0x3e1d8211	0.15381648
74	0x3c98078d	0.018558288
75	0xbcc61b2f	-0.024182884
76	0x3dfc90db	0.123323165
77	0xbcbd92a3	-0.02314121
78	0xbd8732dd	-0.06601498
79	0xbe9292c6	-0.28627604
80	0xbdd9be87	-0.10632043
81	0xbdc8a9f8	-0.09798044
82	0x3d7a96d6	0.061179005
83	0xbd0909b6	-0.033456527
84	0x3c45ce1f	0.012073069
85	0xbbbdd0ef	-0.005792729
86	0xbe289cdc	-0.16466087
87	0xbdb07f13	-0.086179875
88	0x3dd4428b	0.103642546
89	0x3d6e75f2	0.05821795
90	0x3d85e502	0.065378204
91	0x3da1cf9d	0.07900927
92	0x3ddd0f6f	0.10793959
93	0xbcb856ef	-0.02250239
94	0xbe306410	-0.17225671
95	0xbe0ac310	-0.13550973
96	0x3d35f23f	0.044420477
97	0xbd0cd91a	-0.03438673
98	0xbd16ec78	-0.036846608
99	0xba69320f	-0.0008895704
100	0xbe1fff47	-0.15624724
101	0xbd218048	-0.03942898
102	0xbcc73e29	-0.024321632
103	0xbe161379	-0.14655866
104	0x3d79b4ed	0.06096356
105	0xbbae5d3b	-0.0053211725
106	0x3c79f86f	0.015256985
107	0x3d3c64e7	0.045994665
108	0x3e2f486c	0.1711747
109	0x3e274582	0.16335109
110	0xbd8a2e1e	-0.067470774
111	0xbc7ae40a	-0.015313158
112	0x3d5da6e8	0.054114252
113	0x3e65ec8d	0.22453518
114	0x3dd55b21	0.10417772
115	0x3e900a1a	0.28132707
116	0x3e5924de	0.2120547
117	0x3e2556ad	0.16146345
118	0x3e571e41	0.21007635
119	0x3c01622c	0.007896941
120	0x3d11cee3	0.035597693
121	0xbe4c2cfb	-0.19939034
122	0xbd95df18	-0.073179424
123	0xbdd8f620	-0.105938196
124	0x3cee65b9	0.02910124
125	0x3e695703	0.22787099
126	0x3e427394	0.18989402
127	0x3e3cc043	0.18432717
128	0xbe6df123	-0.23236518
129	0xbe00722b	-0.12543552
130	0xbe072a36	-0.13199696
131	0xbddedbf2	-0.10881795
132	0xbd66be1c	-0.056333646
133	0xbd1c2aca	-0.038126744
134	0x3d325959	0.04354224
135	0x3e27120e	0.16315481
136	0x3ded2153	0.11578622
137	0xbd506f91	-0.050887648
138	0xbd4f6e53	-0.050642323
139	0xbd51e077	-0.051239457
140	0x3de4139b	0.11136552
141	0xbe315bb5	-0.1732014
142	0xbdfbb683	-0.12290671
143	0x3db5b864	0.0887306
144	0x3d6c7987	0.057733085
145	0x3d5e67f6	0.054298364
146	0x3dab78ef	0.083726756
147	0xbd78599f	-0.060632344
148	0xbd3a7140	-0.04551816
149	0x3dcd4012	0.10021986
150	0x3c87a73d	0.016559238
151	0xbe6e570d	-0.23275395
152	0x3b8b292d	0.004246852
153	0xbd9edd5c	-0.07757065
154	0xbe2cda0e	-0.16880056
155	0x3e2d987b	0.16952698
156	0x3d59165e	0.052999847
157	0x3d3198dc	0.04335867
158	0x3dc9f384	0.098609
159	0xbdea1b40	-0.11430979
160	0x3af8ae0e	0.0018972771
161	0x3d332588	0.043736964
162	0x3cb856d1	0.022502335
163	0xbd92b943	-0.07164242
164	0x3da26cd4	0.079309136
165	0x3c38ff17	0.011291287
166	0xbd1937ec	-0.037406847
167	0x3c87a98d	0.01656034
168	0xbe63ace4	-0.22233921
169	0xbe58e9f7	-0.21183
170	0xbe910f76	-0.28332108
171	0xbe6135c4	-0.21993166
172	0xbd472987	-0.048623588
173	0x3d8f2e8c	0.069913
174	0xbdec920a	-0.11551292
175	0x3d9207f0	0.0713042
176	0x3ce2f5e6	0.027705144
177	0xbd5f8ebc	-0.05457948
178	0x3d87cc30	0.066307425
179	0xbd097145	-0.033555288
180	0xbdf75885	-0.12077431
181	0x3ce75f92	0.028243814
182	0x3e34c6aa	0.1765391
183	0xbde5749b	-0.11203881
184	0xbda18aeb	-0.078878246
185	0x3b6d306b	0.003619219
186	0x3c59fb37	0.013304523
187	0xbd325e9f	-0.04354727
188	0xbe356603	-0.17714696
189	0x3bac0b45	0.005250367
190	0x3d9089f4	0.070575625
191	0xbdc2e92b	-0.095171295
192	0xbe425860	-0.18979025
193	0xbdabdf48	-0.08392197
194	0xbd889d51	-0.06670631
195	0xbe2ea49e	-0.17054984
196	0xbe4eaf83	-0.2018414
197	0xbda512d4	-0.08060232
198	0x3e9b9c4e	0.3039269
199	0xbdc0b299	-0.09409065
200	0x3d3197f6	0.043357812
201	0xbc590131	-0.013244913
202	0x3e26b700	0.16280746
203	0xbdeb60e2	-0.11493088
204	0xbdbf9583	-0.09354689
205	0x3e3d9426	0.18513545
206	0x3bbcdea1	0.005763844
207	0xbc0ac24e	-0.008469177
208	0x3dac87fb	0.08424374
209	0x3cff0f10	0.031135112
210	0x3bf3e434	0.0074429754
211	0x3e118cbd	0.14213844
212	0xbda45c78	-0.080254495
213	0x3d97f1e2	0.07419182
214	0xbd0416f3	-0.03224845
215	0xbe0b6ba9	-0.13615288
216	0x3d86040c	0.06543741
217	0xbc4fd33e	-0.012684641
218	0x3e18b5b1	0.1491306
219	0xbd18bbfa	-0.037288643
220	0xbd518827	-0.051155236
221	0xbe1c85c8	-0.15285408
222	0x3c8dc8db	0.01730769
223	0x3e0a5f80	0.13512993
224	0xbd4f48b0	-0.05060643
225	0x3db6e406	0.08930211
226	0x3ca256e5	0.019816825
227	0xbddd2beb	-0.10799392
228	0xbc79d2a8	-0.015247978
229	0xbe32e8ca	-0.17471614
230	0x3e620e11	0.22075678
231	0xbcec4e33	-0.028845882
232	0x3d814b31	0.0631317
233	0xbe1f66f8	-0.15566623
234	0x3de93972	0.1138791
235	0x3d8a7549	0.067606516
236	0x3cb79851	0.022411497
237	0xbda18dbd	-0.078883626
238	0x3e4e8402	0.20167544
239	0x3cb497f9	0.022045122
240	0xbdf23718	-0.118269145
241	0x3e063ad9	0.13108386
242	0x3e3c7123	0.18402533
243	0x3dd104e3	0.1020601
244	0x3cf93f11	0.03042558
245	0x3cb9d2e1	0.022683563
246	0xbd422d20	-0.047406316
247	0x3c7b5d5f	0.015342086
248	0x3e3c3b6c	0.18382043
249	0xbe1184fe	-0.14210889
250	0xbea01ce8	-0.31272054
251	0xbc7bc0a0	-0.01536575
252	0x3d50f642	0.0510161
253	0xbd37c066	-0.04486122
254	0x3c254b10	0.010088697
255	0x3e06b804	0.13156134

bias f4 [32]
0	0x3cb60e1c	0.022223525
1	0x3dcc2edf	0.099698775
2	0x3d71d1b4	0.05903788
3	0x3e258026	0.16162166
4	0x3e1ed909	0.1551248
5	0x3d34b3ac	0.04411666
6	0x3e69195d	0.22763582
7	0xbd66f8bc	-0.056389555
8	0xbdb3730a	-0.08762176
9	0xbd44ba1a	-0.048029043
10	0xbdf53e1d	-0.11974738
11	0x3da3cd4c	0.07998142
12	0x3bc04a33	0.0058682202
13	0xbccd1335	-0.025033573
14	0xbdb570c7	-0.08859401
15	0x3e5b3e71	0.21410538
16	0x3e576460	0.21034384
17	0x3dc4d025	0.09610013
18	0xbdcf58cc	-0.101243585
19	0x3e74d1dd	0.23908181
20	0x3e87b0c9	0.26502064
21	0x3dcb6c0b	0.09932717
22	0x3d494a14	0.049142912
23	0x3e5bd6df	0.21468686
24	0x3dc694c6	0.09696345
25	0x3e34a717	0.17641865
26	0x3e83e1b5	0.25758138
27	0x3e00a646	0.12563428
28	0x3d8b53b9	0.06803078
29	0x3d8e057c	0.0693464
30	0xbd068cd9	-0.032849167
31	0x3d0abc13	0.033870768

weight f4 [10, 32]
0	0xbd42b3a4	-0.0475346
1	0x3e25105e	0.16119525
2	0xbe18557d	-0.14876361
3	0xbe06c9cb	-0.13162915
4	0xbe7a872b	-0.24465625
5	0xbbabfda5	-0.0052487426
6	0x3dbdcf58	0.09268063
7	0x3e30dafd	0.17271037
8	0x3e681051	0.22662474
9	0x3e62403f	0.2209482
10	0xbd002b59	-0.03129134
11	0xbd24279f	-0.040076848
12	0xbe183c88	-0.14866841
13	0xbd713d24	-0.0588962
14	0x3d8cd52c	0.06876597
15	0x3e403ca9	0.1877314
16	0x3e5fe321	0.21863987
17	0x3ea12201	0.31471255
18	0xbea11cc6	-0.31467265
19	0xbeb49f22	-0.3527766
20	0xbe107409	-0.14106764
21	0xbe02ba5a	-0.127664
22	0xbe581bec	-0.21104401
23	0xbe824465	-0.25442806
24	0xbd1c6f23	-0.038191926
25	0xbe90dbec	-0.28292787
26	0xbdb625b1	-0.08893908
27	0x3e927a60	0.2860899
28	0x3e3da387	0.18519412
29	0xbd8e09ad	-0.06935439
30	0xbdffe5dd	-0.12495015
31	0xbd8f4e18	-0.06997317
32	0x3e99ac51	0.3001428
33	0xbe3e9996	-0.18613276
34	0x3e270e8d	0.16314144
35	0x3caaf58f	0.020869045
36	0x3d65888c	0.056038424
37	0xbec5113c	-0.3848971
38	0xbe598d90	-0.21245408
39	0x3eb93899	0.36175993
40	0xbd92cb2d	-0.07167659
41	0xbd5ce74d	-0.053931523
42	0xbe1b4488	-0.15162861
43	0x3eccbd23	0.3998805
44	0x3e1c3dfd	0.15258022
45	0x3caf9bbe	0.021436568
46	0x3e7ae291	0.2450049
47	0x3d8e1839	0.06938214
48	0x3dca8fb5	0.09890691
49	0x3db24f0d	0.08706484
50	0xbed9b57e	-0.4252128
51	0x3dab491c	0.08363554
52	0x3d52b335	0.051440436
53	0xbe4def95	-0.20110925
54	0xbd8afaec	-0.06786141
55	0xbea81595	-0.32828966
56	0xbe36791c	-0.17819637
57	0x3e0c2115	0.13684495
58	0xbeb49710	-0.35271502
59	0xbe6709f8	-0.22562397
60	0xbca8d907	-0.0206113
61	0x3d36154e	0.04445391
62	0xbde701a3	-0.11279609
63	0xbc9060bc	-0.017624252
64	0x3ca5ecc1	0.020254495
65	0x3d829b37	0.06377261
66	0x3ea07e79	0.3134649
67	0x3cad2578	0.02113603
68	0x3de920ec	0.113832325
69	0x3e19c57a	0.15016738
70	0x3e135274	0.14386922
71	0xbe0d6ee9	-0.1381184
72	0x3e376ee7	0.179134
73	0x3e1ff37d	0.15620227
74	0x3da72ec3	0.08163216
75	0xbe33879f	-0.17532204
76	0x3e0af8f4	0.1357153
77	0x3ddec0c3	0.1087661
78	0xbe641acf	-0.22275852
79	0xbea52557	-0.3225505
80	0x3bfe7aec	0.0077661183
81	0xbe8af5bb	-0.27140602
82	0xbdd5f957	-0.104479484
83	0xbea97857	-0.33099625
84	0x3d310bbd	0.043224085
85	0x3e21b2f6	0.15790924
86	0xbe9454cf	-0.28970954
87	0xbd938df3	-0.07204809
88	0xbe0b7c1e	-0.13621566
89	0x3eb503c9	0.3535445
90	0x3d814b02	0.06313135
91	0x3e4bb747	0.19894134
92	0xbe23784b	-0.15963857
93	0xbe3a60b4	-0.18200952
94	0xbdae3698	-0.08506507
95	0xbe6f6023	-0.23376517
96	0x3d7347bf	0.059394594
97	0xbe39d438	-0.18147361
98	0xbdd833f9	-0.10556788
99	0x3e52d389	0.20588507
100	0xbd463c57	-0.04839739
101	0x3d769344	0.060199037
102	0x3e1698ea	0.1470677
103	0xbe5807b9	-0.21096696
104	0x3b8a168b	0.004214113
105	0xbc01608e	-0.007896556
106	0xbeaac73f	-0.33355138
107	0xbdc35707	-0.095380835
108	0x3e1c0eab	0.1523997
109	0x3e376600	0.17910004
110	0xbdf8d158	-0.12149304
111	0xbdccb344	-0.0999513
112	0xbe512e42	-0.20427802
113	0x3d5d4bd9	0.054027412
114	0x3ea8508f	0.3287396
115	0x3e5c434e	0.2151005
116	0xbcfef381	-0.031121971
117	0xbe0ecbf7	-0.13944994
118	0xbe8b3549	-0.2718909
119	0xbc5e3a95	-0.013563772
120	0x3d063630	0.03276652
121	0x3db0bcac	0.08629736
122	0x3e729eb5	0.23693354
123	0xbdf7af4e	-0.120939836
124	0x3c47d831	0.01219754
125	0x3ddc7be7	0.1076582
126	0x3deb8661	0.1150024
127	0x3df48c6b	0.11940845
128	0xbdffe4a2	-0.1249478
129	0xbd9b9d5e	-0.07598375
130	0xbe9d4cca	-0.30722648
131	0xbe21a993	-0.15787344
132	0x3e3b4786	0.18289003
133	0x3e6064c6	0.21913442
134	0x3e36cc71	0.17851426
135	0xbe87757c	-0.2645682
136	0xbe180a54	-0.1484769
137	0xbe2a01f4	-0.16602308
138	0xbdb17e66	-0.08666687
139	0xbe77f918	-0.24216115
140	0xbcbb1bd4	-0.022840418
141	0xbe3a1a86	-0.1817418
142	0xbd4e2b1b	-0.050334077
143	0x3dc2120e	0.094761
144	0x3e258077	0.16162287
145	0xbd436797	-0.047706213
146	0xbe31041e	-0.17286727
147	0xbe82c9ea	-0.25544673
148	0x3cba552e	0.022745695
149	0x3e8c8276	0.27443284
150	0x3cb2df8e	0.021835115
151	0xbda154e1	-0.078775175
152	0x3e543e44	0.20726877
153	0xbd903689	-0.07041652
154	0x3e872be8	0.26400685
155	0x3e2071e2	0.15668443
156	0xbe8005b8	-0.25004363
157	0xbe71ea9c	-0.23624653
158	0xbda1189a	-0.078660205
159	0xbea813d9	-0.32827643
160	0xbe964716	-0.2935111
161	0xbe4f69ca	-0.20255199
162	0x3e186200	0.14881134
163	0xbe0f6ecc	-0.1400711
164	0xbe5e3f35	-0.21703799
165	0x3e3975ba	0.18111315
166	0x3d6a3b01	0.057185177
167	0x3e3743ff	0.17897032
168	0xbdff3fa3	-0.124633096
169	0xbe2861e3	-0.16443591
170	0xbe5c6458	-0.21522653
171	0xbc828d38	-0.015936479
172	0x3d8a4595	0.06751553
173	0x3e8ee729	0.27910736
174	0x3d0c2e52	0.034223862
175	0x3da9f408	0.082984984
176	0xbebb4bab	-0.36581168
177	0xbcbf4860	-0.02334994
178	0x3e9cae95	0.30601946
179	0x3e6e5fe8	0.23278773
180	0x3d4a8da7	0.049451496
181	0xbca0763f	-0.019587634
182	0xbe6bfcf6	-0.23045716
183	0xbd599121	-0.05311692
184	0xbc8339e2	-0.016018812
185	0xbdadb529	-0.08481819
186	0x3c751786	0.014959222
187	0x3e003edc	0.12523979
188	0xbe171509	-0.14754118
189	0x3dc8630e	0.09784518
190	0x3e4b41e1	0.1984935
191	0x3e3e33ca	0.18574443
192	0x3c62471f	0.013810902
193	0xbe5cf894	-0.215792
194	0xbecd37c9	-0.40081623
195	0x3ea923d5	0.3303515
196	0xbe4ceeab	-0.2001292
197	0xbe396664	-0.18105465
198	0x3e57ef2b	0.21087329
199	0xbe020ad1	-0.12699439
200	0xbdb2c2c3	-0.08728554
201	0xbdd7228f	-0.105046384
202	0x3daf8c84	0.08571723
203	0xbe759cc1	-0.23985578
204	0xbdb9c67f	-0.09071063
205	0x3e0abec8	0.1354934
206	0xbdc631e1	-0.096774824
207	0xbebaa0cd	-0.36450806
208	0xbe725160	-0.23663855
209	0xbe4e4a6b	-0.20145576
210	0xbde69a85	-0.11259941
211	0xbcebd98b	-0.028790256
212	0x3e09434e	0.13404581
213	0x3e91f76f	0.2850909
214	0xbdb1332f	-0.086523406
215	0x3e0c5a06	0.13706216
216	0x3ea684e0	0.3252325
217	0xbe780c0c	-0.24223346
218	0x3d40c982	0.047067173
219	0xbe0e8657	-0.13918434
220	0xbbdb9120	-0.00670065
221	0x3db676fe	0.08909415
222	0xbecab888	-0.3959391
223	0x3dd4138d	0.103552915
224	0xbeea369e	-0.45744795
225	0x3c3182a1	0.010834367
226	0xbf09f2c8	-0.5388608
227	0xbeb591f1	-0.35462907
228	0x3df6a836	0.120438024
229	0xbd1f3138	-0.038865298
230	0xbe9c9f48	-0.30590272
231	0xbe4a5e70	-0.19762588
232	0x3dff453e	0.12464379
233	0xbe8574f3	-0.26065788
234	0x3e82ebb8	0.25570464
235	0xbde22856	-0.1104285
236	0xbe8794fb	-0.2648085
237	0x3dc12387	0.094306044
238	0xbe5eac4d	-0.21745415
239	0x3e15ca55	0.14627965
240	0xbdc93b3c	-0.09825751
241	0x3e9ddc7f	0.30832288
242	0xbe35fdb3	-0.1777256
243	0xbe8d6994	-0.27619612
244	0x3de6a684	0.11262229
245	0xbea09596	-0.31364125
246	0xbd991129	-0.07473976
247	0x3eb19f2a	0.34691745
248	0x3db8e8af	0.09028756
249	0x3ead3ad3	0.33833942
250	0x3e6a8720	0.22903109
251	0x3e86ff54	0.26366675
252	0xbda3dd37	-0.08001178
253	0x3d2f4d96	0.0427986
254	0x3ea21b1b	0.31661305
255	0x3e1fb27a	0.15595427

bias f4 [10]
0	0x3c83987a	0.016063917
1	0xbe277bd0	-0.16355824
2	0x3da2ef8c	0.07955846
3	0x3d20e995	0.03928526
4	0x3e2cb272	0.16864946
5	0x3e05eb4f	0.13078044
6	0x3dc279f9	0.09495921
7	0x3d91ce1f	0.071193926
8	0x3e181109	0.14850248
9	0x3c8ef4a6	0.017450642
