MQCNN-4qubits-10class-CIFAR/Models_V1/model_55.pt (torch, 134248 bytes, 23 tensors)

weights f4 [7]
00000000: 52fd 9c3e ce42 b540 2ee5 aa40 a1e5 013e
00000010: ab2e 9b3e 821b bc40 2d49 a13f
0.30662018 5.664405 5.340476 0.12685253 0.30309042 5.878358 1.2600456

weights f4 [7]
00000000: 4d3c fd3f 9b3d 9540 1b06 6940 0b65 8f40
00000010: 66c8 cab5 8c6f 7140 9dd7 413f
1.9784027 4.66377 3.6409976 4.4810843 -1.5108496e-06 3.7724333 0.75719625

weights f4 [7]
00000000: 9c63 b440 15c3 c940 49ea cb3f 7902 8a40
00000010: 3273 7c40 a2ac 0440 4b6d 2c40
5.6371593 6.3050637 1.5930873 4.312802 3.944531 2.0730367 2.6941707

weights f4 [7]
00000000: c8bb 0040 9c96 a640 54f9 753e f946 8b40
00000010: 83f2 af40 14e4 9b40 dedd 1140
2.0114613 5.205885 0.24020892 4.3524137 5.4983535 4.8715916 2.2791667

weights f4 [7]
00000000: e318 4b40 a2a6 6e40 cbf0 9f40 454e a540
00000010: 674f 863f b821 b040 c471 b740
3.173394 3.7289205 4.9981437 5.1658044 1.0492982 5.504116 5.7326374

weights f4 [7]
00000000: c918 7540 f0c3 9940 900e a23e 8020 b73f
00000010: 428f aa40 91a1 283f d119 193f
3.8296378 4.805168 0.31651735 1.4306793 5.3299875 0.6587153 0.5980502

weights f4 [8]
00000000: 0cbc ba40 1027 1940 0b73 363f 5679 ce3f
00000010: 08cf 0a40 181c 613f 0529 d83f 6a84 7940
5.835455 2.3930092 0.7126929 1.6130779 2.1688862 0.8793349 1.6887518 3.898707

weights f4 [8]
00000000: 903e 723f 843a bd40 7e21 de3f 03d0 1b40
00000010: f709 b93f 3269 3440 3c30 8440 e162 ad3f
0.9462671 5.913393 1.7353971 2.434571 1.4456166 2.8189206 4.130888 1.35458

weights f4 [8]
00000000: 8dce 183f 2dee 8940 480d 3f3f fc8a 053e
00000010: 5af5 993f 3dcb 0f40 b2d5 9a40 c5dd 7540
0.5969017 4.310324 0.7462964 0.130413 1.2028 2.2467797 4.838586 3.8416607

weights f4 [16]
00000000: 62f6 9e40 3bd0 a640 2ea4 3d40 6a33 f93f
00000010: a455 a940 b65c b740 3263 9340 57cd a840
00000020: 1f6c c340 6b51 3b40 5436 b63f 38b8 8b40
00000030: 1a79 9a3f eaab ae40 530a c840 b5cb ff3f
4.967576 5.2129188 2.9631457 1.9468815 5.291704 5.7300673 4.605859 5.275066
6.1069484 2.9268444 1.423533 4.3662376 1.2068207 5.4584856 6.2512603 1.9984041

weights f4 [16]
00000000: 1bc8 8740 f36e b33f 6f7f 3840 9567 303f
00000010: 8ca8 8140 5ce7 0340 6f06 9740 83b7 6540
00000020: 2b3d b940 9739 be3f c6e7 9f40 e465 1740
00000030: 18b1 4a40 69e1 5440 bfd3 b23d d96e 963f
4.243177 1.4018234 2.882778 0.68908054 4.0518246 2.060996 4.7195354 3.5893257
5.788717 1.4861325 4.9970427 2.365594 3.167059 3.326258 0.087317936 1.1752578

weights f4 [16]
00000000: d6e1 6b3c bd7a 5c40 39e7 db3f c156 9f40
00000010: 17d0 9740 624f fa3f 496a 6640 1bb6 1240
00000020: 5615 9f3e 136a fe3f 9a80 ba40 2e93 9e40
00000030: a64f 8340 518e 7e40 e5fb 1440 d3ee fe3e
0.014397105 3.4449914 1.7179939 4.97934 4.7441516 1.9555476 3.6002371 2.2923648
0.31070966 1.9876121 5.8281984 4.9554663 4.1034727 3.9774363 2.3278744 0.49791583

weights f4 [12]
00000000: 4338 673e a630 c540 7adc 1640 095e a140
00000010: 37d5 3b40 ac80 2340 b50b 7b40 0803 5d40
00000020: 02a3 6d40 531c 4e40 5bc9 a240 2cc0 4b3f
0.22580056 6.1621885 2.3572068 5.042729 2.9348886 2.5547285 3.9225895 3.45331
3.7130742 3.2204788 5.0870795 0.79590106

weights f4 [12]
00000000: f0a4 ae40 6821 6a40 90a6 bd40 3826 613f
00000010: 2ea1 a53f e6b0 3740 8759 e43f 1527 3a3f
00000020: d4cd 1440 7f6e 443d 8a43 2740 359e 8140
5.457634 3.658289 5.9265823 0.8794894 1.2939813 2.870172 1.7839822 0.72715884
2.3250628 0.04795694 2.6134973 4.0505624

weights f4 [12]
00000000: d69b 9a40 d134 4940 7315 6f3f e048 ac3f
00000010: c587 5a40 1768 6940 e961 b740 4358 9840
00000020: ca3d d13f 2935 9740 bdf4 8140 f7cc a840
4.831523 3.1438487 0.93392104 1.345974 3.4145367 3.6469781 5.730702 4.760774
1.6346982 4.7252393 4.0611253 5.27502

weight f4 [5]
00000000: ed65 da3f 3748 d93f ac6d d13f af88 df3f
00000010: aebf e03f
1.7062355 1.6975163 1.6361594 1.7463588 1.7558496

bias f4 [5]
00000000: a0d7 00be c95f acbd b4a9 12be 3f5e 673d
00000010: 26c0 a83d
-0.12582254 -0.08416707 -0.14322549 0.056486364 0.082397744

running_mean f4 [5]
00000000: ff16 2e3f 1911 26be 76a3 6ebf 1947 4bbf
00000010: 421b 9c3f
0.6800384 -0.1621746 -0.9321817 -0.7940536 1.2195818

running_var f4 [5]
00000000: 0012 563d a18f 203f 8d36 bd3d d977 973d
00000010: 45ef 3f3d
0.05226326 0.6271916 0.0923892 0.07395906 0.046859045

weight f4 [32, 80]
00000000: 79f3 063a dde4 9ebd 5182 083b c547 343e
00000010: b8d9 42be 41a8 1fbe 1a0f 93be cdc2 81bd
00000020: 5647 6a3e e75a 8dbd 598b d2bb 0a55 023e
00000030: c33e a63d 08b1 ae3e 85a1 203e 0674 49bc
00000040: 731d 03be 865a d63c 729f 1abe 1020 e2bc
00000050: 0db1 f8bd 0fba 81be f857 31be 3402 c0bd
00000060: bbfb 113e 4893 103d c66b 7e3d f9e8 5ebd
00000070: ae9e d5bb 412b df3d 74a1 3fbd 461a 82bd
00000080: d335 0fbd 5f77 17be 90d5 8cbd e4d1 25bb
00000090: 8d0b 243d 3cc4 4f3e 2b0d c1bd 40bd bf3c
000000a0: 8485 c03d 066c d7bd 9a78 be3c f4a3 103e
000000b0: 5f45 c33d e7f1 6f3e 2696 873d 31f1 94bd
000000c0: d67c 503e 2aa2 293d 16f9 f1bc d5f3 b13d
000000d0: 3d66 c1bd 9d27 4f3d f4e4 16be 58f8 433e
000000e0: 1dd5 e3bd 779a 96be eba3 9dbd 1aed 65be
000000f0: 7af6 543e 03fc 04be f8c7 213e e080 5e3e
00000100: 0505 0ebd ccea a13d 37b5 463c 84dc 5cbe
00000110: f80b 483e 9e0a 09be b6ca 17be 5952 e53c
00000120: 42b8 9d3e 937f 6b3e af99 0fbe bdf1 6f3c
00000130: 5efe 913d 4297 ea3c 8c65 d8bd f364 87be
00000140: 4a0f 6dbd f7c8 41bd 93f3 9d3d af75 82bd
00000150: e14c 983c 649a 083d f530 3abe febc 9cbd
00000160: 255a 553e c75c 9d3d 5d6f c13d 847f 163d
00000170: 1d71 f93d 126d ffbd 0be5 51be dcff 3bbe
00000180: 99a0 383d 0bd4 08bb 6393 a03c 1c4e b8bc
00000190: e4bb 7ebe 9370 a9bc 4f98 343d 0b32 28be
000001a0: 736e da3d 6426 6d3d da97 e23c 24ab 0f3e
000001b0: 22a4 4c3e 5eb0 2d3d 9670 9fbd 95b1 4abd
000001c0: 0b94 383d 0af1 743e 4c30 3d3e 54dc a53e
000001d0: 2bef 293e 1ca6 273e e9e2 5e3e 1861 c2bd
000001e0: 8bc3 273d bf45 a7be e13d babd bcbd 4cbe
000001f0: 56b2 efbc 24e7 883e 667d 7a3e 4e26 1f3e
00000200: d819 84be 9301 47be 4fbc b2bd 9d6f e5bd
00000210: 83a2 013d 9985 87bd 91cd b83d 1ea0 4e3e
00000220: f1b0 953d bfca b0bc b8a5 c8bc 33a8 60bd
00000230: 5b49 253e d474 2abe 6798 1fbe 133c 383e
00000240: 28a2 a23d 5ce2 ae3d 5b0e 043e 4ca0 85bc
00000250: bf33 a1bc c4e3 3d3e 2428 60bd 0fd4 95be
00000260: 3709 d4bc 30d8 74bd 3572 9ebe db99 103e
00000270: e398 8b3c 6696 2ebc 457c b13d 09c4 37be
00000280: c3b5 453d 6073 fa3c f5a2 7fbd f37a 62bd
00000290: 1a50 263e 655e 923c ecb5 63bc 3c67 4e3d
000002a0: e5a3 59be 8519 89be fdce 87be 1b7e 4ebe
000002b0: 4bc5 95bd cbda c53d 0ffc 3dbe 46d5 0a3e
000002c0: aeee 1b3d 39b2 e7bd 7b11 013d 81ed 69bd
000002d0: f661 f3bd e2f1 973c 0103 713e fafe 19be
000002e0: 8683 35be d760 25bd 3ee4 0f3b 54b1 0ebd
000002f0: 6712 52be 1582 0d3d 215d e03d c2f4 d9bd
00000300: fda7 2abe 3717 ddbc 93ae 8dbc c8ef 20be
00000310: ada4 81be 4619 f9bd 50f0 e23e 5c7e 07be
00000320: 7125 003b 4160 bcbc 6470 523e 7746 03be
00000330: 3732 c0bd 833c 5a3e 1def babc f9b3 8dbc
00000340: ded9 263e 034e f13c 2209 e6bb 9644 7e3e
00000350: f933 05be 11d1 173e fb29 cdbd 55ce 46be
00000360: 94ee 2f3d 4817 2cbd 3976 293e 2c05 e4bd
00000370: a8ea a5bd 096c 2abe 731b 963c df53 4a3e
00000380: 525d 4abc f620 853d 2b3e 51bd 27d0 a3bd
00000390: 3ae6 55bc e830 75be c105 4d3e c256 a7bd
000003a0: b33e 023e 52a8 d4bd 8ee1 033e 238b ab3d
000003b0: 12e2 b6bc 3177 8abd 6c4f 3b3e c531 c4bc
000003c0: e565 6ebd 99e1 733e ad24 6f3e 15e1 493e
000003d0: f755 e43d 22dc 28bd e3d4 c0bd 0390 70bd
000003e0: 5a59 663e 0e41 1bbe ec79 c6be 8502 31bd
000003f0: 0274 7b3d c6c5 ebbd 2387 b3bd ba83 183e
0.00051479746 -0.07758496 0.0020829628 0.17605503 -0.19028366 -0.15591528 -0.2872246 -0.063359834
0.22878775 -0.06902104 -0.006425303 0.12727752 0.081174396 0.3411944 0.15686615 -0.012295729
-0.12804203 0.026166212 -0.15099886 -0.02760318 -0.12143145 -0.25337264 -0.17318714 -0.0937542
0.14256184 0.03529671 0.0621145 -0.0544214 -0.0065191602 0.10896922 -0.046784833 -0.063526675
-0.03496344 -0.1479163 -0.06876671 -0.0025302107 0.04005008 0.20289701 -0.0942634 0.023405671
0.09400466 -0.10518651 0.023250867 0.14125043 0.09534716 0.23432122 0.066204354 -0.07272566
0.20360121 0.041414417 -0.029537719 0.086890854 -0.094433285 0.050574888 -0.14735776 0.19137704
-0.111246325 -0.29414722 -0.076972805 -0.22453728 0.20797148 -0.1298676 0.15798938 0.2172885
-0.034672756 0.07906112 0.012128166 -0.21568495 0.19535816 -0.13382956 -0.14823422 0.027993368
0.3080464 0.22997884 -0.1402347 0.014645037 0.07128595 0.028636578 -0.105662435 -0.26444206
-0.05787591 -0.047310796 0.07712474 -0.063701026 0.018591346 0.033350363 -0.18182738 -0.07653235
0.20835169 0.076837115 0.09445069 0.036742702 0.12179778 -0.124719754 -0.20497529 -0.18359321
0.045075033 -0.002087834 0.01960153 -0.022498183 -0.24876362 -0.020683562 0.044090565 -0.1642534
0.10665598 0.05789794 0.0276603 0.14030129 0.19984487 0.042404525 -0.07785146 -0.04948576
0.04506306 0.23920074 0.18475455 0.3239466 0.16595142 0.1637196 0.21766247 -0.094911754
0.04095797 -0.326704 -0.09093834 -0.19994253 -0.029259842 0.26738846 0.24461898 0.15541956
-0.25800967 -0.19434194 -0.08727323 -0.11202929 0.031649124 -0.066172786 0.09023584 0.20178267
0.073091395 -0.021581052 -0.024493083 -0.054847907 0.16141264 -0.16646129 -0.1558548 0.17991666
0.07941085 0.085392684 0.12896101 -0.016311787 -0.019677995 0.18543917 -0.05472578 -0.2926335
-0.0258833 -0.059776485 -0.30946508 0.14121191 0.017040676 -0.010655975 0.08666281 -0.17945875
0.048269045 0.030572593 -0.062411267 -0.055293035 0.16241494 0.017867276 -0.013898354 0.05039142
-0.21253927 -0.26777282 -0.26525107 -0.20165293 -0.07313021 0.09660872 -0.18553184 0.1355792
0.03806942 -0.1131329 0.03151081 -0.057111267 -0.11883919 0.018547956 0.23536302 -0.15038672
-0.17725953 -0.040375557 0.0021956111 -0.034837082 -0.20514832 0.034547884 0.10955263 -0.10642387
-0.16665645 -0.026988609 -0.017295158 -0.1571647 -0.2532095 -0.12163024 0.4432397 -0.13231796
0.0019553567 -0.022995116 0.20550686 -0.12819849 -0.09384578 0.21312146 -0.022819096 -0.017297732
0.16294047 0.029456144 -0.0070201317 0.24830851 -0.13008107 0.14825846 -0.10017773 -0.19414647
0.042952135 -0.04201439 0.16549005 -0.11133799 -0.08101398 -0.16642775 0.018323636 0.19758557
-0.012351351 0.065004274 -0.05108468 -0.07998686 -0.013055379 -0.23944438 0.20021726 -0.081708446
0.1271923 -0.10383667 0.12879011 0.083761476 -0.022324596 -0.06761015 0.18292016 -0.023949513
-0.058202643 0.23816527 0.23353834 0.19714768 0.11149209 -0.04122556 -0.09415605 -0.05873109
0.22495022 -0.15161535 -0.38764894 -0.043215293 0.06138993 -0.11512332 -0.0876601 0.14894

bias f4 [32]
00000000: 4d57 7abc 2a09 363e 903c be3d 108b 0a3e
00000010: b85a 8a3e 9dbc aabc cc67 5d3e 6338 f3bd
00000020: 5b98 34be 5379 21bd deb1 03be 1606 833e
00000030: 2b43 bb3a 9bab 463d 94c6 bdbd 30b6 b53e
00000040: f545 613e 400e 28b9 a836 5abe c26e 8b3e
00000050: b782 813e 13e7 063e 85af ba3d 8200 7a3e
00000060: 917f 143e 6751 113e bbc7 a63e 5c4c dd3c
00000070: def0 57bd be86 533d 238f 5abd 2162 0a3d
-0.015279603 0.17776933 0.09288895 0.1352961 0.27022338 -0.020841891 0.21621627 -0.11875989
-0.17636244 -0.039422344 -0.1286082 0.2559058 0.0014286985 0.0485035 -0.092663914 0.3549056
0.21999343 -0.00016027037 -0.21309912 0.2723294 0.2529504 0.13174085 0.09115509 0.24414256
0.14501788 0.14191209 0.32574257 0.02701395 -0.052719943 0.051642172 -0.053359162 0.03378499

weight f4 [10, 32]
00000000: 5324 bd3b 84c0 2a3e a04c 3dbe abff e1bd
00000010: 7eba 93be 96e7 32bd c5fd c13d 3cc4 6e3e
00000020: dfe9 8d3e 5a7b 8b3e bd33 2abb 91ac 673c
00000030: 4c75 00be 501a 33bd 211e 653d 635c 623e
00000040: 6397 623e a056 a33e 26a0 ddbe b523 fabe
00000050: d857 52be 2f08 18be 8919 83be 8314 8cbe
00000060: f8bc 2c3d 835d 9dbe 06c6 2dbe 120e d83e
00000070: d0db 523e dfd3 f5bd 9877 f4bd 03cc 23bd
00000080: 9420 933e 544d 6ebe 1bd2 323e a765 413e
00000090: 5808 f53d e46f edbe a38f 5bbe 7bed f73e
000000a0: 9a8c 2abe 99a5 b93c 81ca 6ebe dd24 e73e
000000b0: 23d7 313e 6cf7 bb3c c8d3 643e 31ae 243e
000000c0: fb56 593d 8232 363e d113 02bf 0d83 3b3d
000000d0: 0865 223d 637e 5abe 8c82 16bd 62d2 e2be
000000e0: 3182 73be 0575 bf3d 0db7 eabe b1af 84be
000000f0: a41d 39bd 9d72 0c3d 6139 0bbe fd35 f23c
00000100: f561 733d ee55 7b3d 4ce7 c23e 5aed e03c
00000110: ac1d 073e 1b27 ef3d 7a29 4f3e 97ae 0ebe
00000120: 582f 903e e22f 2c3e cfa4 d13d a3c0 88be
00000130: 2fb6 d03e 71fd 433e d658 9dbe 2e86 d5be
00000140: 2b28 ca3c e885 bebe 16cc 9cbd 7ca2 d6be
00000150: ee84 693d 4a4f 303e abbf c4be 56fb 03bc
00000160: 94d1 6cbe c90f 043f dd11 9e3c addd 243e
00000170: b236 2bbe cc45 93be 1a71 afbd 5b56 9bbe
00000180: 12a6 73bc 637d 02be 5b0e adbd 43e2 5e3e
00000190: cd6b 22bd 6944 fc3d 8114 053e 55b1 a7be
000001a0: 9678 a7bd 210f 20bd 6b67 d6be 14ec d1bc
000001b0: 73cb 5e3e 0f68 233e 6fd8 04be 3540 d1bd
000001c0: b956 b7be b506 823d 993f a23e e7c3 6d3e
000001d0: 23b1 bcbb d536 1abe e849 a6be 360c 0dbc
000001e0: 4493 d53c f501 203e 46c0 893e 4e01 2cbe
000001f0: 7ffb a53d 75c5 163e 0221 d63c 21ca e23d
00000200: 2da7 11be d9a3 48bd 2a7e a0be 0abc 2fbe
00000210: 0d8e 433e b684 8a3e 12f9 473e 79b5 73be
00000220: 89f1 edbd c9c0 40be 4fc0 babd 8288 c8be
00000230: 6906 eabd 87a9 6fbe e638 2dbd 5343 1e3e
00000240: 052b 833e ed85 1ebd 7ee9 ebbd 943d 8bbe
00000250: 667a 0ebd 7129 ac3e bfca 873d 3488 60bd
00000260: 3b41 853e 15b6 aebd 2893 9e3e 62ef 0f3e
00000270: 9da6 90be 7720 cfbe 2e25 a8bd a9be e9be
00000280: 9d63 ccbe 79f8 8cbe 5462 363e 238e 49be
00000290: ed05 98be ae12 823e a652 0b3e 8c8d 033e
000002a0: 07c8 7dbe 5896 27be 86d5 8abe 53f8 2abd
000002b0: e12f 0a3e 577f b83e 45a0 ad3c 53a9 0dbd
000002c0: b73a bdbe bf05 3dbd f2e6 a43e 25e6 8d3e
000002d0: 1dd2 e63d 9512 8fbd fe68 76be 3e26 95bd
000002e0: 8bbb e43c 0a73 03be 4a42 04bc 4460 f03d
000002f0: fa23 20be f457 873e 4060 463e f950 753e
00000300: e0df 583d 16c2 92be 310d f3be d785 9f3e
00000310: a892 90be 7f29 13be c351 5a3e d7bf 16be
00000320: e3db 8b3c f2dc 41be e485 4f3e b1cb 8dbe
00000330: 3e6d 29be ce25 b23d 32b5 aabd 41e7 05bf
00000340: a37e 6abe 6b64 c7be 84a5 e1bc 3d9b 59bd
00000350: fa63 483e 1bfa 8a3e 5888 db3c bd79 123e
00000360: e95b d23e dd4f b1be 4c36 ba3d b19e babd
00000370: ab39 35be f63f 7a3e e195 d9be 061f eb3d
00000380: 37c0 0fbf 2079 f9bc 2a37 3bbf c882 cdbe
00000390: 2ea2 403e 558c 0fbe 7b84 c9be f51f 8fbe
000003a0: b13c 573e 8af1 8ebe 683f db3e 1b92 fabd
000003b0: 8491 06bf 7184 063e 7135 b1be f12b 973e
000003c0: 8f6b 07be 3ac2 b13e facf 29be a15b 92be
000003d0: 18a0 0f3e e88d aebe b238 acbd be18 bc3e
000003e0: a38a df3b 4e8b c23e c2ab 833e 2eed a03e
000003f0: 684e 4cbe 72ea 8cbd 7095 da3e e280 3b3e
0.0057721524 0.16675001 -0.18486261 -0.11035093 -0.2885322 -0.04367789 0.09472231 0.23317045
0.27717492 0.27242547 -0.002597078 0.014140264 -0.12544745 -0.043726265 0.055936936 0.22105555
0.22128062 0.31902027 -0.43286246 -0.48855367 -0.20541322 -0.14846872 -0.2560542 -0.273594
0.042172402 -0.30735406 -0.16970071 0.42198235 0.20591664 -0.12003302 -0.11936873 -0.039989483
0.28735793 -0.23271686 0.17462961 0.18886434 0.11964482 -0.46374428 -0.21441512 0.4842337
-0.16655198 0.02266197 -0.23319437 0.45145312 0.17367224 0.022945128 0.22346413 0.16082074
0.053061467 0.17792705 -0.5081149 0.045779277 0.039647132 -0.21337275 -0.036745593 -0.44301134
-0.23780133 0.093484916 -0.45842782 -0.25915292 -0.045194283 0.03428899 -0.13596107 0.02956676
0.05941959 0.061361246 0.3806709 0.027456928 0.13194913 0.11677381 0.20230666 -0.13933788
0.2816112 0.16815141 0.10236513 -0.2670947 0.40763995 0.19139649 -0.3073184 -0.41703933
0.024677357 -0.37211537 -0.07656114 -0.4192084 0.057011537 0.17217746 -0.3842748 -0.008055529
-0.23126823 0.51586586 0.019295627 0.16100188 -0.16720083 -0.28764188 -0.08566494 -0.30339321
-0.014871137 -0.12743144 -0.08450004 0.21766 -0.039653588 0.12317736 0.12996103 -0.3275248
-0.08177297 -0.039076928 -0.41875777 -0.025625266 0.21757297 0.15957664 -0.12973188 -0.10217325
-0.35808352 0.063489355 0.31689146 0.23219262 -0.005758421 -0.1505998 -0.3247826 -0.008608868
0.026071198 0.15625747 0.26904505 -0.16797373 0.0810461 0.14723761 0.026138786 0.11073709
-0.14223929 -0.048984382 -0.31346256 -0.17161575 0.19097157 0.27054375 0.19528607 -0.23799695
-0.11618335 -0.18823542 -0.09118711 -0.39166647 -0.11427004 -0.23404513 -0.04229059 0.1545537
0.2561876 -0.03870194 -0.115191445 -0.27195418 -0.034784697 0.33625367 0.066304676 -0.054817393
0.2602633 -0.08530823 0.30971646 0.14056161 -0.28252116 -0.40454456 -0.082102165 -0.45653275
-0.3991975 -0.2753332 0.17810947 -0.19683127 -0.2969202 0.25404876 0.13605747 0.12846965
-0.24783336 -0.16365945 -0.2711603 -0.041740727 0.13494827 0.36034653 0.021194587 -0.03458531
-0.36958858 -0.046148058 0.32207447 0.2771465 0.11270545 -0.06985966 -0.24063489 -0.07282685
0.027921459 -0.12836853 -0.008072445 0.11737111 -0.15638724 0.2643429 0.19372654 0.2395667
0.05294788 -0.286637 -0.47471002 0.311568 -0.2823689 -0.14371298 0.21320252 -0.14721619
0.017072624 -0.1893194 0.20265919 -0.27694467 -0.16545579 0.08698617 -0.083353415 -0.5230599
-0.2289987 -0.389438 -0.027544744 -0.053126562 0.19569388 0.2714394 0.026798412 0.14304252
0.41085747 -0.34631243 0.090923876 -0.09112299 -0.1769778 0.24438462 -0.4249716 0.114805266
-0.5615267 -0.030453265 -0.7313105 -0.4013884 0.18811867 -0.14018376 -0.39358887 -0.2795407
0.21019246 -0.27918655 0.42821813 -0.12234899 -0.5256579 0.1313646 -0.34611085 0.29525712
-0.13224624 0.34718496 -0.16583243 -0.28585532 0.14025915 -0.3409264 -0.08409251 0.36737627
0.0068219467 0.37996906 0.25716978 0.31430954 -0.19951785 -0.068806544 0.42692137 0.18310884

bias f4 [10]
00000000: dd28 60bd e75f 39be ad5c a33c 0948 903d
00000010: 597c 6b3e 0df5 533d e413 d63d c036 d23d
00000020: 384f 5b3e 2266 363d
-0.05472647 -0.1810299 0.019941652 0.070449896 0.22996654 0.05174737 0.104530126 0.10264349
0.21416938 0.044530995
