MQCNN-4qubits-2class-CIFAR/Models_V1/model_7.pt (torch, 95819 bytes, 23 tensors)

weights f4 [7]
00000000: e22c 903f 70b5 0f40 69da c13f 43b6 523f
00000010: a918 ad40 e7d2 8840 39d6 c640
1.1263697 2.245449 1.5144778 0.8230936 5.4092603 4.275745 6.21365

weights f4 [7]
00000000: 70aa a540 830c af40 7350 a340 9e4c 7b3f
00000010: eb5a b33f 2a1d 193f c6ca 0b40
5.1770554 5.4702773 5.1035705 0.98163784 1.4012121 0.59810126 2.1842513

weights f4 [7]
00000000: 4c52 133f 5ec3 7640 90b7 1c40 2cda 6840
00000010: aa8c 9140 0096 7e40 93af 9540
0.5754745 3.8556743 2.4487038 3.6383162 4.548421 3.9779053 4.6776824

weights f4 [7]
00000000: 32ac a040 19b6 ff3f 27e8 a540 0bd7 623e
00000010: 6a4f c040 88b3 0940 52d6 9640
5.02102 1.9977447 5.184589 0.22152345 6.009694 2.1515827 4.713662

weights f4 [7]
00000000: 17b1 6e40 37d2 9640 534c 6940 fc55 2f3f
00000010: 70b9 b03a 2d3d b23f 6529 b840
3.7295587 4.713161 3.6452835 0.68490577 0.0013482999 1.3924919 5.755053

weights f4 [7]
00000000: d8cc b93f 36b7 e43f 99ec 5d40 b795 2c40
00000010: cf20 b93f 3e1e ba3f db5e 513f
1.4515638 1.7868412 3.4675658 2.6966379 1.4463137 1.4540479 0.8178536

weights f4 [8]
00000000: 03c9 8d40 8ee2 ae40 7f8a 1a40 3412 bc40
00000010: 1eeb b03f 3bdb af3f eaa4 c540 f685 8040
4.4307876 5.4651556 2.4147031 5.877222 1.3821752 1.3738779 6.176381 4.0163527

weights f4 [8]
00000000: 2717 4a40 160e 8f3f eacc b940 eba0 e83e
00000010: e8aa a840 b36c dc3e ed19 2e3f 980f 9040
3.157663 1.1176174 5.806264 0.4543527 5.2708626 0.4305168 0.6800831 4.5019035

weights f4 [8]
00000000: 7348 8540 3054 513f bbac 2d40 19ab a840
00000010: 004b 8d40 0491 c83f 959d 7d40 64a0 9d40
4.165094 0.81769085 2.7136676 5.270886 4.4154053 1.5669255 3.962743 4.925829

weights f4 [16]
00000000: 4b94 c940 b01f 043f 581c 733f 33bb 7a40
00000010: 4008 a440 a348 b140 62f0 eb3f f687 5240
00000020: 9e6f 4240 2f7d c940 d81d 7e40 440e 4040
00000030: 8643 7640 a4a6 0440 b0d3 aa40 20e3 9640
6.299352 0.5161085 0.94965124 3.9176757 5.126007 5.540117 1.8432734 3.2895484
3.0380626 6.296531 3.9705715 3.0008707 3.8478713 2.072671 5.3383408 4.715225

weights f4 [16]
00000000: f544 8b3d 1757 153f 691d 1040 313d 483f
00000010: 785f 8d40 effd d83e c975 673f af12 9c40
00000020: 5dde 5240 8a25 4c40 ca90 eb3f ad9c 9640
00000030: a9b5 993d f907 b540 c4de 7940 0d92 4440
0.06800262 0.58336014 2.251795 0.7821837 4.417904 0.42381236 0.904141 4.8772807
3.294822 3.1897912 1.8403561 4.7066255 0.07505352 5.657223 3.9042215 3.0714142

weights f4 [16]
00000000: c664 8940 f108 1640 96d0 5340 1af3 fc3f
00000010: e57e 663e a152 e23f 39fd 9f3f a4bf bb40
00000020: 9dc8 ef3f 28ab c540 6aed 6b40 2256 0140
00000030: a849 3040 fb51 8d40 af50 a240 c5dd ab40
4.2935514 2.3442957 3.309606 1.9761689 0.22509344 1.7681466 1.2499152 5.8671436
1.8733097 6.177143 3.6863656 2.0208821 2.7544956 4.4162574 5.072349 5.3708215

weights f4 [12]
00000000: c93c 9140 e9e3 8540 cf6e 4740 7fad 6e40
00000010: 9c7c 4940 f208 8c40 d861 a040 b051 3440
00000020: 5eb6 6f40 73ca a340 0592 0740 e193 ac40
4.53867 4.184071 3.1161382 3.7293394 3.1482306 4.376092 5.011944 2.8174858
3.7455058 5.118463 2.1182873 5.3930516

weights f4 [12]
00000000: 9203 9040 96e3 6640 0588 a040 795f 3540
00000010: 7628 1e40 2d78 be40 8b42 8240 2ab7 3c40
00000020: f321 8e40 b9a1 b440 23f2 ad40 72fa 9140
4.500436 3.6076407 5.016604 2.8339522 2.4712195 5.95217 4.070623 2.9486794
4.441644 5.6447415 5.4358077 4.561822

weights f4 [12]
00000000: 12fd ae40 d29c 1d40 1941 8f40 0673 5840
00000010: 8b0f c240 c1f3 8140 2a7c a03f ace1 1c3e
00000020: 18bf 3c40 8b7d 0040 1046 a840 641d db3f
5.4683924 2.4626966 4.4766965 3.3820205 6.0643973 4.061005 1.2537892 0.15320462
2.9491634 2.0076625 5.2585526 1.7118344

weight f4 [5]
00000000: f5c3 873f 383d 883f b251 893f 17a7 8a3f
00000010: f6ea 883f
1.0606676 1.0643682 1.0728056 1.0832242 1.0696704

bias f4 [5]
00000000: 2976 29bd b197 a0bc ade7 bd3d aa15 3b3d
00000010: 6b7d f8bc
-0.041372452 -0.019603582 0.09272704 0.045674957 -0.030333241

running_mean f4 [5]
00000000: 709a 793f 7be4 babf 5516 c83f e28e 4c3f
00000010: 326b 4ebe
0.9750128 -1.4600977 1.5631815 0.7990552 -0.2015808

running_var f4 [5]
00000000: 7435 223e ff63 243d adab 073e 945c 4e3e
00000010: 9a52 ca3e
0.15840703 0.040134426 0.13249083 0.20152503 0.39516145

weight f4 [32, 80]
00000000: 061d 95bd 065b c23d 6181 79bd fd8c 29bc
00000010: 9581 b2bb fb4e 7b3d dc40 8dbd b7f8 dc3d
00000020: 875b 9a3d 0063 353c 7306 bcbb 3094 f33b
00000030: c631 013e f13f dc3d 3289 25bc c8b4 1c3e
00000040: 5c9b cebd e10b 96bd edd5 173d e61a 0dbe
00000050: 3eaa 16bd 5db5 d4bd 40e4 e8bb 790d 16be
00000060: 142d 4dbc 7bc4 81bd 5dbc 1fbb feae b13d
00000070: 1483 76bd be72 d03c 6002 d3bc 36b1 803d
00000080: b029 5a3d 21ca 4b3c f107 6dbc 7359 20bc
00000090: e972 35bd c77e 01be 2f13 a13c ddd3 5dbd
000000a0: 2434 843d 21bb 40bd e941 30bd 8667 67bd
000000b0: e751 16be 0ebe b8bd 10ba ba3d e646 86bd
000000c0: 263b 91bd 92f3 d13c 8a23 f6bc fb14 cfbd
000000d0: 1ef0 32be 7b9d 04be 9bd2 23be aa0a c6bd
000000e0: 5158 dfbd 7f4e 6bbd dd10 573d 50d1 813c
000000f0: 3e78 c6bd 0091 8ebd 44ed d2bd e239 3bbe
00000100: 074b 9f3d 8f90 cb3c 1a59 aa3c 7424 ebbc
00000110: efae 7d3d f58e d53c 0ef4 fc3b c8aa be3d
00000120: 35ec 083e da4b 8f3d 3748 71bc 340e abbc
00000130: 1840 613c ea83 5fbd cfb7 06bd 0e39 d33d
00000140: 3105 ba3d 5ab5 91bd c6b2 e3bc 586e 8a3d
00000150: 92a3 97bd 0fba 1fbd 305e 75bd c46b 673d
00000160: d69e 44bd b233 b2bd 68ce a3bd e66b adbd
00000170: 4553 413d 02b9 013d 5e80 3dbd 3813 a23d
00000180: 7495 943c e142 923c b0b7 ccbc 9ae7 97bc
00000190: 2fdd 683d c953 acbd 2690 38bc 97de f1bb
000001a0: 8ff8 bbbd 9ed7 443d 9ca0 67bb bd3b 8b3d
000001b0: 5901 d0b9 2fec 613d 2e85 1abb 7025 fbbc
000001c0: 93a1 d53d 8e98 4abd b945 943c dd59 983d
000001d0: 749f 1ebd e8c7 8a3d 0477 803c de6c 01be
000001e0: 44d8 49bc 6414 803b 5837 81bd 40f6 78bd
000001f0: 6193 0bbc da01 833d 021d 4cbd ca3a 07bd
00000200: ba46 fe3d 2dbf abbd ed74 273d f55e d03d
00000210: 43ee c13d 70e3 91bd e0f0 96bd c4d7 a53d
00000220: b020 9fbd dde5 41bc 61c1 923c 14b7 be3b
00000230: fb9e 89bd 6133 5ebd 33e2 aebd 93b9 85bd
00000240: 4f84 663d bec1 963d 7cfa 8dbb 505f d5bc
00000250: 9aa2 ff3d 7300 e03d 0d18 10bd f355 80bc
00000260: c5a5 93bd 5ed3 d53d d1d7 1abd ff75 413c
00000270: 261f c53c fc14 77bd 8940 2fbc dba0 c13c
00000280: afe1 603d 1533 5bbd 4372 cf3d e39f 923d
00000290: c9f3 b03d 3c87 673d 1dcf 1a3e 270d 89bc
000002a0: 9f8a a03c 7ad6 963c 4e41 b23c c652 093e
000002b0: 9999 093e cd23 57bd 9d15 9abc c46c ca3d
000002c0: 2def 333d 70ac 11bb e9e5 543d 9a49 033d
000002d0: c7c4 233d 3e5e 083e 4950 1f3d 6e85 5f3d
000002e0: d19d 84bc 85ef 233b f21e d83d 3954 1e3e
000002f0: 3369 b6bd f95a 373d 4948 8cbc 071a 843d
00000300: c358 d2bd 777b 05be 04c0 b8bd 64c8 3b3d
00000310: d47e d43b bd97 813d 0d65 f3bd 04c5 06bd
00000320: b233 96bd 19a5 a23d ca82 2d3c 2a2c 53bd
00000330: c547 cbbd 5ae0 03be cfea 543d 06b2 07bd
00000340: 5c6f f2bd 0d94 24be 9e35 b0bc 4d8a c0bd
00000350: dc86 d3bd 8134 dd3c fc8b 29bc 62d9 15be
00000360: 2958 f1bc dacc 44bd 099c eb3d 656e 1cbe
00000370: cee8 0ebe 4c6c b13c 4430 9fbd 7419 37be
00000380: 0165 6a3d 4469 21bc bf7e d93d 60e0 c23d
00000390: ca56 143e cdaf 643d e72a 7839 5531 313d
000003a0: 2b65 673d 8174 79bd 440c 9f3d 0932 6e3d
000003b0: f173 1e3e e011 c33d 41a5 c33b 4934 1e3e
000003c0: 5b55 b83c 489d 513c 8208 6cbd ffc1 2e3d
000003d0: 53f9 d73d 9e13 253e 933f 163e 33d4 903c
000003e0: 66ed cbbc e711 5a3d 07db bc3d 4214 1c3c
000003f0: 7529 3dbc aa7f 89bd 87c7 7a3d a226 85bd
-0.072809264 0.094900176 -0.0609144 -0.010348556 -0.0054475763 0.06135462 -0.068971366 0.10789626
0.07536989 0.011070967 -0.0057380735 0.007433437 0.12616643 0.10754383 -0.010103511 0.15303338
-0.10088226 -0.073264845 0.03706925 -0.13779792 -0.03678345 -0.10386155 -0.0071072876 -0.14653577
-0.0125229545 -0.06336304 -0.0024373748 0.08675955 -0.0601836 0.025445338 -0.025757968 0.062838
0.053262413 0.012438328 -0.014467225 -0.009786951 -0.04429904 -0.12646018 0.019662468 -0.054157127
0.064552575 -0.04705346 -0.043031607 -0.056495212 -0.14679681 -0.09020625 0.0911752 -0.065564916
-0.0709136 0.025628839 -0.030046243 -0.101114236 -0.1747441 -0.12950699 -0.15998308 -0.09670003
-0.10905517 -0.057447907 0.052506316 0.015846878 -0.09690903 -0.0696125 -0.10299161 -0.182838
0.07777982 0.024849204 0.02079444 -0.028703906 0.061934408 0.026069144 0.0077195233 0.09309918
0.13371356 0.069968894 -0.01472669 -0.020880796 0.013748191 -0.054569162 -0.032890137 0.10313617
0.090830214 -0.07114668 -0.027795207 0.06759328 -0.074042454 -0.0389958 -0.059904277 0.056499258
-0.04800304 -0.08701266 -0.07998353 -0.084678456 0.047198553 0.031670578 -0.046265 0.07913822
0.018137671 0.017854156 -0.024989933 -0.018543053 0.056851562 -0.08414418 -0.011264836 -0.007381271
-0.09178268 0.04805719 -0.0035343533 0.067985035 -0.00039673856 0.055156883 -0.0023577916 -0.0306575
0.104312085 -0.049461894 0.018099653 0.07439015 -0.038726285 0.0677641 0.015681751 -0.12639186
-0.012319628 0.0039086808 -0.06309384 -0.060781717 -0.008519025 0.063968375 -0.04983235 -0.03301505
0.12415834 -0.08386073 0.040882993 0.101743616 0.09469273 -0.071234584 -0.07370162 0.08097795
-0.077699065 -0.011834589 0.017914476 0.0058201645 -0.06719776 -0.054248217 -0.08539238 -0.06529536
0.056278523 0.07361172 -0.0043328386 -0.026046425 0.12482186 0.10937586 -0.035179187 -0.015665984
-0.072093524 0.10440706 -0.037803475 0.011807918 0.024062704 -0.060322747 -0.010696539 0.023636272
0.05490273 -0.053515512 0.101292156 0.07159402 0.08640248 0.056525454 0.1511807 -0.016729904
0.01959735 0.018412817 0.021759655 0.13410482 0.13437499 -0.052524377 -0.018809134 0.09884027
0.043929268 -0.0022228025 0.051977072 0.032052614 0.039982583 0.133172 0.038894925 0.054570608
-0.016188534 0.002501459 0.10552777 0.15461816 -0.08906784 0.044764493 -0.017124312 0.06450277
-0.10270836 -0.1303538 -0.09020999 0.045845404 0.0064848457 0.0632777 -0.11884508 -0.032902732
-0.07334079 0.07941646 0.010590265 -0.05155579 -0.09925798 -0.12878552 0.051981743 -0.03312876
-0.11837646 -0.16072102 -0.021509942 -0.09401379 -0.10328457 0.027002575 -0.010348316 -0.14633706
-0.029460983 -0.048046924 0.11504371 -0.15276487 -0.13955995 0.021658085 -0.07772878 -0.17880803
0.05722523 -0.009851757 0.10619878 0.095154524 0.14486232 0.05583172 0.00023667105 0.043259937
0.056492966 -0.060902122 0.07766011 0.058153186 0.15473916 0.09524894 0.0059706275 0.15449633
0.022501638 0.012793846 -0.0576253 0.042665478 0.10545602 0.16120765 0.14672689 0.01767931
-0.024893474 0.05323973 0.09221464 0.009526314 -0.011545529 -0.06713803 0.06122544 -0.06501509

bias f4 [32]
00000000: 8745 20bd 1ace 3a3c f6f9 dcbc 5251 113e
00000010: 04b6 16bd 9e5a 0fbe d307 823c 2f1a 9abd
00000020: 07c3 0d3c a222 073d 1145 523d 8343 babd
00000030: e66b 5c3d 5723 823c a7fc 073e 071d 373e
00000040: 2d47 09bd d518 d63c af34 f03d 849a 7ebd
00000050: cee1 273e c99a 0cbe ff58 06bd 549c 373e
00000060: 2f46 e13d 1bbb a33d 2211 333e 65ee 263e
00000070: c68d 7f3d 8014 403d 0316 623d 00e1 f03c
-0.039128806 0.0114016775 -0.02697466 0.14191177 -0.036794677 -0.13999411 0.015872872 -0.075245254
0.008652455 0.032992013 0.051335398 -0.09094908 0.053813837 0.015885992 0.13279973 0.17882167
-0.033515144 0.026134888 0.117287986 -0.062159076 0.16394731 -0.13730921 -0.032799717 0.17930728
0.109997146 0.07994672 0.17487004 0.16301878 0.062391065 0.04689455 0.055196773 0.029404163

weight f4 [10, 32]
00000000: 34d9 aa3b 3a71 04ba 319d 123e 2cbe 303e
00000010: 1794 bcbd 0993 a4bd 53f9 db3d daf6 5ebd
00000020: a601 4e3d 53a9 90bd 8770 b83d 8eb9 fcbc
00000030: 4a9a a9bd 706d 8cbb a898 823d 2a3c 42bc
00000040: 359b 453e 8c72 713d 8e9f ba3d 8084 4b3d
00000050: 90a8 2d3e 661f ddbd 1d11 8d3d 5cad d23d
00000060: 119e 163e 56dd 763d b9d5 b63d 88e2 063e
00000070: d3e7 493c 4e48 de3d 723e c63c 6366 e33d
00000080: b5bd cfbd 4373 a4bd 8bcc 283c d5c1 943d
00000090: 2a58 183e e000 5abd aa3e 75bd 4fdd f33c
000000a0: dce9 9abd d4d5 8bbd 3d4c 003e fd5e 4cbb
000000b0: c12d 123e b00d 03be 5474 403e 7094 f43d
000000c0: 7469 b13d 14fb fcbc 4c74 10bb 8698 9ebd
000000d0: 415e 503e 1544 1e3c 5af2 323e 58f5 f9bc
000000e0: a535 103e 6fae 6d3e d989 b63c db5a c33b
000000f0: 7718 15be 6ca0 36bd 9e71 213e 446f 653e
00000100: 2756 59be ce0b 203d e992 6cbe 658b 1bbe
00000110: 3b64 12be ddf8 11be 07bc b43c db17 0e3d
00000120: 8b88 62bd 6d4f 06be 2e6e 713d 8634 b2bd
00000130: 51e4 50be 7f8d 9c3c 7088 afbd 3300 71be
00000140: 7b2d c83d 9062 c93d d45f e53c b05a 39bb
00000150: 1556 e83b f972 3fbe 85b3 44be 586e 41be
00000160: fe2c c43d b003 11bd 1573 08be fe36 ebbc
00000170: d03e 133c c161 d03d 03c7 23be 73e4 5ebe
00000180: 0056 2fbc da85 01bd 6dce 69bd 4b48 c4bc
00000190: a51d 0fbe c6d4 6c3d dc0a 3abd 7478 b73d
000001a0: 9624 60be dc16 17be db94 80be 9313 96bd
000001b0: 4b75 44be 1965 cf3d 0f4b 7dbe fffe d23d
000001c0: 02c1 eebd 0076 913d 0dc7 78be eba8 debc
000001d0: b8c9 d23d 7da7 e43d d6c5 603d 0d55 18be
000001e0: 8717 cabd 3c79 933d 14c1 923c 1ee8 19be
000001f0: 0744 12be 3ac6 44be fde7 bd3d 31f6 e7bd
00000200: 6116 7bbe f6c1 bc3d 8df3 ad3d 948e 8e3b
00000210: 9347 6cbd 445a 053c 0c5e 4dbd 2f80 cabd
00000220: 84ac ebbd 4199 8f3c d4ed 17bd 6282 06be
00000230: 185f c23c 0c27 4bbe cc2d d53d cc9e 0ebe
00000240: 2e6f a8bd 6959 07be abf9 63be 52a9 62be
00000250: 5c55 44bd 3b67 033e 20a4 40be dd7a eabd
00000260: b4b7 52bc dc2e d9bd a775 d4bd 6fc7 dfbd
00000270: 94bd 8e3d b022 113d f90e 42bd 99e7 77bd
00000280: 6c46 4fbe 70ce f23d b771 03be 6b82 5c3c
00000290: 91a3 d33d c953 00be 772a 41be 7c4c b8bd
000002a0: 55dc d13d aab2 9abd c235 58be 1d20 41be
000002b0: e446 27be 9ed1 f0bd cda4 62bd 926b 613d
000002c0: b13f d8bd c845 c5bd 4a60 f5bd 2e5c 39be
000002d0: ea0e aebb d0ca f13d 9e37 a4bd 6199 193d
000002e0: b19c f2bd 9ce6 20be c122 6ebe a6d6 093d
000002f0: 7893 e73d c6a6 98bd d85e 67be 8ae7 3ebe
00000300: 26bb 933b 0b4b 563d b06f cf3c 3ad6 5cbe
00000310: a328 dcbc f022 9ebd b32f 47be 3fb5 f8ba
00000320: 5afb 35be bc7e 76bd 1cc4 d2bd ca4d 50bd
00000330: 2421 57be 518d 2cbe d571 65be 51f8 b3bc
00000340: 7efd bf3d d3be 3cbe ae78 76be 7c8d 183d
00000350: 3e72 1dbd 8c8f 603b 006c 50be 103f 2bbe
00000360: b1d4 57be ac8b 02be 54d1 9a3a e0ef 12be
00000370: 2ba8 94bc 655e be3d b5f2 d1bd f737 9ebd
00000380: 52a8 5fbe e9c1 e13d f73e f7bd 567e 5fbd
00000390: 0a1c a7bd 8446 4ebe ef76 8bbd 0942 853d
000003a0: 7aaf 7a3c eeb2 50be d353 d3bd 39d1 22bd
000003b0: 107d 833d ec19 f63d 84ca 19be 0ff1 01be
000003c0: f150 70be ed7d 9b3d e9fd b5bd e6aa 9f3d
000003d0: dfa4 05be 21bb c3bd 9b30 88bd 3585 25be
000003e0: e292 bebd 5b44 9cbd 1770 ccbd 7a37 46be
000003f0: 989c 8bbb 0636 f53c 9524 ddbd f31f 65be
0.005213881 -0.00050522725 0.14317776 0.17260045 -0.092079334 -0.08035857 0.10740914 -0.054434635
0.05029454 -0.07063546 0.09005838 -0.030850198 -0.082813814 -0.004285507 0.06376773 -0.011855165
0.19297488 0.05894713 0.09112464 0.04968691 0.16958833 -0.107970044 0.0688803 0.10286972
0.14708735 0.060269676 0.08927483 0.13172352 0.012323338 0.10853635 0.024199698 0.11103513
-0.101436056 -0.08029797 0.010302673 0.07263533 0.14877382 -0.05322349 -0.059874214 0.029768614
-0.075641364 -0.06827894 0.12529083 -0.0031184547 0.14275266 -0.1279819 0.18794376 0.11942375
0.08662692 -0.030881442 -0.0022041975 -0.07743935 0.20348455 0.009659787 0.17475262 -0.030512497
0.14082964 0.23211072 0.022282528 0.0059617586 -0.14560114 -0.044586584 0.15765998 0.22405726
-0.21224271 0.039073758 -0.23102917 -0.15189894 -0.14296047 -0.1425509 0.022062315 0.03469072
-0.055306 -0.13116236 0.058942966 -0.08701424 -0.20399596 0.01911044 -0.08570945 -0.23535232
0.097743 0.098332524 0.027999796 -0.0028282814 0.00709034 -0.18696202 -0.19209106 -0.18889749
0.09578894 -0.035403907 -0.1332515 -0.028712746 0.008987144 0.10174895 -0.15993886 -0.21766834
-0.010701656 -0.03162179 -0.05708163 -0.023960253 -0.13976152 0.057820104 -0.045420513 0.089585215
-0.21888956 -0.14754814 -0.25113568 -0.07327952 -0.19185369 0.10126705 -0.24735664 0.10302543
-0.11657907 0.07102585 -0.24294682 -0.027180156 0.10292381 0.11164758 0.05487617 -0.14876194
-0.09867769 0.07200858 0.017914332 -0.15029952 -0.14283763 -0.19216242 0.09272764 -0.11326254
-0.24520256 0.092166826 0.08493719 0.0043504927 -0.057685446 0.008139197 -0.05013852 -0.0988773
-0.11507514 0.017529132 -0.037092045 -0.13135675 0.023726985 -0.19839114 0.10409126 -0.13927764
-0.08224331 -0.13217701 -0.2226321 -0.22134903 -0.047932968 0.12832348 -0.18812609 -0.114492156
-0.012861181 -0.10604641 -0.10374003 -0.10926711 0.06969753 0.03543347 -0.04737756 -0.060523603
-0.20241708 0.11855781 -0.12836348 0.013458828 0.10333932 -0.12531962 -0.18863855 -0.08998963
0.10247103 -0.07553609 -0.21114257 -0.18859906 -0.16335636 -0.11758731 -0.055332948 0.055034228
-0.10559023 -0.0963245 -0.11981256 -0.1810157 -0.0053118365 0.118062615 -0.08018421 0.03749979
-0.11846293 -0.1571297 -0.23255445 0.03365197 0.11307424 -0.074536845 -0.22594774 -0.18643013
0.004508394 0.05231766 0.025321811 -0.21566096 -0.026874846 -0.077215075 -0.1945179 -0.0018974914
-0.17771664 -0.060179457 -0.10291311 -0.050855435 -0.21008736 -0.16850783 -0.22406705 -0.021968992
0.09374522 -0.18432169 -0.24069473 0.037244305 -0.038439028 0.0034265248 -0.20353699 -0.16723275
-0.21077229 -0.12748593 0.0011811652 -0.14349318 -0.018146595 0.09295348 -0.10251371 -0.07725518
-0.21841553 0.110233136 -0.120725565 -0.054563843 -0.08159645 -0.20144087 -0.06809794 0.06506736
0.015300626 -0.20380756 -0.103187226 -0.03975031 0.06420338 0.12016663 -0.1501866 -0.12689613
-0.23468377 0.07592378 -0.0888632 0.07796268 -0.13051175 -0.095571764 -0.06649896 -0.16164096
-0.093053594 -0.07630225 -0.09982317 -0.193571 -0.004260611 0.029932987 -0.10797993 -0.22375469

bias f4 [10]
00000000: b299 ab3c 7b19 093d 007a b8bd c2cf 31bd
00000010: 6d21 5d3d 0f24 14be b407 2abe 38d8 b83d
00000020: 79e4 d53d 2af6 413d
0.020947311 0.033471566 -0.09007645 -0.043411024 0.053986955 -0.1446688 -0.16604501 0.090256155
0.10443968 0.0473539
