MQCNN-4qubits-2class-CIFAR/Models_V1/model_33.pt (torch, 95848 bytes, 23 tensors)

weights f4 [7]
0	0x3f9044a4	1.1270947
1	0x400fe3f1	2.2482874
2	0x3fbc562f	1.4713801
3	0x3f52da5a	0.8236443
4	0x40a9a97f	5.3019404
5	0x4087f9c3	4.2492385
6	0x40c6cf09	6.212773

weights f4 [7]
0	0x40a580fd	5.1719956
1	0x40b27358	5.57658
2	0x40a32db0	5.099327
3	0x3f7c5eb3	0.98582
4	0x3fb3249f	1.3995551
5	0x3f263d4d	0.6493729
6	0x400bbdb4	2.1834536

weights f4 [7]
0	0x3f11edd0	0.570035
1	0x4073e5ad	3.8108933
2	0x401939bd	2.394149
3	0x4068bf79	3.6366866
4	0x409332cb	4.5999503
5	0x4080118d	4.0021424
6	0x4095a9b2	4.6769648

weights f4 [7]
0	0x40a0c02e	5.0234594
1	0x40062f20	2.0966263
2	0x40a571b6	5.1701307
3	0x3e66f9c4	0.22556216
4	0x40bf9eff	5.9881587
5	0x4009f9b4	2.1558657
6	0x4093a6d6	4.6141157

weights f4 [7]
0	0x406e9c45	3.728288
1	0x4095a8f5	4.6768746
2	0x40647b15	3.5700123
3	0x3f2fd2ba	0.6868092
4	0x3e1757ed	0.14779635
5	0x3fb23c4f	1.3924655
6	0x40b7bd88	5.741886

weights f4 [7]
0	0x3fb9134f	1.4459018
1	0x3fde3ff8	1.7363272
2	0x40664b99	3.598364
3	0x402cf1a2	2.702248
4	0x3fbcf175	1.4761187
5	0x3fba2995	1.454394
6	0x3f47076e	0.7774571

weights f4 [8]
0	0x408e1838	4.4404564
1	0x40b08eca	5.5174303
2	0x401d4df4	2.457883
3	0x40bc0187	5.8751864
4	0x3fb139a9	1.3845721
5	0x3fba1406	1.4537361
6	0x40c5a9e9	6.176991
7	0x4080a211	4.0197835

weights f4 [8]
0	0x404a53ae	3.1613574
1	0x3f94eb33	1.1634277
2	0x40be156a	5.940114
3	0x3ee8d29f	0.4547319
4	0x40a9baf3	5.304071
5	0x3ee3e7af	0.44512698
6	0x3f2e2273	0.68021315
7	0x40901fe5	4.5038934

weights f4 [8]
0	0x40853255	4.162394
1	0x3f4aa48e	0.7915734
2	0x4035f353	2.8429763
3	0x40a88adf	5.266952
4	0x408f4344	4.476961
5	0x3fc99864	1.5749631
6	0x407d955b	3.962241
7	0x409d916d	4.924002

weights f4 [16]
0	0x40c914e0	6.283798
1	0x3f0e38cf	0.55555433
2	0x3f7c16ce	0.984723
3	0x4072dd8a	3.7947717
4	0x40a1b455	5.053263
5	0x40b0b924	5.5226
6	0x3fef642d	1.8702446
7	0x404f12e4	3.235528
8	0x40422074	3.0332308
9	0x40c9f3ce	6.3110113
10	0x407afc33	3.921643
11	0x404747dc	3.113761
12	0x406f39e9	3.7379096
13	0x4004bd55	2.074056
14	0x40a92b9c	5.2865734
15	0x4096ebdb	4.716291

weights f4 [16]
0	0x3d5411b5	0.0517747
1	0x3ef2a1aa	0.47388965
2	0x4016d9c2	2.357041
3	0x3f5a5a9a	0.85294497
4	0x4090404a	4.507848
5	0x3e99a882	0.30011374
6	0x3f420e58	0.75803137
7	0x409c8fc9	4.892552
8	0x4052cb1a	3.2936463
9	0x40465168	3.0987186
10	0x3ff950fe	1.9477842
11	0x40960f1a	4.6893435
12	0x3e450d54	0.19243366
13	0x40b522d5	5.660502
14	0x4075e7bd	3.8422692
15	0x40448776	3.0707679

weights f4 [16]
0	0x4088c15a	4.2736025
1	0x4014f6f1	2.327572
2	0x40539517	3.3059747
3	0x3ff2c511	1.896639
4	0x3e63f6fd	0.22262187
5	0x3fd81a5f	1.6883048
6	0x3f9a8916	1.2073085
7	0x40bca8d9	5.8956113
8	0x3fef586f	1.8698863
9	0x40c51c24	6.159685
10	0x406a236f	3.6584127
11	0x3ff84ac5	1.9397818
12	0x40336d5f	2.8035505
13	0x408d1dd8	4.409893
14	0x40a04cf0	5.009392
15	0x40abe872	5.3721247

weights f4 [12]
0	0x4090d1d5	4.5256143
1	0x40853034	4.162134
2	0x40480c51	3.1257517
3	0x4071194a	3.7671685
4	0x4048709b	3.131873
5	0x408b1a84	4.346987
6	0x409f7672	4.9832087
7	0x4033a79b	2.8071048
8	0x406fa322	3.7443318
9	0x40a3ca89	5.1184735
10	0x400770e5	2.1162655
11	0x40ac940c	5.393072

weights f4 [12]
0	0x40901f28	4.5038033
1	0x40600916	3.5005546
2	0x40a18f48	5.0487404
3	0x403871e1	2.8819506
4	0x401b6951	2.428303
5	0x40bbcafe	5.8685293
6	0x408133ff	4.037597
7	0x403b9902	2.9312139
8	0x408e3492	4.4439173
9	0x40b4acd3	5.6460967
10	0x40adf754	5.4364414
11	0x4091fbe2	4.5619974

weights f4 [12]
0	0x40ad0f3f	5.408111
1	0x401a14ce	2.4075198
2	0x408c524e	4.385047
3	0x40546227	3.3184907
4	0x40c0738c	6.014105
5	0x40801f11	4.0037923
6	0x3f98d6d5	1.1940562
7	0x3e2b203c	0.16711515
8	0x403cbe36	2.9491096
9	0x400073b8	2.007063
10	0x40a84a21	5.259049
11	0x3fdb3dba	1.7128212

weight f4 [5]
0	0x3f92956a	1.1451848
1	0x3f98039f	1.1876105
2	0x3f9748a7	1.1819047
3	0x3f944eb7	1.1586522
4	0x3f937873	1.1521133

bias f4 [5]
0	0x3d1c4b6c	0.038157865
1	0xbe27b3b8	-0.16377151
2	0x3e70f6a1	0.23531581
3	0x3c1c2260	0.00952968
4	0xbe0cbbe8	-0.13743556

running_mean f4 [5]
0	0x3f828150	1.0195713
1	0xbfc1d5e3	-1.5143398
2	0x3fbcd379	1.4752036
3	0x3f2e45d5	0.68075305
4	0xbeb4efde	-0.35339254

running_var f4 [5]
0	0x3e2590c4	0.16168505
1	0x3d1f7ab2	0.03893537
2	0x3e1b6a4e	0.15177271
3	0x3e822bf6	0.25424165
4	0x3eb51d88	0.35374093

weight f4 [32, 80]
0	0xbdb1ee28	-0.08688003
1	0x3cf3c9c6	0.029759299
2	0xbe0acadc	-0.13553947
3	0xbdb7cad3	-0.089742325
4	0xbc35eb35	-0.011103441
5	0x3d3ee136	0.046601497
6	0xbd48b3a9	-0.048999462
7	0x3ddaabd3	0.10677304
8	0x3df5f484	0.12009528
9	0x3d7a9b39	0.061183188
10	0x3cc968be	0.024586078
11	0x3d618c6e	0.055065565
12	0x3e3c820d	0.18408985
13	0x3e553372	0.20820406
14	0x3c53110f	0.012882485
15	0x3e8235d6	0.254317
16	0xbe33c4cf	-0.17555545
17	0xbe2d3e82	-0.16918376
18	0xbc8b7568	-0.017023757
19	0xbe6692a3	-0.22516875
20	0xbe10b49e	-0.141314
21	0xbe18782b	-0.1488959
22	0xbdb267c7	-0.087112
23	0xbe3ce1de	-0.18445536
24	0xbde6f3d1	-0.11276973
25	0xbe043df0	-0.12914252
26	0xbce48ffb	-0.027900686
27	0xbccd4b36	-0.025060277
28	0xbe679238	-0.22614372
29	0x3cc288be	0.023746844
30	0xbce1a846	-0.02754606
31	0xbcea89c5	-0.028630147
32	0x3de9cbe6	0.11415844
33	0x3d79a132	0.060944743
34	0x3ca3775a	0.019954372
35	0x3d590dfa	0.052991845
36	0x3d014dd9	0.031568382
37	0xbe023f5a	-0.12719479
38	0x3c9a8f14	0.018867053
39	0x3b2aaa16	0.002604132
40	0x3da0e396	0.078559086
41	0xbd3638de	-0.044487827
42	0x3c7b3b68	0.015333988
43	0x3c62cd48	0.013842888
44	0xbe8e9657	-0.27849075
45	0xbdf279a3	-0.118396066
46	0x3e2be28f	0.16785644
47	0xbe2242a4	-0.15845734
48	0xbddb9b29	-0.10722954
49	0x3c5344fa	0.012894863
50	0xbd45105f	-0.048111316
51	0xbdcaed32	-0.09908523
52	0xbe51de47	-0.20494948
53	0xbe3132cf	-0.17304538
54	0xbe2ef8fc	-0.17087168
55	0xbe0bc9bf	-0.13651179
56	0xbe2e9d1e	-0.17052123
57	0xbb44e957	-0.0030046308
58	0x3e2c3a01	0.16819002
59	0x3c31b0fb	0.010845418
60	0xbe40e78c	-0.18838328
61	0xbe0900b3	-0.13379173
62	0xbe0e845f	-0.13917683
63	0xbe920afd	-0.28524008
64	0x3c6b6e52	0.014369564
65	0xbcf33155	-0.02968661
66	0xbd6a4ff1	-0.057205144
67	0xbde3fce1	-0.11132217
68	0xbc8f58ea	-0.017498452
69	0xbd1689f9	-0.036752675
70	0xbd80eb91	-0.06294931
71	0x3bc4543e	0.0059914878
72	0x3e1157a9	0.14193596
73	0x3c205e27	0.009788073
74	0xbd73b889	-0.05950216
75	0xbd6da0fb	-0.05801485
76	0x3b1c6a72	0.0023867157
77	0xbdb1cd05	-0.086816825
78	0xbdfcd8ba	-0.12346025
79	0x3dacbc7a	0.084343866
80	0x3d883c41	0.066521175
81	0xbdc31a91	-0.095265515
82	0xbd064d34	-0.03278847
83	0x3d7b2e34	0.06132336
84	0xbd6baa9b	-0.05753575
85	0xbd6019d2	-0.054712124
86	0xbdb148c0	-0.08656454
87	0x3d8a5149	0.06753785
88	0xbd0c8521	-0.03430665
89	0xbdb83fc3	-0.089965366
90	0xbdea95dc	-0.11454365
91	0xbdb64e98	-0.08901709
92	0x3d594dd4	0.05305274
93	0x3d249bed	0.040187765
94	0xbd360865	-0.0444416
95	0x3ddb34f3	0.10703459
96	0x3c5e2943	0.013559642
97	0x3c01fd2d	0.007933897
98	0xbcc5fb65	-0.024167726
99	0xbd73bbe4	-0.05950536
100	0x3d97341c	0.07382986
101	0xbd15f626	-0.0366117
102	0xbcfad149	-0.030617373
103	0xb9ec3734	-0.00045054557
104	0xbde5813d	-0.11206291
105	0x3cccee73	0.025016045
106	0xbc727ab5	-0.014799763
107	0xbb9cde70	-0.004787259
108	0xbcb2c31d	-0.021821553
109	0x3d412e3c	0.047163233
110	0xbcb27896	-0.021786015
111	0xbd449456	-0.047993027
112	0x3e010e8e	0.12603208
113	0xbd5d881b	-0.05408488
114	0xbc867cf2	-0.016417
115	0x3d580557	0.052739467
116	0xbd389845	-0.04506709
117	0x3dab932b	0.083776794
118	0x3cab22ed	0.020890677
119	0xbe0c0024	-0.13671929
120	0xbd1a6b09	-0.037699733
121	0x3c98e1d6	0.018662374
122	0xbd396a68	-0.045267493
123	0xbd97704b	-0.07394465
124	0xbd0ca912	-0.034340926
125	0x3d7295dd	0.059224952
126	0xbcbdcc07	-0.023168577
127	0xbd347d44	-0.044064775
128	0x3dd15ba3	0.102225564
129	0xbdd1769d	-0.10227702
130	0x3c244ddc	0.010028329
131	0x3d7b640a	0.0613747
132	0x3d8c4859	0.06849737
133	0xbd4eaa4a	-0.05045537
134	0xbd514dad	-0.051099468
135	0x3ccf0509	0.025270956
136	0xbe0c0686	-0.13674363
137	0x3c5604cb	0.013062666
138	0x3d9a2ada	0.075277045
139	0xbd285f7b	-0.041106682
140	0xbdc62dc7	-0.096767
141	0xbd3ea007	-0.046539333
142	0xbda4012f	-0.08008038
143	0xbdcf836b	-0.10132488
144	0x3d127664	0.035757437
145	0x3d91809c	0.071046084
146	0x3bdc23d5	0.0067181387
147	0xbc34a1a3	-0.011024865
148	0x3dfb4def	0.12270724
149	0x3dafb708	0.08579832
150	0xbd412a9a	-0.04715977
151	0x3af6b5ec	0.0018822527
152	0xbd6da76e	-0.058021
153	0x3da3af79	0.07992453
154	0xbdb5e330	-0.08881223
155	0xbb02a0f3	-0.001993236
156	0x3ce5997c	0.028027289
157	0xbd8bad85	-0.068202056
158	0xbd259c56	-0.040432297
159	0x3d345acd	0.044031907
160	0x3d993df8	0.07482523
161	0xbd19cb97	-0.037547674
162	0x3df8ce3c	0.12148711
163	0x3dbe6271	0.0929612
164	0x3de93013	0.113861226
165	0x3d99ed74	0.07515994
166	0x3e38e46d	0.18055888
167	0x3cbc5795	0.022990981
168	0x3d5d2219	0.053987596
169	0x3bc9e1a8	0.0061609335
170	0xbbcb7e79	-0.006210145
171	0x3e29b064	0.16571194
172	0x3de46436	0.11151926
173	0xbd9ed356	-0.07755153
174	0xbd7889f1	-0.060678426
175	0x3ddc8459	0.10767431
176	0x3d51a85b	0.051185947
177	0x3b3683ce	0.0027849558
178	0x3d70abb5	0.058757503
179	0x3cac76ee	0.021052804
180	0x3d9b4a38	0.075825155
181	0x3e39845b	0.18116896
182	0x3ca7ba20	0.020474494
183	0x3d239883	0.03994037
184	0x3d4a0cf1	0.049328748
185	0x3d4f5781	0.05062056
186	0x3e14d041	0.14532568
187	0x3e389dc0	0.18028927
188	0xbe217fda	-0.15771428
189	0x3d864882	0.065567985
190	0xbc7083ec	-0.01467989
191	0x3c4a6d62	0.01235518
192	0xbdd8b9f5	-0.105823435
193	0xbe0ae80a	-0.13565078
194	0xbddc93fb	-0.107704125
195	0x3cfe5923	0.031048363
196	0x3cc90394	0.024537839
197	0x3d5fce17	0.054639902
198	0xbe2a423f	-0.16626833
199	0xbcd55b44	-0.026044495
200	0xbd67f69d	-0.056631673
201	0x3df82f72	0.121184245
202	0x3d822b2b	0.0635589
203	0xbc6877fe	-0.014188765
204	0xbdea0932	-0.11427535
205	0xbdaabb16	-0.08336465
206	0x3e0a097d	0.13480182
207	0xbd3b4652	-0.04572136
208	0xbe1f6db7	-0.15569197
209	0xbe459cfa	-0.19298163
210	0xbd667f0a	-0.056273498
211	0xbe06e68e	-0.13173887
212	0xbe02b62d	-0.12764807
213	0x3c270da5	0.010196124
214	0xbcd3495a	-0.025791813
215	0xbe2dc5f2	-0.16970041
216	0xbd0472a3	-0.03233589
217	0x3d479583	0.04872657
218	0x3e55ed75	0.20891364
219	0xbe2bee7d	-0.16790195
220	0xbe056ca9	-0.13029732
221	0x3d860d20	0.06545472
222	0xbd639624	-0.055563107
223	0xbe52f3c0	-0.20600796
224	0x3d96c3ec	0.07361588
225	0x3c9edcc5	0.01939238
226	0x3e02e9d3	0.1278451
227	0x3def5916	0.11686914
228	0x3e25c7b4	0.16189462
229	0x3da7143f	0.081581585
230	0x3cc2f086	0.023796331
231	0x3d870257	0.06592243
232	0x3dc2048c	0.094735235
233	0xbda2253d	-0.07917259
234	0x3d86a6e0	0.06574798
235	0x3d9bf46a	0.07614978
236	0x3df2f136	0.118624136
237	0x3cf7c2c9	0.030244248
238	0xbdb04c97	-0.08608358
239	0x3e13d483	0.14436536
240	0x3c3f515d	0.011677113
241	0xbc64dc74	-0.013968576
242	0xbda21bf1	-0.07915486
243	0x3c22fc48	0.009947844
244	0x3dedae8f	0.1160556
245	0x3e4b6c28	0.19865477
246	0x3e541bfc	0.207138
247	0x3d4b9d25	0.04971041
248	0x3cd74538	0.026278123
249	0x3e017b7e	0.12644765
250	0x3e396a36	0.18106923
251	0x3dce6378	0.10077566
252	0x3b538fb4	0.0032281699
253	0xbcc2b79f	-0.023769198
254	0x3d5860b5	0.052826602
255	0xbd72c926	-0.05927386

bias f4 [32]
0	0x3d92af80	0.0716238
1	0x3c1c633c	0.009545144
2	0x3ccd190a	0.025036354
3	0x3e4e8d28	0.20171034
4	0x3d2e40f8	0.042542428
5	0xbddaba9e	-0.10680126
6	0x3d85f1c7	0.06540256
7	0xbd956a84	-0.07295707
8	0x3d1a663f	0.037695166
9	0x3dba45b1	0.09095324
10	0x3dc8ab69	0.09798319
11	0x3c87aa1d	0.016560609
12	0x3dfca70f	0.123365514
13	0x3d500eb6	0.05079528
14	0x3e2a2769	0.16616596
15	0x3e6fdc6a	0.23423925
16	0xbaaedc34	-0.0013340772
17	0x3d9e893e	0.077410206
18	0x3e285edb	0.16442434
19	0x3d3e9505	0.046528835
20	0x3e49b7ed	0.19699068
21	0xbe12bf2a	-0.14330736
22	0x3cc62537	0.024187667
23	0x3e772939	0.24136819
24	0x3e115bfe	0.14195248
25	0x3e07695b	0.13223784
26	0x3e5fa709	0.21841063
27	0x3e5333a8	0.20625174
28	0x3db651a8	0.089022934
29	0x3e108785	0.14114197
30	0x3db64c12	0.08901228
31	0x3d4b239c	0.049594507

weight f4 [10, 32]
0	0x3dd6b5e8	0.104839146
1	0x3d504ca3	0.050854336
2	0x3e32dbc1	0.17466642
3	0x3e5831bd	0.21112724
4	0xbe03d03c	-0.12872404
5	0xbe864d1c	-0.26230705
6	0x3e498bb1	0.19682194
7	0xbe0103e2	-0.12599137
8	0x3e306d69	0.17229237
9	0xbd8b5e5d	-0.06805108
10	0x3e15d69e	0.14632651
11	0x3c91c8ba	0.01779591
12	0xbdcc70c5	-0.099824466
13	0x3dbf2d6c	0.093348354
14	0x3dd040db	0.1016862
15	0xbc039584	-0.008031253
16	0x3e592b33	0.21207885
17	0x3dfcd3c2	0.12345077
18	0x3e00e430	0.12587047
19	0x3e40bc5b	0.18821852
20	0x3e484750	0.19558454
21	0xbe5fd33e	-0.21857926
22	0x3dfcb7fb	0.12339779
23	0x3e19c831	0.15017773
24	0x3e0f5a86	0.13999376
25	0x3d8be75f	0.0683124
26	0x3e0cfdd3	0.13768701
27	0x3e23a8db	0.15982382
28	0x3d98fafd	0.07469747
29	0x3e7b6e8a	0.24553886
30	0xbc929a29	-0.017895775
31	0x3dcc2117	0.09967249
32	0xbe27e2b7	-0.16395079
33	0xbdd69754	-0.10478082
34	0x3c91814e	0.017761853
35	0x3de3d44a	0.11124475
36	0x3e59a96c	0.21256036
37	0x3e1b3922	0.15158513
38	0xbe24defa	-0.16100684
39	0x3dec3889	0.11534221
40	0xbdf20c30	-0.11818731
41	0x3c76f40f	0.015072837
42	0x3e07cf9d	0.13262792
43	0x3e0e3477	0.13887201
44	0x3e59a1c2	0.21253112
45	0xbe6b9c23	-0.2300878
46	0x3e48f08d	0.19623013
47	0x3e235c45	0.15953167
48	0x3ddc862d	0.107677795
49	0xbd8c4d0c	-0.06850633
50	0x3a9bb98a	0.0011880856
51	0xbe6e4798	-0.23269498
52	0x3e6434b3	0.22285728
53	0x3e1e86b7	0.15481077
54	0x3e4fa8dc	0.20279258
55	0xbc93d0c3	-0.018043881
56	0x3e3ae0bc	0.18249792
57	0x3e8f8a19	0.28035048
58	0x3c8a2c18	0.016866729
59	0x3c86ba70	0.016446322
60	0xbe3d48d5	-0.18484814
61	0xbe07c401	-0.13258363
62	0x3e60968b	0.21932428
63	0x3e90c0cf	0.282721
64	0xbe8e4ce6	-0.27793044
65	0x3ca83b04	0.020535953
66	0xbe814367	-0.25246736
67	0xbe4e01c4	-0.20117861
68	0xbe2e675c	-0.17031616
69	0xbe378199	-0.17920531
70	0xbcc4cedc	-0.02402442
71	0x3c8d12e8	0.01722093
72	0xbdc13fb4	-0.094359785
73	0xbe2bd395	-0.16779931
74	0xbb140d34	-0.0022590877
75	0xbe5b277f	-0.21401785
76	0xbe74d1f6	-0.23908219
77	0x3bcd2086	0.0062599806
78	0xbde21855	-0.11039797
79	0xbe85bbb9	-0.26119784
80	0x3d8b3142	0.067965046
81	0x3d81651d	0.06318114
82	0x3b6b6197	0.0035916322
83	0xbdbbf6ed	-0.09177957
84	0xbcd5758b	-0.026057025
85	0xbe5f3291	-0.21796633
86	0xbe833646	-0.25627345
87	0xbe65c3e0	-0.22438002
88	0x3d8f04dc	0.06983349
89	0xbda05b6e	-0.07829939
90	0xbe3c8803	-0.1841126
91	0xbd52c134	-0.051453784
92	0xbc88f514	-0.016718425
93	0x3d8725a5	0.06598977
94	0xbe3f1c3c	-0.18663114
95	0xbe7f0080	-0.24902534
96	0xbdb7e2c7	-0.08978801
97	0xbd51504d	-0.05110197
98	0xbdb3a842	-0.08772327
99	0xbda25396	-0.07926099
100	0xbe2f4ce8	-0.17119181
101	0x3a20e131	0.0006137072
102	0xbdbb047b	-0.09131714
103	0x3d849d50	0.064753175
104	0xbe858523	-0.26078138
105	0xbe4c9eff	-0.19982527
106	0xbe9de303	-0.3083726
107	0xbe646a26	-0.22306117
108	0xbe6cafcd	-0.23113938
109	0x3db21e59	0.086971946
110	0xbe8d7f5f	-0.2763624
111	0x3d90032f	0.07031857
112	0xbe16c880	-0.14724922
113	0x3d067ee3	0.032835852
114	0xbe8d06af	-0.27544162
115	0xbdf0d27d	-0.117588975
116	0x3d8eb05f	0.06967234
117	0x3d90e866	0.070755765
118	0xbbbf31a4	-0.005834775
119	0xbe49edfa	-0.19719687
120	0xbe044ec3	-0.1292067
121	0x3cecab2a	0.028890211
122	0xbcf3eced	-0.029776061
123	0xbe35c330	-0.1775024
124	0xbe2ba595	-0.16762383
125	0xbe6cf929	-0.23141922
126	0x3d7855aa	0.06062857
127	0xbe14d6b3	-0.14535026
128	0xbe9d3986	-0.3070795
129	0x3d9bf657	0.07615345
130	0x3d6a8d4d	0.05726366
131	0xbd378179	-0.04480121
132	0xbdb9ca09	-0.09071738
133	0xbd38485d	-0.044990886
134	0xbdaef833	-0.08543434
135	0xbe016e3b	-0.12639706
136	0xbe1621f9	-0.14661397
137	0xbcd87262	-0.02642173
138	0xbdabf7fa	-0.08396907
139	0xbe8bd9a2	-0.27314478
140	0xbc390731	-0.0112932185
141	0xbe58cb45	-0.21171291
142	0x3d9ba04a	0.07598932
143	0xbe2db942	-0.16965201
144	0xbddd6372	-0.10809983
145	0xbe2548b5	-0.16141017
146	0xbe8073b3	-0.25088271
147	0xbe983186	-0.29725283
148	0xbd99e0d5	-0.075135864
149	0x3dabdf68	0.08392221
150	0xbe774f01	-0.24151231
151	0xbe214a9b	-0.15751116
152	0xbd28fb43	-0.041255247
153	0xbe11a107	-0.14221583
154	0xbe1185a8	-0.14211142
155	0xbe093f34	-0.13403016
156	0x3d501681	0.05080271
157	0x3ba2985c	0.0049620103
158	0xbda2dafc	-0.07951924
159	0xbdb8a7d8	-0.09016389
160	0xbe877eae	-0.26463836
161	0x3dcc42c2	0.099736705
162	0xbe238322	-0.15967992
163	0xbd197f57	-0.037474956
164	0x3d8cbdf7	0.068721704
165	0xbe2fb79b	-0.17159884
166	0xbe61e53a	-0.22060099
167	0xbdffd621	-0.12492014
168	0x3d8d9b10	0.069143414
169	0xbde6bf3d	-0.112669446
170	0xbe7dfbcb	-0.24803083
171	0xbea1877e	-0.31548685
172	0xbe46a9cd	-0.19400711
173	0xbe03569b	-0.12826006
174	0xbda332a0	-0.0796864
175	0x3ce1794e	0.027523663
176	0xbe008d8c	-0.12553996
177	0xbe01493b	-0.12625591
178	0xbe1a9c31	-0.15098645
179	0xbe80b091	-0.2513471
180	0xbcd31a57	-0.025769396
181	0x3d8b235c	0.06793854
182	0xbdff0075	-0.12451259
183	0xbc07e778	-0.008294933
184	0xbe12ee34	-0.1434868
185	0xbe3dd7a8	-0.18539298
186	0xbe85d241	-0.26136974
187	0x3bffbf3b	0.007804779
188	0x3dbe0b09	0.092794485
189	0xbdcc0b10	-0.099630475
190	0xbe8350d8	-0.25647616
191	0xbe5b5047	-0.21417342
192	0xbd827396	-0.063697025
193	0x3d159870	0.03652233
194	0xbb131f97	-0.002244925
195	0xbe86f0b5	-0.2635552
196	0xbd5b645b	-0.053562503
197	0xbdedbe99	-0.11608619
198	0xbe6fa2d9	-0.23401965
199	0xbcb9f9a1	-0.02270204
200	0xbe5a5f69	-0.21325459
201	0xbdd9be0d	-0.106319524
202	0xbe1e0fe3	-0.15435748
203	0xbe3f7ae0	-0.18699217
204	0xbe789c4f	-0.24278377
205	0xbe39f39d	-0.18159337
206	0xbe7d8a9b	-0.24759905
207	0xbd48b328	-0.04899898
208	0x3d8c0457	0.06836765
209	0xbe6048fa	-0.21902838
210	0xbe895bcd	-0.2682785
211	0xbd2b599d	-0.04183351
212	0xbd85f36c	-0.0654057
213	0xbce3b094	-0.02779416
214	0xbe854fd6	-0.26037472
215	0xbe56e106	-0.20984277
216	0xbe70649a	-0.23475876
217	0xbe27a3d3	-0.16371088
218	0xbd215651	-0.03938896
219	0xbe2a511a	-0.166325
220	0xbd23461e	-0.03986179
221	0x3d7948a3	0.060860287
222	0xbe0292b5	-0.12751277
223	0xbdd44a9d	-0.10365794
224	0xbe94b77d	-0.2904624
225	0x3dbcf5a4	0.0922654
226	0xbe181eb2	-0.1485546
227	0xbdd47a72	-0.10374917
228	0xbde51faf	-0.11187684
229	0xbe780740	-0.24221516
230	0xbddb98ba	-0.1072249
231	0x3d346e24	0.04405035
232	0xbcd0c1f9	-0.025483118
233	0xbe82d667	-0.255542
234	0xbe242671	-0.16030289
235	0xbe3cc80a	-0.18435684
236	0x3cd01a11	0.025403054
237	0x3ddf7102	0.109102264
238	0xbe3158d3	-0.1731904
239	0xbe1e427c	-0.1545505
240	0xbe83bc15	-0.25729433
241	0x3d270782	0.040778644
242	0xbdefaa82	-0.11702444
243	0x390460d1	0.00012624568
244	0xbe20da1a	-0.15708199
245	0xbe025724	-0.12728554
246	0xbe024b2c	-0.12723988
247	0xbe51951b	-0.20467035
248	0xbded3b03	-0.11583521
249	0xbdf2cfb2	-0.11856021
250	0xbe11226c	-0.14173287
251	0xbe5ce673	-0.21572284
252	0xbcd59511	-0.026072057
253	0xb9404df4	-0.00018339587
254	0xbe077abd	-0.13230415
255	0xbe7e0747	-0.24807464

bias f4 [10]
0	0x3d3b8613	0.04578216
1	0x3d4351a3	0.047685277
2	0xbde1572f	-0.11002957
3	0xbd87e7c3	-0.06636002
4	0x3d0b416b	0.033997934
5	0xbe26d2c9	-0.16291346
6	0xbe3d51a9	-0.18488182
7	0x3d8fd0c1	0.070222385
8	0x3dabfd1e	0.08397888
9	0x3ccaf4a1	0.024774851
