MQCNN-4qubits-2class-CIFAR/Models_V1/model_9.pt (torch, 95819 bytes, 23 tensors)

weights f4 [7]
0	0x3f90403b	1.1269602
1	0x400f5336	2.2394538
2	0x3fc0ab29	1.5052234
3	0x3f52e219	0.8237625
4	0x40ac7d0c	5.3902645
5	0x4088e76d	4.27825
6	0x40c6dcec	6.214468

weights f4 [7]
0	0x40a5a69c	5.176588
1	0x40af46e9	5.477406
2	0x40a39349	5.111729
3	0x3f7ba547	0.9829907
4	0x3fb4768a	1.4098675
5	0x3f17ce77	0.59299415
6	0x400bcd09	2.1843894

weights f4 [7]
0	0x3f1343db	0.57525414
1	0x4075feab	3.8436687
2	0x401bed64	2.4363642
3	0x4068da4b	3.6383235
4	0x4091f8e6	4.561633
5	0x407f414a	3.98836
6	0x4095b260	4.6780243

weights f4 [7]
0	0x40a0aa6a	5.0208025
1	0x4001983e	2.0249171
2	0x40a59888	5.1748695
3	0x3e62c855	0.22146733
4	0x40c01031	6.0019765
5	0x4009bb0f	2.1520422
6	0x4096cf87	4.712833

weights f4 [7]
0	0x406eb058	3.7295132
1	0x40961349	4.689854
2	0x40679d77	3.618986
3	0x3f2f2e3d	0.6842993
4	0xbb0f6a22	-0.0021883328
5	0x3fb20c3a	1.3909981
6	0x40b7772c	5.7332973

weights f4 [7]
0	0x3fb9d1a5	1.4517103
1	0x3fe327ef	1.7746562
2	0x405cb432	3.4484982
3	0x402c9a7d	2.6969292
4	0x3fb99098	1.4497252
5	0x3fba2fbc	1.4545817
6	0x3f4d7f5b	0.80272454

weights f4 [8]
0	0x408dc3c9	4.4301496
1	0x40af1bb3	5.4721313
2	0x401b10a8	2.4228916
3	0x40bc1576	5.8776197
4	0x3fb01e69	1.375928
5	0x3fb1645b	1.3858751
6	0x40c5a680	6.1765747
7	0x40808506	4.016238

weights f4 [8]
0	0x404a13fb	3.1574695
1	0x3f8f5c6f	1.1200083
2	0x40b9efc8	5.81052
3	0x3ee90912	0.45514733
4	0x40a8c1db	5.273664
5	0x3ee1e9f6	0.4412381
6	0x3f2e18da	0.6800667
7	0x40900a9f	4.5012965

weights f4 [8]
0	0x408555e2	4.1667337
1	0x3f54e73e	0.8316535
2	0x402eaa52	2.7291455
3	0x40a8aaaf	5.2708354
4	0x408d3f47	4.4139743
5	0x3fc6df60	1.5536919
6	0x407da2f9	3.963072
7	0x409d9a22	4.925065

weights f4 [16]
0	0x40c91f6a	6.2850847
1	0x3f01ef7b	0.50756043
2	0x3f72642f	0.9468412
3	0x40797556	3.8977866
4	0x40a36d14	5.107065
5	0x40b1a558	5.5514336
6	0x3feaaa11	1.833315
7	0x4052a2eb	3.2911937
8	0x40427043	3.038102
9	0x40c9323d	6.2873826
10	0x407ddcb5	3.966596
11	0x404168c9	3.0220206
12	0x4076309f	3.8467176
13	0x400495c7	2.0716417
14	0x40aa6a76	5.3254957
15	0x4096e6c7	4.715671

weights f4 [16]
0	0x3d629357	0.055316295
1	0x3f1410f7	0.57838386
2	0x400ffd14	2.2498217
3	0x3f4a592b	0.7904231
4	0x408dd61b	4.432386
5	0x3eda2a16	0.42610234
6	0x3f633321	0.8874989
7	0x409c00e4	4.8751087
8	0x4052e99b	3.2955081
9	0x404bfed0	3.1874275
10	0x3feb577c	1.8386073
11	0x4096d156	4.7130537
12	0x3da04d54	0.07827249
13	0x40b50266	5.656543
14	0x407a236b	3.9084117
15	0x4044940e	3.0715365

weights f4 [16]
0	0x40894844	4.2900715
1	0x4015680d	2.3344758
2	0x40535796	3.3022208
3	0x3ffb791c	1.9646335
4	0x3e738d69	0.23784412
5	0x3fe0d1ef	1.7564067
6	0x3f9f02d4	1.2422738
7	0x40bb77b3	5.8583617
8	0x3fefc081	1.8730623
9	0x40c56b0f	6.1693187
10	0x406c2394	3.6896715
11	0x400098a0	2.0093155
12	0x402fe8f9	2.7485945
13	0x408d5091	4.416085
14	0x40a291e5	5.0803094
15	0x40abd93e	5.370269

weights f4 [12]
0	0x40915ea0	4.542801
1	0x4085c67f	4.1804805
2	0x4048041f	3.1252515
3	0x406f6434	3.740491
4	0x4049afb8	3.15135
5	0x408bd96b	4.3702903
6	0x40a099b4	5.0187626
7	0x4033981f	2.8061597
8	0x406fb3af	3.745342
9	0x40a3ca9b	5.118482
10	0x400789e2	2.1177907
11	0x40ac9606	5.3933134

weights f4 [12]
0	0x408fa129	4.488423
1	0x4066ff8f	3.609348
2	0x40a02f84	5.0058002
3	0x4035e764	2.842248
4	0x401d8061	2.4609606
5	0x40bea410	5.957527
6	0x40827df8	4.077877
7	0x403d6768	2.9594364
8	0x408e20f3	4.441522
9	0x40b4a0a2	5.6446085
10	0x40adef79	5.4354825
11	0x4091f556	4.561198

weights f4 [12]
0	0x40ae9bc0	5.4565125
1	0x401ce6ed	2.4515946
2	0x408ec4c3	4.461519
3	0x40579c9e	3.3689342
4	0x40c1b37f	6.053161
5	0x4081995f	4.049972
6	0x3f9f10db	1.2427019
7	0x3e1553d6	0.14582762
8	0x403cbf9a	2.9491944
9	0x400075a0	2.0071793
10	0x40a8445e	5.2583456
11	0x3fdb1fbb	1.7119058

weight f4 [5]
0	0x3f894374	1.072371
1	0x3f8b118c	1.086473
2	0x3f8b27a0	1.0871468
3	0x3f8c7baa	1.0975239
4	0x3f8a5d5e	1.0809743

bias f4 [5]
0	0xbd13d00a	-0.036087073
1	0xbd4ebfb3	-0.050475787
2	0x3df674d3	0.12034001
3	0x3d1cf81a	0.038322546
4	0xbd3d578f	-0.04622608

running_mean f4 [5]
0	0x3f78f8cc	0.97254634
1	0xbfc01954	-1.500773
2	0x3fc86017	1.5654324
3	0x3f495ba5	0.78655463
4	0xbe476aac	-0.19474286

running_var f4 [5]
0	0x3e26ccbd	0.16289039
1	0x3d24f9ca	0.04027728
2	0x3e0ff0ff	0.14056776
3	0x3e4e7f36	0.20165715
4	0x3ed27c98	0.41110682

weight f4 [32, 80]
0	0xbd93acc1	-0.072106846
1	0x3dbe86d1	0.09303058
2	0xbd8157db	-0.06315585
3	0xbc5d8752	-0.013521032
4	0xbb45ee18	-0.003020173
5	0x3d83112b	0.06399759
6	0xbd7e23df	-0.062045928
7	0x3dec774e	0.11546193
8	0x3db1ef00	0.08688164
9	0x3c583e5a	0.0131984595
10	0xbc95fa11	-0.018307718
11	0x3c7ff32a	0.01562194
12	0x3e0d2e3d	0.1378717
13	0x3df02a96	0.117268726
14	0xbbe034a2	-0.006842212
15	0x3e2a54a8	0.16633856
16	0xbdf69c21	-0.12041498
17	0xbdc0127f	-0.09378528
18	0x3c8a1009	0.01685335
19	0xbe2332fb	-0.15937416
20	0xbd66238b	-0.05618624
21	0xbdefafb4	-0.117034346
22	0xbcd6f55b	-0.026240041
23	0xbe2bc300	-0.16773605
24	0xbcc13eb8	-0.023589477
25	0xbd644d3e	-0.055737726
26	0xbbbef594	-0.005827615
27	0x3d8b6132	0.06805648
28	0xbdaa68e5	-0.08320788
29	0x3cafb3db	0.021448066
30	0xbd0d91f8	-0.034563035
31	0x3d3a57a3	0.045493733
32	0x3d8289a7	0.06373911
33	0x3c99c731	0.01877174
34	0xbc14e2d4	-0.009087283
35	0xba8e027d	-0.0010834482
36	0xbd0598d1	-0.03261644
37	0xbdfdb2ab	-0.12387594
38	0x3c9fc782	0.019504312
39	0xbd390f25	-0.04518046
40	0x3d98cdef	0.07461154
41	0xbcea53b9	-0.028604375
42	0xbcc06f14	-0.023490466
43	0xbd30d801	-0.043174747
44	0xbe22f211	-0.15912654
45	0xbdaaf382	-0.08347227
46	0x3dd591d0	0.10428202
47	0xbd95a17e	-0.07306193
48	0xbdb2cab7	-0.08730071
49	0x3c189c6d	0.009314639
50	0xbd3e9db0	-0.0465371
51	0xbdf002df	-0.117192976
52	0xbe42ad9e	-0.19011542
53	0xbe1560b3	-0.14587669
54	0xbe34063e	-0.17580506
55	0xbde6552d	-0.11246715
56	0xbdfe71c9	-0.124240465
57	0xbd4d4c5a	-0.050121643
58	0x3d830323	0.06397083
59	0x3b719b05	0.003686608
60	0xbde8d104	-0.113679916
61	0xbda2edca	-0.07955511
62	0xbdea08fb	-0.11427494
63	0xbe4ccbf0	-0.19999671
64	0x3d9acd43	0.07558682
65	0x3cc5891e	0.024113234
66	0x3c871b4f	0.016492514
67	0xbd11899e	-0.035531633
68	0x3d75072d	0.059821296
69	0x3cef1e7c	0.02918934
70	0x3c24db96	0.010062119
71	0x3db7ae66	0.08968811
72	0x3e11322f	0.141793
73	0x3d85fd34	0.06542435
74	0xbce6cc73	-0.02817366
75	0xbcace8a1	-0.02110702
76	0x3ca77b93	0.020444667
77	0xbd60bba9	-0.054866467
78	0xbd23ee41	-0.04002214
79	0x3ddd6b6f	0.10811507
80	0x3db756ab	0.089520775
81	0xbd919f00	-0.07110405
82	0xbcd40372	-0.02588055
83	0x3d8e306b	0.06942829
84	0xbd96b8c4	-0.0735946
85	0xbd1db668	-0.038504034
86	0xbd72535b	-0.059161525
87	0x3d6843cf	0.056705292
88	0xbd41097b	-0.047128182
89	0xbdb28c62	-0.08718182
90	0xbdaa804c	-0.08325252
91	0xbdb32368	-0.087469876
92	0x3d3e07cf	0.046394166
93	0x3d05b7a6	0.032645844
94	0xbd3da74e	-0.046302132
95	0x3da0c10b	0.0784932
96	0x3c78d882	0.015188338
97	0x3c6b7d52	0.01437314
98	0xbce64987	-0.028111232
99	0xbcb908a4	-0.022587128
100	0x3d62bdab	0.055356663
101	0xbda628fb	-0.08113285
102	0xbc3ef4a6	-0.011655008
103	0xbc03772f	-0.008024021
104	0xbdbf7a32	-0.09349479
105	0x3d43abbb	0.047771197
106	0xbb5fc594	-0.0034144865
107	0x3d862cb6	0.06551497
108	0xbbbed981	-0.0058242683
109	0x3d5e16b7	0.05422088
110	0xbac616a9	-0.0015112954
111	0xbcec8e44	-0.028876431
112	0x3dd1434c	0.10217914
113	0xbd5972d2	-0.053088017
114	0x3c2f5992	0.010702508
115	0x3d8cf9b9	0.06883568
116	0xbd2c8946	-0.0421231
117	0x3d858f29	0.06521446
118	0x3c5205e6	0.012818789
119	0xbe02d23c	-0.1277551
120	0xbc79ffd9	-0.015258753
121	0x3b6e0919	0.003632134
122	0xbd827091	-0.063691266
123	0xbd7d9fbf	-0.061919924
124	0xbc4ba04b	-0.012428354
125	0x3d7afd4e	0.061276726
126	0xbd4dda5b	-0.050257068
127	0xbd0eda57	-0.034876194
128	0x3df82051	0.12115539
129	0xbdb08d9c	-0.0862076
130	0x3d101fac	0.035186455
131	0x3dc340da	0.09533854
132	0x3dbc80cb	0.09204253
133	0xbd94ab32	-0.072592154
134	0xbd99c904	-0.07509044
135	0x3d9f62d0	0.07782519
136	0xbda49aa5	-0.080373086
137	0xbc15a2ea	-0.00913308
138	0x3cb68cfb	0.022284022
139	0x3b89b554	0.004202524
140	0xbd8ed4f8	-0.06974214
141	0xbd600b97	-0.054698553
142	0xbdaf5381	-0.08560849
143	0xbd8a817a	-0.06762977
144	0x3d6766e8	0.056494623
145	0x3d98ed7e	0.07467173
146	0xbadceac7	-0.0016854637
147	0xbcbb4060	-0.022857845
148	0x3dffdfbf	0.12493848
149	0x3de1ac98	0.11019248
150	0xbd06e945	-0.032937307
151	0xbc6e67ad	-0.014551085
152	0xbd907c0d	-0.07054911
153	0x3dd415ea	0.10355742
154	0xbd236edf	-0.039900657
155	0x3c1fcdc9	0.009753653
156	0x3cc470bf	0.023979543
157	0xbd730d36	-0.05933877
158	0xbc3a881c	-0.01138499
159	0x3cc22af2	0.023702119
160	0x3d61dcfe	0.055142395
161	0xbd5a2bf3	-0.05326457
162	0x3dd13395	0.102149166
163	0x3d9363df	0.07196783
164	0x3db3b434	0.087746054
165	0x3d7065bd	0.058690775
166	0x3e1df57c	0.15425676
167	0xbc6a91cf	-0.01431699
168	0x3ccee3f0	0.025255173
169	0x3c996476	0.018724661
170	0x3c7cf4e7	0.015439249
171	0x3e0fa4f8	0.14027774
172	0x3e0ea250	0.13929105
173	0xbd455cac	-0.048184082
174	0xbc85ed94	-0.016348638
175	0x3dd9d3a2	0.10636069
176	0x3d12bcc3	0.03582455
177	0xbc1b320a	-0.009472379
178	0x3d3462d8	0.044039577
179	0x3cb6ca3f	0.022313235
180	0x3d24f189	0.04026941
181	0x3e0bfb59	0.136701
182	0x3d15900c	0.036514327
183	0x3d4de672	0.050268598
184	0xbc265919	-0.0101530785
185	0x3c4526d6	0.012033185
186	0x3de90296	0.11377446
187	0x3e23551f	0.1595044
188	0xbdd8fb56	-0.105948135
189	0x3d390d2b	0.045178574
190	0xbca1f7a5	-0.019771406
191	0x3d58fcd9	0.05297551
192	0xbdce5a22	-0.10075785
193	0xbe05a858	-0.130525
194	0xbdbb1220	-0.091343164
195	0x3d3e8f6c	0.046523497
196	0x3c0a3e95	0.008437772
197	0x3d76d2d4	0.060259655
198	0xbdfd087f	-0.12355136
199	0xbcfd1400	-0.030893326
200	0xbd9219c9	-0.071338244
201	0x3db94a6e	0.090473995
202	0x3ca401d9	0.020020412
203	0xbd4df8d2	-0.05028612
204	0xbdd8a581	-0.10578442
205	0xbe028739	-0.12746896
206	0x3d689310	0.056780875
207	0xbd229e11	-0.039701525
208	0xbdfee841	-0.12446643
209	0xbe2b5e95	-0.16735299
210	0xbce8e4b7	-0.028429372
211	0xbdcdaf4e	-0.10043202
212	0xbde0f76a	-0.109846905
213	0x3c9e2c7e	0.019308325
214	0xbc8af596	-0.016962808
215	0xbe1bab53	-0.15202074
216	0xbd10b2c5	-0.035326738
217	0xbd2bf542	-0.041981943
218	0x3dfb2829	0.12263519
219	0xbe2404e5	-0.16017492
220	0xbe166f8a	-0.14690986
221	0x3c8df267	0.0173275
222	0xbdab4385	-0.08362488
223	0xbe4060c6	-0.18786916
224	0x3d6d71db	0.05796991
225	0xbc03e498	-0.0080501065
226	0x3ddb45b6	0.10706656
227	0x3dc301a1	0.09521795
228	0x3e163dfb	0.14672081
229	0x3d74b8af	0.05974644
230	0x3b7db769	0.0038714057
231	0x3d344197	0.044007864
232	0x3d7c6954	0.061623886
233	0xbd79a514	-0.060948446
234	0x3d96181c	0.07328817
235	0x3d7cb4e5	0.061695952
236	0x3e22c49c	0.15895313
237	0x3dc6e5f7	0.09711831
238	0x3b9123b9	0.0044293073
239	0x3e243f90	0.16039872
240	0x3ca6868b	0.020327827
241	0x3c3d0de1	0.0115389535
242	0xbd6d65a4	-0.05795826
243	0x3d2552f7	0.040362325
244	0x3dd7a005	0.10528568
245	0x3e2bccbb	0.16777317
246	0x3e1f1816	0.15536532
247	0x3cc21198	0.02369003
248	0xbca08720	-0.019595683
249	0x3d5f91e5	0.054582495
250	0x3dad49f3	0.0846137
251	0x3c99d00e	0.018775966
252	0xbc02fada	-0.007994378
253	0xbd812a71	-0.06306923
254	0x3d700208	0.058595687
255	0xbd6c9711	-0.057761256

bias f4 [32]
0	0xbc9d424c	-0.019196652
1	0x3c1b2286	0.00946868
2	0xbc9524c8	-0.018206015
3	0x3e1fb895	0.15597756
4	0xbcb8f165	-0.022576043
5	0xbe0e60bb	-0.13904087
6	0x3d054ad1	0.032542054
7	0xbd9a5a4c	-0.07536754
8	0x3c54cebf	0.012988745
9	0x3d21b442	0.039478548
10	0x3d7f0705	0.062262554
11	0xbda5025c	-0.08057091
12	0x3d8a8af5	0.06764785
13	0x3ca6a74a	0.020343442
14	0x3e106ddc	0.14104408
15	0x3e43d6a5	0.19124849
16	0xbcc96421	-0.024583878
17	0x3d18ad95	0.037274916
18	0x3e01a638	0.12661064
19	0xbd1fcf73	-0.0390162
20	0x3e30ce7b	0.17266266
21	0xbe0d06a3	-0.13772063
22	0xbcb10bcc	-0.02161207
23	0x3e43fb72	0.19138888
24	0x3df34934	0.11879197
25	0x3db89199	0.090121455
26	0x3e3efe9d	0.18651815
27	0x3e316b3b	0.17326061
28	0x3d890729	0.06690819
29	0x3d82b646	0.06382422
30	0x3d8527a0	0.065016985
31	0x3d159fb3	0.036529254

weight f4 [10, 32]
0	0x3cb8c18d	0.02255323
1	0x3b5d14a9	0.0033734238
2	0x3e163b09	0.14670958
3	0x3e3b9c88	0.1832143
4	0xbdb15e77	-0.08660596
5	0xbda49db8	-0.08037895
6	0x3dfd8988	0.12379748
7	0xbd634352	-0.055484124
8	0x3d7cf83a	0.061760165
9	0xbd875e7f	-0.066098206
10	0x3ddbee70	0.10738838
11	0xbcaf6377	-0.021409733
12	0xbd99462c	-0.07484087
13	0x3ace8216	0.0015755321
14	0x3d8f7554	0.070048004
15	0xbc1d587c	-0.009603616
16	0x3e4ec8f7	0.2019385
17	0x3d8f0bc6	0.069846675
18	0x3dc5aa64	0.0965164
19	0x3d94c872	0.072647944
20	0x3e396ffe	0.18109128
21	0xbde39472	-0.11112298
22	0x3dafe76c	0.08589062
23	0x3de30469	0.110848255
24	0x3e183ed5	0.14867719
25	0x3d94b8b3	0.07261791
26	0x3dd8969d	0.10575602
27	0x3e0d36c3	0.13790421
28	0x3cb12d56	0.021628063
29	0x3dfe07d6	0.12403838
30	0x3c899d8c	0.016798757
31	0x3def2390	0.11676705
32	0xbddafdf5	-0.1069297
33	0xbd9e4c4b	-0.077293955
34	0x3ca1ed0d	0.019766355
35	0x3da97844	0.08274892
36	0x3e1f6c18	0.15568578
37	0xbd3f08e3	-0.046639334
38	0xbd9475ea	-0.07249053
39	0x3d0ecc60	0.034862876
40	0xbd99b46c	-0.07505116
41	0xbd7f258d	-0.06229167
42	0x3e00385b	0.12521498
43	0x3c526608	0.012841709
44	0x3e198774	0.14993078
45	0xbe05cf9f	-0.13067482
46	0x3e46d433	0.19416885
47	0x3e0403ea	0.12892118
48	0x3dbbc50b	0.09168442
49	0xbd099a50	-0.03359443
50	0x3bb45e4e	0.005504406
51	0xbdd29515	-0.102823414
52	0x3e52387b	0.20529358
53	0x3c98d59b	0.018656543
54	0x3e38b1d6	0.18036589
55	0xbcb29baf	-0.021802751
56	0x3e1a4067	0.1506363
57	0x3e72345f	0.2365279
58	0x3c87779b	0.016536525
59	0x3c4aa9ae	0.012369556
60	0xbe178beb	-0.14799468
61	0xbd41cfc1	-0.04731727
62	0x3e2f72e8	0.17133677
63	0x3e6e7ba4	0.23289353
64	0xbe691d34	-0.22765046
65	0x3d0fecc1	0.035137895
66	0xbe728eb0	-0.23687243
67	0xbe28d949	-0.16489138
68	0xbe19049b	-0.14943163
69	0xbe1560d7	-0.14587723
70	0x3c233a34	0.009962607
71	0x3d0442d1	0.032290284
72	0xbd7b3f88	-0.061339885
73	0xbe0a74fc	-0.13521188
74	0x3d37a7a1	0.044837598
75	0xbdcabbca	-0.09899099
76	0xbe592550	-0.2120564
77	0x3c892fb2	0.016746376
78	0xbdbd6d4e	-0.09249364
79	0xbe77a3e3	-0.24183612
80	0x3db6953b	0.08915182
81	0x3db943bc	0.090461224
82	0x3cae3468	0.021265224
83	0xbcb29c44	-0.021803029
84	0xbafcd82d	-0.00192905
85	0xbe42e2fa	-0.19031897
86	0xbe53fb6c	-0.20701379
87	0xbe4a78ff	-0.19772719
88	0x3db47c27	0.08812743
89	0xbd3b5cb6	-0.045742713
90	0xbe167da2	-0.14696363
91	0xbd11b2ee	-0.03557103
92	0x3b57e04d	0.003294009
93	0x3dbfe4cb	0.09369811
94	0xbe2b1cbc	-0.1671018
95	0xbe684f6f	-0.22686552
96	0xbcdcd790	-0.026958257
97	0xbd117669	-0.035513315
98	0xbd840a73	-0.064473055
99	0xbd16c2b7	-0.03680679
100	0xbe1681fc	-0.14698023
101	0x3d5c0799	0.053718183
102	0xbd694026	-0.056945942
103	0x3db1981f	0.08671593
104	0xbe66b8ee	-0.22531483
105	0xbe1d0d11	-0.15337016
106	0xbe87818e	-0.2646603
107	0xbdb4b092	-0.088227406
108	0xbe4d8d6d	-0.20073481
109	0x3dca356a	0.09873469
110	0xbe82a644	-0.25517476
111	0x3dc2efe3	0.09518411
112	0xbe004ee3	-0.12530093
113	0x3d81c0f6	0.063356325
114	0xbe807800	-0.25091553
115	0xbd39d671	-0.045370523
116	0x3dc0c3db	0.094123565
117	0x3ddd73a4	0.10813072
118	0x3d26443b	0.040592413
119	0xbe234271	-0.15943314
120	0xbddb469d	-0.10706828
121	0x3d7b9e14	0.061430052
122	0x3bacafcf	0.0052699815
123	0xbe21a0d4	-0.15784007
124	0xbe17951f	-0.14802979
125	0xbe4d09ca	-0.20023265
126	0x3daddb0d	0.08489046
127	0xbdfa3782	-0.122176185
128	0xbe84832f	-0.25881335
129	0x3db5ad05	0.088708915
130	0x3da0b2e6	0.07846622
131	0xbbe17ef1	-0.0068815877
132	0xbd8460c2	-0.064637676
133	0x3b868825	0.004105585
134	0xbd73abde	-0.059490077
135	0xbdd09e00	-0.10186386
136	0xbdf600ac	-0.12011847
137	0x3c4bc5fe	0.012437342
138	0xbd47b1dc	-0.048753604
139	0xbe14e5f0	-0.14540839
140	0x3c7f389d	0.0155774625
141	0xbe4d8239	-0.20069207
142	0x3dc67f61	0.09692264
143	0xbe15f838	-0.14645469
144	0xbdb7cc4e	-0.08974515
145	0xbe0dde6e	-0.13854381
146	0xbe6af572	-0.22945192
147	0xbe733f50	-0.2375462
148	0xbd637065	-0.05552711
149	0x3dff073e	0.12452553
150	0xbe4df938	-0.201146
151	0xbdfd3fbe	-0.123656735
152	0xbca6d69d	-0.020366007
153	0xbdec26b1	-0.11530817
154	0xbdea786b	-0.11448749
155	0xbded1eef	-0.11578166
156	0x3d862e8e	0.06551848
157	0x3ced1a29	0.028943138
158	0xbd613a82	-0.054987438
159	0xbd8c702d	-0.06857333
160	0xbe5cd1b0	-0.21564364
161	0x3deb83d3	0.11499753
162	0xbe0a9047	-0.135316
163	0x3b29f8b0	0.0025935583
164	0x3dc5b11b	0.09652921
165	0xbe049d2f	-0.12950586
166	0xbe49e544	-0.19716364
167	0xbdbf45c8	-0.093394816
168	0x3dc70e29	0.09719498
169	0xbda3e6cf	-0.080030076
170	0xbe62773c	-0.22115797
171	0xbe4e9bc7	-0.20176612
172	0xbe2eeedc	-0.17083305
173	0xbdf520ff	-0.11969184
174	0xbd7b60e9	-0.061371718
175	0x3d47bbe9	0.04876319
176	0xbde4a168	-0.11163598
177	0xbdd20e35	-0.10256616
178	0xbe01e757	-0.12685905
179	0xbe495f38	-0.1966523
180	0xbc396c3d	-0.01131731
181	0x3de9e095	0.11419789
182	0xbdbbfa23	-0.09178569
183	0x3ce5b048	0.028038159
184	0xbdffaa20	-0.12483621
185	0xbe28fe5f	-0.16503285
186	0xbe771a1c	-0.24131054
187	0x3cdf9e5a	0.027297188
188	0x3ddf0bf5	0.108909525
189	0xbda49828	-0.08036834
190	0xbe6e70ce	-0.23285219
191	0xbe464530	-0.1936233
192	0xbc29474e	-0.010331942
193	0x3d4817a2	0.048850663
194	0x3c973005	0.018455515
195	0xbe68c931	-0.22732998
196	0xbd06f58d	-0.03294902
197	0xbda55907	-0.08073621
198	0xbe51de78	-0.20495021
199	0xbb9108b6	-0.0044260873
200	0xbe3bf803	-0.18356328
201	0xbd8590d5	-0.06521765
202	0xbdeba471	-0.11505974
203	0xbd82179b	-0.06352159
204	0xbe5eeb3a	-0.2176942
205	0xbe2f1b5a	-0.17100278
206	0xbe6bff4a	-0.23046604
207	0xbce96222	-0.028489176
208	0x3db09752	0.08622612
209	0xbe445158	-0.19171655
210	0xbe7dc284	-0.24781233
211	0x3ca449cc	0.02005472
212	0xbd3c30e4	-0.045945063
213	0x3995f2ac	0.000286003
214	0xbe5e071d	-0.21682401
215	0xbe352d1d	-0.1769299
216	0xbe5f1768	-0.21786273
217	0xbe0bbfc8	-0.13647377
218	0xbc22dc72	-0.009940254
219	0xbe19b78c	-0.15011424
220	0xbcbd2d9e	-0.023093041
221	0x3db01308	0.0859738
222	0xbddf5e9a	-0.10906716
223	0xbdae43f3	-0.08509054
224	0xbe6eb15c	-0.23309845
225	0x3dda70ba	0.10666032
226	0xbe026a71	-0.12735917
227	0xbd869945	-0.065722026
228	0xbdb636b1	-0.0889715
229	0xbe5227a6	-0.20522937
230	0xbd9f31dc	-0.07773182
231	0x3d801631	0.06254233
232	0x3c172a7c	0.009226438
233	0xbe56bc91	-0.2097037
234	0xbdeef44a	-0.11667688
235	0xbd607312	-0.05479724
236	0x3d61a54c	0.05508928
237	0x3df1d045	0.118073024
238	0xbe2032e3	-0.15644412
239	0xbe0894b8	-0.13337982
240	0xbe770ff7	-0.24127184
241	0x3d8e0b85	0.06935791
242	0xbdc3e989	-0.09566028
243	0x3d7de10a	0.061982192
244	0xbe0cd2ac	-0.1375224
245	0xbdca8fa2	-0.09890677
246	0xbda5e248	-0.080998
247	0xbe2f4e08	-0.1711961
248	0xbdcb2161	-0.09918476
249	0xbdb1e6fd	-0.08686636
250	0xbde2f6ca	-0.110822275
251	0xbe4c7131	-0.19965054
252	0xbc0ff974	-0.008787502
253	0x3cc1df3e	0.02366602
254	0xbde92fbd	-0.113860585
255	0xbe6c2e89	-0.23064627

bias f4 [10]
0	0x3ce23830	0.027614683
1	0x3d19bdd7	0.03753456
2	0xbdc43c73	-0.09581842
3	0xbd4b76ce	-0.049673848
4	0x3d469673	0.048483323
5	0xbe1930df	-0.14960049
6	0xbe2f6d46	-0.17131528
7	0x3daddc9d	0.08489344
8	0x3dcb48c8	0.09925991
9	0x3d28ef86	0.041244052
