MQCNN-4qubits-8class-CIFAR/Models_V1/model_45.pt (torch, 124648 bytes, 23 tensors)

weights f4 [7]
5.62511 0.41325724 1.6800067 6.280782 2.2059965 1.7728279 2.9112067
00000000: e700 b440 7496 d33e 760a d73f 2bfc c840
00000010: 0c2f 0d40 06ec e23f 3651 3a40

weights f4 [7]
3.299059 4.930014 4.451216 0.43866035 6.244965 4.574102 5.10137
00000000: c823 5340 adc2 9d40 5d70 8e40 1798 e03e
00000010: c1d6 c740 0b5f 9240 6c3e a340

weights f4 [7]
0.50831324 2.436808 2.5614696 2.232263 3.4637282 4.048979 2.231447
00000000: d120 023f aaf4 1b40 1eef 2340 66dd 0e40
00000010: b9ad 5d40 3c91 8140 07d0 0e40

weights f4 [7]
4.3832984 6.462066 4.3065343 2.8388724 6.231363 5.1632986 5.5639772
00000000: fb43 8c40 3fc9 ce40 21cf 8940 16b0 3540
00000010: 5367 c740 be39 a540 1a0c b240

weights f4 [7]
2.2931004 0.29621136 1.7152953 2.5543885 4.612311 3.6045442 1.0145384
00000000: 28c2 1240 04a9 973e cc8e db3f 1a7b 2340
00000010: 0d98 9340 dab0 6640 65dc 813f

weights f4 [7]
3.5270925 4.44413 0.9286614 4.5673804 3.9151425 4.55298 1.1522771
00000000: e2bb 6140 5036 8e40 c1bc 6d3f fb27 9240
00000010: b291 7a40 03b2 9140 d17d 933f

weights f4 [8]
2.968336 3.842083 1.0996585 1.0457035 2.393934 3.3830218 4.370826 0.93314296
00000000: 38f9 3d40 b0e4 7540 9cc1 8c3f 9dd9 853f
00000010: 3736 1940 6e83 5840 cedd 8b40 75e2 6e3f

weights f4 [8]
4.333708 5.5755258 0.5827283 3.453307 1.80217 6.2062607 4.933465 2.1127105
00000000: bcad 8a40 b56a b240 af2d 153f fb02 5d40
00000010: 82ad e63f b099 c640 f2de 9d40 a636 0740

weights f4 [8]
4.4224415 3.5070484 1.6913344 1.0733303 1.4008669 3.0255554 1.7835085 1.5571746
00000000: a484 8d40 7b73 6040 a57d d83f e362 893f
00000010: 9b4f b33f b3a2 4140 024a e43f 7f51 c73f

weights f4 [16]
2.7614088 1.2264612 1.0678433 5.7201953 1.6833354 3.1569862 0.5901271 4.006407
5.240267 5.684522 6.44259 0.4448442 1.6776452 3.9702206 3.9090655 1.7764344
00000000: ecba 3040 aefc 9c3f 17af 883f d70b b740
00000010: 8977 d73f 100c 4a40 9212 173f 7c34 8040
00000020: 44b0 a740 9be7 b540 b329 ce40 9ec2 e33e
00000030: 14bd d63f 1818 7e40 212e 7a40 3462 e33f

weights f4 [16]
1.3974653 0.37560198 3.378089 2.088775 4.508177 4.508254 1.1033783 6.0444856
1.3882421 1.5836065 1.5658716 2.3553631 1.4185436 2.217244 5.943531 3.1424825
00000000: 25e0 b23f e74e c03e 9c32 5840 7dae 0540
00000010: fc42 9040 9e43 9040 803b 8d3f 6d6c c140
00000020: ebb1 b13f 9eb3 ca3f 7b6e c83f 45be 1640
00000030: d692 b53f 53e7 0d40 6831 be40 6f1e 4940

weights f4 [16]
3.2592604 5.130919 5.5881987 2.92701 1.723554 5.4901066 5.54466 4.4383826
4.1595984 2.1710274 0.6222468 6.2134404 5.444198 4.286742 5.431005 3.642112
00000000: b997 5040 7d30 a440 86d2 b240 2254 3b40
00000010: 6b9d dc3f f4ae af40 db6d b140 3b07 8e40
00000020: 6e1b 8540 1df2 0a40 914b 1f3f 81d4 c640
00000030: df36 ae40 fe2c 8940 cbca ad40 5d18 6940

weights f4 [12]
5.797752 4.4527454 2.2858603 5.2085447 5.1967354 6.016294 4.9300237 3.7631023
1.2402831 0.24192765 0.30975595 5.4803324
00000000: 2f87 b940 e47c 8e40 894b 1240 66ac a640
00000010: a84b a640 7b85 c040 c1c2 9d40 abd6 7040
00000020: 99c1 9e3f e2bb 773e 5598 9e3e e25e af40

weights f4 [12]
2.055542 4.1835556 4.573734 6.5143433 2.1207428 6.059163 3.939621 6.274874
0.38159978 0.68381244 6.1566544 4.126947
00000000: 008e 0340 b0df 8540 075c 9240 8075 d040
00000010: 40ba 0740 aae4 c140 c022 7c40 c5cb c840
00000020: 0c61 c33e 550e 2f3f 5003 c540 f30f 8440

weights f4 [12]
3.8027093 -0.044222947 5.601959 4.719234 2.6776283 4.3943615 1.5242939 0.9482336
3.1413488 4.0186605 5.1806245 5.727341
00000000: 975f 7340 1f23 35bd 4043 b340 f703 9740
00000010: 435e 2b40 9c9e 8c40 101c c33f 70bf 723f
00000020: dc0b 4940 de98 8040 adc7 a540 6146 b740

weight f4 [5]
1.5512407 1.628618 1.6039097 1.5811925 1.6981345
00000000: 0e8f c63f 8e76 d03f ea4c cd3f 8464 ca3f
00000010: 795c d93f

bias f4 [5]
-0.14015412 -0.10775766 -0.11656945 0.0039872816 -0.14357376
00000000: 9084 0fbe 0cb0 dcbd f7bb eebd bea7 823b
00000010: 0005 13be

running_mean f4 [5]
1.2088977 1.1526508 0.48499066 -0.620049 -0.17929672
00000000: 29bd 9a3f 108a 933f b250 f83e 88bb 1ebf
00000010: 8f99 37be

running_var f4 [5]
0.069770694 0.049583893 0.53126764 0.052994583 0.06665629
00000000: f0e3 8e3d 7b18 4b3d 2801 083f d910 593d
00000010: 1883 883d

weight f4 [32, 80]
-0.12866357 -0.07257284 0.070377424 0.15008442 0.064520635 -0.055667926 -0.2072349 -0.09264646
-0.08128798 -0.16117029 -0.07578287 0.059541367 -0.18122719 -0.09300167 -0.13489246 -0.18872496
0.27884477 0.17984 0.14617063 0.2321859 0.1693156 0.07811379 0.113607615 0.3364891
0.067541696 -0.052372333 -0.09857206 0.23433359 0.031174555 -0.0009878402 0.050868917 0.05016147
0.27110907 -0.030572193 -0.0508908 -0.0025608283 -0.052986242 -0.06529884 -0.062880166 -0.14046586
0.1276594 0.051454607 -0.14063431 0.028154468 0.14289735 -0.08713152 -0.077657774 0.19725291
-0.24070303 0.002513793 -0.060528703 -0.015444278 -0.13713627 -0.14364861 -0.14270003 0.04080634
-0.18740913 -0.07830678 0.097795084 -0.11990317 -0.056345373 -0.21709631 0.14874503 -0.3421568
0.33978412 0.075759225 -0.018619945 0.2538773 -0.0061696297 0.098613314 -0.14942694 0.07266138
0.14347433 -0.15392599 -0.10851636 0.1312657 0.029603623 -0.13979402 -0.078728296 0.022553433
-0.062794656 -0.04485181 0.063230515 0.23792444 0.11570976 -0.17172915 -0.057097357 0.18807074
0.07950657 -0.116798274 -0.12104934 -0.14348577 0.022120105 -0.173851 -0.20166802 -0.13608226
-0.07345791 0.03279611 0.02654686 -0.116488144 0.03393845 0.1473929 0.04234402 -0.20666535
0.18713914 0.113120645 -0.03268195 -0.25348055 0.1631016 0.2665866 0.058713708 -0.10416774
0.17748763 0.19867684 -0.15430216 -0.13660812 0.22676042 0.17363471 -0.028790256 -0.048819654
-0.030925596 0.19718933 -0.12622088 -0.29511982 0.16999435 0.119507134 -0.05767572 -0.16231237
0.04257784 0.16552335 0.081821546 0.1635789 0.15344378 0.036370866 -0.11563025 0.15334257
0.13357517 -0.078453176 -0.34585238 0.102342516 0.11371057 -0.21379817 -0.10346913 0.15656501
-0.12858295 0.096720405 0.10994419 -0.07969192 0.06818888 -0.06103502 -0.0670145 -0.10096619
0.094305284 0.01350964 -0.039496467 -0.24566789 0.09363445 -0.035782795 -0.0089376345 0.12756497
-0.085969575 -0.07316235 0.008189784 -0.13054532 -0.055716746 -0.043280322 -0.18563147 -0.16234043
0.031336 -0.17199902 -0.33300933 0.14401302 -0.17002343 -0.17977937 0.032931197 -0.05582414
-0.094298996 -0.049657073 -0.15843426 -0.0897489 -0.07870434 -0.16504028 -0.037000198 -0.02841652
-0.2898631 -0.20760506 -0.18460594 0.032124374 -0.2349866 -0.06761236 0.057701968 -0.012747876
0.09858015 -0.086966775 0.04001774 -0.0034423657 0.011778154 -0.10371079 -0.11714242 -0.036069177
-0.03928286 -0.06716511 -0.15560332 -0.05890749 0.14402117 -0.046771493 0.057522837 0.04009169
-0.020761978 -0.14378054 0.016822834 -0.12926444 0.15053949 -0.09667969 -0.22221673 -0.078510545
0.009251736 0.023461 -0.27532837 -0.18225476 -0.09411817 0.09751318 0.04672302 -0.18727158
-0.0874167 0.011058503 0.07266146 -0.060580626 -0.03324326 -0.08798147 -0.10885857 0.13958311
-0.07131932 -0.27451065 -0.23584516 -0.14275971 -0.04325024 0.0043551 -0.1362001 0.10714183
-0.030786216 0.18111365 0.18498258 0.18394457 0.06651002 0.10464396 -0.019810298 -0.12734501
-0.07325438 -0.023358429 0.033595737 -0.05834222 -0.101016544 -0.07836259 -0.120078415 0.0056574745
00000000: 62c0 03be 12a1 94bd 0a22 903d bbaf 193e
00000010: 6523 843d 0d04 64bd 6335 54be 6dbd bdbd
00000020: 507a a6bd d309 25be 0d34 9bbd a6e1 733d
00000030: 9f93 39be a977 bebd 4021 0abe 1e41 41be
00000040: bec4 8e3e fa27 383e c1ad 153e 24c2 6d3e
00000050: 1261 2d3e 1ffa 9f3d 1cab e83d 4d48 ac3e
00000060: 4d53 8a3d 5f84 56bd 26e0 c9bd 25f5 6f3e
00000070: c861 ff3c 6b7a 81ba ed5b 503d 1d76 4d3d
00000080: cfce 8a3e 8972 fabc df72 50bd 92d3 27bb
00000090: 1a08 59bd 66bb 85bd 51c7 80bd 48d6 0fbe
000000a0: 25b9 023e 11c2 523d 7102 10be 33a4 e63c
000000b0: af53 123e 0372 b2bd 0a0b 9fbd abfc 493e
000000c0: db7a 76be 73be 243b f2ec 77bd ff09 7dbc
000000d0: 736d 0cbe 9f18 13be f51f 12be 8c24 273d
000000e0: 2ee8 3fbe 4e5f a0bd ca48 c83d cb8f f5bd
000000f0: 68ca 66bd 7f4e 5ebe 9e50 183e 2d2f afbe
00000100: 2ff8 ad3e a727 9b3d db88 98bc 35fc 813e
00000110: 9b2a cabb c7f5 c93d 6003 19be 7dcf 943d
00000120: efea 123e c69e 1dbe d33d debd 846a 063e
00000130: 4c83 f23c 2a26 0fbe 4d3c a1bd fac1 b83c
00000140: 7c9a 80bd 88b6 37bd 007f 813d 77a2 733e
00000150: 3df9 ec3d c4d9 2fbe ebde 69bd 9e95 403e
00000160: 57d4 a23d ef33 efbd b7e8 f7bd efed 12be
00000170: 3935 b53c ff05 32be 1082 4ebe 2659 0bbe
00000180: 1a71 96bd 3755 063d cd78 d93c 5691 eebd
00000190: 0b03 0b3d 2aee 163e ec70 2d3d 15a0 53be
000001a0: 67a1 3f3e ccab e73d 82dd 05bd 34c8 81be
000001b0: 1b04 273e 0a7e 883e c97d 703d e555 d5bd
000001c0: 51bf 353e f171 4b3e 6301 1ebe 00e3 0bbe
000001d0: e233 683e 4ccd 313e 8bd9 ebbc 1ef7 47bd
000001e0: ad57 fdbc 00ec 493e 0c40 01be f219 97be
000001f0: 0013 2e3e 28c0 f43d 603d 6cbd 3735 26be
00000200: 1a66 2e3d f47e 293e 0e92 a73d 3a81 273e
00000210: 5e20 1d3e 9ef9 143d 8dcf ecbd d605 1d3e
00000220: eec7 083e 0fac a0bd 9013 b1be f498 d13d
00000230: 16e1 e83d e8ed 5abe a0e7 d3bd 9452 203e
00000240: 40ab 03be 5915 c63d 6b2a e13d 8435 a3bd
00000250: 9da6 8b3d dbff 79bd e63e 89bd 5dc7 cebd
00000260: 2123 c13d 8957 5d3c 0cc7 21bd 5d90 7bbe
00000270: 6bc3 bf3d fb90 12bd 286f 12bc 64a0 023e
00000280: d110 b0bd 24d6 95bd 722e 063c acad 05be
00000290: 3e37 64bd b546 31bd 2d16 3ebe 923c 26be
000002a0: 2d5a 003d 8320 30be 3380 aabe 2678 133e
000002b0: 9f1a 2ebe 1518 38be dde2 063d daa7 64bd
000002c0: d51f c1bd 3765 4bbd 973c 22be 45ce b7bd
000002d0: be2f a1bd 5200 29be 858d 17bd c3c9 e8bc
000002e0: f068 94be 6c96 54be 5709 3dbe d994 033d
000002f0: 54a0 70be 5978 8abd e658 6c3d 78dc 50bc
00000300: 64e4 c93d a31b b2bd a4e9 233d 5099 61bb
00000310: 29f9 403c 5366 d4bd 5de8 efbd 46bd 13bd
00000320: 10e7 20bd dc8d 89bd 7a56 1fbe fb48 71bd
00000330: 497a 133e 7793 3fbd 119d 6b3d 2f37 243d
00000340: 0615 aabc 353b 13be 0ad0 893c e65d 04be
00000350: 0627 1a3e 0000 c6bd c88c 63be 23ca a0bd
00000360: 9894 173c 4831 c03c d7f7 8cbe fea0 3abe
00000370: 07c1 c0bd fdb4 c73d a360 3f3d 1fc4 3fbe
00000380: 8707 b3bd b92e 353c 88cf 943d 6423 78bd
00000390: 162a 08bd a12f b4bd 3ef1 debd e0ee 0e3e
000003a0: dd0f 92bd a98c 8cbe 6581 71be 9a2f 12be
000003b0: 2a27 31bd 3ab5 8e3b 0a78 0bbe 2d6d db3d
000003c0: 6033 fcbc db75 393e 136c 3d3e f75b 3c3e
000003d0: 6836 883d 934f d63d 3549 a2bc bb66 02be
000003e0: 6406 96bd 2d5a bfbc af9b 093d 40f8 6ebd
000003f0: c3e1 cebd 917c a0bd aceb f5bd 5662 b93b

bias f4 [32]
0.07717739 -0.073341794 0.26872936 0.1065984 0.21941608 0.23500033 -0.00089171575 0.14878207
0.039381266 0.07550668 0.19862567 0.15571038 -0.086103156 0.08961747 0.05578923 0.081333265
0.015410243 0.10976587 0.09663022 0.05811042 0.11768328 0.26981932 0.09088249 0.06674888
-0.04048749 0.21605648 0.2734854 0.17436263 0.26478064 0.084971994 0.0047140894 0.4231378
00000000: 2e0f 9e3d 3934 96bd e596 893e 4350 da3d
00000010: 9cae 603e eda3 703e 08c2 69ba 545a 183e
00000020: 404e 213d 3fa3 9a3d 8764 4b3e 8b72 1f3e
00000030: da56 b0bd 5d89 b73d 3f83 643d 0e92 a63d
00000040: 3e7b 7c3c eecc e03d 11e6 c53d 3105 6e3d
00000050: ee03 f13d c225 8a3e 9920 ba3d a3b3 883d
00000060: 36d6 25bd e93d 5d3e 4706 8c3e 1e8c 323e
00000070: 5491 873e cc05 ae3d a678 9a3b 85a5 d83e

weight f4 [10, 32]
0.06608242 -0.25571746 -0.19076063 -0.17165793 -0.3101569 0.34679347 -0.3757201 0.18227388
0.24804847 0.21212694 -0.0011319127 0.100782834 -0.3681328 0.20163542 0.013072316 -0.06751514
-0.10715013 0.24306849 0.1054888 0.2864833 0.08640356 0.21777937 0.26351136 -0.067925975
-0.13773827 -0.10881759 0.18532173 -0.015409147 -0.104020305 -0.51302373 0.22888091 0.14562505
-0.14142857 -0.2655641 -0.14824052 0.41841874 -0.1442168 0.24052516 0.18879476 -0.1142962
-0.124959275 0.20669845 -0.14350614 0.2358505 -0.42438215 -0.5025532 0.13699846 0.1602675
-0.077724144 0.19955353 0.47830892 -0.22845775 0.37027663 -0.039704904 -0.30634087 -0.4919914
-0.22574708 0.26480073 -0.1777658 0.41169655 -0.009577258 -0.2654678 0.37185267 0.38120583
0.19327521 0.09974872 0.20584437 0.18081392 0.28262916 0.12899907 0.12459488 0.0058870334
0.14281215 0.025304293 0.27640474 -0.053982254 0.03337881 0.29198486 -0.36340827 -0.46509817
-0.26961848 -0.22725919 -0.14869936 -0.10300554 -0.076611795 -0.13962781 0.13916461 0.00045630353
0.4187862 0.044254858 0.12494673 0.12547931 -0.026603749 0.11395953 0.12416257 -0.21905878
0.13864891 0.1582973 0.090778865 -0.10608893 0.32351202 0.08157188 0.0992529 0.282633
-0.21434821 0.017421203 -0.10972055 0.14217132 0.28895468 -0.23497416 -0.052963685 -0.154905
0.0041143945 -0.104656495 -0.13420177 -0.21869783 0.18485138 0.11638106 -0.28584963 0.1813883
-0.051378854 0.03624456 0.17240277 -0.32762274 0.21931201 0.32413423 -0.03407742 0.06526623
0.21962959 -0.45953676 0.19720624 -0.07050237 -0.14934614 -0.21044232 -0.070716605 -0.22733954
0.050905284 -0.24229369 0.29491365 0.05236563 0.118595004 -0.0063733547 0.22413291 0.06720759
0.009607255 0.2655216 -0.39159888 -0.044769924 -0.11612804 0.10331856 0.20163547 0.22965162
0.06587654 0.29871747 0.21198556 -0.23489289 -0.36108366 0.04325201 -0.17098981 0.02482506
-0.14833258 0.27047908 -0.12151286 0.0019752556 0.21358092 -0.35579088 -0.0396803 -0.012370579
-0.16585515 0.302188 -0.08230064 -0.2479729 0.15448025 0.16116178 -0.054800995 -0.15204176
0.37992778 -0.025011491 0.05086698 0.16056028 -0.06351257 0.16387732 0.22235774 -0.0031475844
0.26384622 -0.16783561 0.0305924 -0.24296539 0.41484284 0.26653984 -0.2802712 0.17358133
0.2664991 0.2665014 0.27315563 -0.24372365 0.066042684 0.026719298 -0.297503 0.038033683
-0.17250073 -0.3157588 0.180854 -0.2786287 -0.013379366 -0.112179026 -0.28660503 0.110850565
-0.051999226 0.014968726 -0.009335417 0.4395819 0.19149846 0.2712427 -0.19381343 0.07875056
-0.35330486 0.19536862 -0.48028946 -0.019335125 0.33451068 -0.09256862 -0.35837182 -0.37823305
-0.052877583 -0.17217253 -0.015516759 0.2687678 0.009814685 0.09334829 0.17685111 0.086329155
0.006075723 0.013934556 0.2232642 0.38095602 0.20964803 0.13286342 0.27877975 0.39154774
0.35439605 -0.014970204 -0.1606115 -0.17901741 -0.31224775 0.00075439754 0.23266105 -0.38694045
-0.13996209 -0.36400113 0.023741718 -0.26803023 0.116521254 -0.2618251 0.093412936 -0.10609067
00000000: 3856 873d 66ed 82be c156 43be 19c7 2fbe
00000010: e3cc 9ebe ea8e b13e 635e c0be 01a6 3a3e
00000020: 6b00 7e3e ce37 593e b05c 94ba 3b67 ce3d
00000030: e77b bcbe 8479 4e3e 442d 563c 6145 8abd
00000040: 8771 dbbd f2e6 783e 830a d83d f0ad 923e
00000050: 5af4 b03d 8e01 5f3e f6ea 863e c61c 8bbd
00000060: 430b 0dbe c2db debd fbc4 3d3e a676 7cbc
00000070: 9908 d5bd 8655 03bf c25f 6a3e bc1e 153e
00000080: a7d2 10be 05f8 87be 5dcc 17be fb3a d63e
00000090: 92ad 13be 3a4c 763e 6a53 413e 2014 eabd
000000a0: a6ea ffbd c2a8 533e 46f3 12be cb82 713e
000000b0: 9e48 d9be 54a7 00bf 5349 0c3e 2a1d 243e
000000c0: d62d 9fbd c357 4c3e e8e4 f43e d4f0 69be
000000d0: e694 bd3e 9ca1 22bd b6d8 9cbe 4ce6 fbbe
000000e0: 3e2a 67be f693 873e 3d08 36be e4c9 d23e
000000f0: eee9 1cbc 65eb 87be 7963 be3e 692d c33e
00000100: f0e9 453e 0f49 cc3d dec8 523e 4927 393e
00000110: c5b4 903e 5518 043e 9a2b ff3d 04e8 c03b
00000120: 593d 123e f34a cf3c ec84 8d3e 7f1c 5dbd
00000130: 38b8 083d 0a7f 953e a610 babe 5921 eebe
00000140: 6f0b 8abe a2b6 68be a544 18be 92f4 d2bd
00000150: a5e6 9cbd 98fa 0ebe 2b81 0e3e 063c ef39
00000160: 256b d63e 9544 353d 12e4 ff3d a67d 003e
00000170: 1bf0 d9bc 9d63 e93d f248 fe3d f250 60be
00000180: fbf9 0d3e b018 223e 45ea b93d 2745 d9bd
00000190: 5ea3 a53e 280f a73d 1b45 cb3d 46b5 903e
000001a0: 197e 5bbe e9b6 8e3c 2bb5 e0bd 5c95 113e
000001b0: def1 933e 119d 70be 73f0 58bd 6b9f 1ebe
000001c0: 0bd2 863b 2556 d6bd 306c 09be 53f2 5fbe
000001d0: ae49 3d3e 3159 ee3d e25a 92be dbbd 393e
000001e0: a272 52bd 2d75 143d 5a8a 303e 2bbe a7be
000001f0: 5493 603e ecf4 a53e c494 0bbd 4daa 853d
00000200: 94e6 603e 6748 ebbe 6ff0 493e 8c63 90bd
00000210: 32ee 18be 317e 57be ded3 90bd b2cb 68be
00000220: 0f82 503d d61b 78be ecfe 963e 587d 563d
00000230: f0e1 f23d 93d7 d0bb 1983 653e 22a4 893d
00000240: c067 1d3c 72f2 873e a67f c8be ab60 37bd
00000250: 8ad4 edbd ae98 d33d 8779 4e3e cb29 6b3e
00000260: 48ea 863d 7ff1 983e be12 593e c387 70be
00000270: f5df b8be 0529 313d f417 2fbe ed5d cb3c
00000280: 7fe4 17be 3c7c 8a3e bcdb f8bd 4a73 013b
00000290: f5b4 5a3e 392a b6be cf87 22bd f8ad 4abc
000002a0: efd5 29be 63b8 9a3e 3d8d a8bd 9cec 7dbe
000002b0: 1230 1e3e 9807 253e 0277 60bd d6b0 1bbe
000002c0: e585 c23e e6e4 ccbc e559 503d ea69 243e
000002d0: e112 82bd 75cf 273e bfb1 633e b447 4ebb
000002e0: da16 873e 19dd 2bbe ea9c fa3c ebcb 78be
000002f0: 4866 d43e e977 883e b57f 8fbe 4ebf 313e
00000300: 9272 883e df72 883e 0edb 8b3e b192 79be
00000310: 6341 873d 6ee2 da3c 5052 98be 35c9 1b3d
00000320: 08a4 30be 23ab a1be ca31 393e 6ca8 8ebe
00000330: 2135 5bbc 1ebe e5bd e5bd 92be 9f05 e33d
00000340: 24fd 54bd 633f 753c 94f3 18bc e110 e13e
00000350: 2c18 443e 53e0 8a3e 0777 46be f947 a13d
00000360: 60e4 b4be b60e 483e 80e8 f5be b264 9ebc
00000370: fc44 ab3e 9e94 bdbd 837c b7be c3a7 c1be
00000380: 2a96 58bd ff4d 30be 013a 7ebc ef9b 893e
00000390: c6cd 203c 632d bf3d 7518 353e 57cd b03d
000003a0: dc16 c73b c44d 643c 5f9f 643e ab0c c33e
000003b0: f9ad 563e 590d 083e 38bc 8e3e f278 c83e
000003c0: 6673 b53e 9645 75bc 5777 24be 5750 37be
000003d0: f0de 9fbe c3c2 453a b33e 6e3e 0f1d c6be
000003e0: 3952 0fbe 5b5e babe fe7d c23c 423b 89be
000003f0: b2a2 ee3d f10d 86be 484f bf3d 1146 d9bd

bias f4 [10]
-0.16259171 0.09463544 -0.09913516 0.11883848 -0.099451214 0.17166701 0.12042164 -0.052646596
-0.07254935 -0.3109828
00000000: 717e 26be 3ad0 c13d 6007 cbbd 9761 f33d
00000010: 14ad cbbd 7ac9 2f3e 9f9f f63d f5a3 57bd
00000020: c194 94bd 2339 9fbe
