MQCNN-4qubits-3class-CIFAR/Models_V1/model_37.pt (torch, 100648 bytes, 23 tensors)

weights f4 [7]
0.5782938 1.2669442 2.7532656 2.5464091 5.281793 3.7929666 2.951688
00000000: 100b 143f 3a2b a23f 8135 3040 5ef8 2240
00000010: 7304 a940 f7bf 7240 75e8 3c40

weights f4 [7]
3.7766902 2.5051227 3.7744946 0.7450594 5.7804503 2.3948948 3.3833764
00000000: 4bb5 7140 ee53 2040 5291 7140 36bc 3e3f
00000010: 73f9 b840 f545 1940 3d89 5840

weights f4 [7]
1.1609998 4.097835 1.3618894 0.24250287 5.4726334 4.426372 0.34036055
00000000: a49b 943f 7721 8340 6452 ae3f ac52 783e
00000010: d01f af40 d7a4 8d40 bd43 ae3e

weights f4 [7]
3.0062592 0.5190373 4.350446 5.953173 2.9839013 2.0770233 5.56299
00000000: 8d66 4040 a1df 043f db36 8b40 6580 be40
00000010: 3df8 3e40 f3ed 0440 0404 b240

weights f4 [7]
2.0298834 1.4458787 0.98628616 0.5969473 4.267575e-06 3.580417 2.9879506
00000000: 9ce9 0140 8e12 b93f 407d 7c3f 8ad1 183f
00000010: 3132 8f36 8d25 6540 953a 3f40

weights f4 [7]
0.76093954 3.3374724 2.1331506 1.4738362 0.37245905 0.9864822 2.5034678
00000000: efcc 423f 2699 5540 8a85 0840 aaa6 bc3f
00000010: f4b2 be3e 198a 7c3f d138 2040

weights f4 [8]
3.5374467 3.112479 2.9806027 1.6900998 1.8159567 3.1047983 0.03608763 4.452664
00000000: 8765 6240 db32 4740 32c2 3e40 3155 d83f
00000010: 4571 e83f 04b5 4640 9fd0 133d 397c 8e40

weights f4 [8]
5.2710676 6.4324756 2.9453757 4.0030956 5.472222 4.566536 2.5540621 5.3954964
00000000: 96ac a840 d7d6 cd40 0981 3c40 5c19 8040
00000010: 711c af40 1021 9240 c175 2340 e8a7 ac40

weights f4 [8]
4.1072483 1.7666948 0.6797898 4.729459 2.1923945 0.20205577 5.8162007 2.6734977
00000000: 946e 8340 0e23 e23f b406 2e3f ba57 9740
00000010: 3150 0c40 b5e7 4e3e 511e ba40 961a 2b40

weights f4 [16]
4.7309003 3.5966084 2.1111555 1.701148 2.9081795 2.8453107 5.0551224 5.918923
5.3594074 0.2789898 4.878665 1.4379624 0.72987956 4.1992702 6.3108187 3.4137301
00000000: 8963 9740 d52e 6640 2c1d 0740 38bf d93f
00000010: 9d1f 3a40 9219 3640 90c3 a140 d167 bd40
00000020: 4480 ab40 c0d7 8e3e 061e 9c40 270f b83f
00000030: 63d9 3a3f 6c60 8640 3af2 c940 8e7a 5a40

weights f4 [16]
2.7359102 5.3808384 5.1813307 2.0492618 0.1165901 6.303033 1.748196 1.6355383
4.6840014 5.3376145 4.224994 5.597082 -0.076815724 0.6876379 0.8395163 4.712114
00000000: 2719 2f40 d42f ac40 76cd a540 1b27 0340
00000010: cac6 ee3d 72b2 c940 e3c4 df3f 5259 d13f
00000020: 57e3 9540 bdcd aa40 2733 8740 4c1b b340
00000030: 9051 9dbd 0a09 303f 8aea 563f a3c9 9640

weights f4 [16]
4.939483 3.653885 3.1991284 5.569892 5.733682 -0.018173823 0.7348139 2.8280404
4.904428 1.3286057 0.37710485 4.2996097 3.6989644 4.022343 5.844056 0.81281054
00000000: 3f10 9e40 40d9 6940 85be 4c40 8e3c b240
00000010: 537a b740 45e1 94bc c41c 3c3f 9dfe 3440
00000020: 13f1 9c40 c00f aa3f e313 c13e 6796 8940
00000030: d5bb 6c40 09b7 8040 8202 bb40 5a14 503f

weights f4 [12]
1.6623974 4.3785315 5.5918155 5.387184 2.0406322 4.4856057 3.9331923 5.2378464
4.5936894 5.3929305 1.8405313 6.219823
00000000: 70c9 d43f ee1c 8c40 27f0 b240 d063 ac40
00000010: b899 0240 158a 8f40 6cb9 7b40 709c a740
00000020: 81ff 9240 e392 ac40 8896 eb3f ca08 c740

weights f4 [12]
4.7318516 3.5714116 5.7181287 1.1696675 4.438275 0.0076289545 2.4972143 1.0324718
3.9626195 6.0250416 3.1076405 3.9650192
00000000: 546b 9740 0292 6440 e9fa b640 aab7 953f
00000010: 5906 8e40 4ffc f93b 5cd2 1f40 0928 843f
00000020: 8f9b 7d40 24cd c040 95e3 4640 e0c2 7d40

weights f4 [12]
2.474751 0.13574663 0.9561478 0.84027034 1.712682 3.7229142 3.5950863 3.385937
3.7412868 4.541655 5.408528 1.8288562
00000000: 5262 1e40 2a01 0b3e 1ac6 743f f51b 573f
00000010: 2a39 db3f 3a44 6e40 e515 6640 31b3 5840
00000020: 3e71 6f40 3d55 9140 a912 ad40 f617 ea3f

weight f4 [5]
1.2060797 1.2213567 1.2735909 1.3019696 1.3375897
00000000: d260 9a3f 6b55 9c3f 0705 a33f f1a6 a63f
00000010: 2436 ab3f

bias f4 [5]
0.008155856 -0.12872443 0.026290063 -0.31789687 0.08607473
00000000: 24a0 053c 56d0 03be 425e d73c 61c3 a2be
00000010: f347 b03d

running_mean f4 [5]
0.18804942 1.2639184 0.71008426 0.11424377 0.0165251
00000000: 0790 403e 14c8 a13f 15c8 353f a3f8 e93d
00000010: a65f 873c

running_var f4 [5]
0.1398466 0.061984874 0.508295 0.08439883 0.034250673
00000000: f233 0f3e dae3 7d3d 9f1f 023f 4bd9 ac3d
00000010: 6f4a 0c3d

weight f4 [32, 80]
0.03310026 0.052640844 0.092409804 -0.018102543 0.10530767 0.028456664 0.09240999 4.965738e-05
0.20783253 0.06716359 0.14030112 0.1923036 -0.07843144 -0.033221312 0.009864315 -0.03885389
0.12252366 0.007647885 0.14823759 -0.006559259 0.07339105 0.21888642 0.14695929 0.07663613
-0.017055746 0.13261722 0.10476909 0.09814304 0.048682228 -0.10556762 -0.035381302 -0.14812763
-0.054831035 -0.1765392 -0.109952584 -0.034387764 -0.13870221 -0.04832478 -0.122214876 -0.0075579216
-0.20915021 -0.0021234672 -0.12559275 -0.053690203 0.087285 0.15445219 -0.03085732 0.08280936
0.1199293 0.13599157 -0.057180345 0.0817082 -0.0526582 0.09946049 -0.024405345 0.038774762
0.12727211 0.14373691 0.14757675 0.013443213 -0.046564683 -0.086531535 -0.15163662 -0.05757684
-0.19096375 -0.15711346 -0.07637535 -0.019906541 -0.13833281 -0.08049131 -0.1939401 -0.08550302
-0.054835398 -0.09478087 -0.1671887 -0.049771328 0.17483066 -0.03717902 0.1675358 0.09166893
0.0954115 0.006324026 0.076410435 0.1031477 -0.07921009 -0.061486855 0.16386297 0.006764324
0.09307906 0.0027355636 -0.020547712 0.10390526 0.069511816 0.09242173 0.06801055 0.06605666
-0.22664388 0.04489074 -0.11934621 -0.044446215 0.009706963 0.17350279 0.23225868 0.014372087
-0.0037919856 0.17842695 0.1588083 0.07594854 0.12922601 -0.047799118 -0.104875565 0.09818016
0.15843992 0.17343923 0.1452727 0.1287874 0.1990003 0.09556497 0.013816352 -0.07164965
0.1500373 -0.0719649 0.05031318 0.118227765 -0.04670947 0.032604102 -0.033301264 0.15536255
-0.118624896 -0.107727624 0.124806084 -0.0022172604 -0.12719184 -0.040163014 0.18179101 0.25482586
-0.05413377 0.034935895 -0.09653607 -0.08351378 0.032838043 -0.082344346 -0.061931137 -0.16774218
-0.04133988 0.05527405 -0.005073235 0.1610718 -0.009683342 -0.091915555 -0.23359151 -0.11538108
-0.12305081 0.068880975 -0.14274004 -0.10819703 0.2031343 0.08185057 0.16503294 -0.07041912
-0.17734125 -0.08982702 0.08259221 -0.002911979 -0.069918185 -0.010077758 -0.048313126 0.09201974
-0.053213477 -0.19316833 -0.1710901 0.029713714 0.019087235 0.17905599 -0.043391436 0.1700625
-0.027091354 -0.15713437 0.025092896 -0.06813835 -0.23018157 -0.16904679 -0.0408277 -0.14258802
0.04096104 -0.15173353 -0.16001181 -0.046885442 -0.0024952493 0.049468815 0.1510253 0.003193891
0.03285666 0.06273494 -0.06487151 0.024212753 -0.015418061 -0.0071399687 -0.0009087333 -0.007074782
-0.042667482 0.17215115 -0.124748275 -0.1736545 -0.10995316 -0.14827348 -0.15882948 0.0017655295
-0.054004394 -0.0060039912 0.038111728 0.097014725 -0.013386622 -0.052165646 0.010001801 0.114684545
-0.0078103836 -0.07576105 -0.13862942 -0.03524099 -0.17775956 0.031748608 -0.01851074 0.006993946
0.27280104 0.1708029 0.19266328 0.26800352 0.12630822 -0.049734257 0.03966503 0.15906839
0.043286003 -0.11624567 -0.13529554 -0.045525078 -0.033741463 -0.2907305 0.026963113 -0.078988224
-0.14573075 -0.07268863 -0.2082298 -0.14919813 -0.112409316 -0.038633205 0.004485685 0.0067536454
-0.070966765 0.026774183 0.12121401 0.020940585 -0.15883256 0.08795511 -0.13257691 -0.05614532
00000000: 2394 073d ed9d 573d 5a41 bd3d c94b 94bc
00000010: 8cab d73d f31d e93c 7341 bd3d 3547 5038
00000020: 0dd2 543e 108d 893d 19ab 0f3e 3ceb 443e
00000030: aaa0 a0bd 1213 08bd f09d 213c 4225 1fbd
00000040: afed fa3d 1c9b fa3b 98cb 173e 0def d6bb
00000050: 0c4e 963d c323 603e 7f7c 163e 67f3 9c3d
00000060: 7eb8 8bbc cfcc 073e 2d91 d63d 38ff c83d
00000070: 0467 473d d633 d8bd fceb 10bd c5ae 17be
00000080: 8296 60bd b1c6 34be d22e e1bd 2fda 0cbd
00000090: f407 0ebe 34f0 45bd cb4b fabd 71a8 f7bb
000000a0: 792b 56be de29 0bbb 639b 00be 42ea 5bbd
000000b0: 7ac2 b23d b728 1e3e 7ec8 fcbc f497 a93d
000000c0: 7e9d f53d 6041 0b3e f035 6abd a156 a73d
000000d0: 20b0 57bd f1b1 cb3d b8ed c7bc 49d2 1e3d
000000e0: 9f53 023e c52f 133e 5c1e 173e ec40 5c3c
000000f0: 9cba 3ebd 7237 b1bd a146 1bbe b1d5 6bbd
00000100: 008c 43be 5ae2 20be ae6a 9cbd 0b13 a3bc
00000110: 1ea7 0dbe a1d8 a4bd 3c98 46be 351c afbd
00000120: 159b 60bd 791c c2bd 8433 2bbe 05dd 4bbd
00000130: cf06 333e 0749 18bd 818e 2b3e ecbc bb3d
00000140: 1b67 c33d c639 cf3b 137d 9c3d 1a3f d33d
00000150: e638 a2bd a4d9 7bbd b2cb 273e 43a7 dd3b
00000160: 3ca0 be3d 2447 333b ad53 a8bc 48cc d43d
00000170: 365c 8e3d 9b47 bd3d 1e49 8b3d b748 873d
00000180: 5515 68be 5adf 373d c96b f4bd 3c0d 36bd
00000190: f409 1f3c b7aa 313e 38d5 6d3e e778 6b3c
000001a0: f682 78bb 8eb5 363e a59e 223e e88a 9b3d
000001b0: d353 043e 02c9 43bd 00c9 d6bd ae12 c93d
000001c0: 133e 223e 0e9a 313e 5ec2 143e d8e0 033e
000001d0: bcc6 4b3e 91b7 c33d fb5d 623c 0dbd 92bd
000001e0: 61a3 193e 5562 93bd 3115 4e3d 6621 f23d
000001f0: 6e52 3fbd e18b 053d e866 08bd 5c17 1f3e
00000200: 9cf1 f2bd 4da0 dcbd 559a ff3d 754f 11bb
00000210: 943e 02be f981 24bd 6c27 3a3e 8978 823e
00000220: 5fbb 5dbd f118 0f3d b4b4 c5bd 4609 abbd
00000230: 2f81 063d 27a4 a8bd 81ab 7dbd 9bc4 2bbe
00000240: 0254 29bd 0b67 623d 613d a6bb 02f0 243e
00000250: e1a6 1ebc 393e bcbd 9d32 6fbe ea4c ecbd
00000260: 1002 fcbd 7811 8d3d 722a 12be 6896 ddbd
00000270: 7002 503e 46a1 a73d 65fe 283e e637 90bd
00000280: f298 35be 3bf7 b7bd 1b26 a93d e7d6 3ebb
00000290: 4431 8fbd 2e1d 25bc fce3 45bd d874 bc3d
000002a0: 60f6 59bd ebcd 45be 3e32 2fbe 2d6a f33c
000002b0: d55c 9c3c 745a 373e 38bb 31bd dd24 2e3e
000002c0: b0ee ddbc d5e7 20be 9e8f cd3c 1f8c 8bbd
000002d0: b8b4 6bbe 9a1a 2dbe f23a 27bd 9802 12be
000002e0: c3c6 273d 0960 1bbe 23da 23be f30a 40bd
000002f0: 5687 23bb d09f 4a3d 60a6 1a3e 9950 513b
00000300: b594 063d 2d7b 803d 5bdb 84bd d359 c63c
00000310: 099c 7cbc 66f6 e9bb 0f38 6eba 93d3 e7bb
00000320: 19c4 2ebd 6448 303e 067c ffbd 7cd2 31be
00000330: 1f2f e1bd 01d5 17be 32a4 22be 5769 e73a
00000340: b633 5dbd 21bd c4bb 0b1b 1c3d a8af c63d
00000350: 9053 5bbc a5ab 55bd 98de 233c bbdf ea3d
00000360: 3fee ffbb 9c28 9bbd dff4 0dbe db58 10bd
00000370: 9a06 36be d40a 023d d6a3 97bc 792d e53b
00000380: 94ac 8b3e f5e6 2e3e 8649 453e c237 893e
00000390: f156 013e 26b6 4bbd cc77 223d d3e2 223e
000003a0: aa4c 313d 3612 eebd ea8a 0abe 8178 3abd
000003b0: 7d34 0abd a1da 94be bfe1 dc3c 94c4 a1bd
000003c0: 713a 15be c7dd 94bd 313a 55be 65c7 18be
000003d0: db36 e6bd da3d 1ebd a7fc 923b af4d dd3b
000003e0: 0657 91bd 8855 db3c 0d3f f83d 978b ab3c
000003f0: 01a5 22be cf21 b43d 3ec2 07be a3f8 65bd

bias f4 [32]
0.16831434 0.08358435 0.054902907 0.043279335 0.049212392 0.23492599 -0.049648605 -0.13700426
0.14831078 0.010524165 0.08544066 0.02782689 0.13915592 0.03916403 0.20579112 0.16405301
0.104052365 0.17617974 0.092705056 0.17966226 0.12018442 0.022964355 -0.028452432 0.13660476
0.15350154 -0.024804367 0.094203986 0.21496096 0.17246996 0.06579063 -0.062437978 0.15846506
00000000: 985a 2c3e 462e ab3d dfe1 603d ac45 313d
00000010: ef92 493d 7090 703e 565c 4bbd d84a 0cbe
00000020: c8de 173e 8c6d 2c3c 83fb ae3d 38f5 e33c
00000030: e47e 0e3e 766a 203d e8ba 523e 83fd 273e
00000040: 6819 d53d 7668 343e 26dc bd3d 62f9 373e
00000050: 4023 f63d be1f bc3c 1315 e9bc 1ee2 0b3e
00000060: 822f 1d3e 8732 cbbc 05ee c03d ba1e 5c3e
00000070: f79b 303e 3dbd 863d f7be 7fbd aa44 223e

weight f4 [10, 32]
0.18849403 -0.18749753 -0.33561328 0.20814678 -0.018975455 0.19697765 0.27024356 -0.18929924
0.13887845 0.13555369 -0.011112878 -0.13867822 0.26679078 0.052907247 -0.17123023 0.21763544
0.30944085 0.2631488 0.15356214 0.25015047 0.04269092 0.15811001 -0.0845012 -0.13900106
0.06471883 0.2922552 0.048675165 0.16680916 -0.081431314 0.18530524 -0.35095966 0.17108457
0.2134478 0.31403148 0.19644646 -0.08840319 0.4023409 0.16344424 0.10756943 0.3076335
0.20854236 -0.114787474 0.14700052 0.13968472 -0.11838895 0.33520663 0.22305155 -0.24056865
0.018818367 0.18780422 0.3167097 -0.3971541 0.20433222 0.29045704 -0.41357172 0.25583926
0.0127502335 -0.04956703 0.16597797 0.06022212 -0.08642239 0.19121185 -0.15815412 -0.34063515
0.2028212 -0.20953245 0.1711289 0.1909482 -0.22829923 -0.011896561 -0.1045267 -0.4765289
0.007484536 -0.220695 0.25277597 0.15219691 0.27763644 -0.3628755 0.29155707 0.10069617
0.16460198 0.17859913 -0.15370266 0.29875007 0.18631256 0.031712815 0.2564493 -0.28307208
0.23734932 -0.25257486 0.04340711 0.21741042 0.27664092 0.07559378 0.32198542 0.25653428
-0.19656125 -0.28270313 -0.09327246 0.067285836 0.04013026 -0.055558488 -0.11525363 -0.16291572
-0.15306838 0.024029626 -0.24975625 -0.2489328 0.014501692 -0.061435368 -0.06470886 -0.19913325
-0.25806874 -0.08750353 -0.17794107 -0.0763267 -0.043494895 -0.13808966 -0.16454637 -0.24558605
-0.27347234 -0.114504606 -0.039845474 -0.24058844 -0.037982218 -0.10748551 -0.012237659 -0.16023313
-0.02095319 -0.105050676 -0.14522177 -0.06026548 0.06541106 -0.012582873 -0.0796302 -0.105923496
-0.139616 -0.055313718 -0.04558529 -0.20311484 -0.05935884 -0.1706205 -0.26028886 -0.13474731
-0.23647517 -0.2685206 -0.09846953 0.0014613831 -0.11865906 -0.03615571 -0.184788 -0.14859904
-0.018030915 -0.23044725 -0.256216 -0.099714026 -0.11766369 0.04118111 -0.20827845 -0.13777123
-0.24501273 -0.15759282 0.005969114 -0.071548186 -0.16221969 0.007599417 -0.25747612 0.057048872
-0.04766677 -0.19048531 -0.12545057 -0.029128537 -0.071081266 -0.30467552 -0.071763 -0.2484191
-0.105757795 -0.16734774 -0.04737325 -0.19233432 0.012686565 -0.103335455 -0.05912368 -0.14098409
-0.183821 0.07752879 -0.15019275 -0.26192513 0.098193884 -0.24978414 -0.1560976 -0.13182023
-0.09620867 -0.015973015 -0.066484205 -0.1778331 -0.25194672 -0.07800008 -0.023550127 0.015402784
-0.061535053 -0.12897666 -0.11862858 -0.24226004 -0.0039896704 -0.048697043 -0.007529823 -0.07119707
-0.040203545 -0.007303328 0.036447942 -0.029880656 -0.13059427 -0.19745597 -0.09100868 -0.18788137
-0.25456 0.089548945 -0.06222491 -0.21205598 -0.14037916 -0.067491464 -0.082265735 -0.054848794
-0.0071352487 -0.17251833 -0.062220156 -0.12989745 0.085098274 -0.11060447 0.019564927 0.013655568
-0.15724386 -0.2029195 0.052882344 -0.116799794 -0.23335934 -0.13860078 0.037811313 0.0113293715
-0.25800422 -0.19059989 -0.132216 0.016640067 -0.20216967 -0.12609266 -0.19329342 -0.025214715
-0.27214557 0.057770707 -0.15899448 -0.2177564 -0.029266456 -0.0035019955 0.04377597 -2.704447e-05
00000000: 9404 413e 5aff 3fbe 81d5 abbe 6e24 553e
00000010: 6a72 9bbc 82b4 493e 5d5d 8a3e a9d7 41be
00000020: 2736 0e3e 96ce 0a3e ca12 36bc aa01 0ebe
00000030: cd98 883e 45b5 583d fa56 2fbe d3db 5e3e
00000040: 086f 9e3e 71bb 863e 653f 1d3e b913 803e
00000050: addc 2e3d 97e7 213e f70e adbd 4b56 0ebe
00000060: 4e8b 843d 79a2 953e 9c5f 473d 05d0 2a3e
00000070: 76c5 a6bd a8c0 3d3e fcb0 b3be cb30 2f3e
00000080: 0f92 5a3e bcc8 a03e 4329 493e bb0c b5bd
00000090: a0ff cd3e ed5d 273e 5c4d dc3d 2382 9d3e
000000a0: 218c 553e b215 ebbd 4e87 163e 8309 0f3e
000000b0: e875 f2bd 34a0 ab3e a067 643e a157 76be
000000c0: fa28 9a3c c04f 403e c627 a23e c857 cbbe
000000d0: 773c 513e c9b6 943e acbf d3be 5dfd 823e
000000e0: 5be6 503c cc06 4bbd 21f6 293e 78ab 763d
000000f0: 39fe b0bd 0acd 433e 27f3 21be bb67 aebe
00000100: 5cb0 4f3e ad8f 56be 6a3c 2f3e ed87 433e
00000110: 46c7 69be cbe9 42bc 1812 d6bd 99fb f3be
00000120: d740 f53b dffd 61be da6b 813e 82d9 1b3e
00000130: 5d26 8e3e d1ca b9be f846 953e cb39 ce3d
00000140: 6c8d 283e b1e2 363e 3b64 1dbe c5f5 983e
00000150: b8c8 3e3e 4ce5 013d 534d 833e d3ee 90be
00000160: b30b 733e 7e51 81be a7cb 313d d6a0 5e3e
00000170: e1a3 8d3e e9d0 9a3d 46db a43e 7658 833e
00000180: 5a47 49be 77be 90be a205 bfbd 28cd 893d
00000190: a15f 243d 4c91 63bd 180a ecbd 61d3 26be
000001a0: f5bd 1cbe c7d9 c43c 1ac0 7fbe 3de8 7ebe
000001b0: 8198 6d3c a7a3 7bbd 1486 84bd 96e9 4bbe
000001c0: 9621 84be 0d35 b3bd 2f36 36be 2c51 9cbd
000001d0: b427 32bd 6067 0dbe d87e 28be e97a 7bbe
000001e0: 9104 8cbe 6481 eabd 0235 23bd d15c 76be
000001f0: 3e93 1bbd 5d21 dcbd 7680 48bc 2714 24be
00000200: 06a6 abbc cf24 d7bd 04b5 14be f0d8 76bd
00000210: 3cf6 853d 6528 4ebc 2915 a3bd 6bee d8bd
00000220: 7ff7 0ebe a390 62bd a4b7 3abd 56fd 4fbe
00000230: 4122 73bd 24b7 2ebe 9544 85be 33fb 09be
00000240: 8c26 72be 887b 89be 65aa c9bd e18b bf3a
00000250: 8503 f3bd 0318 14bd 1139 3dbe 592a 18be
00000260: 92b5 93bc 5dfa 6bbe be2e 83be de36 ccbd
00000270: a9f9 f0bd 86ad 283d f246 55be e713 0dbe
00000280: 9ee4 7abe 0360 21be 8f98 c33b db87 92bd
00000290: eb1c 26be 8804 f93b e9d3 83be 14ac 693d
000002a0: 3b3e 43bd 950e 43be 1d76 00be f89e eebc
000002b0: 0e93 91bd 6efe 9bbe 7bf8 92bd 9461 7ebe
000002c0: 8b97 d8bd 355d 2bbe 740a 42bd 4af3 44be
000002d0: 4fdb 4f3c 8aa1 d3bd ac2b 72bd 225e 10be
000002e0: 923b 3cbe 6ac7 9e3d 21cc 19be 0d1b 86be
000002f0: e019 c93d 6ac7 7fbe 0dd8 1fbe e2fb 06be
00000300: 0d09 c5bd d7d9 82bc df28 88bd e119 36be
00000310: 29ff 80be 82be 9fbd 32ec c0bc f55b 7c3c
00000320: 2e0c 7cbd 7512 04be 8af3 f2bd 0413 78be
00000330: c8bb 82bb 8d76 47bd bcbc f6bb c5cf 91bd
00000340: 79ac 24bd c150 efbb 704a 153d 47c8 f4bc
00000350: 81ba 05be e631 4abe c262 babd f963 40be
00000360: b055 82be 7065 b73d 8cdf 7ebd 3425 59be
00000370: 8ebf 0fbe f738 8abd f07a a8bd 21a9 60bd
00000380: cece e9bb a5a8 30be 90da 7ebd d603 05be
00000390: 0148 ae3d 9984 e2bd a046 a03c 9abb 5f3c
000003a0: 8904 21be 21ca 4fbe 289b 583d bb34 efbd
000003b0: c0f5 6ebe 5ded 0dbe 09e0 1a3d d49e 393c
000003c0: 2119 84be 9e2c 43be a263 07be c050 883c
000003d0: 9105 4fbe 6f1e 01be b6ee 45be 178f cebc
000003e0: aa56 8bbe faa0 6c3d 73cf 22be 89fb 5ebe
000003f0: 35c0 efbc bc81 65bb 6e4e 333d 8fdd e2b7

bias f4 [10]
0.021782424 0.1456948 0.124178775 -0.197992 -0.04359521 -0.17199703 -0.14229892 -0.06086833
-0.053155825 0.069779485
00000000: 0e71 b23c 0531 153e 7151 fe3d 6abe 4abe
00000010: e490 32bd fd1f 30be cfb6 11be 1251 79bd
00000020: ecb9 59bd 8ce8 8e3d
