MQCNN-4qubits-2class-CIFAR-same-5filter-V7/Models_V1/model_6.pt (torch, 133888 bytes, 47 tensors)

weights f4 [7]
00000000: 09ae 9e40 1f26 713f e215 ad40 47b3 9940
00000010: c7c5 df3d 1585 6f3f 0251 9640
4.9587445 0.94198793 5.4089212 4.8031344 0.10926395 0.9356244 4.6973886

weights f4 [7]
00000000: 3111 c13f 9658 9240 6b2e 2e40 0ee0 4f40
00000010: d92b 8b40 1dcc f63f fb56 1340
1.5083371 4.5733137 2.7215831 3.2480502 4.3491025 1.928104 2.3021839

weights f4 [7]
00000000: 32aa b540 53ea a340 4de8 083e c134 0040
00000010: 71ac 273e 41a3 0440 17a4 8340
5.677026 5.122354 0.13369866 2.0032198 0.16374375 2.0724642 4.1137805

weights f4 [7]
00000000: 81de 0740 bc82 5d40 0cbe 103f a1cc 7440
00000010: c0e1 a640 9dff a93f 32b3 8b40
2.1229556 3.4611044 0.5653999 3.8249896 5.2150574 1.3281132 4.3656244

weights f4 [7]
00000000: 5ad5 8e3f 6998 383f 3bdb b140 f8fe 9740
00000010: ede2 8340 14ea 1440 978a af40
1.115886 0.7210756 5.5580115 4.749874 4.121451 2.326787 5.4856677

weights f4 [7]
00000000: 2a97 b83e 46bd 7f40 c1f6 f03f e477 4f3e
00000010: b31d 923f bed3 8940 e489 c140
0.3605283 3.9959273 1.8825303 0.20260578 1.1415313 4.3070974 6.0480824

weights f4 [8]
00000000: ca0b 8440 bd07 223f 027e 0840 346c 5a40
00000010: 8472 ba40 3137 1340 e067 0340 b02d 7640
4.126439 0.6329306 2.132691 3.4128542 5.826479 2.3002436 2.053215 3.8465385

weights f4 [8]
00000000: 1116 6c40 c9cc 1240 cd8d c13e 50a9 c040
00000010: ab43 c240 46a7 d43e 5045 ca3f 0f7f b73f
3.6888468 2.293749 0.37803498 6.020668 6.0707603 0.4153387 1.5802402 1.433565

weights f4 [8]
00000000: 371b 5c40 4dd4 6f40 97cc c43f e2e6 7840
00000010: 6e22 1540 8d71 ab40 51f1 4340 bec2 be40
3.439161 3.7473328 1.5374936 3.889092 2.3302264 5.357611 3.0616038 5.9612722

weights f4 [16]
00000000: f905 8240 556d b440 910e 9c40 9680 3940
00000010: 9eae a740 cef7 af40 c28f b640 fb21 5340
00000020: ed60 1540 164d 7f3e 1088 2c40 1db4 c040
00000030: dead 2a40 d9f7 c740 435f 1e40 0fe6 853f
4.063229 5.638346 4.876778 2.8984733 5.2400656 5.4989996 5.7050486 3.298949
2.3340409 0.2493175 2.6958046 6.0219865 2.666862 6.249005 2.4745643 1.0460833

weights f4 [16]
00000000: 8356 aa40 015f 5d40 ee5f 0d40 662d 8b40
00000010: ce47 0940 13f8 bb40 d03e f13f ec2c b43f
00000020: 39de 9a40 3d87 9040 67cd b740 fc05 8e40
00000030: 4b01 8840 46a0 a140 d9b5 ec3f d965 a33f
5.3230605 3.4589236 2.20898 4.349292 2.1450076 5.8740325 1.8847294 1.4076209
4.839627 4.5165086 5.7438235 4.4382305 4.250158 5.0508146 1.8492996 1.2765456

weights f4 [16]
00000000: b7e5 8e40 619f bf40 643d 4d40 a70b d83e
00000010: a213 8340 298b 8f3f 23b9 a53f 8d3d 7c3f
00000020: c553 b440 fd15 953f ef83 5940 1d58 af40
00000030: 874f 9b40 8b9a a340 3fa3 8c40 0f8a b240
4.4655414 5.9882054 3.206872 0.4219639 4.0961466 1.1214343 1.2947124 0.9853142
5.635226 1.1647335 3.3986776 5.479506 4.853458 5.112615 4.3949275 5.579353

weights f4 [12]
00000000: ad01 2a40 128c 553e 4cfd 8c40 ce04 b73e
00000010: 540b 7f3f 1ed9 0940 95ab 7040 029b 1d40
00000020: bd20 8340 1920 1d40 c0f3 7440 5561 6040
2.6563523 0.20854214 4.40592 0.35745853 0.9962666 2.1538768 3.7604725 2.462586
4.0977464 2.455084 3.8273773 3.5059407

weights f4 [12]
00000000: c55d b33e b27f 6940 5fba 2640 0de5 4a3f
00000010: 214a b840 0c0c 953f 87fa 1d40 4dc8 2e3f
00000020: e6dc c53f f90a 3940 429e 4540 c3e6 9540
0.35032478 3.648419 2.6051252 0.79255754 5.759049 1.1644301 2.468416 0.68274385
1.5458038 2.8912947 3.0877843 4.684419

weights f4 [12]
00000000: 088b a240 0fc0 9240 422f 3e3d 20ea 583d
00000010: a789 793e 4e76 8940 99af 1340 02af 5640
00000020: aefa a63d 7a10 9f40 3ec6 8040 ad0b 9140
5.0794716 4.5859447 0.046431787 0.052957654 0.24368916 4.2956915 2.3075926 3.3544316
0.08153282 4.9707613 4.0241995 4.5326753

weight f4 [12, 48]
00000000: 27bf 2c3e a547 0b3e dc39 23bc 44c6 153e
00000010: 4488 f53d 49c1 01bd c7e4 133c 808e 08be
00000020: 7fce 393e b481 113e 5560 e9bd 8efa d83d
00000030: 3758 d93d d61b 013e 2fff 853c a64a e7bd
00000040: 50b1 833d 1644 e6bb 2ba1 103d fd2b eebd
00000050: 98c2 01be 4479 bdbd b2bb 4a3d 9f52 d8bc
00000060: 16f7 e13d 663f 913d 2200 a53d 5786 293e
00000070: 57d9 5abd 05d0 c23d 71b9 f53d a1dc 0fbe
00000080: 2152 273b de09 e93c 2554 ecbd f90b 733d
00000090: 52ec f73d d693 61bd b909 bbbd 7d47 0f3d
000000a0: 5773 d6bd 45d8 1c3e 6093 d73d 4d78 193d
000000b0: 49a9 ed3d ba5a 5abd 1d81 5d3d 785f f7bc
000000c0: 5331 26bc 2892 95bc 6b20 86bd 834d 373a
000000d0: 1faa 8dba 4f96 5c3d 584b b1bd 1f78 16be
000000e0: b87c 09be 869b 373d 96a6 393d 9a77 cabd
000000f0: afe0 b6bd a367 c93d cea4 73bd af9a 87bd
00000100: 3e4b edbd 3d6d c93c e1f9 bb3d cc71 d53d
00000110: 0264 813d a655 ecbc 7d90 8ebd be7e c53d
00000120: b212 81bc 31f5 f93d 7978 c9bd c8c1 11be
00000130: e011 9cbd 97cb 903d 2f55 8ebd 8e96 46bd
00000140: 3d61 893d 26fe 4e3d 6fcb 0cbe 2bf3 b2bd
00000150: ca9f 6c3c 281d c8bc 9a05 0abd 06af 93bc
00000160: 7d30 6c3b 58b8 b43d e04a b93c 19d0 f6bc
00000170: 48e8 463d 6e2f a5bc 677d 543c 520b f9bc
00000180: 33be 313e fc4f 023e 1b99 903c 6308 ea3d
00000190: 5c5a bd3c 45f0 0b3e 6680 843d 7393 103e
000001a0: e4e5 083e ea62 573d 57e7 9fbc 9343 eabd
000001b0: 1906 89bd aadb 0dbc d64f ccbc 0228 8abd
000001c0: a610 a33d 6b29 663d b3eb 8a3d f363 063e
000001d0: 71fb 11bd 09aa bbbc 6529 963d 9bef d03c
000001e0: 3054 e13d c1ec 1b3e 9b8e 1d3e e3c5 d7bd
000001f0: a76d 493d 4338 cebd 46dc ebbd 4ebe 4fbd
00000200: 9d14 0fbc f8f9 0ebe 910f 08be ed02 a83d
00000210: 1506 e53d ea9f 28be f279 a23d 55ad e7bd
00000220: cb0d 0c3e 453b 0cbe 3a19 8fbd 5bcc cdbd
00000230: 5fd7 adbd 0973 133e 6632 a9bd bc43 2c3d
00000240: b99c c33c 305e 3cbd dd6d 113e 4af0 d83d
00000250: 23b2 763d b0c5 8fbb 6cba 4dbc f4f8 aabd
00000260: 384b 073d f995 f33d 0a2d 183e f099 083e
00000270: 7ff9 12bd bde3 c73c b1a0 b53d f3cc 5dbd
00000280: 1a06 a53d 376a c43d 4c69 0c3e 08e0 da3d
00000290: 9276 bebd 7ac3 0dbe a584 3e3c 97dc 373d
000002a0: bfa4 a93d ea18 063e 52d2 4b3d 3225 4fbd
000002b0: cf17 5c3d bf53 043e d5ce f23c 5d72 21bd
000002c0: 7eb3 21be 8e7b 13be 6df5 bbbd 9ee0 11bd
000002d0: a612 343c 921a 2e3d 4a73 f6ba 3cc7 20be
000002e0: 6043 0c3e 3891 e83c b422 063d c077 1c3e
000002f0: 045b 8dbd cdef 833d 4584 123e e748 0f3e
00000300: 6042 16bc d990 c0bd 58ba f53d cc86 9c3d
00000310: ff5f 2c3d 3638 a93c 834f 67bd 539b 4b3d
00000320: 25d5 b63d c354 fabc 2ecf 0bbd f6f6 273e
00000330: eae2 09bd acc1 8d3d 93ca 9bbd bbf3 82bd
00000340: c5ee 86bb 9234 ad3d 7374 033e 8b49 e23c
00000350: f832 09be 6931 99bc 8ffc 33bc f679 383c
00000360: f1a4 a1bc f08c f63d 7c30 233e d6ba edbd
00000370: dfb9 013e ac3e 663c 89a7 febb 6bb4 073d
00000380: f4c4 2c3d eeb1 ecbb 2be2 b8bc 6143 2cbd
00000390: e111 56bd ba35 e03d 4040 2e3b 06cf 493c
000003a0: 5a43 cdbd 1f55 6a3d 2f53 bc3d 7ea3 02be
000003b0: b29b deba dccc abbd cc62 ba3d 9e02 3fbd
000003c0: 2a26 d13c e93f 1dbd 2501 08be 7873 fa3c
000003d0: fa1d 0fbe 0692 0c3c 733c ef3d 6c42 3b3d
000003e0: e0eb 72bd 54a2 04bc 3e16 2e3b 313b 2abc
000003f0: a6cd ea3d eb74 3abd 4b57 6b3c b20f 98bb
0.16869794 0.13601549 -0.009962525 0.14626414 0.11988881 -0.03167847 0.009026713 -0.1333561
0.18145178 0.14209634 -0.11395327 0.105946645 0.10612529 0.12608275 0.016357033 -0.11293535
0.06430304 -0.0070271594 0.03530995 -0.11629484 -0.12671888 -0.09251645 0.049495406 -0.026406584
0.11033456 0.070921704 0.08056666 0.16555153 -0.053429928 0.09512333 0.11998261 -0.14049007
0.002553113 0.028447088 -0.11539487 0.05933759 0.121056214 -0.055072628 -0.09132714 0.034980286
-0.10471218 0.15316875 0.105261564 0.037468243 0.11604554 -0.05330918 0.05407821 -0.03019689
-0.010143596 -0.01825817 -0.06549152 0.0006992446 -0.0010808146 0.053854283 -0.08656949 -0.1469426
-0.13426483 0.044826053 0.045324884 -0.098860934 -0.08929574 0.0983422 -0.059483342 -0.066213004
-0.11586617 0.024588222 0.0917852 0.10422096 0.06317903 -0.028849434 -0.06961153 0.09643315
-0.015755985 0.1220497 -0.098374315 -0.14234078 -0.07620597 0.07070082 -0.06949841 -0.048483424
0.06708 0.050535344 -0.13749479 -0.08737787 0.014442394 -0.024427965 -0.03369675 -0.018027794
0.0036039643 0.08824223 0.022618711 -0.030128526 0.048561364 -0.020164218 0.012969351 -0.030400906
0.17357711 0.12725824 0.017651131 0.11427381 0.023114376 0.13665874 0.064698026 0.14118747
0.13368946 0.052584566 -0.019519491 -0.1143867 -0.06690616 -0.008658329 -0.024940412 -0.06745912
0.0796216 0.056191843 0.06783237 0.13124065 -0.035640184 -0.022908228 0.07332114 0.025504878
0.110023856 0.15227033 0.15386431 -0.10535791 0.04917684 -0.10069325 -0.11516623 -0.050718598
-0.008732942 -0.13962543 -0.13287188 0.08203683 0.11182801 -0.16467252 0.079334155 -0.11312357
0.13677137 -0.13694485 -0.069872335 -0.10048743 -0.084883444 0.14399351 -0.08261566 0.042056784
0.023878442 -0.04598826 0.14202066 0.105927065 0.06022848 -0.00438758 -0.0125566535 -0.08348265
0.03303072 0.118938394 0.14860931 0.13339972 -0.03588247 0.024400586 0.0886854 -0.054150533
0.080578044 0.095905714 0.13712043 0.10687262 -0.09299959 -0.138441 0.011628305 0.044888105
0.08283376 0.13095441 0.049761124 -0.05057258 0.053733643 0.12922572 0.02963964 -0.039415706
-0.15791127 -0.14402601 -0.09177671 -0.035614602 0.010990774 0.04250581 -0.0018802669 -0.15701002
0.13697577 0.028389558 0.03274794 0.15280056 -0.069021255 0.06442223 0.1430827 0.13992654
-0.0091710985 -0.094026275 0.11998433 0.07642898 0.042083737 0.020656686 -0.056472313 0.049708676
0.08927373 -0.030557996 -0.03413313 0.16402802 -0.033663668 0.069217056 -0.07606997 -0.06394144
-0.004117819 0.084572926 0.1283739 0.027622959 -0.1339835 -0.018700318 -0.010985508 0.0112595465
-0.01973197 0.120386004 0.15936464 -0.11607902 0.1266856 0.014053028 -0.0077714366 0.033131044
0.042180017 -0.0072233593 -0.022568783 -0.042056445 -0.052263144 0.109477475 0.002658859 0.012317425
-0.10022612 0.057210084 0.091955535 -0.1275768 -0.0016983657 -0.08388683 0.09100875 -0.046633355
0.025530893 -0.038391028 -0.13281687 0.030572638 -0.13976279 0.008579737 0.11681452 0.04571764
-0.05930698 -0.008095343 0.002656355 -0.010390089 0.114650056 -0.045521658 0.014364074 -0.004640543

bias f4 [12]
00000000: 3ee2 eb3d 20be aa3d b3f5 053e d531 bbbb
00000010: 1cdc b03d 9de7 53bd b3c2 03be 7fb7 d2bd
00000020: 8706 55bd 33a7 053e 431e 1f3d 64e9 48bc
0.11517762 0.08337045 0.13082008 -0.0057127276 0.086357325 -0.051734556 -0.1286724 -0.10288905
-0.052008178 0.13052063 0.03884722 -0.012262676

weight f4 [12, 12]
00000000: 59ef 873e b068 4abe 0127 0fbc ea9e dabc
00000010: b385 613e e5de 32be 4092 13be d063 d0bc
00000020: 04a3 31be 37b5 673e caa8 d13c 5641 a73d
00000030: a350 0e3e c167 733e 5845 5f3e ad67 513e
00000040: 411c 913e 4560 e13c 9fd6 163e 3b7b 033c
00000050: a5ae 82be dd50 063e 0cce 683e 4c78 4e3e
00000060: fdfb cfbd f673 8c3d 786e 93be b846 3c3d
00000070: d036 283e c82a 69be 352b 8fbd 39a3 13bc
00000080: 798d 853e bbce 713e a477 1b3e bbbb 5b3e
00000090: fa34 37be cef4 033e 7d9f 373e 0ccc a03c
000000a0: 8954 3f3c 3a4a b23d 7de0 69be 3b66 6abe
000000b0: 06a0 293d b4d5 70be e6cb 85be 53e5 65be
000000c0: 4ecd 6bbe 1e4c 4c3e 1818 b13d 5842 2abd
000000d0: f595 9c3d 4da4 d6bd 12eb 193e 19fa 603e
000000e0: d4d1 7ebd 1f85 893d dcdb 483e 8ae2 913e
000000f0: 4c51 cfbd 2d13 a3bc 2b6d d3bc ecbf 813e
00000100: 0273 173e cb01 d33d f2c5 023e 6abf 76be
00000110: f99d a23c ca92 67bc f54d 2ebc ed24 0fbe
00000120: 639b 8a3d 8dbd 72bc 8790 763e d77d ed3d
00000130: 0e7b 493e 3d96 5bbe a06c 47bd 1773 e0bd
00000140: ec23 27be 7e05 28be 6e8d 3abe 16a7 a2be
00000150: 737f 1b3e 6fa3 a93d 180e 813e 0b09 1abe
00000160: f6c1 543e 0b87 6ebe c107 80be 9597 0abd
00000170: a74d 81be 4fbd 8a3e d0cb 6f3e e311 12be
00000180: 3fcf e23d d150 863e 0d6b 073e ded0 2cbe
00000190: fa6c cb3d 7412 453c 5b62 41be cf80 133e
000001a0: 9c46 52bd ce25 91be bde4 cabb 0046 eb3d
000001b0: 47eb c93d 002c 6f3d b2be 153e d3e1 28be
000001c0: e92a b33c 97a1 673d 451c 05bc 7689 debd
000001d0: c750 773d c4eb 473e cac7 583e f2b3 9b3e
000001e0: 6c5d 3cbe 1769 87bd 64ec 5abe 1d75 d4bd
000001f0: 4e93 6cbe a268 bc3c c387 013e ae92 5ebe
00000200: 7e7a 1fbe 0517 623e 2206 8bbe 3395 6dbc
00000210: 403f 793e 7d4e 3dbe 023d 203e 3033 3e3c
00000220: 4337 4abd db5e 21be b15c 75be 1294 1f3e
00000230: 8a95 04be 1270 133e b308 9d3d f49d dfbd
0.26549795 -0.19766498 -0.008737327 -0.026687104 0.22023658 -0.1746784 -0.14411259 -0.02543822
-0.17347342 0.22627722 0.02559318 0.08166759 0.13897948 0.23770048 0.21803796 0.20449705
0.2834187 0.027511725 0.14730309 0.008024986 -0.25523868 0.13116784 0.2273485 0.20163077
-0.10155485 0.06858055 -0.28795218 0.04596588 0.1642716 -0.22770226 -0.06990663 -0.009011083
0.26084498 0.23614018 0.15182358 0.21458332 -0.17891303 0.12886354 0.17931934 0.019628547
0.01167787 0.08705564 -0.22839542 -0.2289056 0.041412376 -0.23519021 -0.26132125 -0.22450761
-0.23027536 0.19950911 0.08647174 -0.041567177 0.076457895 -0.10480557 0.15031078 0.21970405
-0.062211826 0.06714844 0.1961512 0.28493148 -0.10122928 -0.019906605 -0.025808891 0.25341737
0.14789966 0.10303076 0.12770823 -0.24096456 0.019850718 -0.014134118 -0.010638704 -0.1397893
0.06767919 -0.0148157 0.2407857 0.11596268 0.19675848 -0.2144403 -0.048687577 -0.10959452
-0.16322297 -0.16408345 -0.18218014 -0.317681 0.15185337 0.082831256 0.25206065 -0.15042512
0.20777115 -0.23293702 -0.25005916 -0.033835966 -0.25254557 0.27097556 0.23417592 -0.14264636
0.11074685 0.26233533 0.1322443 -0.16876552 0.09932895 0.012028325 -0.18885176 0.14404605
-0.05133687 -0.28349155 -0.0061918185 0.11487961 0.09859329 0.05839157 0.14623526 -0.16492395
0.021871047 0.05655059 -0.008124416 -0.10866062 0.06037977 0.19523531 0.21169963 0.30410725
-0.18395013 -0.06611841 -0.21379238 -0.103739 -0.23103067 0.022999112 0.12649445 -0.21735641
-0.15574071 0.22079094 -0.27153116 -0.014500904 0.24340534 -0.18486972 0.15648273 0.011608884
-0.049369108 -0.1575884 -0.2396114 0.15583828 -0.1294767 0.1439822 0.07667675 -0.10918799

bias f4 [12]
00000000: 04c0 c63b 1573 373e 7f65 14bd cefa 523e
00000010: 113f 2cbc 1c30 5d3d 4e8f 0dbe afd1 aebd
00000020: bfec 683e 21d0 9abe bd69 7ebe d254 523e
0.0060653705 0.17914994 -0.036229607 0.20603487 -0.010513083 0.05400096 -0.13824198 -0.08536088
0.22746561 -0.30236915 -0.24845023 0.20540169

weight f4 [12, 48]
00000000: 7589 90bd 088e cb3a 7167 913d 183d 293e
00000010: b481 643d b4cb ef3d 84fc 323e a3f9 1abd
00000020: 079d 31bd ea3b c3bd 2e26 2e3d 0aa7 9bbb
00000030: cb4a c53d 7ecd c63d 503d 49bd 6e48 153e
00000040: 2ac8 e63d 34be 3a3e 8c1f 863d 9d29 4e3e
00000050: b6ed 0e3e 4fab 083e a2fa 013e cf54 123e
00000060: 8995 e5bd 5055 1b3e 2250 88bd 8425 d43d
00000070: 55ea a03d 12f0 d13d 55e6 8bbc 40f8 59bd
00000080: 3f5a 97bd 264b 1c3e 8979 e83a 1a93 a2bd
00000090: 22a6 b73c 6730 c1bd a00b d6bd 013f 303d
000000a0: 351d d83c bd87 503d 6e5d 75bd bedb 07bd
000000b0: aff8 353e 3a56 ca3d ee53 5fbd 8276 8b3d
000000c0: 0445 9f3d e05f f43d 3739 4fbd 477e 323c
000000d0: 92c7 c63d 2548 033e 5c63 603d 82d7 973d
000000e0: e39c 5b3d 56d4 cabd f943 a63d 9afc 843d
000000f0: f732 363e c405 833d c2cb 893d 1a7f 273e
00000100: 4bcd f83d 3786 f0bb afef 743d 23df f83d
00000110: 84bf 253d 21b1 b7bd 20b6 d3bd db20 41bc
00000120: 194d 253e cb4b 153e 4b9f a0bd 039e b5bd
00000130: 0602 953d 9f19 7bbd 71ae ef3d a2f8 f73d
00000140: 98c7 ca3d 904c 6cbd dd30 313e d2d1 1c3e
00000150: bacb 44bd 5a7c 993d 3aca 06be fedf d4bc
00000160: 220e e6bb 003c 7f3d 02c0 553d 0858 2f3e
00000170: e66f fdbd 32a2 9abb 75ee 95bd 58fe ca3d
00000180: 97c6 aabd 1e5a 9cbd 9fa3 e5bc 6239 21bb
00000190: 527e 0bbd 4a83 473c 1030 043d 7dac f53c
000001a0: 0c30 29bd d315 263e ebf3 e23c 869e 4abd
000001b0: 2024 cd3c ec5a ec3c 59b6 88bb 86f6 283e
000001c0: c11d bdbd b2ac d03d 46ea 263e 2c32 9ebd
000001d0: 99c2 df3b f53e 493d 362d 9abd a49a c3bd
000001e0: a4c1 d8bb 0e2c 933c fcc1 85bd 61ad 073e
000001f0: 651d 423e d05b 053e c668 d2bc 771b cfbc
00000200: 6cf0 b0bd bd58 52bb 5a02 77bd 0126 8cbd
00000210: 1d9a aabd 3060 0a3e 3baa 923d 48a9 9a3c
00000220: 518c 3fbe b71e 14be d700 153c 4bbf a1bd
00000230: a89c 373e cdbe 1d3d 3188 373e 739f 07bc
00000240: 6d37 153e 3426 10bd a5da f13d 08c9 aabc
00000250: bf53 f4bd a69e 3cbe a275 5f3d a255 f6bc
00000260: ee99 173e b173 86bc 7154 983d 3edb afbc
00000270: 8b65 bbbc 356d c33c 8b87 04be fba2 7e3d
00000280: e754 a6bc 77ef 883d ae26 ddbc 794a 213d
00000290: 51b3 babd b4c0 663c 9c26 af3d 4a2c 063d
000002a0: ea34 943c 49c2 dd3a eda5 cebd 1301 acbd
000002b0: 90e2 01bd d570 45bd 9e3d 9abc 9644 ee3c
000002c0: f631 17be 70c7 e2bd 2e58 a53d 7092 11be
000002d0: f722 81bd 16c8 3cbd fcf4 573d dbbc 3e3d
000002e0: a7f5 28be 8dfa 38be 1a1c 6abc fe9b dabd
000002f0: 7dab 0fbe f8d0 00bd d551 933d 3296 df3d
00000300: 9412 eabd 7083 fa3d 7db9 42bc d153 1a3d
00000310: 44aa 7e3d cb51 af3d cbc7 1a3b 050b 31be
00000320: 865a b73d 67e3 103d 0562 0d3d 6009 373d
00000330: 205d 8d3c 92ae d9bd 1743 cdbd 40f1 03be
00000340: 73fd 823d ebf7 923d 0f05 92bd 0c53 dfbc
00000350: 8542 1d3c ea8a 923b cb4e 5abd 812c e4bd
00000360: 3383 9dbd 50ce 06be c906 233d 61e7 fdbc
00000370: 0270 35be 7208 00be 93b2 00be 8a4d b03d
00000380: 7d07 5b3d a002 bf3c 9382 d23d d1ff eb3d
00000390: e795 18bd b58b c13d 701e 19be d6a5 25be
000003a0: 5e35 2abd 8029 043e 4d3c 5cbc 1917 93bd
000003b0: 7883 f63d 9f34 1dbd 4e65 c73d d15d 913c
000003c0: 146c 91bd 4af1 09be 5407 13be 8718 55bc
000003d0: d3a8 f33d 1724 85bd 44ac c8bd 91ea 193c
000003e0: 81a7 bc3d d48d e3bd f158 40bd 9c77 c7bd
000003f0: 591a 95bd 8847 0abe 4134 0a3e 8509 723d
-0.07057468 0.001553 0.07099808 0.16527212 0.055787757 0.11708775 0.1747914 -0.03783573
-0.043362644 -0.09532912 0.04251688 -0.004750137 0.09633406 0.09707163 -0.049130738 0.14578411
0.11268647 0.18236619 0.06548986 0.20133062 0.13957867 0.13346599 0.12693265 0.14290164
-0.11210162 0.15169263 -0.06655909 0.10358718 0.07857195 0.10250868 -0.017077604 -0.053215265
-0.0739026 0.15263042 0.0017736416 -0.07938214 0.022418085 -0.0943306 -0.10451436 0.043028835
0.026381114 0.0509107 -0.059903555 -0.033168547 0.17770647 0.09879728 -0.0545234 0.06809713
0.077768356 0.11932349 -0.050591674 0.010894365 0.09706034 0.1282049 0.054782256 0.07414152
0.053616416 -0.09903781 0.081184335 0.064934924 0.17792879 0.06397584 0.06728317 0.16357079
0.121485315 -0.0073402184 0.059798893 0.12151935 0.040465847 -0.089693315 -0.10337472 -0.0117876185
0.16142692 0.14579694 -0.07842883 -0.08868029 0.072757766 -0.06130373 0.11703194 0.1210797
0.09901351 -0.057690203 0.17303796 0.15314415 -0.04804585 0.07494421 -0.13163081 -0.025985714
-0.0070207277 0.06231308 0.052185066 0.17123425 -0.123748586 -0.004719042 -0.07320873 0.099117935
-0.08338659 -0.07634376 -0.028032122 -0.0024600853 -0.034056015 0.012177298 0.0322724 0.029989475
-0.041305587 0.16219263 0.0277042 -0.049467586 0.02504164 0.028851949 -0.004172128 0.16500291
-0.09234191 0.10189189 0.16300306 -0.07724413 0.006828618 0.049132306 -0.075281546 -0.0955098
-0.0066148806 0.017965343 -0.0653114 0.13249733 0.18956526 0.13023305 -0.025684725 -0.025281651
-0.08639607 -0.003209635 -0.060304977 -0.06843186 -0.08330176 0.13513255 0.07161375 0.018879548
-0.1870587 -0.14464842 0.0090944385 -0.07897814 0.17930853 0.03851204 0.17923047 -0.008277762
0.14571925 -0.035192683 0.11809281 -0.020847812 -0.11930036 -0.18419895 0.054555543 -0.03007013
0.14804813 -0.016412588 0.07437981 -0.021466848 -0.022875568 0.023855785 -0.1294233 0.06216715
-0.020304156 0.06686299 -0.026995983 0.039377663 -0.09116233 0.01408403 0.08552286 0.03275708
0.018091638 0.0016918863 -0.100902416 -0.083986424 -0.031710207 -0.048203308 -0.01882821 0.029085439
-0.14765152 -0.11073196 0.080734596 -0.14216018 -0.06305497 -0.046089254 0.05272387 0.046566825
-0.16499959 -0.18064328 -0.0142889265 -0.106742844 -0.14030261 -0.031449288 0.071933426 0.10917319
-0.11429325 0.12232101 -0.011885044 0.03767759 0.062174097 0.08560523 0.002361762 -0.1728936
0.08952813 0.035373118 0.034517307 0.044686675 0.01725632 -0.10629 -0.10022562 -0.12884998
0.06395998 0.07176193 -0.07129871 -0.02726128 0.009598379 0.0044721263 -0.0532978 -0.11141301
-0.0769104 -0.1316464 0.039801393 -0.03099412 -0.17718509 -0.12503222 -0.1256812 0.086085394
0.05347394 0.023316681 0.10278811 0.115234025 -0.037252333 0.09450475 -0.14953017 -0.16176543
-0.0415548 0.12906456 -0.013442111 -0.0718214 0.120367944 -0.03838026 0.09736119 0.01774493
-0.071006924 -0.1347095 -0.14358264 -0.013006336 0.11897435 -0.06501024 -0.09798482 0.009394304
0.09211636 -0.11111036 -0.04695982 -0.097396106 -0.07280416 -0.1350385 0.13496496 0.05909111

bias f4 [12]
00000000: 4f55 bc3d 996a ae3c 3a83 013e a8ed f2bd
00000010: 5d5e b4bc 6cf2 8abd 2c48 98bb 5538 f7bd
00000020: 715a e93d 1e3b f2bd 732e 08be 45a7 b0bb
0.09195959 0.021291064 0.12647715 -0.118617356 -0.022017652 -0.067845196 -0.0046472754 -0.12071291
0.113942035 -0.11827682 -0.13298969 -0.005391034

weight f4 [12, 12]
00000000: f500 e2bd 15a5 063e 60c7 f23d 1d62 f43d
00000010: 9dc1 18be ea42 93bd 71d9 71be aaf7 47bd
00000020: f84e 5ebe 480d 02be 3ce4 6dbe 35c1 27bd
00000030: 4a8c 6cbe c439 8dbe cb0a 92be 8e21 783e
00000040: 48cc a1bd 70d1 d13d 7cb1 00be cea2 0b3e
00000050: bb4d 8a3d 3679 0b3b 567d 89bd 7de5 7c3e
00000060: 172b ab3e 2132 12be adce 9e3d a2e2 fbbd
00000070: 80b1 12be dc40 ad3d ae2d 76be 7308 8d3e
00000080: 3026 8cbe e182 3ebe 271e 873e 3d9f 4d3e
00000090: 6891 0abe 09c1 73be ad32 0a3e 0417 8a3e
000000a0: 30b4 f83d c722 72bc 29e8 c0bd ddb1 cebb
000000b0: b494 30be 8d32 883e b0cf 723e 98e5 7f3d
000000c0: 874a 6dbe 5923 34bc a12f 4a3e 6472 94be
000000d0: cb0a 71be d217 2bbe f7c9 283e 9381 373e
000000e0: 7c7e 28be f0c7 733e ee5c a83c f383 c5bd
000000f0: 28a7 2f3e 3664 cdbd b555 99bd 3000 cf3c
00000100: 4563 4a3c a91c a33d 2b05 adbe af49 8abe
00000110: d627 623e 7ba5 3fbe e7dc 293e 57a8 12be
00000120: 4a4b 843e 7b85 8e3e 39c3 1f3e 5474 033e
00000130: 3a9c 283e 4f18 46be 9151 d5bd b1b0 06bd
00000140: ced9 d13d e123 ed3d 3f84 ab3d 7595 173e
00000150: 35ea 92be 681d 863e 9023 8f3e b621 87ba
00000160: 3316 843d 1584 8f3e 4e8a 05be ce37 7c3e
00000170: 4cad 813e 0b68 743e ad0e a0bc 30c3 10bd
00000180: d12f 2cbe f584 003e 2c74 0cbe abc8 53be
00000190: 960e 31be db4f 673d 2e81 afbd 06c2 ad3c
000001a0: 7304 3e3e 859f e0bd 3406 22be 7250 22be
000001b0: 6f91 cf3d e937 473e 9a27 9cbd fd72 7bbd
000001c0: 3172 1e3e 194a c63d fba2 853e f720 19bd
000001d0: 0a3c 4bbe cbcc bb3d 8215 5a3e c912 c6bd
000001e0: f5c5 cabd ccdd be3d 8a92 88be 48c3 043e
000001f0: 0e60 01bd 786c 4abe f19a 563e 9847 74be
00000200: 82cb 7ebe 6161 91be f95f d63d a9b6 22be
00000210: 6c52 38be ffed 9b3d 53cc 04bb cce6 49bd
00000220: 9a66 8abe fd71 213e feeb 433d b8c6 e5bd
00000230: f956 7b3e e23a 883e e1e5 4d3e a09c ecbc
-0.11035339 0.13148911 0.11854434 0.11932776 -0.14917608 -0.07190497 -0.23618104 -0.048820175
-0.21709812 -0.12700379 -0.23231596 -0.04095574 -0.23100391 -0.27583134 -0.2852386 0.2423155
-0.07900292 0.10245025 -0.12567705 0.13636324 0.06753107 0.0021281964 -0.06713359 0.24696918
0.33431312 -0.14276935 0.07754264 -0.12299086 -0.14325523 0.084596366 -0.24040863 0.2754551
-0.27372885 -0.18604614 0.26390192 0.20080276 -0.1353203 -0.23804106 0.13495894 0.26970685
0.12143743 -0.014778799 -0.09419281 -0.006307824 -0.17244226 0.26601067 0.23712039 0.062474817
-0.23172961 -0.010994756 0.19744731 -0.28993523 -0.23539273 -0.16708305 0.16483293 0.17920522
-0.164545 0.23806739 0.020552125 -0.09644308 0.17153609 -0.10028879 -0.074870504 0.025268644
0.012352769 0.07964451 -0.33793005 -0.2700934 0.22085509 -0.1871547 0.16588174 -0.14322029
0.2583869 0.27836213 0.15601815 0.12837344 0.16465846 -0.1934521 -0.10415948 -0.03288335
0.10246621 0.11579109 0.08374833 0.14803107 -0.2869431 0.2619431 0.2795682 -0.0010309729
0.06449547 0.28030458 -0.1304104 0.24630663 0.25327528 0.23867814 -0.019538248 -0.035342395
-0.16815116 0.12550719 -0.13716191 -0.20682018 -0.1729072 0.05647264 -0.08569561 0.021210682
0.18556385 -0.10967926 -0.15822679 -0.15851 0.10135161 0.19454922 -0.07624741 -0.06138896
0.15473248 0.09682102 0.26100907 -0.037384953 -0.19847122 0.091699205 0.21297267 -0.09671552
-0.099010386 0.09319648 -0.266743 0.12965119 -0.031585746 -0.1976794 0.20957543 -0.23855436
-0.2488232 -0.28394607 0.10467524 -0.15889992 -0.18000191 0.076137535 -0.0020263388 -0.04929237
-0.27031404 0.1576614 0.04783248 -0.11219543 0.24544896 0.26607424 0.20107223 -0.028883278

bias f4 [12]
00000000: 8ddb 6c3e eaf9 8b3d 5085 6abe f543 84be
00000010: ccc0 23be cf0b 593e f281 f93d d201 7dbd
00000020: 1fce 03be 2624 0ebe 1986 543d 2626 a0be
0.23130627 0.06834777 -0.22902417 -0.25833097 -0.15991515 0.21195911 0.12182988 -0.061769314
-0.12871598 -0.13880977 0.051885698 -0.31279105

weight f4 [12, 48]
00000000: 2004 cf3d a1e1 1a3d ce00 56bd 8084 acbd
00000010: 6b00 263e 45f2 b63c 9e5a 393d 5ac9 ff3d
00000020: 3b38 893d 7baa 123d e680 a63d aeff c33d
00000030: 9785 8d3d a6d0 5c3d c110 b13d 5cb0 0d3e
00000040: 7897 e93b 37b4 903d 0ea3 0d3e 6677 f53d
00000050: 400b e63d d5f1 febd 8f85 043e 0d59 223e
00000060: 33bd 333e e27b 323e 5e31 0e3d 0c92 a0bd
00000070: 3d1d 4ebd 6623 5dbd b864 c03d 3b86 a93c
00000080: 9988 233e 8a0f b83c d403 383d 1cae 4e3e
00000090: 6c90 ea3d 2e34 6b3d b18c 8c3d 31a7 e13c
000000a0: 6810 223e bd45 1b3e dec9 f8bc b8be 6c3d
000000b0: 06ec f73c 4d60 e33d 9c19 a93c df3d 183e
000000c0: 5d09 32be 84be 773b b91b 29be b3aa a93d
000000d0: b625 893b 96b8 4abd 0c8b 9ebd dfd2 7cbd
000000e0: 30cb 883d 3e79 92bd a116 3c3d f60c 04be
000000f0: 55fe b5bd 71d2 143a ead8 f63d e81d 473d
00000100: dd7b 7dbd 815d 76bd 7595 8a3d 40d3 d23d
00000110: b925 b63c 7e8c fb3b 1114 27bd bc5e 17bc
00000120: 0af1 e3bc 589a 4dbd 961a 573d 01ab 153e
00000130: 49aa eebc 1a07 92bd ba8d 073e af30 06be
00000140: 58fc cdbd 802c cc3d 8a36 b23d 9385 503d
00000150: dd1a 6f3d 1abb 32be cc5f 27be edf6 04be
00000160: 3c23 013e aabf 583d d2e0 05be b481 1dbe
00000170: bdfa e0bc 732c 37be 4c68 e4bd 2bb1 38be
00000180: e188 473e eef8 96bd a774 513e 788c c33d
00000190: 5dab e03d 26ab e8bc dd69 fc3d fdb5 4c3e
000001a0: 6e2a 143e 3426 46bc ed0d 4a3e 20bb 0c3e
000001b0: 0bbf 1dbe 1305 2f3d 48a3 3e3c 1306 d53d
000001c0: 5f44 46bd 11c2 323c d9a4 0a3e 0870 e2bc
000001d0: 8aa7 ac3c b548 0cbe b5a7 533d 85d3 efbc
000001e0: 7075 02be 9682 99bc 90a3 60bc 726b 503d
000001f0: 27fb 6cbb dbc5 f1bc b6be 113e b7ee 3c3e
00000200: 4911 c23d e2fd 403e 8642 56bd 86c0 a83c
00000210: 3702 5e3d 14de 15bd c385 0a3e 42b8 183d
00000220: 9778 003d 3aa2 333e ddf3 88bd b509 0e3e
00000230: c797 193e e279 9fbd b678 adbd f401 f33b
00000240: 16df f43d 9453 bdbd 2be3 8cbd 47bc 563d
00000250: a84a a1bd 4fca 7f3d b14c 123e 1dc0 10be
00000260: 0cb3 0e3e 6c8e 89bd 587a e2bc 9d5c 69bd
00000270: 1566 fbbd 9f3f b7bd de58 bf3d fd0f 01bd
00000280: ebde 873d 5216 a7bd 550b d7bd 72bd 7e3d
00000290: 0901 ee3d 40fe 2fbd be00 e53d 1e0b d03b
000002a0: 6fe2 9e3c 7459 cabc 60f8 6fbc ec51 ca3d
000002b0: c37e 8abd 9b6d fdbc e452 04bd 37ff 243d
000002c0: ad54 84bc ebf1 26bd a6da 77bd 5466 9d3d
000002d0: 5901 733c ea6f 7bbd 5a19 f53d 9a84 0d3e
000002e0: 38e3 103e c308 0f3d 9e2b 96bd af5c 11be
000002f0: c11b e93d a138 f33c ca87 1d3d ab2d 9a3d
00000300: 7eca e93d 2f03 f13d ea04 093e 5246 be3b
00000310: c330 cc3d a748 60bd 6508 043c 7714 f5bd
00000320: 3374 953d 1525 9d3c 87dc a33d 2959 5dbd
00000330: f00e 0ebe bef6 af3c 8315 b9bd 5bd6 c73d
00000340: c363 ee3d 64c8 b63d 1aa8 cfba 4017 80bd
00000350: 92df c0bb a855 3f3d fbba e53d b3a1 a1bd
00000360: d377 a0bd caf4 d73d 011d c0bd 0242 f03d
00000370: d58f bbbd 0cb2 233d 020b 02be b602 b9bc
00000380: 1934 a4bd ba5a cebd af7a 923c 2aa9 333c
00000390: f636 103e 8008 d03d d409 743d 8af7 8d3d
000003a0: f1c6 05be 5ae6 b8bc 340e 8e3d f201 0f3e
000003b0: 44fe ac3d 98a6 be3c 48f2 0b3e bf41 653c
000003c0: bfcb 4fba 3243 ec3d 7dff 02be 307c bdbd
000003d0: 03c2 393d 73c1 b6bd ef29 053d f206 63bd
000003e0: cc28 fb3d 5956 4ebd 0f85 493d 3740 323d
000003f0: dd83 063d f0c0 eb3d 0aa2 7b3d 930f 153e
0.10108209 0.037812833 -0.05224686 -0.0842371 0.16211097 0.02233232 0.045252435 0.12489577
0.06700178 0.035807114 0.08130054 0.095702514 0.06910246 0.05390992 0.08645774 0.13836807
0.007128652 0.07065623 0.13831732 0.11985664 0.112326145 -0.124484695 0.12941574 0.15854283
0.17552643 0.1743007 0.03471505 -0.07840356 -0.050320853 -0.053988837 0.093942106 0.020693889
0.15970077 0.022468347 0.044925526 0.20183605 0.114533275 0.05742281 0.06862772 0.027545543
0.15826571 0.15163322 -0.030369695 0.05779907 0.030263912 0.11102352 0.020642094 0.14867352
-0.17386384 0.0037802765 -0.16514482 0.082845114 0.0041854037 -0.04949244 -0.07741365 -0.06172454
0.0667938 -0.07152031 0.045920018 -0.12895569 -0.088864006 0.000567711 0.12053092 0.048612505
-0.061885703 -0.060147766 0.06766788 0.10294199 0.022234784 0.00767666 -0.04079062 -0.009238895
-0.027824897 -0.05019602 0.05251559 0.14616014 -0.029133933 -0.07130261 0.13237658 -0.13104509
-0.100578964 0.09969425 0.08701809 0.050908636 0.05837523 -0.17454186 -0.16345137 -0.1298482
0.12611097 0.05291716 -0.13074043 -0.15381509 -0.027463311 -0.1788805 -0.111527056 -0.18036334
0.19485809 -0.07371698 0.20454656 0.09548277 0.10970185 -0.028401922 0.12324879 0.19991298
0.1446931 -0.012094069 0.19731875 0.13743258 -0.15404908 0.04272945 0.011635609 0.10401549
-0.048405048 0.010910527 0.13539447 -0.027641311 0.021075983 -0.1369961 0.05167361 -0.029275665
-0.12740111 -0.018739026 -0.013710871 0.050883718 -0.003616044 -0.02951329 0.14232907 0.18450437
0.09475953 0.18846849 -0.052309535 0.020599615 0.05420133 -0.036588743 0.13527589 0.037285097
0.031365003 0.17542353 -0.06687138 0.1387089 0.14999305 -0.07786919 -0.084702894 0.0074160043
0.11956613 -0.09244457 -0.06879266 0.05242565 -0.07875568 0.062448796 0.14287068 -0.14135785
0.13935488 -0.06716618 -0.027646229 -0.05697309 -0.1227533 -0.08947682 0.09343122 -0.03150939
0.06634315 -0.08158554 -0.10500208 0.062192388 0.11621291 -0.04296708 0.11181782 0.0063489815
0.019395081 -0.024700858 -0.01464662 0.098789066 -0.06762459 -0.030936053 -0.032305613 0.040282454
-0.016153658 -0.040758055 -0.060511254 0.07685533 0.014831864 -0.061386026 0.11967726 0.13820115
0.14149177 0.034920465 -0.07332538 -0.14195512 0.11382247 0.029690089 0.038459577 0.07528242
0.114155754 0.11768185 0.13380781 0.0058067227 0.09970238 -0.054756787 0.008058642 -0.11966794
0.07297554 0.019182721 0.08001047 -0.054040108 -0.13872886 0.02147996 -0.09037306 0.09757682
0.11640122 0.0892494 -0.0015842945 -0.062544346 -0.0058860267 0.046712548 0.11217304 -0.0789217
-0.07835355 0.10544737 -0.09380532 0.1173134 -0.09158293 0.03996472 -0.12699512 -0.0225843
-0.08017749 -0.100758985 0.017880766 0.010965625 0.14083466 0.10157871 0.059579685 0.0693198
-0.13064171 -0.022570778 0.06936303 0.13965586 0.08446935 0.023272797 0.13666642 0.013992726
-0.0007926784 0.11536254 -0.12792774 -0.092522025 0.04535104 -0.08923616 0.032510694 -0.055426545
0.12263641 -0.050375316 0.04919916 0.04351827 0.0328406 0.11511409 0.06143383 0.14556722

bias f4 [12]
00000000: 9bd5 32bd bc9d 9cbd 75c6 ad3d 76fb f8bd
00000010: 4ff8 f5bd 3a90 c7bc 58a7 2fbd 4a54 d23d
00000020: ccd1 0bbc 517a 143d 8210 0dbd f98f 403e
-0.04366074 -0.07647273 0.08485118 -0.12157337 -0.12010252 -0.024360765 -0.0428842 0.10269983
-0.008533906 0.036249463 -0.03443957 0.18804921

weight f4 [12, 12]
00000000: 6943 1d3e 9186 adbe 384a 8fbc b3fe fb3d
00000010: 2791 263e 95e0 443e 880b 1c3e 6948 983d
00000020: 5984 823e 5819 883e 9a1f 48be 5a46 73bd
00000030: c609 7ebc b5a2 03be c8b4 b03d 1d55 6e3d
00000040: c91d 95bd bf28 9c3e 6759 51bc b982 403e
00000050: 1a39 27be 6f58 fc3c 8ab9 25bc e7c2 373e
00000060: c569 50be fa4c ef3c fa5f afbd efaf cf3d
00000070: e23f f7bd 6e72 b53d caf9 413e f742 87be
00000080: 815b b83c bd23 8fbd cc5e dcbc 76ef 70be
00000090: 631e 56be 527a 7f3d 9104 84be aba8 c1bd
000000a0: c0cc 54be fb27 103d 22cc a33c 1229 a33e
000000b0: 66a2 3c3e f3e1 b1bd 1888 61be 0a51 223e
000000c0: f60a dabd c311 0abe dbdf 4f3e 9f66 923c
000000d0: 9452 323d f1e7 343e 142a 483e 611f 1c3e
000000e0: bf99 843e 9355 2d3e 5a2d 913e 56f5 8fbd
000000f0: 879f aa3e e2ff 543e dddf 0739 3ff4 3ebe
00000100: f3cd 793e d079 90bd d2e9 25bc 9fea 38be
00000110: eed2 923e d59e fc3d 415a 69be 7fbf a9be
00000120: 39de a8be 43be 3dbe 284f 02be e6b9 28be
00000130: 1db9 afbb e2c7 20bc eaf0 bfbd c366 a73e
00000140: d7c1 ea3c cbe3 053e ca0a 6ebe 8947 5b3e
00000150: ee4d 76be 3979 a43d 72d7 7dbe f1b6 0fbe
00000160: 7344 8d3e f08d 0a3e d74f 82bd 9d17 833e
00000170: bc4f 2a3d 1500 6a3e ec24 f1bc b55c ddbd
00000180: 895d a6be 40e9 193e 4e62 a73d a072 033e
00000190: 582a e23d 332e 013e ba70 32bd 782f c5bc
000001a0: 0bda 8bbe 9aa1 23be 31f0 663d fed7 63be
000001b0: 5b92 13be 08b7 473d e1c0 9f3e 1f93 eb3c
000001c0: 63b8 053e 0a0e 303e c4f0 ad3e a750 82be
000001d0: e331 8a3e 1a62 e43d 910f abbd 7458 ffbd
000001e0: 6c35 643e c01a 363e 38f3 9a3d 26a3 65be
000001f0: 55bc bc3d 71e7 7c3e fe6d 2fbd fa16 49be
00000200: 77ab 563e 9606 823e 7258 d03d 5626 5d3d
00000210: b5a5 13be 71ef 69be 5401 f83c 73a9 f8bd
00000220: 2d1c 10be 28f6 0d3d 1115 40be 30c1 03be
00000230: b4c5 13be f3bb 603e ba6d 93be f710 a3bd
0.15357746 -0.3389173 -0.017491445 0.123044394 0.16266309 0.19226296 0.15238774 0.07435686
0.25491598 0.26581836 -0.19543305 -0.059393264 -0.01550526 -0.12855037 0.08628231 0.05818664
-0.07281072 0.30499837 -0.012777663 0.18799867 -0.16330376 0.030803887 -0.010115037 0.17945443
-0.20352848 0.02921151 -0.08563228 0.101409785 -0.120727316 0.08859716 0.18942943 -0.26418278
0.02250457 -0.069892384 -0.026900671 -0.23528847 -0.20910029 0.062372513 -0.25784734 -0.09455999
-0.20781231 0.03519438 0.019994799 0.31867272 0.18421325 -0.086856745 -0.22024572 0.15851226
-0.10646622 -0.13483338 0.20300238 0.0178712 0.043535784 0.17666604 0.19547302 0.15246345
0.2589855 0.16927175 0.28354913 -0.07029216 0.33324835 0.20800737 0.00012957999 -0.1864786
0.2439497 -0.07054484 -0.010126548 -0.18058251 0.28676552 0.12334982 -0.22788335 -0.33153912
-0.32982042 -0.1852961 -0.12725508 -0.16477165 -0.0053626434 -0.009813281 -0.093721226 0.32695588
0.028656883 0.13075177 -0.23246303 0.21414007 -0.24053165 0.08030934 -0.24789217 -0.1403463
0.27591285 0.13530707 -0.063628845 0.25603953 0.041579947 0.22851594 -0.029436551 -0.10808698
-0.32493237 0.15030384 0.08173047 0.12836695 0.11043233 0.1261528 -0.043564536 -0.024070486
-0.2731479 -0.15979615 0.056381408 -0.22250363 -0.14411299 0.048758537 0.31201842 0.028756676
0.13058619 0.17192855 0.33972752 -0.25452158 0.26991186 0.11151524 -0.083525784 -0.12468043
0.22286004 0.17783642 0.075659215 -0.22425517 0.09215609 0.24697663 -0.042829506 -0.19637671
0.20963846 0.2539565 0.101731196 0.053991638 -0.14418681 -0.22845246 0.03027407 -0.12141695
-0.14073248 0.03465858 -0.18758036 -0.12866664 -0.14430887 0.21946697 -0.28794652 -0.0796222

bias f4 [12]
00000000: d87e 30be f894 003d 5ca9 31bd bc6b 843c
00000010: 6c3b 163e ef9b bdbd f83f 9fbe a5a4 afbe
00000020: eba6 743d b498 293e 096e 083e 1959 5abd
-0.17235887 0.031392068 -0.043374404 0.016164653 0.14671105 -0.092582576 -0.31103492 -0.343053
0.059729498 0.16562158 0.13323225 -0.053307626

weight f4 [12, 48]
00000000: c8c1 f1bd e341 603d c929 813c 1171 773b
00000010: 3384 e43d d7d3 b0bd 19c7 e7bd 0cac f9bd
00000020: b7c8 11be b77a e1bd 5543 bebd 56b1 e83d
00000030: b94d f23d cc89 e13d 56bc e4bd 03e2 f23c
00000040: 70d0 9abd 1677 a3bd 6e0e 5e3d 8af3 9abd
00000050: f149 683d 1dcc be3c 406e 52bd 97c0 963b
00000060: 05b8 eebd 855e 9dbd 537d 9abd 0aba dc3d
00000070: ca38 b8bd 9762 123e 23a0 0d3e 97fd c73d
00000080: 9846 753d deac 0bbe 1f67 07be 60ba 00be
00000090: a79f f1bd f138 173e a90a 16bd 5c9a 6f3d
000000a0: 4f3c 923c 950c df3d f0f2 3bbd 21c7 d4bd
000000b0: 72de 7bbd 2762 b83d 4f09 a1bd 5ec0 02be
000000c0: 6560 e73d 97de 6f3d 7ac9 5fbd ed27 d1bd
000000d0: ba84 053e a2ad 4dbd 254e 433d 98a4 f8bd
000000e0: 5e0b 353d e407 babd ddb2 273d ac0a 203c
000000f0: a947 c33d 0f0e 0dbe 3f7d b83a e17e 9a3a
00000100: 4fab e53d ac75 45bd 02f8 ccbd 05b5 7d3d
00000110: 53b1 11be adb0 12be 50c1 02be 4573 42be
00000120: dc15 f6bc 8f25 64bd d718 1cbe f95f 40be
00000130: c1a4 f23d 7ba7 21be d0fd 30bd 4492 293d
00000140: c765 19be 2604 85bd 534e 03be 4083 09be
00000150: 47a2 f3bd 722e 13be 0aa8 c9bd 4403 14be
00000160: d063 c23d 0132 1e36 c421 623c e4fe 883d
00000170: 937b 53bd e46c 02be c670 053e 5a73 0bbe
00000180: 5290 b53d 2be3 e93d ad62 a6bd 7526 62bd
00000190: 7092 843c 3f16 d8bd 46c7 303d 2abe 483c
000001a0: 48cf 13be 0807 f13d d5c4 313d 76ed c23d
000001b0: 6da4 353c 5f49 21bd 4267 2ebd 7c73 e73c
000001c0: 890b e43d 164e 50bd 65f8 cabb 0f80 ddbd
000001d0: da3a 99bb cf94 b1bd 1803 9f3d 69fc c3bc
000001e0: a380 a33d 5761 1abe 61e0 e1bd 3d6f 34be
000001f0: b49e 9d3c 3ce6 98bd 24d0 03be 6c1e 92bd
00000200: 0d67 2a3d 8c74 a23d 2d83 a03d 0805 de3d
00000210: f9f2 cabd 00c0 ccbd b99d 92bd 8817 743d
00000220: 6375 31bd b4a2 56bd 0ba8 db3d aec7 6dbc
00000230: fb2b 163e cba4 093e c448 593d 9d9c f83c
00000240: f8ab 0abd 321e 8c3d 21da 4a3d bb47 b6bd
00000250: 1913 f1bc 12a5 b63c d831 f1bd 7bd2 11be
00000260: ce92 f93d 1030 2ebd e3c1 bbbd cbe8 773d
00000270: c936 22bd f265 a2bc ddc1 c83d 96a6 4bbd
00000280: bad7 aabb a44b 6dba 8c41 7fbd 2c05 003e
00000290: 1efc c23d b35c b03d 6ebb 233d 6d69 883d
000002a0: b6ac c33c 9c8f cd3d 1289 b83d 5b75 d8bd
000002b0: d7b5 59bd 5a23 6cbd c50e b5bd ec54 923d
000002c0: 8b04 0e3e ece9 cf3b 18fb cc3d 4ff0 b53d
000002d0: 07f1 cf3d 47ea eebd 33a9 fe3c 510a edbd
000002e0: d193 d43d ac50 ac3d 0681 e8bd 63a0 73bd
000002f0: 21e4 81bd da1b e73d f4ee 09be a501 c1bd
00000300: c085 e13d 1d5e 0ebc a4b2 3b3c 386b 043e
00000310: 8a0b c6bd ab73 c8bd 254d 94bd 66f1 b33c
00000320: 9b9f c23d 29bb 203e adcf 943c db7b 393e
00000330: 68f8 bfbd ca99 fbbd 76fd 06bd 0605 68bd
00000340: cd2b b8bd fb78 0bbd b5e2 15bd 502f 45bd
00000350: 9477 4fbd 726b d03c 7177 33be 9fc5 14bd
00000360: 599e 983d 25f1 c73d ecf6 d5bd 9c76 2c3d
00000370: 820c 043e 76bd bebd aedb 09bd 2f41 e8bd
00000380: 814d 033e 2fd3 5bbc 1df0 eebd 4beb cabd
00000390: 4d04 25be 7652 e13d 7c27 1dbd 2ca1 333c
000003a0: 5b5b ce3d 5d09 84bd 3082 033c 53a1 e1bc
000003b0: 283b 613d bd7a 0e3e d698 1c3e 9305 c83d
000003c0: 2ed9 53bc 249f 973d e869 b13c 9d5a e03d
000003d0: e981 bbbd b18b 25bd 7266 b5bc 8b6f edbc
000003e0: 8b7a 65bb efec 69bc e34a 90bd ebbb 8dbd
000003f0: 2de9 16bc 9a69 c93c 8df2 a53d a135 113e
-0.11804539 0.054750334 0.015766995 0.0037756602 0.111580275 -0.08634155 -0.11317272 -0.121910185
-0.14236723 -0.11009734 -0.09290186 0.11361949 0.11831231 0.11012611 -0.11168735 0.029648786
-0.075592875 -0.07981698 0.05421298 -0.07565983 0.05671114 0.023290688 -0.051374674 0.004600595
-0.11656193 -0.07684044 -0.07543435 0.10777672 -0.08995207 0.14295422 0.13830619 0.09765165
0.059881777 -0.13640162 -0.13222931 -0.12571096 -0.117980294 0.14767815 -0.03663126 0.058496818
0.017851023 0.10891072 -0.04588598 -0.10389543 -0.061491437 0.09003096 -0.078631036 -0.12768695
0.11297683 0.058561888 -0.054635502 -0.10212693 0.13038912 -0.050214417 0.047681946 -0.12140769
0.044200294 -0.09083536 0.04094206 0.009768169 0.095351525 -0.13774894 0.0014075412 0.001178708
0.11214315 -0.048207924 -0.10008241 0.06194021 -0.142278 -0.14325209 -0.12769055 -0.18989284
-0.03003972 -0.05569988 -0.1524385 -0.1878661 0.118478306 -0.15786545 -0.043210804 0.041399255
-0.14980231 -0.06494932 -0.12822847 -0.13428974 -0.11896186 -0.14373186 -0.09846504 -0.1445437
0.09491694 2.357294e-06 0.013801996 0.066892415 -0.05163152 -0.12736851 0.13031301 -0.13618222
0.088654175 0.11420282 -0.0812429 -0.055212457 0.016183108 -0.10551118 0.043158792 0.01225237
-0.1443454 0.11768919 0.043400604 0.09517948 0.011086565 -0.039376613 -0.042578943 0.02825331
0.11135013 -0.05085572 -0.0061941617 -0.10815441 -0.004676205 -0.08670961 0.07764262 -0.02392407
0.0798352 -0.15076195 -0.11029125 -0.17620559 0.019240715 -0.07465789 -0.12872368 -0.07134709
0.041602183 0.07932386 0.0783752 0.108408034 -0.099096246 -0.099975586 -0.071589895 0.059592754
-0.04332484 -0.05240126 0.10725411 -0.014512939 0.14665215 0.1344177 0.05304791 0.030348117
-0.03385541 0.06841697 0.04952443 -0.089004 -0.029428052 0.022295509 -0.11777085 -0.14240448
0.12186204 -0.042526305 -0.0916784 0.060524743 -0.03960303 -0.019824002 0.098026015 -0.049719416
-0.005213705 -0.0009052104 -0.06231837 0.12501973 0.09520744 0.08611431 0.03997367 0.06660733
0.023886066 0.10037157 0.09010519 -0.10569259 -0.05315193 -0.0576509 -0.08840708 0.07145104
0.1386892 0.0063450243 0.1000883 0.08883726 0.10153394 -0.116657786 0.03108654 -0.11574233
0.10379756 0.084138244 -0.11352734 -0.05947913 -0.0634234 0.11284609 -0.1347006 -0.09424142
0.11011839 -0.008689431 0.011456165 0.12931526 -0.0967017 -0.09787687 -0.07241277 0.021965694
0.095030986 0.15696396 0.018165434 0.18113653 -0.093735516 -0.12285192 -0.032956563 -0.056645416
-0.08992729 -0.034050923 -0.036593158 -0.048140824 -0.050651148 0.025441859 -0.17526032 -0.03632128
0.074520774 0.097627915 -0.10447487 0.042105302 0.12895396 -0.093134806 -0.03365677 -0.11340558
0.12822534 -0.013417049 -0.11666892 -0.0990816 -0.16114922 0.11002056 -0.038367733 0.010963719
0.100760184 -0.064470984 0.008026645 -0.027542746 0.054988056 0.13914008 0.15292677 0.09766688
-0.012930198 0.074034005 0.021656945 0.10954783 -0.09155638 -0.040416423 -0.022143576 -0.028983852
-0.0035015668 -0.014277681 -0.070455335 -0.06920608 -0.009210867 0.024586488 0.081029035 0.14180614

bias f4 [12]
00000000: fee9 ea3d ee06 6f3b 6021 82bd 2146 e0bd
00000010: 26b9 cb3d 9686 8c3d ac52 64bd edd9 bcb9
00000020: 4091 90bd 4895 3cbc 167f 71bc 299b a9bc
0.11470412 0.0036472636 -0.06354022 -0.10950876 0.09947424 0.06861608 -0.055742905 -0.00036020522
-0.07058954 -0.011510201 -0.014739772 -0.020703869

weight f4 [12, 12]
00000000: b2d7 263d 3ea2 013e bff4 b0bd 5fbf 133a
00000010: bf6a fd3d 2a8c 73be 8e94 58be a266 0b3d
00000020: c03f c5bd d811 4cbe 3802 93be 681e a4be
00000030: b340 0a3e 893c 6dbd f3c5 1c3e 0ddd 1f3e
00000040: 7b97 723e eeb7 873d f419 a8bd e8eb 033e
00000050: 99d4 3abe 78dd 263e 38ba 85bc 60d6 78bd
00000060: 1d8e fbbd 1e69 65be 1ebf 80be 84ae 3fbd
00000070: 60e7 81be 9c90 5abe bb77 833e 986d d139
00000080: 1c6e 543e e4d3 54be 8e7f 6bbe bfeb b2bd
00000090: be5e 26be 2545 163c f263 863e ddad d4bc
000000a0: 4d4f 3abd 6f7c 6bbe ad4e 803e b814 243d
000000b0: ad07 fbbd 1bba 383e 0e85 e3bc 2e2f ff3c
000000c0: 17cf ea3d d0b4 173d f79a 023e d51d 3abe
000000d0: ea74 98be 6e08 78be 1343 4d3d 44ca fe3d
000000e0: 2c9f 813e a695 59be b977 18be ef47 d2bd
000000f0: 4302 6c3d 7add 823d 26b2 c7bd 1319 423d
00000100: d092 e73d bb1c 70be 8853 0b3c 36eb 453e
00000110: da30 423c 429b de3d 2b3e 79be 0fda a93e
00000120: c243 693e 4e86 813e 806c 1dbe f5f1 01be
00000130: acfe 6c3e c4d4 8abe 8660 8cbe c161 923e
00000140: 09a7 6cbb cb94 993e b8bf e33d 422c 28be
00000150: 83fa 7a3e 05dc 36be 0c4c dcbd 4b3f 703e
00000160: 4e90 cebd 1ffc e13d fe1b e43d 8b25 ad3d
00000170: 15d8 903d 7c42 babb e056 d13d 8257 b5bd
00000180: 78ac 1b3d facf a8bb e0cb 333c fae4 89be
00000190: b257 4abe 0786 713c afea 2abe e6b3 4bbe
000001a0: 9bec 933d cf83 bd3d c7b8 973d c0eb 3b3c
000001b0: 6005 ebbd 39a4 42bd dbed a23d 0e85 c33d
000001c0: cb04 dcbd 2831 be3d 1cfe 84be 5342 563e
000001d0: 6401 a0be fa2f dcbd d983 7ebe e48e 61be
000001e0: b93e 273e 947d 8bbd 8092 67bb 15fe 8f3c
000001f0: eaa8 273e 0595 8b3d 6e56 483e ab26 1f3e
00000200: 548b bbbb b3f3 39be 3ba3 18be ce54 023c
00000210: 6609 eabd 7373 78be dec5 163d aee2 6dbe
00000220: 6aea 96be c383 573e 43ae 2ebe 7db5 3ebe
00000230: 3558 21be 2d69 4f3e 45cb 0ebe bb4f 87be
0.040733047 0.12659547 -0.086404316 0.00056361215 0.12373876 -0.23783937 -0.21150419 0.034033425
-0.096313 -0.19928682 -0.2871263 -0.32054448 0.13501243 -0.05791906 0.15309887 0.15611668
0.23690598 0.06626879 -0.08208075 0.1288296 -0.18245162 0.16295421 -0.016324148 -0.06075132
-0.12282965 -0.2240338 -0.2514581 -0.04679729 -0.25371838 -0.21344227 0.25677285 0.0003994524
0.20745128 -0.20783955 -0.22997877 -0.08736371 -0.16247079 0.009171759 0.26248127 -0.02596181
-0.045485783 -0.22996686 0.25060025 0.04005882 -0.122573234 0.18039744 -0.027773406 0.031150427
0.114652805 0.03703767 0.12754427 -0.18175443 -0.29776698 -0.24221966 0.050112795 0.12440923
0.2531675 -0.21248493 -0.1488942 -0.102676265 0.057619344 0.063898996 -0.09750776 0.047387194
0.11307299 -0.2344846 0.008503802 0.19328007 0.011852467 0.10869457 -0.24340121 0.33174178
0.22779754 0.2529778 -0.1537342 -0.12689956 0.23144025 -0.27115452 -0.27417392 0.28590205
-0.0036110303 0.29996333 0.11120552 -0.16423133 0.24509625 -0.17857368 -0.10756692 0.23461644
-0.10086118 0.110344164 0.111381516 0.084544264 0.070724644 -0.005684195 0.10221648 -0.088545814
0.038006276 -0.005151746 0.010973901 -0.26932508 -0.19760016 0.014741427 -0.16691087 -0.19892845
0.07222863 0.09253656 0.0740829 0.011469781 -0.114756346 -0.047519896 0.079555236 0.095468625
-0.10743102 0.092867196 -0.2597512 0.20923738 -0.3125106 -0.10751338 -0.24854983 -0.22027165
0.1633252 -0.068110615 -0.0035335124 0.01757721 0.1637303 0.068155326 0.1956422 0.15542094
-0.0057233963 -0.1815937 -0.14906017 0.007954789 -0.11427574 -0.2426279 0.036809795 -0.23231003
-0.2947572 0.21046357 -0.17058663 -0.1862392 -0.15756305 0.20254965 -0.13944729 -0.26428017

bias f4 [12]
00000000: 5ea8 663e d7a5 91be bc20 e9bc fe32 103d
00000010: 7f0e 113d 01a2 2bbe e0f7 50bd f44b 07be
00000020: d4b1 9dbc e3e5 4ebe 3cab 98bd 99ed 0dbe
0.22525164 -0.28446838 -0.028457992 0.03520488 0.035414215 -0.16761018 -0.051017642 -0.13212568
-0.019249834 -0.20204882 -0.07454535 -0.13860168
