MQCNN-4qubits-6class-CIFAR/Models_V1/model_49.pt (torch, 115048 bytes, 23 tensors)

weights f4 [7]
00000000: 1688 8640 a7cf 2f40 a007 b140 a8a1 263e
00000010: 1c33 3e40 7d87 4c40 de1e 8c40
4.204112 2.747049 5.532181 0.16272604 2.9718695 3.1957695 4.378768

weights f4 [7]
00000000: 2e31 e93f 321b 013f 2b98 3740 2690 923f
00000010: 32f4 a23e 221d aa40 d816 c040
1.8218133 0.5043212 2.8686626 1.1450241 0.3182693 5.3160563 6.0027885

weights f4 [7]
00000000: 0ca4 3240 1326 9040 94f4 8f40 4863 be40
00000010: 500f c240 a3b6 5d40 9d5e a040
2.7912626 4.5046477 4.4986057 5.9496193 6.064369 3.4642723 5.0115495

weights f4 [7]
00000000: 68d1 5b40 637a 583f e43b a040 b247 b840
00000010: 94c2 5f40 437e c440 b583 b140
3.4346561 0.8456175 5.007311 5.758752 3.496251 6.140413 5.5473275

weights f4 [7]
00000000: c107 dc3f a7b5 0540 c9b1 c040 2f16 7a40
00000010: 05b5 e63f 65d9 f63e 6434 f33f
1.7189866 2.0892122 6.0217023 3.907604 1.8023993 0.48212734 1.9000363

weights f4 [7]
00000000: 34de a440 c07e a740 ac58 b740 b4f3 8d40
00000010: 058a b53f 9d4a 6140 24e4 8f40
5.1521244 5.2342224 5.729574 4.435999 1.4182745 3.520179 4.496599

weights f4 [8]
00000000: b6ba 3f40 66f8 bd3f a6eb 2d40 bcc0 fd3f
00000010: 690d 7940 c507 7340 3325 0f3e c452 2f40
2.995771 1.484143 2.7175078 1.9824443 3.8914435 3.7973492 0.13979034 2.7394266

weights f4 [8]
00000000: 62f2 6940 59ff 0540 d577 b140 3911 b440
00000010: b47f 6c40 64af 473f 100e ae3f a801 ae40
3.6554189 2.0937102 5.545878 5.6271024 3.6952944 0.78002 1.3598042 5.437702

weights f4 [8]
00000000: 2f66 2c3f ec17 4a3f a6e3 b540 a9ee 6440
00000010: 6249 0b3f edba c53f e6a8 d83e f059 4a40
0.6734342 0.7894275 5.684039 3.5770667 0.5440885 1.544767 0.4231636 3.1617393

weights f4 [16]
00000000: 28ce 9840 0c49 4340 0557 9a40 9c36 923f
00000010: aa65 0a3f e1c0 8440 e71c 1940 d783 993f
00000020: b725 1a3e d55a be40 d0cc 3440 542e 4c3f
00000030: c731 cd3f 0395 b43f a561 be40 9401 1a40
4.7751656 3.0513334 4.8231225 1.1422915 0.5406138 4.148545 2.392389 1.1993359
0.1505345 5.948588 2.8250008 0.7975819 1.6030816 1.4107975 5.9494195 2.4063463

weights f4 [16]
00000000: 47d7 9640 8f48 bd40 8d10 bb3e 1436 b33f
00000010: d91a 0d40 86d0 7440 854f c040 cabe 8840
00000020: 0b5f 743f c484 c03f 3bf6 5240 375c 923f
00000030: 95c2 f13e 0e69 2a40 5ba3 3e40 5f82 db3d
4.713779 5.9151073 0.36536065 1.4000878 2.2047637 3.8252273 6.009707 4.2732897
0.95457524 1.5040517 3.2962787 1.1434392 0.47218767 2.662662 2.9787204 0.10718226

weights f4 [16]
00000000: 1e37 1f40 8826 aa40 e3d2 b83f 2197 a040
00000010: ee81 8840 e93e 6640 6b4c 8840 f531 6140
00000020: 2fbd 0640 8fa8 5240 2f0b a73e fe4d 8140
00000030: 1cf7 be40 91fb 0940 3aaf a140 ba0d 5140
2.487739 5.3172035 1.4439358 5.0184484 4.2658606 3.5975897 4.2593284 3.5186741
2.1052969 3.291538 0.3262572 4.0407705 5.9676647 2.1559794 5.05264 3.2664628

weights f4 [12]
00000000: 3253 c13f 637f 163f 1342 8e40 e72f 9140
00000010: 88d6 7540 598d 0540 5992 4f40 1792 9c40
00000020: 6da3 7140 44b5 8f40 6da5 9b40 6f9a 9e40
1.5103514 0.58788127 4.4455657 4.5370975 3.841219 2.0867522 3.2433074 4.892833
3.7755997 4.490877 4.8639436 4.9563518

weights f4 [12]
00000000: 722b 273e 5d84 b43f 3726 2840 07cf c33f
00000010: 66e4 3240 5bea a440 cf52 2e3f 009d ce3f
00000020: e16c 4d40 2ccc 8f40 0278 5940 e2d6 d33f
0.16325167 1.4102894 2.6273324 1.5297555 2.7951903 5.153608 0.68095106 1.6141663
3.2097704 4.4936733 3.3979497 1.6549952

weights f4 [12]
00000000: 5931 2f3f fffa 3140 7691 b940 fb4a 553f
00000010: 44ef 7740 4cea 4d40 4bcb 323e 131b 4d3f
00000020: f142 7640 aff9 2840 65ca 6740 1297 ab3f
0.68434674 2.7809446 5.7990065 0.83317536 3.8739786 3.2174253 0.17460363 0.80119437
3.8478358 2.6402395 3.6217282 1.3405478

weight f4 [5]
00000000: 9a45 cb3f 5ba8 ca3f b41d cb3f f17a c83f
00000010: f933 cb3f
1.5880616 1.5832628 1.586844 1.5662519 1.5875236

bias f4 [5]
00000000: 716f d13d eeef cebd da84 193e f898 82be
00000010: 2bbf d43d
0.10226334 -0.10104357 0.14992085 -0.2550733 0.10388025

running_mean f4 [5]
00000000: 5e85 433f eb5b ea3e 91c3 8a3d ed1c 4cbf
00000010: 9bf8 903d
0.7637538 0.45773253 0.067755826 -0.7973164 0.07078668

running_var f4 [5]
00000000: 11b1 003e 3588 b33d 1515 103e 4b3d a43d
00000010: 5bb4 383d
0.12567545 0.08766214 0.14070542 0.08019503 0.045093875

weight f4 [32, 80]
00000000: 8b87 bcbd 7056 64bd c750 103d c9e8 b13c
00000010: 2055 f13d 6a28 cb3d aee5 513d 87dd b3bc
00000020: e83d 033e dc50 a53d f13b fb3d caa2 163e
00000030: 6231 0e3d 67e6 29be 206c f23d 0b4e 7dbd
00000040: 73f5 183e b84a 2cbd 4283 4e3c d77d 0bbe
00000050: dabb 6e3e df89 4d3e 2f04 033e 77ac 073e
00000060: 26fd abbd c132 583c 9f85 04be ae52 2c3e
00000070: bf93 a3bd dc96 5a3e 6ee6 3f3e 17a8 353e
00000080: 2680 afbd 0c6e 2cbd 015c bbbd c4b1 33be
00000090: 3532 3b3e f061 0ebd 081b 0abc a94c 0b3c
000000a0: 44f5 c13d 13ad 81bc 7f24 573d 120b 7d3d
000000b0: f84d 0ebe 626c b2bd e573 4f3c aba8 983d
000000c0: 5d72 0a3e bd35 cc3d c7ad 893e e209 993e
000000d0: a53c ff3d c34d 2d3e a205 e83d 8052 653e
000000e0: 86f1 543e ff50 fb3d 35b5 b23d e36c 653d
000000f0: 0cad f9bd fcc1 8d3c fe4e cb3d 537d 84bb
00000100: 1a74 46be d9da 83bd f52a 0b3e c5b5 0fbd
00000110: 3d6a 483d 8717 0b3c b8b2 2f3d 04d6 46bb
00000120: 9290 ecbd 5dec 123d 19eb c63e 488f 3d3e
00000130: b6ac 38bc 6432 c3bd e088 413d 9670 df3d
00000140: d31d e93c fb20 063e 61a5 8c3d 9321 ebbd
00000150: 9510 9dbd 379c 04bd 60c7 a2bd c846 87bd
00000160: 2b81 5fbe e428 08be 32e8 34bd dd6a cebc
00000170: 7f78 22be aae0 72bc 4daf 18ba 1f80 023e
00000180: 56c0 40be 6e06 9fbd c363 18be d1e6 803d
00000190: 0b9b d3bd a624 553d b6c1 2d3e b50a 50bc
000001a0: 9a53 c53d 0c62 0cbe 5a43 75bd caa2 463e
000001b0: 7151 643e d997 32bd e45a 223e a2c3 7cbb
000001c0: 2d3d dd3a cdb2 833d 8295 23bc 438b c03d
000001d0: 91af 2abd 0602 d83c 3436 8dbd 4a99 e73d
000001e0: 8212 3bbe d515 a5bd 552d 5d3d bfdb 333e
000001f0: 2e9c 7bbd 88d9 80bd 1df0 003d 3d75 923e
00000200: 9fbc 2cbc 3f7e 8cbc 8168 7e3d 95aa 303e
00000210: 50a0 c33d f993 04bd 46c5 b2be 92d7 913d
00000220: 2530 e73b 07dc 5dbe 87b4 46be 0011 60be
00000230: 9b78 8a3e ca93 b6bd be69 63be aa6e c03c
00000240: ecf2 c83b 66a5 8ebd e7f6 113e dbfc 96bd
00000250: d47f 3e3b 4f27 3abd 27bd 1cbd e184 5e3d
00000260: b2f4 d7bd 6a35 33be d526 8dbd 02af c8bd
00000270: 0c4e 38be b09c 38bc 02f9 d53d 4f7e 2a3e
00000280: 3849 1fbe 14c1 16be 171d 2abe efd4 ae3b
00000290: 3cd5 d4bc 348d 22be e0ec e5bd 6fb4 16be
000002a0: 4cc8 2f3b bd3b bdbd 05f6 953c 0746 eaba
000002b0: b90c 6bbd b50e b73d 0fd1 863d bc42 9e3d
000002c0: 040e 11be 7909 19be d8b3 8ebe 9774 01be
000002d0: 04c5 18be 0eb5 8dbd 29d0 a6bd d15a 88bd
000002e0: cd19 21be ebac 6a3d fe0f 1fbe e1a4 abbd
000002f0: 36ef e6bc 2370 e93d f394 8a3d 05d4 693e
00000300: 5b58 04be e9ee e5bd cd0d 95bd 6421 b13d
00000310: d400 8dbd 9711 09bd c2ee 053e 6aa4 983d
00000320: 2b6d 0d3d 96dd 5c3d 97de cb3d 837e 113e
00000330: ce01 6d3e d383 543d 5058 333e d284 be3e
00000340: 0630 603c a500 e93d 06d5 a13c b1e2 0a3e
00000350: b0e0 db3d eafe 643c cbc6 4b3d 1e42 1c3e
00000360: 25c6 473d b4b7 22be db59 44be 0ab7 43be
00000370: c830 fe3c e4c1 393d fda7 bbbc 5d81 8d3e
00000380: 4067 f7bc 3a42 31bd 9347 23be b4ff 3dbe
00000390: 0aeb 86bd 7fb2 ad3d 1dc6 9cbd b19c 7ebc
000003a0: e59b 81bc 0721 cb3b 4fe2 e4bd 6989 ff3d
000003b0: 94f1 29bd 894b 33bd 41a9 d0bc 3407 d03d
000003c0: b5cf 113d 87da 51bd 7b3a 0ebc abdb ac3c
000003d0: 6d9f 0a3e f77c d5bd 174f d7bd ec94 a1bd
000003e0: ca69 b9bd ec61 2fbe 811b 65bd c594 51bc
000003f0: cb33 ccbd 0aaf 85bd d06d dabd 3909 8fbe
-0.0920554 -0.055746496 0.035233285 0.021717446 0.117838144 0.09919818 0.05124443 -0.021956218
0.12816584 0.08072063 0.12267292 0.14710537 0.034715064 -0.16591798 0.118370295 -0.061842006
0.14937381 -0.042063445 0.0126045365 -0.13622223 0.23313847 0.20072125 0.12794565 0.13249384
-0.083978936 0.013195694 -0.12941597 0.16828415 -0.07987165 0.21346611 0.18740246 0.17739902
-0.08569364 -0.042097136 -0.09148408 -0.17548281 0.18280871 -0.03476137 -0.008429296 0.008502164
0.09470609 -0.015829599 0.05252504 0.061778136 -0.1389693 -0.08712079 0.012661909 0.07454046
0.13520189 0.09971187 0.26890394 0.29890352 0.12462739 0.16924195 0.113291994 0.22394753
0.20795259 0.12271308 0.08725969 0.056012046 -0.12191209 0.017304413 0.09927176 -0.00404326
-0.19380227 -0.06438226 0.13590606 -0.03508546 0.04892944 0.008489496 0.04289505 -0.0030339966
-0.11551012 0.035869945 0.3885124 0.18511689 -0.011271646 -0.095310956 0.047249675 0.10910146
0.028456604 0.13098519 0.06867481 -0.11481013 -0.076691784 -0.03237554 -0.07948184 -0.06605297
-0.21826617 -0.13296849 -0.04416675 -0.02519744 -0.15866278 -0.014824072 -0.00058244617 0.12744187
-0.1882337 -0.07764898 -0.14881806 0.06294025 -0.103323065 0.052036904 0.16968426 -0.012697865
0.09635086 -0.13709277 -0.059878685 0.19398037 0.22296692 -0.043601844 0.15854985 -0.0038568755
0.0016879194 0.06430588 -0.009984376 0.09401562 -0.04167134 0.026368152 -0.06895104 0.113085344
-0.18268779 -0.08060805 0.05399831 0.17564295 -0.06142824 -0.06291491 0.03147899 0.2860507
-0.010543018 -0.017150043 0.06211138 0.17252572 0.095520616 -0.03236768 -0.34916133 0.07121195
0.0070553 -0.21665965 -0.19404803 -0.21881485 0.2704514 -0.08914907 -0.22208306 0.023490269
0.006132474 -0.06965141 0.14254342 -0.07372447 0.002906789 -0.045447644 -0.038266327 0.054325942
-0.10544719 -0.17500845 -0.06892172 -0.09799005 -0.17998523 -0.011267826 0.10447885 0.16649745
-0.15555274 -0.14722091 -0.1661266 0.0053354423 -0.025980584 -0.15874177 -0.11226821 -0.14717267
0.0026822267 -0.0923991 0.018305788 -0.0017873653 -0.05738518 0.08938352 0.065828435 0.07727572
-0.14165503 -0.1494502 -0.27871585 -0.12642132 -0.14918905 -0.06919299 -0.08145172 -0.06657947
-0.15732498 0.057293814 -0.15533444 -0.083810575 -0.028190237 0.113983415 0.06766691 0.22834785
-0.1292433 -0.11227209 -0.07278023 0.08648947 -0.068849236 -0.03346404 0.1307936 0.074532345
0.03452794 0.05392226 0.09954565 0.14208417 0.2314522 0.05188353 0.17514157 0.3721071
0.013683325 0.11377076 0.019754898 0.13563038 0.10736215 0.013976792 0.04975013 0.15259597
0.04877295 -0.1589039 -0.19174902 -0.19112793 0.03102912 0.045350924 -0.022907251 0.2763776
-0.0302006 -0.04327605 -0.15945272 -0.18554574 -0.06587799 0.08481311 -0.076549746 -0.015540288
-0.015821407 0.0061990055 -0.111759774 0.12477381 -0.041490152 -0.043773208 -0.025471332 0.10157624
0.035598475 -0.051233795 -0.008680935 0.02110084 0.13537379 -0.10424226 -0.10513132 -0.07889733
-0.09053381 -0.17127198 -0.055934433 -0.012791817 -0.09970816 -0.06527527 -0.10665476 -0.27936724

bias f4 [32]
00000000: 1724 bd3d 748c 9c3d e50a 113e 2095 733e
00000010: a3fd e53d dbdd a03e 1a59 2d3e 77a6 af3d
00000020: 43f1 863e d4cd c63d fda9 213d 47bb 63bd
00000030: 073d de3c 051b 963d 1780 6b3d 4576 313e
00000040: 7195 df3d f0b5 703d 015f 723d f50f 443e
00000050: 58bb a93d 8588 3f3e 58ef 7c3e 8d8a e13d
00000060: 1b0d 533d 567b c73b 6ece a33c 0f0e f93c
00000070: 5500 953e b641 7f3e 9610 be3d 2869 dbb9
0.09235399 0.07643977 0.14164312 0.23787355 0.11230018 0.31419262 0.16928521 0.085766725
0.26355943 0.09707227 0.039468754 -0.055598523 0.02712871 0.07329372 0.057495203 0.17330272
0.109171756 0.05876726 0.059172634 0.19146712 0.08287686 0.18704422 0.24700677 0.110127546
0.05152617 0.006087701 0.019995894 0.030402211 0.29101816 0.2492741 0.09280507 -0.00041849283

weight f4 [10, 32]
00000000: 1070 743e 3583 9dbe 90cf 3c3e cdf3 003e
00000010: 0eb4 b5be 95ca b33e 176c 413e 4d89 b73e
00000020: 1f71 7d3e 55e1 4e3e a67c eebe c474 923e
00000030: 941b 7b3e 59a1 59be a5a0 8e3e c95a 953e
00000040: 776c 003e c290 893d 6f5b 1c3e 0fd6 26be
00000050: 5b31 a6be 0406 aebd 5b5f a63d 8f3c 8f3c
00000060: a513 f9bd d8bd 86bd 151a 6a3b 9dbf 86be
00000070: 7046 dabe daac debd ff12 6f3e c2c5 25bd
00000080: 6359 9cbd 7c4c 8c3e abdc 7e3e 5f81 1dbf
00000090: 6018 0a3d 9e16 a03e c135 9cbd f201 ddbe
000000a0: b70e 81be cc95 a03e 42d2 97bd 0315 953d
000000b0: 9280 09bd c7fa 5e3e a36d 583e ad6d 85be
000000c0: c744 5c3b e766 8bbe d279 afbd 2fee 08bf
000000d0: 1367 873e 616f e23e 65e0 233e 6185 1f3e
000000e0: ae75 1abf fed7 eb3e 5f2c 9b3c 345e ebbe
000000f0: 2f99 ac3e 4eff ad3e 9fc2 243e 21f0 abbe
00000100: feeb 153e 0f64 ebbd b524 54be bc6d 523e
00000110: ac35 8abd 7975 183e 2555 2c3e bfa3 c23c
00000120: 6ed0 733e 7d9a ecbe 7d9c 02be b9a8 1abe
00000130: 5ae4 373e c438 203e cbb1 bf3d e0a1 c3be
00000140: 4328 ea3c a07c 9e3e 6e5a c33e a91c ad3e
00000150: 79ac 53be a633 093e 9e07 89bd 1ef1 8abd
00000160: 4969 753e 8a50 57be 9c57 adbd bc3c 943e
00000170: 81bd 2f3e 9894 523e df8e 1abe 57af 4f3e
00000180: d5b4 f7bd b58c cc3e 0dc2 643e b35d f33d
00000190: 951e 823e 7a57 eb3d ee53 9dbd e572 86be
000001a0: 5fdd efbc 2b82 1cbd aee1 663d beaf c0be
000001b0: 5856 82bd 0c46 673e 5068 ad3c 1f37 343e
000001c0: 0f4b 4f3e fc88 5e3e 477f 32be ae68 8b3d
000001d0: 029d 983e 7707 86bd be5f f0bd 7e2a 8e3e
000001e0: 5427 053e 2011 bcbe 4abc 0c3e 22f1 ae3e
000001f0: 9aeb 1abe 589c 17bd 034e ff3c 2cc7 9e3e
00000200: efd2 463e 2d26 b4be 770c 283e 7222 c33e
00000210: 110d 083e 63c6 8cbd de78 b2bd a67f 333e
00000220: c834 183e b942 6c3e fe68 c93d d2f1 403e
00000230: 552e ebbe 70a0 babd d47c f23d 4fbb dc3c
00000240: 7811 973e e263 c13d 5b8d 863e 22e2 643e
00000250: 56f0 87be b9c5 0abe 2f99 c5be bc35 893e
00000260: dde2 45be 9cf5 363e 4625 e5be d0b1 e53c
00000270: dc6a ea3d bdd3 8a3e 1326 c3bd 87e8 4abe
00000280: e0b8 6ebe 80b4 cf3d 8870 d63c c202 abbd
00000290: c624 843e 7ab5 bb3c 607c 8c3e c866 933c
000002a0: ffe7 893e c1e2 82bd b045 b73e c807 adbc
000002b0: 52a1 233e c3e0 00be a283 edbd dab2 c93d
000002c0: 1312 703d e8a8 cd3c 7ab2 2abe 124c dc3c
000002d0: 55ec 653e 0e57 85be 351b 8f3e 1516 083e
000002e0: 445f ac3e 2533 be3c 3bbd 993e 53ac d03d
000002f0: 0e49 a93e d19d 143e ce4b cbbe 2d21 213e
00000300: bc6a 9fbe 33dd d1bd 2931 81bd ad97 4fbe
00000310: 5135 82be a68d 8abe a517 60be 35ae bb3b
00000320: 6773 8c3c 22ca 8bbe b3f5 8cbe 8920 79be
00000330: 8759 2ebe 8896 b53c fbbe a8bd 46aa b73c
00000340: 758c 36be 2685 babe 8394 60bd f98c 0bbe
00000350: 79a5 c1be f06e 40be 7551 8bbd 0288 5cbe
00000360: e6a4 12bd 4116 0dbe 95c7 4fbe 8431 5fbe
00000370: eef0 8fbd f14d 42be 63a1 70be f810 d1bd
00000380: 31a5 eebc 70c3 acbe 2f33 0cbe 6ab3 11be
00000390: 4b79 25be d3f9 dabc 6234 4fbe 407b 9dbe
000003a0: 64d9 b7bc 9c7a abbd 71a7 debd dfa7 c33c
000003b0: 92ae a0bd 7e6b 90be 41b7 72be 636b 72be
000003c0: fe28 aebe 3837 5fbe 59e1 7bbe 860b e7bd
000003d0: d351 07be 4f04 86be 9569 95be 0f78 a4be
000003e0: 9a9c 4cbe 3858 a7be 5e7f 83be 7eb3 c9bd
000003f0: b012 f5bd 5c25 debd 4a2e f5bd 4a2d f9bd
0.23870873 -0.30764166 0.18438554 0.12593003 -0.35488933 0.35115495 0.18888889 0.3584694
0.24750184 0.20203145 -0.46579474 0.2860471 0.24522239 -0.21252955 0.27856937 0.29170826
0.12541376 0.067170635 0.15269254 -0.16292594 -0.3245953 -0.08497241 0.08123656 0.017484931
-0.1216195 -0.065791786 0.0035721113 -0.26318064 -0.42631865 -0.108728126 0.2334709 -0.0404718
-0.07634237 0.27402103 0.24888866 -0.6152553 0.033714652 0.31267256 -0.0762744 -0.43165547
-0.2520654 0.31364286 -0.0741315 0.07279398 -0.03356988 0.21775351 0.21135573 -0.26060238
0.003361033 -0.27226946 -0.08568157 -0.5348844 0.26445827 0.442256 0.16003568 0.15578224
-0.60335815 0.46063226 0.018942056 -0.4597031 0.3371062 0.33983845 0.16089867 -0.3358164
0.14640805 -0.11493694 -0.20717128 0.20549673 -0.06748518 0.14888562 0.16829355 0.02375972
0.23809978 -0.46211615 -0.12755008 -0.15103425 0.17958203 0.15646654 0.09360083 -0.38209438
0.028583651 0.30954456 0.3815493 0.33810928 -0.20671262 0.13398609 -0.06690906 -0.06784271
0.23965944 -0.21026817 -0.08463976 0.28952587 0.17162134 0.20564497 -0.15093563 0.2028173
-0.12095038 0.399511 0.2233965 0.11883106 0.25413957 0.11491294 -0.07682024 -0.26259533
-0.029280363 -0.038210075 0.05636757 -0.3763408 -0.06364125 0.22585315 0.021167904 0.17599152
0.20243476 0.21731943 -0.17431365 0.068070754 0.29807287 -0.065443926 -0.117370114 0.27766794
0.13003284 -0.36731815 0.13743702 0.34168345 -0.15128937 -0.037014335 0.031165129 0.3101133
0.19416402 -0.35185376 0.16411005 0.38112217 0.13286234 -0.06873777 -0.0871446 0.17529163
0.14863884 0.23072328 0.09834479 0.18842247 -0.45933786 -0.09112632 0.11840215 0.026944784
0.29505515 0.09442879 0.2627972 0.22351888 -0.2655055 -0.13551988 -0.38593432 0.2679881
-0.19324823 0.1786713 -0.44755 0.02803889 0.11446163 0.27114668 -0.095287465 -0.19815265
-0.23312712 0.101418495 0.026176706 -0.083501354 0.25809306 0.022913683 0.2743864 0.017993346
0.2693481 -0.06390906 0.35795355 -0.021121874 0.15979508 -0.1258574 -0.115973726 0.09848566
0.058610987 0.025104955 -0.16669646 0.026891742 0.22453435 -0.2604298 0.27950445 0.13289674
0.33666432 0.023217747 0.30027184 0.10189118 0.3306355 0.14513327 -0.39706272 0.15735312
-0.3113612 -0.102472685 -0.06308205 -0.20272703 -0.25431302 -0.27061194 -0.2188402 0.005727554
0.017144872 -0.27302653 -0.27531204 -0.24328817 -0.1702634 0.022166505 -0.08239552 0.02242006
-0.17827018 -0.3642971 -0.05482913 -0.13627996 -0.37821558 -0.1879232 -0.06802646 -0.21536258
-0.03580179 -0.1377802 -0.20290978 -0.21796232 -0.070283756 -0.18975045 -0.23499064 -0.10208315
-0.029131504 -0.33742857 -0.136914 -0.14228597 -0.16159551 -0.026730454 -0.20234826 -0.30758095
-0.022442527 -0.08372995 -0.10871781 0.023883758 -0.07845797 -0.2820701 -0.23702718 -0.23673777
-0.3401565 -0.21798408 -0.24597682 -0.11281495 -0.13214807 -0.26175162 -0.29182115 -0.32122847
-0.19981614 -0.32684493 -0.2568311 -0.098486885 -0.11966455 -0.108469695 -0.119717196 -0.12166841

bias f4 [10]
00000000: dd34 13be 9182 033e 41c5 243d 6d2b ae3d
00000010: c4b8 b43d ff37 6f3c 410f 3ebe 2e74 35be
00000020: 22f0 22bc 35fa 823c
-0.14375634 0.12842776 0.04022718 0.085043766 0.08824304 0.014600753 -0.18560506 -0.177201
-0.009944947 0.015988449
