MQCNN-4qubits-6class-CIFAR/Models_V1/model_30.pt (torch, 115048 bytes, 23 tensors)

weights f4 [7]
00000000: 4355 8640 5845 3140 9bb3 b040 2fec 193e
00000010: fde1 3d40 b485 4e40 5c2f 8c40
4.197908 2.7698574 5.5219245 0.15031503 2.9669182 3.2269106 4.380781

weights f4 [7]
00000000: d809 e73f 2109 093f 7e65 3a40 02c6 943f
00000010: 1002 b63e fc02 ab40 b840 c040
1.8049879 0.53529555 2.9124446 1.1622927 0.3554845 5.3441143 6.0079

weights f4 [7]
00000000: 9eca 3140 cabc 8f40 138e 8f40 eb39 be40
00000010: b6a0 c140 e17d 5c40 697a a040
2.7779918 4.4917955 4.486093 5.94457 6.050868 3.445183 5.0149426

weights f4 [7]
00000000: 84a3 5c40 7a32 483f 3617 a140 e2bb b740
00000010: 993a 5740 6f10 c440 6925 b240
3.4474802 0.7820202 5.0340834 5.741685 3.3629515 6.127006 5.5670667

weights f4 [7]
00000000: 6ddb dc3f f340 0040 0ad6 c040 66a2 7840
00000010: fec1 ec3f 7524 f63e 00ff e43f
1.7254463 2.0039642 6.026128 3.884912 1.8496702 0.4807469 1.789032

weights f4 [7]
00000000: 3de1 a440 5f52 a640 3f8a b640 37f6 8d40
00000010: 3a1e b73f 246d 6140 0978 8d40
5.152495 5.197555 5.7043757 4.4363055 1.43061 3.5222864 4.4209027

weights f4 [8]
00000000: a13a 3f40 e2ce b33f a30f 2a40 a3c2 fb3f
00000010: 4232 7d40 0e25 7940 387f 0e3e 431f 2f40
2.9879534 1.4047511 2.6572044 1.9668773 3.9561925 3.8928866 0.13915718 2.736283

weights f4 [8]
00000000: 9aee 6940 1142 0440 72f6 af40 216c b440
00000010: 5422 6f40 e04b 5b3f 02de ad3f 3e31 ae40
3.655188 2.0665324 5.4988337 5.6381993 3.7364702 0.8566265 1.3583376 5.443511

weights f4 [8]
00000000: 8d65 273f 348d 463f bbf4 b840 86e4 6540
00000010: de0c 243f 1c18 c53f aac9 e63e 116e 4a40
0.6538933 0.7755921 5.7798743 3.592073 0.64082134 1.5397983 0.45075732 3.162968

weights f4 [16]
00000000: a65d 9840 dccc 4040 c4c5 9a40 6c3b 8f3f
00000010: 10af f63e 861b 8540 9453 1540 d294 953f
00000020: 5db5 3e3e c8d7 ba40 4594 3340 b911 4b3f
00000030: 055b cd3f 3d4f b53f 8e73 bd40 f536 1b40
4.7614317 3.0125036 4.8366413 1.1190009 0.48180437 4.15961 2.3332262 1.1686041
0.18623872 5.8388405 2.8059247 0.7932392 1.6043402 1.4164807 5.920356 2.4252293

weights f4 [16]
00000000: 976c 9840 df63 be40 d7a1 a53e c63d b63f
00000010: 37d4 0b40 387a 7840 cc9a c040 3a04 8a40
00000020: c382 763f a470 bc3f 267e 5340 d233 9f3f
00000030: c895 c03e 1e69 2a40 f6c9 3b40 a76b c03d
4.7632556 5.9496913 0.32350037 1.4237602 2.1848276 3.8824596 6.018896 4.313016
0.96293277 1.4721875 3.3045745 1.2437689 0.37614274 2.6626658 2.9342017 0.09395533

weights f4 [16]
00000000: 2d12 1e40 bdae a940 3f7e b83f e199 a140
00000010: 0116 8840 4b73 6540 45e1 8740 a814 6240
00000020: cd38 0640 a3aa 5240 74a2 a23e d071 8040
00000030: 85d0 bc40 cb23 0a40 5c1b a240 b021 5140
2.4698594 5.3025804 1.4413527 5.050034 4.252686 3.585162 4.2462487 3.5325108
2.0972168 3.2916648 0.31764567 4.013893 5.900454 2.1584346 5.06584 3.2676811

weights f4 [12]
00000000: 235d c83f 4932 063f d094 8f40 1c95 9340
00000010: 78cf 7740 96ca 0740 57b5 5140 a203 9c40
00000020: bf1e 7040 f212 9040 96d0 9b40 164c 9e40
1.5653423 0.5242048 4.4869156 4.611952 3.872038 2.1217399 3.276693 4.8754435
3.7518766 4.5023127 4.869212 4.946788

weights f4 [12]
00000000: b391 283e c34a b63f 6d27 2840 d9ba c13f
00000010: 3fb9 3140 1eaa a540 bf3e 273f c44b d23f
00000020: 3289 4e40 efb9 8f40 7623 5a40 1559 d43f
0.1646183 1.4241565 2.6274064 1.5135146 2.7769315 5.1770163 0.6533012 1.6429372
3.2271237 4.491447 3.4084144 1.6589686

weights f4 [12]
00000000: 94d5 353f 2a7d 3640 4327 b940 df9c 523f
00000010: 1996 7840 ca21 4a40 7870 6e3e 40ef 563f
00000020: 56fe 7540 1e2c 2940 7344 6740 93b5 ac3f
0.7102902 2.8513894 5.7860427 0.82270616 3.8841612 3.1583123 0.23285091 0.83958817
3.8436484 2.6433177 3.6135528 1.3492912

weight f4 [5]
00000000: 8dad b73f 2c32 b53f 8ba2 b63f fc75 b13f
00000010: b940 b53f
1.4349838 1.4155936 1.4268354 1.3864131 1.4160377

bias f4 [5]
00000000: c254 ba3d 708c f3bd deb5 183e c9ed 81be
00000010: e768 d03d
0.090981975 -0.11892021 0.14913127 -0.25376728 0.101762585

running_mean f4 [5]
00000000: 73e7 473f 9fc6 0b3f 634e b33d 956f 52bf
00000010: 1e1c c93d
0.7808754 0.54599947 0.087551855 -0.8220151 0.09819816

running_var f4 [5]
00000000: 0a46 0a3e 006b b23d 32e8 383e c8a0 983d
00000010: 7085 4c3d
0.1350328 0.08711815 0.18057325 0.074525416 0.049931943

weight f4 [32, 80]
00000000: 8162 8fbd f432 88bd 734d be3a ac9e 8cbd
00000010: 57f8 873d 9f02 933d 180d 5f3c 916f 80bd
00000020: c501 b53d cd6d 6d3d a85c 003e c35a fc3d
00000030: 7e88 3b3d 5daa 0bbe 1c3b bd3d a906 a6bd
00000040: c366 393e b65b 87bc 943b 123d 34b9 aebd
00000050: 2d95 633e 5032 1d3e 9bfb 103e 2d98 c03d
00000060: 772b d2bc ca38 a63c 407e 96bd 4120 043e
00000070: d730 9ebd 89ae 563e 5dc1 543e e705 fa3d
00000080: 6968 a1bd 3e9a 88bd 7211 d0bd 2359 01be
00000090: c51f 923d 418f a0bd 9f02 60bd 2336 5ebd
000000a0: 194b b73d 5894 3ebd e47b 2a3d 0f4f 173d
000000b0: ee9b 0abe 844f 71bd 469b 013c a9a3 3f3c
000000c0: 3cf0 953d 001d 883d ec43 533e d835 663e
000000d0: 3b76 9a3d 9276 113e 9846 e73d f218 253e
000000e0: ac26 013e 1406 823d 3bf2 923d 4d74 8c3d
000000f0: 025d 24be 8929 aeba 84eb 023e 5209 4fbd
00000100: 6e3a 47be 9624 dfbd 7d05 8f3d a981 9ebd
00000110: 0d00 0a3d 51b9 3ebd da83 ecbc 7fdc 1abd
00000120: 2e16 7bbd 2a24 ca3d cee4 913e e316 473e
00000130: 5fad a4bd b4f5 7bbd eddd 9b3a a373 8e3d
00000140: e4c5 15bd 9ae6 023e b667 df3c d1cd d2bd
00000150: 5ce4 b6bd f193 0bbc 2fa8 8ebd 5cee 77bd
00000160: 6b86 4abe aa26 01be ad84 8dbd 2662 b4bc
00000170: 4469 26be 47f9 19bd fdbf b33b 3398 a03d
00000180: 7e1e 35be 11e0 ddbd e2a4 08be 3ffc 1a3c
00000190: 8000 52bd 244c 393d d92e 0f3e 8934 44bd
000001a0: ea1c d83d f86b c3bd 876c 92bc bdfc 0d3e
000001b0: 560e 853e 374b 3cbd 44ff b93d afdb 3c3d
000001c0: a1b3 d4bc def8 ad3d 72cc 373c cc5f 2d3d
000001d0: 3983 e23c 938b a03d e2a7 0cbc 3ce7 f93d
000001e0: 340d 0cbe 0541 2dbd 0a29 6e3d 74ed 223e
000001f0: 7a10 30bc 6833 71bd 8b06 0c3d 4ce4 8d3e
00000200: f7cd 6e3d eb79 45bd 1c6d 233d 7bf9 fa3d
00000210: 6488 d43d 4f31 dfbc 47a3 9cbe 4434 493d
00000220: 543d 0dbd a8c3 54be b9ea 14be 44b1 47be
00000230: 0114 8a3e 2b68 98bd 8130 2fbe 10b2 543d
00000240: e574 483c ad3e fdbc d2c2 ea3d 495e babc
00000250: 4993 38bd 226f 24bc a958 433b a5a6 b53d
00000260: ad6f b4bd f6eb 27be 86e8 ffbc eb8d 45bd
00000270: 647b 07be e0b7 953c 34e2 593d eded 203e
00000280: db84 2dbe 56db cdbd 3029 12be 03a3 993c
00000290: 79b6 c7bc d5ad 21be e42a 0abe 4679 03be
000002a0: 3d10 c73b 15d6 5abd 5d8a 57bd af1f 103b
000002b0: f9fb 48bd 5af9 d03d d283 443d 1d7e 443d
000002c0: 5343 19be a67e 16be 2e9a 80be f74c 10be
000002d0: 1606 c5bd 1e31 d4bd 6684 adbc d2f9 00bd
000002e0: 728c d9bd 9a6e 4fbb dd2c 0dbe cf1b 95bd
000002f0: 31fb 413c 70e8 c73d 6135 2f3d 2179 6c3e
00000300: 7365 08be 60dc eebd f8e8 84bd c78b a33d
00000310: 9cf9 f4bc 1cb8 80bd 0c4d 8a3d e37c 523d
00000320: 38bf 6e3c beb2 2e3d 29b5 713d f360 483e
00000330: 675b 5b3e adbb 943d ed8d f83d 00a7 b13e
00000340: b8f6 9e3c 8f34 db3d ee1a eebb 3cc6 e43d
00000350: ea87 643d 0766 d33c 0730 56bb 825e b83d
00000360: 6bca b93b 78e9 1cbe 516c 19be 7997 2fbe
00000370: 2dae 313d ae4d e93c aed4 4fbc 829c 753e
00000380: d478 26bd cc31 cdbd e18b 49be dbcf 42be
00000390: b85d 71bd fa10 3e3c 0da4 b8bd 5528 26bc
000003a0: c121 1a3c 9c6c 9aba 2993 bfbd 1781 8b3d
000003b0: f125 9cbb f796 2abc 1919 bcbc 240c 103e
000003c0: 4301 3c3d 63aa bfbc 2dee 98bc 1d5f 833d
000003d0: 397b a63d 7ffa b1bd 138f c5bd c8ca a2bc
000003e0: 45c0 03be e0ee fabd fc26 f93c 8758 5b3d
000003f0: 1aa7 07be e339 37bd 8d5c aebd 7486 42be
-0.0700121 -0.066503435 0.0014518931 -0.06866202 0.06639164 0.07178234 0.013613962 -0.062712796
0.08838228 0.057966042 0.12535346 0.12321999 0.045784466 -0.13639207 0.0923979 -0.08106739
0.18105607 -0.016523223 0.03570135 -0.085314184 0.22224875 0.15351224 0.1415848 0.09404025
-0.025655491 0.020290751 -0.07348299 0.12902929 -0.07724159 0.20965017 0.20776887 0.12208157
-0.07881243 -0.06670044 -0.101595774 -0.12631659 0.07134966 -0.078398235 -0.05469 -0.054250848
0.089498706 -0.04652819 0.041622058 0.03694063 -0.13536045 -0.058913723 0.007910555 0.011696734
0.07321212 0.06646156 0.20631379 0.22481477 0.07542082 0.14205387 0.112927616 0.16122797
0.12612408 0.063488156 0.07175108 0.0685812 -0.16051105 -0.0013287525 0.12785155 -0.050545998
-0.19455883 -0.1089565 0.06983469 -0.077395745 0.033691455 -0.04656345 -0.028871465 -0.037807938
-0.06130045 0.09870179 0.28494877 0.19442324 -0.080408804 -0.061513618 0.00118917 0.0695565
-0.036565676 0.1278328 0.027271133 -0.102931626 -0.08930275 -0.008519159 -0.06965672 -0.06053005
-0.19777839 -0.12612405 -0.069100715 -0.022019457 -0.16251093 -0.037591245 0.0054855333 0.0784153
-0.17687413 -0.10833753 -0.13344148 0.009459554 -0.051270008 0.04523863 0.13982715 -0.047901664
0.1055239 -0.09542078 -0.017874015 0.13865943 0.259875 -0.045970168 0.09081891 0.046107944
-0.02596456 0.08494733 0.011218177 0.042327687 0.027650462 0.07839122 -0.008584948 0.122023076
-0.13676912 -0.042298336 0.058144607 0.15910894 -0.010746116 -0.058886915 0.034185927 0.2771324
0.058301892 -0.048211973 0.039898977 0.12254616 0.10377577 -0.027245192 -0.3059332 0.04912211
-0.034482315 -0.20777762 -0.14542665 -0.19501215 0.26968387 -0.074417435 -0.17108347 0.051927626
0.012234901 -0.030913675 0.1146294 -0.022750037 -0.045062337 -0.010036262 0.0029807484 0.088696755
-0.08810363 -0.16398606 -0.031238806 -0.048231047 -0.13230664 0.018276155 0.05319424 0.15715761
-0.16945212 -0.10051601 -0.14273524 0.018754488 -0.024379002 -0.15788968 -0.13492924 -0.12839231
0.006074934 -0.05342682 -0.052622188 0.002199154 -0.049068425 0.1020381 0.047977276 0.047971833
-0.14967088 -0.1469675 -0.2511763 -0.1409186 -0.096203014 -0.10360931 -0.021181297 -0.031488247
-0.10622491 -0.0031651617 -0.13786645 -0.07280695 0.011839674 0.09761131 0.042775515 0.23093082
-0.1331995 -0.11663127 -0.06489748 0.07985645 -0.02990418 -0.06285116 0.06752977 0.051388633
0.014571957 0.04265093 0.05901066 0.19568233 0.21421586 0.07262359 0.12136445 0.34697723
0.019404754 0.10703384 -0.007266394 0.11170623 0.05579368 0.025805486 -0.0032682435 0.09002401
0.005669882 -0.15323436 -0.14982726 -0.17147626 0.043378998 0.028479423 -0.012684984 0.23985484
-0.040642574 -0.100192636 -0.19682266 -0.19024603 -0.058927268 0.011600727 -0.09015665 -0.010141452
0.009407462 -0.0011781636 -0.093542404 0.06811731 -0.004765265 -0.010411969 -0.022961186 0.14067131
0.04589964 -0.023396676 -0.018668259 0.06414626 0.081289716 -0.086903565 -0.0964643 -0.019872084
-0.12866314 -0.12252593 0.030414097 0.053551223 -0.13247338 -0.04473294 -0.085137464 -0.18996602

bias f4 [32]
00000000: d337 193e 90cd 503d c917 023e d091 5d3e
00000010: 85fd f83d 81a1 973e 8ccc 5a3e 68e9 b83d
00000020: e0db 913e 0f2b bb3d fd8f 813d 8f91 c6bc
00000030: 81cf 473d d5ef 3d3d e0f5 533d e731 293e
00000040: 6891 cc3d c524 cc3d 2384 b53d c4c4 4c3e
00000050: f68d 253d 2b14 173e cfb4 853e 7708 f53d
00000060: 5b62 a43d 7a41 67bb 6420 823d a148 ef3d
00000070: 1feb 8d3e 539f 4c3e 0fa6 683d 77fa 833d
0.14962701 0.05097729 0.12704386 0.21637654 0.1215773 0.29615405 0.21367091 0.09028894
0.28488064 0.09139072 0.06326292 -0.02423933 0.048781876 0.0463713 0.051748157 0.16522942
0.099886715 0.09967951 0.08863094 0.19996935 0.040418588 0.14753787 0.26114509 0.11964505
0.08026572 -0.003528683 0.06353834 0.11683775 0.27718446 0.19982652 0.05679899 0.06444257

weight f4 [10, 32]
00000000: 6e54 5e3e 7d83 81be bf77 213e 6505 c73d
00000010: 82bf 77be a847 983e 899c 383e 7e0c 9f3e
00000020: e202 5c3e 3da1 523e c9cb a5be 3ad1 873e
00000030: df1e 493e 1501 05be e01d 823e 60a0 5c3e
00000040: 3880 fe3d 3bdf a43d f837 203e 0662 bdbd
00000050: 05cd 98be 0cb3 97bd 3939 513d 84c4 f33b
00000060: 0868 f7bd 33b1 69bd 92fa c0bc 0a87 46be
00000070: 73e1 b2be 2d66 cdbc 06fd 633e 9d68 b03c
00000080: d7b7 84bd 7742 893e 90b8 723e 6989 f8be
00000090: abaf 1f3d cc23 993e bd2b 79bd dced b4be
000000a0: ef60 5fbe 29f5 823e 09b6 d5bd 8183 7c3d
000000b0: 3032 33bd 47ef 3c3e 72e1 313e afce 71be
000000c0: ef1c bf3c ff8e 33be 03fb 2bbd 1793 f0be
000000d0: db2a 803e 942a ca3e df45 243e f058 043e
000000e0: fde6 0cbf 9ac2 da3e b195 563d 72ca c3be
000000f0: 9dc1 993e 0e7f 8b3e 63c3 153e fd1e 6abe
00000100: 8072 f13d 79ce 00be ae03 35be 649c 463e
00000110: a586 413c cc89 313e 25eb 2f3e a4b2 ca3c
00000120: 59d6 5e3e e5a3 cabe 4174 c7bd 3f4f 0abe
00000130: 7550 143e ecc2 f23d 1ab5 af3d ea36 9ebe
00000140: 9933 cb3c 4203 8d3e 93cd ae3e 56d6 9c3e
00000150: 1641 2ebe 9ada 133e a1a4 3bbd 40ce 9bbc
00000160: 9cc4 313e 51ab 57be c09b cbbd 0d30 803e
00000170: 81d0 243e b529 5e3e 5a47 11be 4740 063e
00000180: 2312 d2bd ccc6 ad3e aff5 4f3e 1aa0 183e
00000190: a11b 503e d50e e03d e325 32bd 11e3 6dbe
000001a0: cf00 f7bc 167f 54bd 5c70 723d c605 87be
000001b0: 2aad b7bc f7c7 423e 5520 7f3d a7de 383e
000001c0: ef38 4b3e db5e 213e 5aa9 32be cce2 503d
000001d0: 30dc 933e 7860 11bd 0d65 b4bd 0e31 8c3e
000001e0: c81a 0b3e f30e 9cbe a814 093e 2c50 933e
000001f0: 08de 0abe 72ab 37bc 98e1 813b 371b 833e
00000200: ad0c 2d3e aee4 99be 52a2 3b3e ce3f ae3e
00000210: c09c 023e c399 46bd b7fd 88bd 636c 1a3e
00000220: 5f2c 263e c64f 513e cbd8 ce3d af3c f83d
00000230: 07c2 aabe 3972 71bd 1c5b c23d 76be ae3c
00000240: 24d0 873e e48c ca3d f29f 773e cce7 523e
00000250: 75a3 82be 87c4 0cbe 9bd7 c2be b872 763e
00000260: 3cc7 31be 63fb 1b3e efdb babe acfe 493d
00000270: 7c84 0b3e 6dce 823e 8918 d3bd 7688 06be
00000280: c23c 02be be7a c13d 97b3 343d 05f0 90bd
00000290: f567 5b3e 3a23 d93c f3dc 503e a65d 193d
000002a0: 728b 8b3e 5859 11bd 4719 953e e49c 23bd
000002b0: 6dba 003e b345 d4bd 4f93 48bd 8ce9 cd3d
000002c0: 1cde a23d 2320 d73c 6634 18be 8d33 273d
000002d0: 2a28 4c3e 5188 76be dbb4 7d3e b001 103e
000002e0: 6ab8 ab3e cee8 c83c edf8 813e c7b6 e33d
000002f0: 1924 933e 6f77 023e ece2 a4be 6c21 0f3e
00000300: 9c01 9cbe b41d 9ebd 17e8 3fbd 27fc 31be
00000310: 3abc 7bbe 4cf5 84be 507b 58be ec07 e43c
00000320: 7ca7 de3c 7fe2 82be 0d95 86be 9d74 6ebe
00000330: 640a 25be c7f4 e93c b63a 8ebd 3776 053d
00000340: 5921 29be 4e9b b0be 3d53 33bd 37f0 fbbd
00000350: b5e6 b7be 8867 32be ad9c 65bd ca6d 52be
00000360: 9b1f 8abc a95b f0bd 795f 3fbe 49a2 50be
00000370: e8e8 70bd ff03 37be cfd7 68be 98e7 b7bd
00000380: ced0 a8bc a2c9 a3be f754 ffbd a63e e9bd
00000390: dd51 19be 558e 94bc cb5a 46be 0ba7 95be
000003a0: 5b6b 73bc 7d9b 67bd 6b36 c5bd e0f0 1b3d
000003b0: ed8f 86bd ca20 8ebe 9729 68be 6913 68be
000003c0: 1b81 a9be cacc 4abe 1bf8 6fbe 2058 d2bd
000003d0: 27dc d4bd bc1a 80be 162c 8fbe b526 a0be
000003e0: 04c9 3dbe 623f 9dbe de8b 75be 66a5 a2bd
000003f0: 17ba debd fdc2 cabd 57bf ddbd bb60 e2bd
0.21711895 -0.2529563 0.15768336 0.09717826 -0.24194148 0.2974217 0.18028463 0.31064218
0.21485475 0.2056932 -0.32382038 0.26526815 0.19640683 -0.12988694 0.25413418 0.21545553
0.124267995 0.0805039 0.1564635 -0.09247212 -0.29843917 -0.07407197 0.051079962 0.007439198
-0.12080389 -0.057053756 -0.023556981 -0.19387451 -0.3493763 -0.025073135 0.2226449 0.021534258
-0.06480377 0.2680852 0.23703218 -0.48542336 0.03898589 0.29910123 -0.060832728 -0.35337722
-0.21814321 0.25577667 -0.10435111 0.06164885 -0.043749034 0.18450652 0.17371157 -0.23614
0.023329226 -0.17535017 -0.04198743 -0.4698722 0.25032696 0.3948561 0.16042279 0.12924552
-0.5503996 0.42726594 0.05238885 -0.3824039 0.30030528 0.27245373 0.14625315 -0.22863384
0.11789417 -0.12578763 -0.17677185 0.19395596 0.011811887 0.17337722 0.17179544 0.024743386
0.21761455 -0.39578167 -0.097389705 -0.13506792 0.14483817 0.11853585 0.08579464 -0.3090127
0.024804877 0.27541548 0.34141216 0.30632275 -0.17017016 0.14438859 -0.0458113 -0.019019246
0.17360157 -0.21061446 -0.09941816 0.2503666 0.16095163 0.21695597 -0.14187375 0.13110457
-0.102573656 0.33940732 0.20308565 0.14904824 0.2032304 0.10940329 -0.043493163 -0.2323115
-0.030151753 -0.05187901 0.059189186 -0.26371592 -0.022421438 0.19021593 0.062286694 0.18053685
0.19845937 0.1575884 -0.17447415 0.05099754 0.28878927 -0.03549239 -0.088083364 0.27381176
0.13584435 -0.30480155 0.13386786 0.28772104 -0.1356126 -0.011210309 0.0039636604 0.256067
0.16899367 -0.3005728 0.18323639 0.34033054 0.12755108 -0.048486482 -0.06689017 0.15080409
0.16227864 0.20440587 0.10099944 0.121209495 -0.33351156 -0.05894682 0.09490034 0.021331053
0.26525986 0.09890154 0.24182108 0.20596236 -0.25515333 -0.13746844 -0.3805512 0.24067199
-0.17361158 0.15232615 -0.3649592 0.04931514 0.13624758 0.25548115 -0.10307414 -0.13137993
-0.1271849 0.09447239 0.044116583 -0.0707703 0.21426375 0.026506055 0.20396785 0.037442826
0.27254826 -0.035485595 0.29120848 -0.039944544 0.12571116 -0.103648566 -0.04896861 0.10054311
0.0795252 0.026260441 -0.14863738 0.040820647 0.19937196 -0.24075438 0.24776022 0.14063144
0.33539134 0.024525072 0.25385228 0.111188464 0.28738478 0.12740873 -0.32204378 0.13977593
-0.30469978 -0.07720509 -0.046852197 -0.17381345 -0.24583521 -0.25968397 -0.2114079 0.027835809
0.027179472 -0.25563428 -0.26285592 -0.23286672 -0.16117245 0.028559102 -0.06944792 0.03258344
-0.16516627 -0.34493488 -0.043780554 -0.12301677 -0.35918203 -0.17422307 -0.05605762 -0.20549694
-0.016860774 -0.11736233 -0.18688764 -0.20374407 -0.058815867 -0.17872618 -0.22738574 -0.0897972
-0.020607378 -0.3198977 -0.12467378 -0.11388902 -0.14972635 -0.018134275 -0.19370572 -0.29229006
-0.0148571385 -0.05654477 -0.0962952 0.038071513 -0.065704204 -0.2775939 -0.22672115 -0.22663654
-0.33106312 -0.19804683 -0.23434488 -0.10270715 -0.10393553 -0.25020397 -0.27963322 -0.3127953
-0.18533713 -0.3071242 -0.23979136 -0.079417035 -0.108753376 -0.09900472 -0.10827511 -0.11053606

bias f4 [10]
00000000: b7fd fdbd f30d c53d 8c20 783d 372c 8a3d
00000010: 48b7 b23d 180a 873c 3fcb 39be bf1c 31be
00000020: f832 babb ca86 ae3c
-0.12401908 0.09621801 0.060577914 0.067467146 0.087263644 0.016484305 -0.18143938 -0.17296122
-0.0056823455 0.021304507
