MQCNN-4qubits-9class-CIFAR/Models_V1/model_16.pt (torch, 129448 bytes, 23 tensors)

weights f4 [7]
000000 e6 bf 08 40 ce 1f 7a 40 c6 1f 54 40 d9 53 c5 40
       2.1367126 3.9081912 3.3144393 6.1664853
000010 7b 4a 1f 40 bc 31 9e 3f 4e 2a 9d 40
       2.488921 1.2358928 4.911414

weights f4 [7]
000000 3c 93 a9 40 6b a9 dc 3f 14 ad 9e 40 84 53 93 40
       5.299223 1.7239202 4.9586277 4.603945
000010 63 89 99 40 f0 b4 b5 40 fa 0c ed 3f
       4.798021 5.678337 1.8519585

weights f4 [7]
000000 16 12 a5 40 c6 62 b4 40 6b e4 a0 40 82 02 81 40
       5.1584578 5.6370573 5.027883 4.031556
000010 34 2b 2b 40 0c 54 c6 3f 7f 75 89 40
       2.674512 1.5494399 4.295593

weights f4 [7]
000000 e9 01 f9 3f 29 ce 8c 40 88 25 c8 40 a8 55 bd 40
       1.9453708 4.400166 6.2545815 5.916706
000010 31 1c eb 3f 81 be aa 40 37 3d c4 40
       1.8367978 5.335755 6.1324725

weights f4 [7]
000000 e2 12 2a 3f 78 6f 1e 40 1e ba d9 3e 10 ed 72 40
       0.6643506 2.4755535 0.4252481 3.7957191
000010 89 2c 03 40 15 ae 5e 40 36 33 93 40
       2.0495932 3.4793751 4.6000013

weights f4 [7]
000000 63 7a a1 40 cb 14 fc 3f 86 4a 5f 40 63 5b 0b 40
       5.04619 1.9693846 3.4889235 2.1774528
000010 d8 50 99 3f b7 71 b5 40 9e 8c c2 40
       1.1977797 5.670131 6.079665

weights f4 [8]
000000 44 55 b4 40 26 0c 9a 40 c1 0b b5 40 66 1d 32 40
       5.6354084 4.813983 5.657685 2.7830443
000010 4f 74 9f 3d 4b 24 9a 40 c1 45 e3 3f 19 24 df 3e
       0.07785856 4.8169303 1.7755662 0.43582228

weights f4 [8]
000000 6d df 81 40 39 f8 c4 3f 46 7f b1 40 26 b6 cc 3f
       4.0585237 1.5388252 5.5467863 1.5993087
000010 7b cc 5e 40 8a 7f 25 40 3b 82 1a 40 be e1 ad 3e
       3.4812305 2.5859094 2.4141986 0.3396129

weights f4 [8]
000000 b4 2a 7d 40 b0 0e 75 40 93 df 8d 40 0b eb 72 3e
       3.9557314 3.8290215 4.433542 0.23722474
000010 ef aa a8 40 27 f0 9c 40 44 62 c3 40 92 a7 9a 3f
       5.270866 4.9043155 6.1057453 1.2082388

weights f4 [16]
000000 31 ef 87 40 c2 94 86 40 4f 79 af 40 ab 36 a3 3e
       4.247948 4.205659 5.483558 0.31877646
000010 10 bc fa 3e c9 7e b1 40 ea 2a a5 3e 9c 18 c5 40
       0.48971605 5.5467267 0.32259303 6.159254
000020 21 27 4f 3f b7 83 a0 40 ba c7 77 3f 48 a2 b2 40
       0.8091908 5.0160785 0.96789134 5.5823097
000030 74 51 98 40 88 70 80 40 f8 ce 31 40 70 cb 53 40
       4.759943 4.0137367 2.7782574 3.3092918

weights f4 [16]
000000 92 82 6d 40 b0 e8 0b 3e 38 5f 99 40 6c 23 f9 3f
       3.7110944 0.13662982 4.7928734 1.9463935
000010 3a 52 a3 40 69 ee d2 3f 2f e0 45 40 cf e2 71 40
       5.1037874 1.6479007 3.091808 3.7794683
000020 93 63 5c 3f 44 80 c2 40 f2 24 c2 40 0e a7 4d 3e
       0.8608944 6.0781574 6.06701 0.20083258
000030 ab c6 82 3e 77 29 1b 40 08 46 df 3f 6e ba 3b 40
       0.25542197 2.4244058 1.7443247 2.9332538

weights f4 [16]
000000 9e 28 cc 3d 58 4d c3 40 2c bf b2 3f 67 f0 73 40
       0.099686846 6.1031914 1.3964591 3.811548
000010 8b f0 11 bd f2 b3 29 be af 58 9a 40 8f a9 81 40
       -0.03562979 -0.1657255 4.8233256 4.051948
000020 ad 42 1e 40 0a f4 52 3e 94 0b 51 40 3f 88 80 40
       2.4728196 0.20600906 3.2663317 4.0166316
000030 ff de 69 40 4e 58 40 3f 23 be 89 40 3a dc b0 40
       3.6542356 0.7513474 4.30446 5.526883

weights f4 [12]
000000 6e b5 8a 40 86 1f f3 3f 54 dc 25 40 24 e6 cd 3f
       4.334647 1.8993995 2.5915728 1.6085858
000010 6e c4 76 40 a1 bf ab 40 50 84 a3 3f 7c 76 a4 3f
       3.855739 5.367142 1.2774754 1.2848659
000020 c1 8e ce 3f e6 d6 4b 40 fb 4b c5 3d 00 1a b0 40
       1.6137315 3.1849914 0.09633633 5.503174

weights f4 [12]
000000 5b 7e 1b 40 4e b3 7e 3f 31 51 a6 40 8d 04 71 40
       2.4295871 0.9949235 5.197411 3.7659028
000010 3e d2 19 40 3b 6f b6 3f 01 2b 80 3f 50 0d 18 40
       2.4034572 1.4252695 1.0013124 2.3758125
000020 3c ae 8e 40 53 cb be 40 59 cf 9e 40 46 5a 98 40
       4.458769 5.96232 4.962811 4.7610197

weights f4 [12]
000000 e6 b3 81 40 c0 7d cf 3f a5 7f 1c 40 2d e7 60 3f
       4.0532103 1.6210251 2.4452908 0.87852746
000010 bc f8 f3 3e 9c 88 8a 40 5b 67 78 3e 19 f8 8a 40
       0.47650707 4.329176 0.24258177 4.3427854
000020 6a 44 c7 40 65 1d ac 40 eb 4c f6 3f c2 dc 9d 40
       6.2271013 5.378588 1.9242224 4.933198

weight f4 [5]
000000 f7 f9 a9 3f e3 77 af 3f fd ce ae 3f b9 b7 b4 3f
       1.3279408 1.3708462 1.3656918 1.4118568
000010 d3 f0 aa 3f
       1.3354744

bias f4 [5]
000000 50 c2 6c bd 35 1b 48 3d b0 f3 da 3d 3d a0 35 3d
       -0.0578025 0.04885407 0.10691011 0.04434227
000010 af 36 4f be
       -0.20235704

running_mean f4 [5]
000000 11 f6 77 3e 84 5b 66 bf 57 94 8f 3d 57 fd f7 3e
       0.2421496 -0.8998339 0.070107155 0.4843547
000010 e1 3f c4 be
       -0.38329986

running_var f4 [5]
000000 1b 1a 90 3c 9c eb 08 3e d8 8f f5 3d 7d e3 7e 3e
       0.017590573 0.13371128 0.11990327 0.24891467
000010 bb 0b 54 3d
       0.051769

weight f4 [32, 80]
000000 b6 1c e9 3d ce 53 18 3d da 5e cd bd 73 56 3b 3a
       0.11382429 0.037189297 -0.10027857 0.0007146366
000010 06 fb 19 3e d2 27 06 3d 94 fc 48 bc 0a 5d 10 3e
       0.15037164 0.03275282 -0.012267251 0.14097992
000020 0e 9c 95 bd 86 e2 27 3b 86 d3 42 bd 43 c2 65 bc
       -0.07305156 0.0025617196 -0.047565006 -0.014023366
000030 2e 34 5f be 4c c6 e1 bd 74 5f 88 bd 6e 8b 5e 3d
       -0.21797249 -0.1102415 -0.06658831 0.05433219
000040 c8 0e 84 bd f8 29 4e be ae 68 91 be 5c c3 78 be
       -0.06448132 -0.20133197 -0.28400177 -0.24293274
000050 7e 6f ad 3d 05 71 90 bd 0b 46 14 3d 6a f9 04 3e
       0.08468531 -0.07052807 0.03619961 0.12985769
000060 6d e6 de 3d d1 3f 12 3e 95 51 91 3d 1f c5 1f 3e
       0.10883794 0.14282157 0.07095639 0.1560254
000070 db f7 8d bc da d2 4f bd bd 0d 48 be ba a5 7f bd
       -0.0173301 -0.050738193 -0.1953649 -0.06241391
000080 2a a1 7b 3d c1 d1 0b bb 99 bc a6 3c 6c 9b 58 bd
       0.061432995 -0.002133474 0.020353602 -0.052882597
000090 ab 57 39 3c 09 a4 06 3d 38 e6 1c 37 1a 0b 15 bd
       0.011312406 0.03287128 9.351927e-06 -0.03638754
0000a0 b5 cf d1 3c 21 9d ca 3d 74 ca 98 bd cc 10 dd 3d
       0.025611738 0.09893251 -0.0746049 0.107942194
0000b0 2e 12 c7 3d c7 47 09 bd 6b 24 9f bd b5 44 a2 bc
       0.097202644 -0.033515718 -0.07770618 -0.019808153
0000c0 a5 c6 c5 bd 0c 03 83 3b 05 76 42 3d 85 aa e9 bd
       -0.09657029 0.003998166 0.047475833 -0.11409477
0000d0 53 5d 15 3e d8 82 23 3c 28 60 30 bd 06 c2 28 3e
       0.14586382 0.009979926 -0.04306045 0.16480264
0000e0 0f d3 12 3d b8 e9 8b 3d 80 4d 73 3e a3 94 32 3e
       0.035845812 0.06831688 0.23760033 0.17439513
0000f0 1c 9f 26 be 50 09 2a be 36 e1 81 be c4 3d 53 bd
       -0.16271633 -0.16605115 -0.25367135 -0.051572576
000100 d2 5d df 3c 35 01 03 3e a4 18 02 3e da 86 46 3d
       0.027266417 0.12793429 0.12704712 0.04846845
000110 3e 15 a0 bb c4 bc d6 3d 2c a8 69 bc d0 f0 26 3d
       -0.0048853448 0.10485223 -0.014261287 0.040757
000120 88 fa 4a 3d 4b 8e e6 bd f6 82 04 3a 57 1e ee bc
       0.04955533 -0.11257609 0.0005054915 -0.029067202
000130 eb fc a2 bd 84 0f 91 bd f5 57 fd bb 40 4a ac bd
       -0.079583965 -0.070830375 -0.0077314326 -0.084125996
000140 3a 44 e4 b9 6f 06 9a bd 52 36 0c 3e c3 3d 00 3e
       -0.00043538382 -0.07520758 0.13692597 0.1252356
000150 4b f3 8b bd 9a 3a 0d be 05 7f 58 be 9d d8 c2 bd
       -0.06833514 -0.13791886 -0.21142204 -0.09513972
000160 a4 ef 3f bc 89 cc 75 bb 84 ec f1 bd dd 93 ee bd
       -0.01171485 -0.0037505946 -0.1181269 -0.116492964
000170 64 50 0a 3e 44 9e 9a 3e 6c 23 7d 3e 08 f4 2d 3d
       0.13507229 0.30198872 0.24720544 0.042469054
000180 d8 e8 52 3e 4a e7 07 3e b6 b4 37 3e cd 75 4c 3e
       0.20596635 0.13271824 0.1794003 0.19966812
000190 06 1f 21 be 26 90 90 3d c5 f4 62 bd 29 ef ea 3b
       -0.15734491 0.07058744 -0.05540921 0.0071696234
0001a0 7d 6f 42 be 30 2e 04 bd 2d c7 b8 bd 24 da f3 3d
       -0.18987842 -0.03227061 -0.09022365 0.119068414
0001b0 11 5b 07 be 2e 6f 3c bd e6 b3 27 bd 0e 39 0c 3e
       -0.13218333 -0.046004467 -0.04094305 0.1369364
0001c0 38 3b 7e 3d 51 7d 3b 3e 68 73 9a 3d 03 3e 84 bc
       0.062068194 0.18309523 0.07541543 -0.01614285
0001d0 e7 f1 1a 3e 7b aa de 3d 0b 1a 0c bc 3d 07 01 3d
       0.15131341 0.1087236 -0.008551131 0.031501044
0001e0 71 ae db 3d 0e cd 4e 3d ac 06 54 bb 2c 22 a0 3d
       0.107266314 0.050488524 -0.003235261 0.07819018
0001f0 8f d9 57 3e 0e 0d 14 bc e1 f8 8b bd b7 83 01 be
       0.21079086 -0.009036316 -0.06834579 -0.12647901
000200 d3 09 04 be 63 ed 01 3e 19 ea e0 3d 95 08 db 3d
       -0.12894373 0.12688212 0.109821506 0.10694996
000210 9d 18 12 be cb 85 c2 3d 0b cb 2a 3e cb 28 66 bc
       -0.14267202 0.09498175 0.16679017 -0.014047812
000220 a9 5a a0 bd 75 fb 0b be 88 cc 7d bd d2 90 8e bb
       -0.07829792 -0.13670142 -0.061962634 -0.00435076
000230 36 b1 ea bd 06 d3 e5 bd b6 fc 64 3d 1e c8 0e bd
       -0.114595816 -0.1122189 0.055905066 -0.034858815
000240 b3 11 39 be e3 97 1d be 62 bb 57 be 20 c5 3f 3d
       -0.18073158 -0.15389971 -0.21067575 0.046818852
000250 57 7b 94 bd 58 4a 31 be a2 3b 33 bd 30 9b fa 3d
       -0.07250088 -0.17313516 -0.043758042 0.12236631
000260 cf eb 34 be a3 20 4e be a2 c1 1d bd a5 2d 80 3c
       -0.17668079 -0.20129637 -0.03851474 0.015646765
000270 07 64 01 be 9f a6 a8 3c 65 34 21 bd 62 76 c1 3d
       -0.12635814 0.020587264 -0.039356608 0.09446408
000280 ad 3a 2d 3e a1 3c 7f 3d 04 c2 a9 3d c2 c1 c0 3c
       0.16916914 0.06231368 0.08288959 0.02352989
000290 21 a9 36 3e 9c 2d dc 3c c8 28 0c be cc 01 6a bd
       0.17837955 0.026877217 -0.13687432 -0.05713062
0002a0 43 70 3b bd 91 2c 91 bd d0 0e dc bd d6 54 d2 3a
       -0.045761358 -0.070885785 -0.10745013 0.0016047012
0002b0 d0 65 0a 3e 29 8b 0e be 00 70 9f bc cb 77 9d 3d
       0.13515401 -0.13920273 -0.019462585 0.07688864
0002c0 9c d5 d9 3d 73 f0 2b 3d e9 e6 f8 3d 48 12 64 bc
       0.10636446 0.041977357 0.121534176 -0.013920374
0002d0 4f 42 57 bd 9f 28 58 3d f5 cc fa 3d e7 53 af 3d
       -0.05255347 0.052773114 0.12246124 0.08560925
0002e0 bc 80 3d 3d ee b5 8f be 59 af 53 3d d2 73 47 3e
       0.04626535 -0.2806849 0.051680896 0.19477776
0002f0 ed f6 87 3d 98 e2 e4 bc c5 09 cb 3c f1 5a 4c bc
       0.06638894 -0.02794008 0.024784932 -0.012472854
000300 90 ed 3a 3d 2c 20 8c bb 7c 4f b3 ba d1 f3 70 3d
       0.045636714 -0.004276296 -0.0013680304 0.05882627
000310 ab f2 24 3e ee 1a c3 bd ce 60 bc bd 17 e1 96 bc
       0.16108195 -0.09526621 -0.091981515 -0.018417878
000320 1a 5c 0e bc 2c fc e4 bd 45 7a f9 bd e4 44 57 bd
       -0.008688951 -0.111809105 -0.12181524 -0.052555934
000330 b6 47 32 bc ed 42 85 3c ee 4d 87 3c 65 80 e9 bb
       -0.010881355 0.016267264 0.016516652 -0.0071259015
000340 e0 58 c0 bd 7a 6a c6 3c 4d 60 06 3e 06 a7 74 bc
       -0.093919516 0.024220694 0.13122673 -0.0149324
000350 73 23 0d bd 7b df aa 3d e9 33 a6 bd 75 7e f6 3d
       -0.034457635 0.08343407 -0.0811537 0.120358385
000360 72 aa 67 bd 4d 0c 0b be 8f 8a 93 bd 33 e3 5d 3e
       -0.056559034 -0.13578911 -0.07204162 0.21668701
000370 45 b0 ff bc 48 c3 98 bc 05 43 9b 3d 01 09 89 3d
       -0.031211982 -0.018647805 0.07581142 0.066911705
000380 a5 63 15 3c da cd 58 bd 79 78 08 3e 4b 32 b1 3d
       0.009117995 -0.05293069 0.13327207 0.08652171
000390 1f ac 98 ba 23 9c 98 bc 14 af 1a be 00 aa f4 3d
       -0.0011647976 -0.01862914 -0.1510585 0.119464874
0003a0 4a e2 39 3d 1e 10 e1 bd 1b e9 5d be 2a f2 37 3e
       0.04538182 -0.10989402 -0.21670954 0.17963472
0003b0 10 9a 86 3d 5c 1c 6f bd 92 e1 8c bc 80 d3 a8 bd
       0.06572354 -0.058376655 -0.017197404 -0.082434654
0003c0 a4 ad 18 3c c0 be 7b 3d 45 9e 3b 3b de 20 b1 bd
       0.009318743 0.06146121 0.0028628272 -0.08648847
0003d0 b0 7a c6 bd 24 24 a6 bd ee b6 cd bd f4 55 1a be
       -0.096913695 -0.08112362 -0.10044657 -0.15071851
0003e0 d6 ee 45 3e 92 d6 01 3e 7f 47 53 3e 70 15 60 bd
       0.1932939 0.12679508 0.20632742 -0.054707944
0003f0 a8 b1 38 3b bc cb fb 3d 22 27 4c 3e 9c 4a 86 3d
       0.0028182063 0.122947186 0.19936803 0.06557199

bias f4 [32]
000000 cf b9 0b 3e 9b 57 0d 3e 7e 63 1b 3e 66 6e 32 3e
       0.13645099 0.1380295 0.15174672 0.17424926
000010 fd af 54 3e c8 86 31 3e 3e 9f c4 3d 8d bd 10 3e
       0.20770259 0.17336571 0.096006855 0.14134808
000020 65 eb 58 3e 35 7e d9 3d 8c 35 2f 3e 36 f9 25 3e
       0.21183546 0.10619775 0.1711027 0.16208348
000030 d0 f9 9d 3d 2e c3 3b 3d 46 8e a0 3e 3c 1e 6a 3e
       0.077136636 0.045840435 0.31358546 0.22863096
000040 a6 d6 7c 3e ad e1 83 3e bd 4f 86 3e b6 af 38 3e
       0.24691257 0.25758114 0.2623271 0.18035778
000050 a8 71 71 3e 4c 06 63 3d 0d f1 54 3e 95 bc d0 bd
       0.23578513 0.055425927 0.20795079 -0.10192219
000060 a0 90 ad 3d 9a b3 23 3c c8 b4 36 bd 5a ce 21 3e
       0.08474851 0.009991551 -0.044606 0.15801373
000070 51 ae 85 3d 68 9f f2 3d 40 3f 1c 3e fb 69 94 3d
       0.06527389 0.118468106 0.15258503 0.07246777

weight f4 [10, 32]
000000 8a a8 af 3e 6b 7f 58 be 1f 52 83 3d fb 16 2b be
       0.34308273 -0.21142356 0.06412148 -0.16707985
000010 83 d3 0e be dd ef 13 3d 42 60 5b bd ac ef 4e 3e
       -0.13947873 0.036117423 -0.053558595 0.20208615
000020 61 61 c7 be 08 80 c9 3c 15 1a 6d bc d0 34 07 be
       -0.38941482 0.024597183 -0.0144715505 -0.1320374
000030 65 07 45 3d 41 46 6c be d6 31 8a 3e 9b cf 05 3e
       0.048102755 -0.23073675 0.26991147 0.13067476
000040 0a 33 7c bd 2e bb 2c 3d c1 c5 bc bd d0 df 66 be
       -0.061572112 0.042170696 -0.09217406 -0.22546315
000050 9e ac d0 3d b4 17 90 bc 10 dc 4d be 04 4c 4c 3d
       0.10189174 -0.017589428 -0.20103478 0.04987718
000060 4c fb 1c be f2 9c 48 3e c8 fa 8e be b5 b4 cd 3d
       -0.15330237 0.1959112 -0.27925706 0.10044233
000070 5e 40 78 3e e9 5d 19 3e 9b e8 33 be 6a 30 40 3e
       0.24243304 0.1497723 -0.175692 0.18768468
000080 54 a9 97 bd f7 05 4a bd da 0a 2a be f9 27 2f 3e
       -0.07405344 -0.049322095 -0.16605702 0.17105092
000090 73 e1 88 3e 75 3b b9 3e 6f 75 a0 3e 74 5d 43 be
       0.26734504 0.36178175 0.31339595 -0.19078618
0000a0 35 7a 81 be 70 78 c2 be bb 49 67 3e ed b0 3c be
       -0.2528855 -0.37982512 0.2258672 -0.18426867
0000b0 e5 d1 51 3e 1e bf 8f be 48 28 b2 3d 25 56 f5 3d
       0.20490225 -0.28075498 0.08699089 0.119793214
0000c0 e5 00 a5 be 05 df 24 be 59 1f 6d be b4 63 33 3e
       -0.32227245 -0.161007 -0.2315649 0.17518502
0000d0 d8 4d 7b be e1 e5 4c 3d 3c b3 f7 bd 30 10 98 bc
       -0.24541414 0.050023917 -0.12094733 -0.018562406
0000e0 34 bc 2d bd d9 6a 43 3d f5 8b 3f be 0b dc a3 3e
       -0.042415813 0.04770932 -0.18705733 0.32003817
0000f0 ba 25 40 3e e7 0d 4d be 7f 5e 4f 3d 8e ce 72 3e
       0.18764392 -0.20024835 0.050627228 0.23711607
000100 1e b6 a4 bd 6b fb 32 3d b3 53 57 be 73 f7 04 3e
       -0.080425486 0.043696802 -0.21028022 0.1298502
000110 36 ce 48 be a4 a7 56 3e 32 ee bc be 7d 2b 1a 3e
       -0.19609913 0.20962387 -0.3690048 0.15055652
000120 d5 93 80 be c4 2c 8b 3e 86 57 4a be f7 28 e5 bc
       -0.25112787 0.2718259 -0.1975995 -0.027973635
000130 d0 fe 3a 3d 1c 4c c1 3c 2e 8e 6b bc ec 5e cc bd
       0.045653164 0.023595862 -0.01437716 -0.099790424
000140 6b 29 08 3e 53 66 21 3e 4a a3 7a 3d 98 74 c5 bd
       0.1329705 0.1576169 0.06119088 -0.09641379
000150 5c 37 61 bd 77 60 0b 3c 83 8c 17 be 11 f8 2b be
       -0.054984435 0.008506886 -0.14799695 -0.16793849
000160 0a 39 18 3c 75 86 54 3e 02 03 9f bc ca 27 9c be
       0.009290943 0.20754416 -0.019410614 -0.30499107
000170 5e 4f 01 3e 59 2d 23 3e dc 8c 68 3e 3b 5c 18 3e
       0.12627932 0.15935268 0.22709984 0.14878933
000180 b0 3d 8f bd 48 3e 7b 3e c6 9b 95 3e 2d c2 0d 3b
       -0.06994188 0.24535477 0.29220408 0.002163063
000190 ed 03 c6 3d dc fe 85 3d 66 0c 5a bd e4 ce 4c bc
       0.096687175 0.06542751 -0.05323448 -0.012500498
0001a0 ca 28 2f 3d cd 66 2c bd 80 8c a9 bd 24 e3 f3 bd
       0.04276351 -0.042090226 -0.082787514 -0.11908558
0001b0 2b 15 35 be a3 20 ad 3d e0 76 9c bd 96 50 a8 3d
       -0.17683856 0.084534906 -0.07639861 0.082184955
0001c0 07 f0 d5 bc 96 90 f3 bd cf e6 0a 3e ba 8c 65 3e
       -0.02611543 -0.11892812 0.13564609 0.22416964
0001d0 2e a9 b4 3d 07 b6 25 3e bb f0 44 bd 7f f3 0a be
       0.08821331 0.16182719 -0.04808114 -0.13569449
0001e0 48 64 f7 3c c9 9b 6f bc 77 d6 b3 3e eb c0 1e 3e
       0.030199185 -0.014624544 0.3512456 0.1550328
0001f0 8e 1e 04 be 1e 85 60 3e da 5c 28 3e 3f 12 40 be
       -0.1290228 0.2192578 0.1644167 -0.1875696
000200 bc 67 d4 bd 26 cd c0 3d b7 8a 91 be 06 4c 97 3e
       -0.10371348 0.09414129 -0.28426144 0.2955019
000210 69 ef 53 be 19 2f b1 be e6 dd 38 bd 65 0f 86 bd
       -0.20696796 -0.34606245 -0.045133494 -0.06545905
000220 4d d2 4b be bb be 88 bc 64 8c 70 3c 02 98 38 3e
       -0.19904442 -0.01669251 0.014681909 0.18026736
000230 b3 ee 72 be c3 8a 83 be 35 7c 1f 3e b3 ee 1b 3e
       -0.23723869 -0.25691804 0.15574725 0.15227775
000240 07 06 84 3e 48 f8 82 3e 2e 32 23 3d 59 5d 05 be
       0.25785848 0.2558005 0.039842777 -0.1302389
000250 cc fe ad 3d 60 66 ac 3d 53 15 e3 3c bf f3 1a be
       0.08495864 0.08417964 0.02772013 -0.15132044
000260 e4 d7 87 bd 90 38 0a be 17 a1 76 be db f7 93 3c
       -0.06632975 -0.1349814 -0.24084888 0.018062523
000270 dd 93 0f be 96 69 ae bd 5d a4 2f 3e 1c 9d 03 3e
       -0.14021249 -0.08516233 0.17152543 0.12852901
000280 6e 85 b5 be 46 17 0f 3e c1 8c ad bd f5 22 35 3d
       -0.3545336 0.13973722 -0.08474112 0.04422279
000290 6d 1f 8c 3e 9a 34 73 39 ac 69 d1 3d 0c 32 92 bd
       0.27367726 0.00023193881 0.102252334 -0.07138452
0002a0 67 2f cd 3d 3a 8e 24 3e 0c bd 13 be fc 43 4f 3e
       0.10018807 0.1606988 -0.14427584 0.20240778
0002b0 32 f6 75 be cc 1b 91 3e a2 f7 cf bd 59 87 2e be
       -0.24019697 0.2834152 -0.10154654 -0.17043819
0002c0 a6 72 bf bd f9 fa 8a bd e3 aa 9e 3d 84 a7 26 3e
       -0.09348039 -0.067861505 0.07747438 0.1627484
0002d0 99 db 5a be 87 b7 f7 bb b8 0b 55 3e b1 98 a5 3e
       -0.21372832 -0.00755972 0.20805252 0.32343057
0002e0 19 5b 04 3e d9 9b 16 3e 06 79 73 3d 2b 5b b3 bd
       0.12925376 0.14707889 0.05944159 -0.08757623
0002f0 ea f6 d3 bc ec f8 f0 3d 59 af 3a 3e 7c d7 56 be
       -0.025874574 0.11766228 0.18230952 -0.20980638
000300 10 dc 15 be 20 a4 12 3e 22 b4 8b 3e 67 d4 18 3e
       -0.14634728 0.14320421 0.27285868 0.14924775
000310 9b 22 f1 bd dd 65 b1 be fe f4 fa 3d 14 e0 08 3e
       -0.117741786 -0.34648028 0.1225376 0.13366729
000320 41 77 9e 3e 95 ef ef 3d 9f 7a 40 be 0f 4e f1 bd
       0.3095036 0.117156185 -0.18796776 -0.117824666
000330 59 42 44 be 5b 52 10 be 59 aa 86 be 0c 39 81 3e
       -0.19165935 -0.14093916 -0.2630184 0.25238836
000340 e4 22 73 be fa 5f 13 3e 4f c8 36 3e db 40 47 3d
       -0.23743778 0.14392081 0.17849849 0.048645835
000350 cf d3 39 be 69 ef 5d 3e 4b 68 b6 be b5 c4 3f 3e
       -0.18147205 0.21673359 -0.35626444 0.18727382
000360 c0 f3 c0 3e a7 b7 81 bd 58 25 b0 bd fc bb 20 be
       0.37685966 -0.06333857 -0.08600873 -0.1569671
000370 8b b9 b7 3d 1f 0b 82 be 05 ff 23 3d 85 36 07 be
       0.089709364 -0.2539911 0.040038127 -0.13204391
000380 0e 26 99 3e 16 3c 81 be 5d db 0c be 9d 34 42 3c
       0.29911846 -0.25241154 -0.13755555 0.011853364
000390 00 71 d0 bd c6 49 d9 bd 62 9f 96 be 58 da 99 be
       -0.10177803 -0.10609774 -0.29418474 -0.30049396
0003a0 81 71 48 3e 6f 89 67 be 6c 2c 18 3e 3d 24 35 3e
       0.19574548 -0.2261102 0.14860696 0.17689605
0003b0 ea 58 20 bd b0 82 5f bd 5a 5e d7 bd 04 08 a9 be
       -0.039147295 -0.054567993 -0.10516043 -0.33013928
0003c0 0f aa 87 3e b6 a8 0e 3e 6a 34 0c 3e ef d9 69 3e
       0.26496932 0.13931546 0.1369187 0.22837041
0003d0 48 a5 05 3e 39 ec 23 be 15 05 c4 3e a6 6d 9a be
       0.13051331 -0.1600808 0.38285127 -0.3016178
0003e0 b8 88 00 be d0 4e 2a 3e d5 af 0d be 55 39 8b bd
       -0.12552154 0.16631627 -0.13836606 -0.067980446
0003f0 b1 58 05 3e ca 67 0c 3c 30 7a 36 be eb e6 36 be
       0.13022114 0.008569667 -0.17820048 -0.17861526

bias f4 [10]
000000 28 0a 56 bd 4f 8f 1a 3e 7e 02 86 bd 61 d5 85 bd
       -0.05225578 0.1509373 -0.06543444 -0.065348394
000010 66 52 53 bb 71 86 b7 3d 2d 61 36 bd 8b ac ba 3d
       -0.0032245158 0.089611895 -0.044526268 0.09114941
000020 01 54 18 be 74 43 2b 3d
       -0.14875795 0.041812375
