MQCNN-QA-4qubits-10class-CIFAR-same-5filter/Models_V1/model_28.pt (torch, 172406 bytes, 47 tensors)

weights f4 [7]
5.650936 5.2932634 3.7585788 1.177762 3.5365999 1.652343 3.432573
00000000: 78d4 b440 6a62 a940 8e8c 7040 e8c0 963f
00000010: a757 6240 fa7f d33f 47af 5b40

weights f4 [7]
0.17601894 1.3227286 4.274778 1.2981633 5.6141605 0.40458053 4.2700734
00000000: 4f3e 343e 2c4f a93f fbca 8840 372a a63f
00000010: 34a7 b340 2e25 cf3e 71a4 8840

weights f4 [7]
0.58040947 2.467829 2.259613 1.5544747 4.297554 5.2575555 0.6346749
00000000: b795 143f e9f0 1d40 809d 1040 07f9 c63f
00000010: 9085 8940 e53d a840 0e7a 223f

weights f4 [7]
2.1440134 3.1353102 2.4993308 4.2260528 3.9527636 1.732754 5.3352547
00000000: 8437 0940 eca8 4840 09f5 1f40 d33b 8740
00000010: 14fa 7c40 e2ca dd3f 68ba aa40

weights f4 [7]
4.6307607 2.0943353 0.2896496 0.9318182 1.1495525 3.5769236 3.384103
00000000: 312f 9440 9709 0640 f44c 943e a38b 6e3f
00000010: 8924 933f 51ec 6440 2595 5840

weights f4 [7]
1.9728843 2.2155404 0.059193928 4.9262133 5.57744 2.5936906 4.9647937
00000000: 7987 fc3f 6acb 0d40 5575 723d 8aa3 9d40
00000010: 637a b240 07ff 2540 97df 9e40

weights f4 [8]
3.8884757 5.5525737 0.6743179 0.9313884 4.385862 2.146013 1.7840977 3.593396
00000000: c9dc 7840 afae b140 19a0 2c3f 786f 6e3f
00000010: fb58 8c40 4758 0940 505d e43f 33fa 6540

weights f4 [8]
3.8265703 5.201089 1.1839374 1.0835074 2.179719 3.1590962 0.79762197 1.3462944
00000000: 87e6 7440 526f a640 438b 973f 5fb0 8a3f
00000010: 8480 0b40 a22e 4a40 f430 4c3f 6053 ac3f

weights f4 [8]
1.8007991 4.5630393 4.9151716 6.0297427 0.531438 5.8885984 3.2258635 3.696391
00000000: 9680 e63f 6b04 9240 1649 9d40 a7f3 c040
00000010: 520c 083f 666f bc40 8c74 4e40 ac91 6c40

weights f4 [16]
3.0938623 5.0394063 0.67905176 1.6453012 4.172 1.002011 4.505179 1.4028094
3.3924031 2.257415 5.450808 1.4084044 1.3353657 2.223817 4.163656 3.7786174
00000000: d701 4640 d142 a140 56d6 2d3f 3b99 d23f
00000010: 0681 8540 e541 803f 6d2a 9040 428f b33f
00000020: 221d 5940 7d79 1040 056d ae40 9846 b43f
00000030: 43ed aa3f 0553 0e40 ac3c 8540 ded4 7140

weights f4 [16]
5.828311 1.5366073 5.845759 1.5347829 5.1724124 3.0367794 4.138531 6.0924444
0.20474541 1.2747924 5.8534527 0.10420224 3.2232234 1.6260414 3.276142 5.3335176
00000000: 8681 ba40 8caf c43f 7510 bb40 c473 c43f
00000010: 6784 a540 985a 4240 d96e 8440 4ef5 c240
00000020: c8a8 513e 662c a33f 7c4f bb40 fc67 d53d
00000030: 4b49 4e40 2022 d03f 4fac 5140 2dac aa40

weights f4 [16]
1.7708554 2.3596344 2.46049 1.0020441 4.4782286 3.6786804 0.80926883 4.199247
1.1981409 0.55110675 4.1066723 2.7038085 1.2893534 0.5563195 5.860347 5.823937
00000000: 64ab e23f 4004 1740 ab78 1d40 fb42 803f
00000010: a64d 8f40 806f 6b40 3e2c 4f3f 3b60 8640
00000020: ae5c 993f 5515 0d3f dc69 8340 330b 2d40
00000030: 8809 a53f f46a 0e3f f687 bb40 b15d ba40

weights f4 [12]
1.2674708 4.256994 1.6190882 2.0153778 0.9148872 0.16602236 2.2800362 4.051709
4.6231356 4.9668574 4.477776 4.08829
00000000: 7c3c a23f 4b39 8840 483e cf3f f3fb 0040
00000010: 0c36 6a3f c401 2a3e 1dec 1140 9aa7 8140
00000020: baf0 9340 7ff0 9e40 f149 8f40 46d3 8240

weights f4 [12]
4.660836 6.359502 4.9892817 1.2319804 5.041659 4.058182 3.616714 5.0066237
5.039614 3.472663 4.7571936 3.7829404
00000000: 9225 9540 0a81 cb40 32a8 9f40 89b1 9d3f
00000010: 4555 a140 a0dc 8140 3e78 6740 4336 a040
00000020: 8544 a140 1c40 5e40 ee3a 9840 b21b 7240

weights f4 [12]
0.12478809 5.0893116 5.525525 4.2785068 1.5700747 5.478175 2.373572 0.9527516
0.14326116 5.2487955 1.7171236 3.0667589
00000000: e690 ff3d a4db a240 1ad1 b040 87e9 8840
00000010: 35f8 c83f 364d af40 9be8 1740 87e7 733f
00000020: 0eb3 123e 22f6 a740 b5ca db3f c745 4440

weight f4 [12, 48]
0.16387136 -0.07503237 0.04540471 0.036943395 0.14614858 0.12645364 -0.0025873168 -0.02660848
0.082305536 0.09321429 0.14691879 0.066507466 -0.06116349 -0.08657883 0.110088095 0.014748226
-0.06179564 -0.0050420123 -0.12295566 0.0939838 -0.011688657 0.057562772 -0.025562195 -0.017409705
0.19247139 0.13425277 -0.014358222 -0.21103032 0.01442492 0.13459802 -0.0971477 -0.07118363
0.07930178 0.050306827 -0.10880804 0.05823678 0.038246628 0.10985245 -0.1338842 0.14965174
0.15695235 0.25096318 0.049554836 0.051014617 0.15659972 0.17722972 0.011368079 0.21824543
-0.22290884 -0.2581174 -0.054067012 -0.13902605 -0.13867825 -0.11266797 -0.21284017 -0.098801665
-0.12542507 -0.17353585 -0.11065144 -0.12830389 -0.20606066 -0.07199009 -0.17142358 -0.19521204
0.06856273 0.00931715 -0.060762838 0.046057515 0.06801385 0.0070130853 -0.03426735 -0.0026501613
0.12851922 0.12377169 0.012037976 0.11614128 -0.119543694 0.021344425 -0.09302332 -0.031289544
0.23183586 0.13432726 0.14177671 0.059381153 -0.10607422 0.05484953 0.14033592 -0.054605607
-0.14696886 -0.103464946 0.06499941 0.073160306 -0.15560168 -0.13611321 -0.03100192 -0.17956372
-0.04462968 -0.09853259 0.016867585 0.10526742 0.06574881 0.12712382 0.008110725 -0.05560694
0.020674514 -0.06821125 0.03345734 0.039257504 0.02292251 0.0016581959 -0.08363079 0.13133396
-0.015983092 0.036455084 -0.14045967 0.06133057 -0.042184036 -0.13787079 -0.13022193 -0.099634
-0.02385458 -0.008182304 -0.08536031 -0.035019025 -0.08024792 0.017186332 0.09082779 -0.06500589
-0.14111383 0.063986875 0.070755124 0.02222135 -0.08485052 -0.036291488 0.04908966 0.040013917
-0.09973266 -0.04878354 -0.08749241 0.109571695 0.10801039 -0.012148891 0.10780317 -0.100833006
0.04417275 -0.08949042 0.29636475 0.05649787 0.0019320726 -0.25307322 0.15160142 0.16482686
-0.13187674 0.008991267 -0.0150824 0.0054712677 0.10926407 0.24573421 -0.04050656 0.044769946
0.1083666 0.11287291 -0.076585695 -0.104016446 0.020420142 -0.05162985 -0.039419156 0.360581
-0.038640015 -0.007752667 -0.18639919 0.0013367296 -0.0097012445 -0.03444131 0.1824367 0.2325319
0.02731207 0.06275661 -0.1138874 0.011298364 -0.22866975 0.041239247 -0.014252534 -0.12441151
-0.15708709 0.024555702 0.1265206 -0.03574647 -0.034860164 0.0049053803 0.018159118 0.0019797138
0.07667107 0.14104499 0.030160235 0.01026875 0.12997477 -0.03455034 -0.05621472 -0.06638611
0.057119876 0.051892374 -0.12385824 -0.1102545 0.04404215 -0.0346245 0.05932102 0.045668878
-0.12258364 -0.096581034 -0.09295233 -0.08504177 -0.061937474 -0.13758813 -0.09983538 0.11627036
0.07878665 -0.067974865 0.048845503 -0.13132359 -0.1280288 0.09988698 -0.049712256 -0.05984955
-0.13346452 0.12360832 -0.0672697 -0.054535754 -0.028989013 -0.05814982 0.13773751 -0.13970934
0.07988522 -0.10875734 0.13957627 -0.09775315 -0.07403774 0.08918646 0.0026441559 0.08248645
0.06341516 0.020193439 -0.22408576 -0.15360515 -0.29088083 -0.03202072 -0.18158902 -0.04886064
-0.35334367 -0.14529318 -0.27400666 -0.1912231 0.13654637 -0.2343075 0.14251721 0.19323924
00000000: e5cd 273e 92aa 99bd 4afa 393d f551 173d
00000010: f9a7 153e 107d 013e f98f 29bb 07fa d9bc
00000020: ce8f a83d 22e7 be3d e171 163e 1135 883d
00000030: 9186 7abd 3e50 b1bd de75 e13d 8ba2 713c
00000040: 6d1d 7dbd 7737 a5bb 2dd0 fbbd 947a c03d
00000050: c881 3fbc f1c6 6b3d cf67 d1bc cc9e 8ebc
00000060: 3817 453e 8f79 093e bf3e 6bbc 5518 58be
00000070: 8056 6c3c 10d4 093e 60f5 c6bd b9c8 91bd
00000080: f968 a23d 880e 4e3d c0d6 debd b189 6e3d
00000090: 7fa8 1c3d 52fa e03d f118 09be 4e3e 193e
000000a0: 1eb8 203e 3f7e 803e 03fa 4a3d b4f4 503d
000000b0: ad5b 203e b57b 353e 2e41 3a3c bb7b 5f3e
000000c0: 3742 64be f727 84be 5f75 5dbd d85c 0ebe
000000d0: ac01 0ebe 77be e6bd c6f2 59be 8758 cabd
000000e0: 6e6f 00be 62b3 31be 399d e2bd 1862 03be
000000f0: 9101 53be 8a6f 93bd aa89 2fbe aae5 47be
00000100: 9e6a 8c3d f6a6 183c 74e2 78bd cea6 3c3d
00000110: d84a 8b3d 06ce e53b ec5b 0cbd 54ae 2dbb
00000120: 8b9a 033e 037c fd3d ee3a 453c 7bdb ed3d
00000130: 53d3 f4bd 81da ae3c 0383 bebd 7729 00bd
00000140: 6166 6d3e 168d 093e ea2d 113e a739 733d
00000150: 713d d9bd e7a9 603d 38b4 0f3e 21aa 5fbd
00000160: 017f 16be 6ee5 d3bd 691e 853d 12d5 953d
00000170: 0c56 1fbe 4361 0bbe bdf7 fdbc 8ddf 37be
00000180: 9dcd 36bd 74cb c9bd e42d 8a3c 7296 d73d
00000190: 50a7 863d bf2c 023e d9e2 043c 1ac4 63bd
000001a0: 995d a93c 57b2 8bbd 900a 093d 7acc 203d
000001b0: fdc7 bb3c d257 d93a 9f46 abbd 697c 063e
000001c0: f9ee 82bc ed51 153d a9d4 0fbe c435 7b3d
000001d0: 2bc9 2cbd 002e 0dbe e658 05be e90c ccbd
000001e0: ae6a c3bc 120f 06bc 63d1 aebd 1c70 0fbd
000001f0: 0559 a4bd 5aca 8c3c ec03 ba3d cf21 85bd
00000200: 2580 10be 8d0b 833d 10e8 903d 8c09 b63c
00000210: 1cc6 adbd 62a6 14bd 3d12 493d a2e5 233d
00000220: a340 ccbd 40d1 47bd 382f b3bd 2067 e03d
00000230: 8d34 dd3d 240c 47bc e9c7 dc3d 8981 cebd
00000240: 7cee 343d c146 b7bd 1fbd 973e 4f6a 673d
00000250: 993d fd3a d092 81be 673d 1b3e 5fc8 283e
00000260: b20a 07be 1b50 133c 2c1c 77bc 5248 b33b
00000270: d7c5 df3d c0a1 7b3e 35ea 25bd b160 373d
00000280: 4fef dd3d ea29 e73d f6d8 9cbd 9306 d5bd
00000290: 2448 a73c d279 53bd fb75 21bd 139e b83e
000002a0: fe44 1ebd 160a febb 6edf 3ebe 3435 af3a
000002b0: f8f1 1ebc 5512 0dbd b0d0 3a3e d81c 6e3e
000002c0: 90bd df3c 8a86 803d cc3d e9bd c61c 393c
000002d0: 6728 6abe 7cea 283d 7683 69bc 76cb febd
000002e0: 70db 20be 0a29 c93c 9e8e 013e e46a 12bd
000002f0: 88c9 0ebd 50bd a03b 6ec2 943c 16be 013b
00000300: b905 9d3d 196e 103e 9912 f73c 423e 283c
00000310: 1b18 053e a884 0dbd 6841 66bd 71f5 87bd
00000320: 88f6 693d 198d 543d 64a9 fdbd 1ccd e1bd
00000330: 8b65 343d 6bd2 0dbd 99fa 723d 4a0f 3b3d
00000340: 220d fbbd 47cc c5bd cb5d bebd 612a aebd
00000350: 26b2 7dbd e7e3 0cbe 7e76 ccbd 281f ee3d
00000360: e55a a13d 6836 8bbd 3912 483d b179 06be
00000370: fb19 03be 8c91 cc3d 149f 4bbd cd24 75bd
00000380: ecaa 08be 5c26 fd3d b2c4 89bd e260 5fbd
00000390: 5e7a edbc 812e 6ebd 100b 0d3e f70f 0fbe
000003a0: dd9a a33d 2bbc debd 15ed 0e3e ce32 c8bd
000003b0: 19a1 97bd 64a7 b63d 9349 2d3b a8ee a83d
000003c0: cfdf 813d b66c a53c bd76 65be ab4a 1dbe
000003d0: 55ee 94be 2928 03bd 79f2 39be 1822 48bd
000003e0: 76e9 b4be bcc7 14be 9a4a 8cbe fdcf 43be
000003f0: d0d2 0b3e 4eee 6fbe 08f0 113e 82e0 453e

bias f4 [12]
0.030644583 0.081772245 -0.12022078 -0.037507366 -0.12805282 -0.076295696 0.21087582 -0.12490274
0.103479445 0.10614281 0.04509546 0.10626472
00000000: 590a fb3c 3578 a73d 5036 f6bd 53a1 19bd
00000010: 4720 03be eb40 9cbd d5ef 573e 02cd ffbd
00000020: 08ed d33d 6761 d93d 04b6 383d 51a1 d93d

weight f4 [12, 12]
-0.29615325 -0.44845742 0.07546501 -0.03883363 0.24989918 0.46799913 0.4155024 0.116010085
0.17879596 0.098885156 0.26972768 0.23994033 0.32149407 -0.10690914 -0.059783183 0.105248794
-0.24711943 -0.08684715 0.49459538 -0.1348267 -0.3110128 -0.2956779 0.13943605 0.16453546
-0.1953012 -0.365092 0.24263445 -0.15917982 -0.282677 -0.31764355 0.12929407 0.059760023
0.20735857 0.00625937 -0.1122041 -0.11630036 -0.8143058 -0.21589683 -0.11383323 0.20404416
-0.032608498 0.55089813 0.19001642 -0.24622923 -0.13155115 0.28457618 -0.32458365 -0.17872395
0.24564652 0.33891752 0.06140757 -0.030153299 0.25196218 0.30497664 -0.092629485 0.06804162
-0.19045816 0.16064775 0.16826877 0.20377088 0.047939394 0.240861 -0.1717273 0.095143095
-0.10591407 0.036017504 -0.14381528 0.21661636 0.13483773 0.2569222 -0.03926745 -0.10461099
0.21434398 -0.33212796 -0.07377035 -0.12271799 -0.19568725 0.008188184 0.5091592 0.070553795
-0.05606353 -0.04475887 -0.075003356 -0.19853403 0.20781705 0.2992 -0.092276156 -0.36804536
0.10304397 -0.18386059 0.05320364 -0.13186318 0.091393635 -0.32601267 0.43550858 0.2581754
-0.045378305 0.3049673 0.13158667 -0.38552606 -0.13438584 -0.265138 0.5432485 0.11251681
-0.12474769 -0.29377034 0.3995281 -0.06996428 0.1801835 -0.1573484 -0.24827968 0.27472875
0.18241015 0.06469707 0.21904887 -0.04429913 -0.13811949 0.32917583 -0.17020531 0.1264579
-0.29120097 -0.37336785 0.11730239 0.19708304 0.13456441 -0.21732317 -0.21603017 -0.20300086
-0.068527736 0.22053069 -0.3373249 -0.22946687 -0.21676147 -0.022134466 0.060040213 -0.22062351
-0.10626436 -0.080682516 -0.39248994 -0.1393185 0.24139668 -0.063470796 -0.20917284 -0.19867495
00000000: 66a1 97be 369c e5be 668d 9a3d 0310 1fbd
00000010: 92e5 7f3e 959d ef3e bbbc d43e b296 ed3d
00000020: 4a16 373e 4d84 ca3d bf19 8a3e ebb2 753e
00000030: df9a a43e 2ef3 dabd 36df 74bd ae8c d73d
00000040: e00c 7dbe ebdc b1bd 9b3b fd3e 0310 0abe
00000050: 123d 9fbe 1863 97be 53c8 0e3e fc7b 283e
00000060: 0afd 47be 57ed babe 2a75 783e 0900 23be
00000070: 0abb 90be 2da2 a2be aa65 043e edc6 743d
00000080: ce55 543e 671b cd3b 43cb e5bd e22e eebd
00000090: 5876 50bf 0f14 5dbe 6621 e9bd f4f0 503e
000000a0: 7d90 05bd a907 0d3f aa93 423e 8423 7cbe
000000b0: 58b5 06be f8b3 913e d42f a6be 6903 37be
000000c0: c38a 7b3e 9986 ad3e 8186 7b3d 0d04 f7bc
000000d0: 3001 813e e625 9c3e 87b4 bdbd 6859 8b3d
000000e0: 7707 43be d880 243e a64e 2c3e 50a9 503e
000000f0: 195c 443d 44a4 763e 48d9 2fbe 62da c23d
00000100: 7ae9 d8bd 1787 133d 5044 13be aed0 5d3e
00000110: e712 0a3e 4e8b 833e e8d6 20bd 493e d6bd
00000120: fd7c 5b3e ad0c aabe e914 97bd 9253 fbbd
00000130: 3d62 48be bc27 063c 4258 023f 827e 903d
00000140: dfa2 65bd 1455 37bd 5c9b 99bd 814c 4bbe
00000150: fecd 543e be30 993e 48fb bcbd 7170 bcbe
00000160: b808 d33d f345 3cbe 0fec 593d 2407 07be
00000170: 962c bb3d 22eb a6be fbfa de3e 912f 843e
00000180: 9ade 39bd ad24 9c3e a8be 063e ac63 c5be
00000190: 719c 09be 2bc0 87be 5512 0b3f 376f e63d
000001a0: b87b ffbd 1169 96be f28e cc3e 6f49 8fbd
000001b0: 0682 383e f01f 21be 073d 7ebe 3fa9 8c3e
000001c0: bac9 3a3e e67f 843d 594e 603e 0173 35bd
000001d0: 326f 0dbe bc89 a83e 4d4a 2ebe 2e7e 013e
000001e0: 4b18 95be 122a bfbe 3c3c f03d 23d0 493e
000001f0: 41cb 093e f789 5ebe 0337 5dbe 75df 4fbe
00000200: 4558 8cbd ccd2 613e d9b5 acbe 5df9 6abe
00000210: b8f6 5dbe 5753 b5bc baec 753d 21eb 61be
00000220: 21a1 d9bd e03c a5bd 71f4 c8be 82a9 0ebe
00000230: b130 773e fafc 81bd 6831 56be 7271 4bbe

bias f4 [12]
-0.2659341 -0.26111042 -0.30082616 -0.9525258 0.05152178 -0.17127474 -0.5745612 -0.4170887
-0.7164967 0.118489325 -0.35427684 0.17600097
00000000: 8428 88be 44b0 85be e305 9abe bbd8 73bf
00000010: 8108 533d a562 2fbe 7116 13bf a68c d5be
00000020: 546c 37bf 88aa f23d c663 b5be 9939 343e

weight f4 [12, 48]
0.10230032 -0.043709416 -0.066156976 -0.09581736 0.14667797 0.093329735 0.13662285 0.005748132
0.031058783 0.124923855 -0.027736412 0.09198493 -0.031430125 -0.14008607 0.11931819 0.081384875
0.06524702 -0.113261364 0.07330595 0.050570738 0.08700824 -0.10077559 -0.100087285 0.1265617
-0.066754445 0.03930799 -0.0165099 0.018605532 -0.07965126 -0.041339826 -0.03370641 0.035389826
-0.060086966 0.09120088 0.09569421 0.12519133 -0.006535144 -0.07835587 0.03628896 -0.103258476
0.034006897 -0.08878716 -0.08184692 0.03368263 -0.053629495 -0.019829055 -0.084334634 0.074211285
0.012555666 -0.1030979 0.115443684 -0.12893331 3.34492e-05 0.13968143 0.08876843 -0.042026836
0.11516012 -0.10265499 -0.14432213 -0.09194395 -0.06463614 -0.13706529 -0.03619334 -0.10523433
0.08620843 -0.12721649 -0.022431474 0.099277005 -0.09659124 -0.045839477 0.06920608 0.084393315
-0.034116257 -0.06646115 -0.03393721 -0.14424492 0.062758304 -0.07810231 0.12149677 0.0919188
-0.018223139 -0.03483946 -0.1328999 0.096684344 0.043124173 0.019549286 -0.096499994 -0.073670864
-0.07256778 0.1326244 0.0010461822 -0.118418016 0.095608756 0.10650743 -0.09078562 -0.015404062
0.015373561 0.04440827 0.26829106 0.16951442 -0.027093023 0.025736183 -0.054230694 0.1322554
-0.06313143 -0.004306325 0.0020367282 -0.120351344 -0.07198864 0.24321647 -0.07033295 -0.017189113
-0.12815513 -0.1969512 0.10384069 0.07266575 -0.064933255 -0.2006692 -0.15050785 0.077471994
0.24535325 0.1448404 0.013679522 0.23297112 0.19080041 0.08369351 -0.022273168 -0.10928967
-0.16857524 0.021646263 -0.0796963 -0.04692851 0.00031035658 -0.11033161 0.14979158 0.10511773
0.19778708 0.16134302 -0.24139239 -0.22241028 0.13512182 -0.027650733 -0.08209929 -0.11807055
-0.02359474 0.16800974 -0.08008753 -0.057620835 0.074136 0.100649945 -0.04847231 -0.18191051
0.07256819 0.080780715 0.13830481 0.0626113 -0.010231516 -0.0234978 -0.005136959 -0.023109566
0.03405565 0.08744533 -0.069441974 -0.068102665 -0.11592788 -0.028736904 0.06365037 0.10285143
0.07099883 -0.13214456 -0.023806851 -0.11409727 0.115538605 -0.10411602 0.00021791518 0.25936097
0.15479325 0.1956389 0.035284884 0.13550654 0.09057531 -0.012613974 -0.031544413 0.05198284
0.069911316 0.12319863 0.013345698 0.06695729 -0.18425673 -0.09907428 0.21124506 0.019580243
-0.062020577 0.050265517 0.05260202 -0.11599316 0.029668218 0.17876357 -0.07733219 0.15799995
-0.035371058 -0.19390097 0.0803611 -0.17729801 0.011670795 -0.05569892 -0.04994498 0.13580258
-0.01665395 0.04828124 0.06511219 -0.10996612 -0.004321273 -0.08388395 0.013061064 -0.15610418
-0.08938869 0.0040213503 0.05966999 -0.11675648 -0.022927817 -0.0726704 0.11244058 0.04508746
-0.024632188 0.16643104 0.17610268 -0.13287534 0.18416165 0.028301464 -0.13916941 -0.08005582
-0.02646794 0.11843261 -0.025402976 -0.059388295 -0.08560786 0.12470599 -0.011387685 0.04704103
0.10476642 0.047869723 -0.103336446 -0.08538045 -0.028597064 0.24595517 0.025013134 0.10278228
0.04853767 -0.06480691 -0.020770907 -0.14975633 0.078353934 -0.06885928 0.08539126 0.10546309
00000000: d582 d13d a508 33bd 4f7d 87bd e43b c4bd
00000010: c032 163e a923 bf3d dce6 0b3e d35a bc3b
00000020: fd6e fe3c 14d8 ff3d 7937 e3bc 9862 bc3d
00000030: e0bc 00bd b972 0fbe 185d f43d 1dad a63d
00000040: 3ba0 853d 93f5 e7bd 6e21 963d 4323 4f3d
00000050: 6031 b23d 6f63 cebd 90fa ccbd 6499 013e
00000060: 8eb6 88bd 6a01 213d c53f 87bc a16a 983c
00000070: 3320 a3bd f353 29bd bc0f 0abd ecf4 103d
00000080: c01d 76bd 87c7 ba3d 53fb c33d 2832 003e
00000090: c324 d6bb 0b79 a0bd bca3 143d 2e79 d3bd
000000a0: d14a 0b3d 0bd6 b5bd 5c9f a7bd ccf6 093d
000000b0: 9aaa 5bbd 8b70 a2bc a3b7 acbd 16fc 973d
000000c0: 48b6 4d3c fe24 d3bd bd6d ec3d 1807 04be
000000d0: ce4b 0c38 a608 0f3e 39cc b53d 5524 2cbd
000000e0: 12d9 eb3d c83c d2bd 2ec9 13be 1c4d bcbd
000000f0: f45f 84bd d85a 0cbe 783f 14bd 1985 d7bd
00000100: 0c8e b03d 0a45 02be 36c2 b7bc be51 cb3d
00000110: a1d1 c5bd 2dc2 3bbd ebbb 8d3d 67d6 ac3d
00000120: 7dbd 0bbd c91c 88bd be01 0bbd f1b4 13be
00000130: 6d87 803d 1bf4 9fbd 4cd3 f83d ec3f bc3d
00000140: b148 95bc d2b3 0ebd e916 08be 7102 c63d
00000150: f9a2 303d d325 a03c caa1 c5bd c0e0 96bd
00000160: 6b9e 94bd b1ce 073e 0d20 893a 2585 f2bd
00000170: 86ce c33d 9120 da3d d0ed b9bd 5261 7cbc
00000180: 63e1 7b3c 72e5 353d 725d 893e 3095 2d3e
00000190: 30f2 ddbc b0d4 d23c 0121 5ebd f66d 073e
000001a0: 0d4b 81bd 131c 8dbb a17a 053b c47a f6bd
000001b0: c86e 93bd bd0d 793e b90a 90bd 2fd0 8cbc
000001c0: 193b 03be 93ad 49be 6daa d43d c8d1 943d
000001d0: bafb 84bd 3a7c 4dbe bb1e 1abe a3a9 9e3d
000001e0: e23d 7b3e 0b51 143e 1320 603c fb8f 6e3e
000001f0: 2f61 433e 8167 ab3d 3876 b6bc 43d3 dfbd
00000200: fd9e 2cbe 8153 b13c d037 a3bd 1c38 40bd
00000210: 5bb7 a239 8af5 e1bd f762 193e f747 d73d
00000220: b288 4a3e 1b37 253e 912f 77be 85bf 63be
00000230: 605d 0a3e ca83 e2bc ac23 a8bd f9ce f1bd
00000240: c249 c1bc bf0a 2c3e ee04 a4bd d303 6cbd
00000250: 9dd4 973d 8f21 ce3d e78a 46bd c046 3abe
00000260: a29e 943d 5c70 a53d c79f 0d3e 5a3a 803d
00000270: 17a2 27bc 757e c0bc ef53 a8bb 4650 bdbc
00000280: f07d 0b3d 8a16 b33d 9837 8ebd 6979 8bbd
00000290: 996b edbd a869 ebbc 205b 823d c5a3 d23d
000002a0: d667 913d e750 07be 9606 c3bc d4ab e9bd
000002b0: 819f ec3d c83a d5bd 2980 6439 f6ca 843e
000002c0: 1f82 1e3e 9055 483e e286 103d 3ac2 0a3e
000002d0: 8c7f b93d d7aa 4ebc b734 01bd f5eb 543d
000002e0: aa2d 8f3d 904f fc3d eaa7 5a3c e720 893d
000002f0: ccad 3cbe 75e7 cabd a050 583e bf66 a03c
00000300: 4a09 7ebd 37e3 4d3d 3775 573d d28d edbd
00000310: c30a f33c cc0d 373e 5760 9ebd bdca 213e
00000320: 3ee1 10bd fa8d 46be 5c94 a43d 9c8d 35be
00000330: dd36 3f3c 8d24 64bd 1b93 4cbd d50f 0b3e
00000340: dd6d 88bc 8dc2 453d 8a59 853d eb35 e1bd
00000350: 7799 8dbb 59cb abbd 13fe 553c c6d9 1fbe
00000360: 6b11 b7bd 88c5 833b 8568 743d 051e efbd
00000370: 1ed3 bbbc 38d4 94bd 3f47 e63d a1ad 383d
00000380: 71c9 c9bc e66c 2a3e 4354 343e 7910 08be
00000390: df94 3c3e 79d8 e73c 6d82 0ebe 4ef4 a3bd
000003a0: 4bd3 d8bc cc8c f23d e719 d0bc 2441 73bd
000003b0: 2c53 afbd db65 ff3d 6a93 3abc 18ae 403d
000003c0: c78f d63d 0b13 443d 0fa2 d3bd f2db aebd
000003d0: 6444 eabc acdb 7b3e 58e8 cc3c 847f d23d
000003e0: 70cf 463d 7cb9 84bd c027 aabc b959 19be
000003f0: 0778 a03d 1806 8dbd 9de1 ae3d 08fd d73d

bias f4 [12]
-0.11213724 -0.093805805 0.06931785 0.07703004 -0.07960726 0.10389985 -0.043848168 0.059840392
0.05253321 0.19433723 -0.051556263 0.18862304
00000000: 36a8 e5bd 421d c0bd 84f6 8d3d edc1 9d3d
00000010: 2209 a3bd 72c9 d43d 239a 33bd 331b 753d
00000020: 102d 573d 5700 473e a92c 53bd 6626 413e

weight f4 [12, 12]
-0.11853922 0.07940406 -0.06389776 0.030871972 0.11044131 0.20810817 0.091545865 0.07098904
-0.1284775 -0.15751891 0.22163247 -0.1877108 0.088713676 0.08632991 0.15880145 -0.31218246
0.08063997 0.19885103 0.1222349 -0.26850504 0.043922383 -0.21452151 0.21617456 -0.1921049
0.1340272 0.12065436 0.42024517 0.03075147 -0.21871153 0.03237995 -0.09351162 -0.105625704
-0.031046037 -0.065224685 0.18070976 0.26016232 0.036271777 0.17744674 -0.20259708 0.2860939
-0.17355356 0.14253046 -0.11956073 0.19163233 0.12419057 0.086346224 -0.10908357 0.31882724
-0.08391451 0.049667828 -0.22553048 0.26050815 0.05112746 0.23514059 -0.19261888 -0.014093545
-0.074610524 -0.40928373 -0.038987085 0.09871125 -0.0865282 0.031534646 0.23898691 -0.29141116
0.24044172 -0.33691412 0.099303536 0.26524913 0.008478342 0.33916372 0.0047908598 -0.22704741
0.21033554 0.13476421 -0.24326147 0.1279764 -0.020183649 -0.1975287 0.2714339 0.10096998
-0.15936267 0.05797845 -0.051221233 0.2764441 0.2492151 0.21331663 0.12645592 0.29977003
0.048968285 -0.30623183 -0.28396502 0.27892447 0.13280404 0.24929214 0.042028755 -0.09733305
-0.21344192 0.17544119 -0.12757127 0.07230089 -0.14741482 -0.32511726 0.27596307 0.29630715
-0.19642033 0.25237906 -0.15792678 -0.24797472 -0.27948558 -0.1395043 0.29082564 -0.08799884
-0.2356347 0.065746024 0.1593437 0.2100727 0.031055728 0.28261262 0.19743556 0.14420167
-0.1651086 -0.19740978 -0.03396357 0.21772544 0.21265559 0.22006607 -0.24524808 0.19801775
-0.108861044 -0.3496738 -0.15940537 -0.33015096 -0.017999599 0.2470962 -0.1934993 0.18173161
0.009885932 0.42891005 -0.20000434 0.144712 -0.17069742 -0.390558 0.0050160526 -0.15534146
00000000: b1c4 f2bd 999e a23d d4dc 82bd 38e7 fc3c
00000010: 0e2f e23d 4f1a 553e 667c bb3d b462 913d
00000020: 9b8f 03be a34c 21be 9ff3 623e 4337 40be
00000030: 84af b53d bccd b03d d99c 223e 61d6 9fbe
00000040: 9226 a53d 9b9f 4b3e 4b56 fa3d 7e79 89be
00000050: f5e7 333d 87ab 5bbe dd5c 5d3e 26b7 44be
00000060: 6d3e 093e a219 f73d 602a d73e 82ea fb3c
00000070: eaf5 5fbe d7a0 043d 0583 bfbd 4a52 d8bd
00000080: 4254 febc 8594 85bd fb0b 393e ff33 853e
00000090: b791 143d 99b4 353e 9c75 4fbe e67a 923e
000000a0: 06b8 31be 81f3 113e 42dc f4bd 443b 443e
000000b0: a057 fe3d 4ad6 b03d 3567 dfbd 533d a33e
000000c0: 5fdb abbd 7e70 4b3d 76f1 66be 5361 853e
000000d0: 076b 513d b2c8 703e e23d 45be 9de8 66bc
000000e0: 67cd 98bd a38d d1be ecb0 1fbd 2029 ca3d
000000f0: b235 b1bd 792a 013d fcb8 743e d833 95be
00000100: 5b36 763e 0280 acbe a75f cb3d bcce 873e
00000110: bee8 0a3c dea6 ad3e a5fc 9c3b 1e7f 68be
00000120: 3362 573e a1ff 093e 8919 79be 3f0c 033e
00000130: 2e58 a5bc f744 4abe 62f9 8a3e 59c9 ce3d
00000140: f82f 23be d07a 6d3d 5bcd 51bd 158a 8d3e
00000150: 3e32 7f3e ad6f 5a3e a97d 013e 757b 993e
00000160: f892 483d 6bca 9cbe dd63 91be 30cf 8e3e
00000170: c8fd 073e 7046 7f3e 5826 2c3d 8d56 c7bd
00000180: 8590 5abe dba6 333e 0ba2 02be 7d12 943d
00000190: e9f3 16be c575 a6be 084b 8d3e 92b5 973e
000001a0: 6922 49be d437 813e 8fb7 21be 16ed 7dbe
000001b0: bc18 8fbe 37da 0ebe 19e7 943e bc38 b4bd
000001c0: 394a 71be daa5 863d ff2a 233e 4c1d 573e
000001d0: 9568 fe3c 9ab2 903e 8c2c 4a3e 9aa9 133e
000001e0: 3b12 29be ca25 4abe 621d 0bbd 6bf3 5e3e
000001f0: 63c2 593e 0059 613e 5022 7bbe 2ac5 4a3e
00000200: 8af2 debd 7208 b3be 293b 23be 8c09 a9be
00000210: e573 93bc c906 7d3e ae24 46be da17 3a3e
00000220: 9bf8 213c 199a db3e f0cd 4cbe 622f 143e
00000230: 4ecb 2ebe 38f7 c7be b35d a43b d511 1fbe

bias f4 [12]
-0.2350692 0.09417362 -0.16812313 -0.105468206 -0.20448586 -0.13855255 0.09331455 -0.05329723
-0.41853812 -0.2133324 -0.12726048 -0.12394763
00000000: fbb5 70be 19de c03d 7828 2cbe b7ff d7bd
00000010: be64 51be b8e0 0dbe b31b bf3d 324e 5abd
00000020: a14a d6be cf73 5abe 9250 02be 41d8 fdbd

weight f4 [12, 48]
-0.1574099 -0.012259737 0.1672315 -0.017513223 -0.08405881 0.23474737 0.034548078 -0.077534124
0.006875945 0.067966394 0.2061325 0.035831515 -0.06558053 -0.24575827 0.13564283 0.05397747
0.2172138 0.1521054 -0.016758936 0.13885462 -0.091335215 0.042524185 0.13224989 -0.047008764
-0.09601222 -0.18224257 0.09922284 0.025215697 -0.003021392 -0.1471425 -0.04419268 -0.077843204
0.20159261 -0.04334487 -0.015433799 -0.22225274 0.102269925 0.14556405 -0.032979235 -0.031094193
-0.031339303 -0.09741039 -0.05289317 0.057565328 0.009720724 0.11253472 0.046271436 -0.19756556
0.10982142 0.17518778 0.12360684 0.033594098 0.09787691 -0.041834716 -0.130546 -0.15514833
0.09062931 -0.005605466 0.08846508 -0.06575697 0.07095502 0.2069186 0.07677282 -0.13627547
-0.07189313 0.04879762 -0.05325231 0.05017295 -0.05088215 -0.06359322 0.24753547 0.1431741
-0.039913043 0.12987529 0.007483525 0.04099232 -0.06595649 0.07836955 0.06822988 -0.13989335
0.0071048094 -0.09352157 0.27132308 -0.068786204 0.022608213 -0.23273422 -0.011556735 0.124133974
0.030332297 0.04460236 -0.08272187 -0.005499455 -0.06408774 -0.01139779 0.19429769 -0.1640586
-0.08161514 -0.04813964 -0.023774035 -0.10783989 0.0935984 -0.028095704 -0.095773235 -0.074190184
-0.029883446 0.07526438 -0.099336475 0.11010531 0.1604884 -0.04042661 0.05042202 -0.16637197
-0.12357524 -0.34124 0.010591854 -0.52127165 -0.027551342 0.18671942 0.05459526 0.061630063
0.041910194 -0.08610837 0.1606231 -0.018325377 -0.053496514 -0.123637795 -0.060715098 -0.25841892
-0.09289182 0.0639216 -0.026816301 -0.028175058 -0.010479928 -0.019843241 0.018657407 -0.05797748
0.030807717 -0.0738265 0.0020868143 0.07421326 0.045945298 0.04235992 -0.13209373 -0.063233435
0.0027651854 -0.01145845 0.015106736 -0.0004203174 0.1272736 -0.0046109655 -0.07414528 0.005041142
0.12475077 -0.027681347 0.056527738 -0.013130773 -0.04797849 -0.05835371 0.07854832 -0.11429225
-0.06188336 0.08074353 0.13242248 0.097278856 -0.03416087 -0.03460134 -0.029987775 -0.12402099
-0.13364398 -0.016091663 -0.10647928 -0.13258512 -0.011145518 0.0009331363 -0.10598959 0.04467366
-0.032681365 0.012615167 -0.040348064 0.103200935 -0.058378264 -0.054094806 0.07641184 0.06992643
-0.12385836 -0.06639247 -0.12617247 -0.0051558055 0.118134536 -0.019290725 0.00975273 0.08515913
-0.19967353 0.0036272116 -0.15073192 0.01966541 0.0010624557 -0.08785966 0.19008733 0.14666817
0.16605641 0.18573304 0.06769338 0.111200415 -0.012945572 -0.060422834 -0.09372154 -0.1646462
-0.11511709 -0.110177524 0.12747188 -0.12234143 0.05903244 0.10293367 -0.030203471 0.11827071
0.08877112 0.18342064 0.10631419 -0.0039309035 0.078976616 -0.052103 0.19898188 -0.11180151
-0.09062882 -0.08501424 0.15039533 0.030455224 -0.0057271994 -0.07230827 0.09162965 0.209341
-0.09438314 0.13598062 0.006804314 0.10744659 -0.009702694 0.039496142 -0.047456246 0.04872433
0.08101044 0.14226697 0.062310193 0.11531504 -0.08097759 0.21271448 0.14874159 0.14369261
0.2546871 0.25655934 0.12532088 0.36216596 -0.17861602 -0.108729854 0.120548844 0.026168505
00000000: 1030 21be 10dd 48bc bc3e 2b3e e477 8fbc
00000010: 0627 acbd 9d61 703e 4982 0d3d 36ca 9ebd
00000020: 9b4f e13b f731 8b3d 6614 533e 11c4 123d
00000030: 164f 86bd 0ea8 7bbe f4e5 0a3e 7b17 5d3d
00000040: 4b6d 5e3e 85c1 1b3e 094a 89bc e82f 0e3e
00000050: f50d bbbd d72d 2e3d 846c 073e 438c 40bd
00000060: 0ea2 c4bd cc9d 3abe 5835 cb3d 2691 ce3c
00000070: 8c02 46bb 86ac 16be 6203 35bd 426c 9fbd
00000080: 4b6e 4e3e 648a 31bd 0bde 7cbc 3996 63be
00000090: e572 d13d be0e 153e 3c15 07bd 40b9 febc
000000a0: a45d 00bd 197f c7bd 82a6 58bd 9fc9 6b3d
000000b0: ac43 1f3c 9a78 e63d 1e87 3d3d a04e 4abe
000000c0: 0dea e03d 6d64 333e 9525 fd3d f799 093d
000000d0: b073 c83d e15a 2bbd daad 05be 34df 1ebe
000000e0: dc9b b93d 0fae b7bb 2e2d b53d 97ab 86bd
000000f0: de50 913d 78e2 533e 113b 9d3d cc8b 0bbe
00000100: b53c 93bd 03e0 473d 181f 5abd 2782 4d3d
00000110: cd69 50bd 2a3d 82bd f079 7d3e 3b9c 123e
00000120: dc7b 23bd 07fe 043e 5c38 f53b 90e7 273d
00000130: 3214 87bd 3780 a03d 1bbc 8b3d 3440 0fbe
00000140: 76cf e83b 3d88 bfbd dcea 8a3e c8df 8cbd
00000150: dc34 b93c e151 6ebe 7658 3dbc f439 fe3d
00000160: 707b f83c f7b0 363d 156a a9bd c634 b4bb
00000170: 6f40 83bd ccbd 3abc f9f5 463e fafe 27be
00000180: d725 a7bd 122e 45bd c4c1 c2bc 29db dcbd
00000190: 85b0 bf3d f628 e6bc c224 c4bd 06f1 97bd
000001a0: 21ce f4bc 3624 9a3d ec70 cbbd e57e e13d
000001b0: 1257 243e 5f96 25bd 5287 4e3d 6a5d 2abe
000001c0: 0415 fdbd 02b7 aebe 7589 2d3c 0f72 05bf
000001d0: 5ab3 e1bc 6033 3f3e 489f 5f3d ce6f 7c3d
000001e0: 06aa 2b3d 9659 b0bd 627a 243e 1a1f 96bc
000001f0: 291f 5bbd d035 fdbd 65b0 78bd 7c4f 84be
00000200: 113e bebd 54e9 823d dcad dbbc 61cf e6bc
00000210: 01b4 2bbc 4b8e a2bc 6bd7 983c cb79 6dbd
00000220: 7760 fc3c 5932 97bd efc2 083b 1ffd 973d
00000230: 2331 3c3d 9881 2d3d 9443 07be 8880 81bd
00000240: 1d38 353b 39bc 3bbc 3e82 773c 0c5e dcb9
00000250: 0354 023e 9517 97bb 7bd9 97bd 2a30 a53b
00000260: 557d ff3d fec3 e2bc a189 673d 7422 57bc
00000270: 1885 44bd 4d04 6fbd f1dd a03d 0e12 eabd
00000280: 6879 7dbd dd5c a53d c299 073e 233a c73d
00000290: 45ec 0bbd 22ba 0dbd eca8 f5bc b8fe fdbd
000002a0: f8d9 08be aad2 83bc cf11 dabd 65c4 07be
000002b0: b19b 36bc b89d 743a 1211 d9bd bafb 363d
000002c0: e5dc 05bd d8af 4e3c 0344 25bd 035b d33d
000002d0: 0c1e 6fbd 8492 5dbd d07d 9c3d 9735 8f3d
000002e0: 74a9 fdbd c6f8 87bd 5b33 01be 08f2 a8bb
000002f0: 85f0 f13d 9507 9ebc eac9 1f3c e967 ae3d
00000300: 3877 4cbe 83b6 6d3b 7859 1abe 5b19 a13c
00000310: 1942 8b3a c4ef b3bd 41a6 423e 2e30 163e
00000320: b10a 2a3e cd30 3e3e d4a2 8a3d 0bbd e33d
00000330: aa19 54bc ef7d 77bd 14f1 bfbd 0399 28be
00000340: 82c2 ebbd c1a4 e1bd fd87 023e 258e fabd
00000350: 00cc 713d e3ce d23d 456d f7bc ea37 f23d
00000360: a2cd b53d 9fd2 3b3e 41bb d93d cfce 80bb
00000370: 7ebe a13d f569 55bd e8c1 4b3e 31f8 e4bd
00000380: 9a9b b9bd f21b aebd 3c01 1a3e 3c7d f93c
00000390: 3bab bbbb 5c16 94bd 53a8 bb3d 7d5d 563e
000003a0: f34b c1bd 813e 0b3e b9f6 de3b f50c dc3d
000003b0: 0cf8 1ebc b5c6 213d 7b61 42bd 2a93 473d
000003c0: cde8 a53d 6fae 113e f938 7f3d 4b2a ec3d
000003d0: 94d7 a5bd d3d1 593e b74f 183e 2824 133e
000003e0: 5966 823e bf5b 833e 1e54 003e d16d b93e
000003f0: 1ee7 36be c2ad debd 50e2 f63d 555f d63c

bias f4 [12]
0.14514425 0.13368085 0.08440621 -0.05060764 0.22486183 0.22417732 0.09223628 -0.10550091
0.03557566 0.055902902 -0.070151076 -0.014369076
00000000: b2a0 143e a2e3 083e 2add ac3d f549 4fbd
00000010: 2e42 663e bd8e 653e 60e6 bc3d dc10 d8bd
00000020: c9b7 113d 71fa 643d 5eab 8fbd 466c 6bbc

weight f4 [12, 12]
-0.10159364 0.38035417 0.1454559 0.024540493 0.09658663 -0.4773772 -0.055298023 0.45669916
0.43900946 -0.18070315 0.22086334 -0.22677448 0.19947262 -0.29286194 -0.32115993 0.20556915
-0.40349165 -0.050307438 0.29872128 -0.12390083 -0.09928999 -0.22897427 -0.085460834 -0.15549621
0.14547938 -0.11852199 0.23171388 0.23398212 -0.04872023 -0.034423582 -0.43702444 -0.27330756
-0.31003082 -0.08357929 0.21849765 -0.074854314 -0.10209064 -0.16178654 -0.03789147 -0.0329263
-0.46254915 -0.22947375 0.2705623 0.2684179 -0.12032999 0.105826646 -0.19163711 -0.20318854
-0.21954669 -0.06352898 0.10259663 0.22945291 -0.25038415 -0.19648078 0.18891805 0.35729486
0.2499347 0.08757652 -0.034151934 -0.22177607 -0.0066086096 0.089472584 0.43200728 -0.13389051
0.03504087 -0.07890092 -0.19832976 0.046719044 -0.10942379 0.2694028 -0.409462 0.014573352
0.003635631 -0.036676854 -0.26553676 0.079882644 0.15464441 -0.14045678 -0.328111 -0.3176728
-0.24808636 0.22364062 0.054216072 -0.08623723 -0.29468164 -0.36883026 0.061043456 -0.13362749
0.23471884 -0.01439623 0.2457063 0.36678082 0.118382156 -0.11879072 -0.35115248 -0.31056485
-0.3309851 0.10636453 0.19194369 -0.035794087 0.09666414 -0.107121274 0.30371687 0.5184494
-0.083133906 -0.12677637 -0.2991746 -0.30936214 -0.23813988 0.34366542 -0.17764746 -0.03848795
-0.17956643 0.25153232 0.08105858 0.061822575 0.43893284 -0.14616406 -0.21539475 0.061172716
0.19180954 -0.10876596 -0.38726866 -0.067039564 -0.37960288 -0.09753348 -0.1478631 -0.8028448
-0.10303788 -0.06446833 -0.1197129 0.3404592 -0.13410965 0.08016199 0.20330517 0.14660925
0.20285818 0.30056193 0.13697816 0.43784967 0.04619704 0.031896442 -0.19016099 -0.092029035
00000000: 5410 d0bd c8bd c23e 64f2 143e 2509 c93c
00000010: 36cf c53d c96a f4be 2e80 62bd 79d4 e93e
00000020: d9c5 e03e 3f0a 39be 002a 623e 9237 68be
00000030: 8d42 4c3e 00f2 95be 136f a4be b880 523e
00000040: 7596 cebe 2c0f 4ebd fff1 983e b8bf fdbd
00000050: 8d58 cbbd 3b78 6abe 1706 afbd 663a 1fbe
00000060: 8cf8 143e a8bb f2bd 6746 6d3e 0299 6f3e
00000070: dd8e 47bd beff 0cbd abc1 dfbe f8ee 8bbe
00000080: 5cbc 9ebe 9e2b abbd d9bd 5f3e 384d 99bd
00000090: e614 d1bd 5fab 25be 1634 1bbd badd 06bd
000000a0: 3ed3 ecbe 2bfb 6abe 2487 8a3e 126e 893e
000000b0: 926f f6bd a4bb d83d 853c 44be a810 50be
000000c0: d9d0 60be 7b1b 82bd 2f1e d23d b4f5 6a3e
000000d0: 5a32 80be 4232 49be bc73 413e 5aef b63e
000000e0: e2ee 7f3e 525b b33d e6e2 0bbd 4419 63be
000000f0: 098d d8bb 673d b73d 0f30 dd3e 981a 09be
00000100: 0487 0f3d ce96 a1bd f516 4bbe 785c 3f3d
00000110: 9419 e0bd 2aef 893e 01a5 d1be 12c5 6e3c
00000120: c443 6e3b 783a 16bd 6ff4 87be 8399 a33d
00000130: 1b5b 1e3e e7d3 0fbe 2afe a7be 02a6 a2be
00000140: 5a0a 7ebe 0c02 653e ac11 5e3d 259d b0bd
00000150: 83e0 96be 52d7 bcbe b408 7a3d a5d5 08be
00000160: 235a 703e 2ade 6bbc 6f9a 7b3e b2ca bb3e
00000170: 5872 f23d 8d48 f3bd 42ca b3be 5b02 9fbe
00000180: e176 a9be a6d5 d93d e38c 443e d29c 12bd
00000190: d9f7 c53d 6662 dbbd c780 9b3e 1ab9 043f
000001a0: 1c42 aabd aad1 01be 6a2d 99be b764 9ebe
000001b0: f1da 73be eaf4 af3e 37e9 35be 8aa5 1dbd
000001c0: 43e0 37be d8c8 803e 0a02 a63d ab39 7d3d
000001d0: cebb e03e 08ac 15be 7190 5cbe 3e90 7a3d
000001e0: b869 443e b0c0 debd 1448 c6be 0a4c 89bd
000001f0: 4f5b c2be a2bf c7bd 6d69 17be 3d87 4dbf
00000200: 8605 d3bd f907 84bd 092c f5bd ab50 ae3e
00000210: 0a54 09be f82b a43d 3b2f 503e bc20 163e
00000220: 0eba 4f3e 41e3 993e 0144 0c3e d52d e03e
00000230: 1b39 3d3d d8a5 023d 90b9 42be b879 bcbd

bias f4 [12]
-0.13911796 -0.0056622094 -0.295506 -0.41309065 -0.15906653 -0.08199108 0.14651154 -0.301285
0.055864472 0.09292303 -0.16506758 -0.3433914
00000000: f074 0ebe 0e8a b9bb 904c 97be 9e80 d3be
00000010: 56e2 22be f0ea a7bd 1f07 163e 0742 9abe
00000020: 25d2 643d 6e4e be3d 7a07 29be ffd0 afbe

weight f4 [12, 48]
-0.27489695 -0.017361067 -0.41521925 -0.15175699 -0.05056754 0.0064322506 -0.01688259 0.023536399
0.028826943 -0.11543618 -0.04681699 0.13103463 0.04652805 0.073231876 -0.1337981 -0.06276711
0.11901989 0.012357813 -0.25066397 -0.15838067 0.007603832 -0.03274717 -0.0142357545 0.05256606
0.050420836 -0.008900567 0.030282931 0.022727638 0.042842332 0.07383188 0.20427993 0.03649026
0.13339643 0.16559996 0.027594216 0.0767908 0.01213369 0.019448802 0.13377397 -0.15176846
0.13861321 0.06645994 0.015278255 -0.23299612 0.06223815 -0.05919379 -0.13285238 -0.020234236
0.24487436 0.18632357 0.17446785 0.19285253 0.0843419 0.13377725 -0.07955118 0.07269322
-0.13096376 -0.07355673 0.16265859 -0.084064774 0.030922156 -0.0146526415 0.075113 -0.027605757
-0.046923 -0.10468547 0.25357372 0.24599835 -0.096998975 -0.0017849286 0.109410785 0.16534683
-0.14634107 -0.037752386 0.004895271 0.1659002 0.005305202 -0.0074366974 -0.20165443 -0.08567349
0.026300741 -0.005609448 -0.012879258 0.11175907 -0.016086344 0.038017582 -0.02069641 0.10266604
0.18019073 0.15562336 0.061441176 0.1807054 0.1375375 0.027616324 0.1003571 -0.16002806
0.000264916 -0.09315024 -0.29237276 -0.054697294 -0.07481495 0.05484366 0.059116613 0.14590989
-0.04885462 -0.12914859 0.1904317 0.0019280692 0.04865285 -0.10583219 0.07210044 0.06923707
0.025825627 0.01145509 -0.26979017 -0.42452794 0.08929303 -0.11439129 0.08713656 -0.08837095
0.048844185 0.14333281 -0.1559754 0.16095082 0.21160047 -0.02872492 0.25900462 0.07731127
0.14996506 0.11230725 0.12761275 -0.15826504 0.06951504 0.1311738 0.20257406 -0.025612168
0.10933616 -0.11740711 -0.090766594 0.0010071975 0.19184627 -0.16061863 0.110835575 -0.06338623
-0.15510525 -0.14670487 -0.06691744 -0.056479566 0.03518035 -0.12000793 -0.06395527 0.08000659
-0.08362945 0.14046337 0.0810982 0.11692652 -0.09965295 -0.12758122 -0.038512312 0.12210267
0.029258339 -0.066693515 -0.10049835 0.1080271 -0.16703933 -0.014240207 -0.22867814 -0.030628243
-0.21766691 0.14710897 0.107737266 -0.0862805 -0.12780614 -0.1647066 0.16112286 0.08499622
0.03093098 0.022654299 -0.08228197 -0.07620127 -0.04546351 -0.28052577 -0.10700026 0.1580474
-0.1866458 -0.101897486 0.10050379 0.12609397 -0.21080944 -0.19942866 0.11121212 -0.036152616
0.09236956 0.03951431 0.20139942 -0.12642619 -0.14933205 -0.011441866 -0.1479258 -0.14923827
0.09039755 -0.01101626 -0.030015009 -0.019952472 0.13528578 0.22557314 0.18143356 0.06324095
0.2454543 0.05726758 0.2440842 0.42991698 -0.1986615 -0.117148586 -0.2330764 0.02009732
-0.19934581 0.009731636 -0.023152666 -0.11031392 -0.034399364 -0.12624693 -0.03632412 0.049939048
-0.09852728 0.26104483 0.016683288 0.187849 -0.1032662 -0.11793254 0.030044641 -0.16743472
0.14522557 -0.00078819616 -0.070383504 0.14700623 0.115077056 0.17347029 0.31148857 0.106161274
0.090299994 -0.01214 -0.3092693 -0.20128082 0.07779023 0.12817836 -0.06552023 0.1063987
0.022957057 -0.06611763 0.051158503 0.08573327 0.03908997 0.03723053 -0.06381711 -0.07731443
00000000: 4bbf 8cbe cc38 8ebc 9e97 d4be 2f66 1bbe
00000010: e91f 4fbd a1c5 d23b 5b4d 8abc 68cf c03c
00000020: 7b26 ec3c ce69 ecbd 2cc3 3fbd f12d 063e
00000030: 3294 3e3d 98fa 953d 5e02 09be 0b8c 80bd
00000040: b3c0 f33d 6d78 4a3c 0757 80be 8b2e 22be
00000050: 9129 f93b e621 06bd 153d 69bc 824f 573d
00000060: 1486 4e3d afd3 11bc e913 f83c 502f ba3c
00000070: 717b 2f3d 2b35 973d c22e 513e d076 153d
00000080: 1399 083e 0993 293e 440d e23c 7f44 9d3d
00000090: 62cc 463c 1853 9f3c 0bfc 083e 3169 1bbe
000000a0: 9ff0 0d3e 261c 883d a551 7a3c 8996 6ebe
000000b0: 6eed 7e3d 3075 72bd 740a 08be 45c2 a5bc
000000c0: 58c0 7a3e 9bcb 3e3e b3a7 323e 227b 453e
000000d0: 72bb ac3d e7fc 083e bbeb a2bd 2fe0 943d
000000e0: 5d1b 06be e9a4 96bd f98f 263e 272a acbd
000000f0: 7650 fd3c a211 70bc d8d4 993d 7825 e2bc
00000100: 5532 40bd 5665 d6bd 6ad4 813e fee6 7b3e
00000110: 66a7 c6bd 44f4 e9ba c312 e03d ae50 293e
00000120: 6fda 15be 3fa2 1abd 8268 a03b bee1 293e
00000130: 43d7 ad3b 8aaf f3bb 807e 4ebe 9575 afbd
00000140: a774 d73c 76cf b7bb 8603 53bc f0e1 e43d
00000150: 82c7 83bc 53b8 1b3d 858b a9bc 9342 d23d
00000160: eb83 383e bb5b 1f3e bea9 7b3d d60a 393e
00000170: a1d6 0c3e a13b e23c 0688 cd3d 65de 23be
00000180: 6ce4 8a39 8ec5 bebd e2b1 95be 450a 60bd
00000190: 9538 99bd bfa3 603d 4324 723d 6769 153e
000001a0: c81b 48bd 873f 04be 8700 433e 44b7 fc3a
000001b0: 3648 473d 8cbe d8bd 65a9 933d 2acc 8d3d
000001c0: 4490 d33c 21ae 3b3c f021 8abe ba5b d9be
000001d0: 44df b63d fb45 eabd a774 b23d d4fb b4bd
000001e0: d710 483d d6c5 123e 04b8 1fbe 4bd0 243e
000001f0: cbad 583e 8650 ebbc 419c 843e 5f55 9e3d
00000200: 7190 193e 5801 e63d ebac 023e 3b10 22be
00000210: e75d 8e3d 6d52 063e 936f 4f3e 9cd0 d1bc
00000220: a3eb df3d 2473 f0bd d6e3 b9bd f103 843a
00000230: 5973 443e 3679 24be c3fd e23d a4d0 81bd
00000240: e9d3 1ebe cd39 16be 030c 89bd 1e57 67bd
00000250: 4519 103d b8c6 f5bd fbfa 82bd 7fda a33d
00000260: eb45 abbd a1d5 0f3e d016 a63d 2c77 ef3d
00000270: d916 ccbd a7a4 02be 16bf 1dbd f710 fa3d
00000280: 2faf ef3c 9c96 88bd 14d2 cdbd 503d dd3d
00000290: 5c0c 2bbe c24f 69bc 9a2a 6abe 15e8 fabc
000002a0: 13e4 5ebe bca3 163e 5ba5 dc3d d5b3 b0bd
000002b0: 9ddf 02be d9a8 28be 64fd 243e 8012 ae3d
000002c0: f762 fd3c 8295 b93c 7383 a8bd 690f 9cbd
000002d0: f237 3abd 13a1 8fbe f422 dbbd 2dd7 213e
000002e0: 1420 3fbe a1af d0bd eed4 cd3d c71e 013e
000002f0: 6ede 57be 0737 4cbe 2ec3 e33d c414 14bd
00000300: 402c bd3d c2d9 213d a63b 4e3e de75 01be
00000310: 80ea 18be aa76 3bbc dc79 17be ebd1 18be
00000320: 5a22 b93d 8b7d 34bc 09e2 f5bc 5e73 a3bc
00000330: 5b88 0a3e a5fc 663e b8c9 393e 7984 813d
00000340: 5f58 7b3e 6991 6a3d 35f1 793e 141e dc3e
00000350: ec6d 4bbe 99eb efbd 94ab 6ebe 23a3 a43c
00000360: 4f21 4cbe 7171 1f3c a9aa bdbc 44ec e1bd
00000370: 59e6 0cbd e046 01be 9ac8 14bd e38c 4c3d
00000380: acc8 c9bd aba7 853e 64ab 883c 7d5b 403e
00000390: 3b7d d3bd 9e86 f1bd 2e20 f63c 0274 2bbe
000003a0: 03b6 143e f39e 4eba 3a25 90bd cd88 163e
000003b0: 85ad eb3d 32a2 313e 6e7b 9f3e 156b d93d
000003c0: 34ef b83d dae6 46bc 8c58 9ebe 8f1c 4ebe
000003d0: 7c50 9f3d 3041 033e 782f 86bd 90e7 d93d
000003e0: 7010 bc3c ae68 87bd 948b 513d ed94 af3d
000003f0: ce1c 203d 0a7f 183d 8cb2 82bd 0757 9ebd

bias f4 [12]
-0.04988256 0.08926636 0.11079909 0.12566505 0.19594476 0.08769908 -0.020515487 0.000949546
0.058777843 0.036048435 -0.02437922 0.080869466
00000000: a851 4cbd 48d1 b63d a2ea e23d 57ae 003e
00000010: bea5 483e 939b b33d 1810 a8bc f4ea 783a
00000020: 09c1 703d 86a7 133d eeb6 c7bc e49e a53d

weight f4 [12, 12]
-0.14077455 0.32557625 -0.54615515 -0.1362932 -0.13347624 -0.24257289 -0.18709539 -0.27516317
0.45592627 0.22831178 0.041386 0.04878839 -0.1838932 0.1335905 -0.20932949 0.39838663
0.121337555 -0.05437361 -0.03600972 -0.052779526 0.15042095 -0.04205658 0.28210345 0.21345803
-0.05694787 -0.04145369 -0.064255305 -0.26943707 -0.16541019 0.5431684 0.08484498 -0.1828593
-0.26126432 -0.27732676 -0.102201164 0.1297519 0.025415983 -0.42026195 0.042813934 -0.021288091
0.034795817 0.46706793 0.1115373 0.13799861 -0.2875263 -0.1999886 -0.097974844 -0.01525233
0.4664666 -0.21772127 0.2660339 -0.1276432 -0.45192987 -0.0140347555 0.03675693 0.008332453
-0.122859955 -0.43338433 -0.23860407 0.022812871 -0.24620813 0.14423755 -0.589829 0.30049878
-0.15544671 -0.3190542 -0.15638979 0.09236879 0.45309025 0.09863148 -0.010744096 0.06399423
0.05354442 -0.35623905 -0.2207666 0.21305986 0.19694342 -0.22783995 -0.18406688 0.09753408
0.08459865 -0.11423065 -0.0095206285 -0.21836844 0.3178496 -0.41759855 0.10404588 0.11725445
0.2769827 -0.08026724 0.16668501 -0.11468793 0.04067524 -0.1982857 -0.12876764 -0.025668528
0.27806765 -0.29909182 0.18472062 -0.4057737 -0.4989835 0.10342714 -0.1662093 0.15290944
0.1608439 -0.0960851 -0.24230388 -0.40067622 -0.22979686 -0.12985949 -0.09098851 0.014029265
0.1428703 -0.28135854 0.22076935 -0.10895444 0.15675749 -0.18428221 -0.06291553 0.15186892
0.116156645 -0.058340468 -0.17047404 -0.109015964 0.03475882 -0.12929964 -0.16262448 0.28996947
0.4316836 0.029517433 0.22559936 0.09658261 0.3797658 -0.37310666 0.09296036 0.09787677
-0.03944706 -0.08193413 0.011163245 0.28734785 -0.12663627 -0.49743453 -0.24152027 0.12168071
00000000: 3427 10be eeb1 a63e d3d0 0bbf 7290 0bbe
00000010: ffad 08be 0765 78be ef95 3fbe 30e2 8cbe
00000020: 2b6f e93e 90ca 693e 5e84 293d 56d6 473d
00000030: 804e 3cbe f3cb 083e 785a 56be 55f9 cb3e
00000040: d37f f83d ddb6 5ebd ee7e 13bd 582f 58bd
00000050: f307 1a3e 8543 2cbd dd6f 903e be94 5a3e
00000060: 2b42 69bd 58cb 29bd 4998 83bd a8f3 89be
00000070: 4a61 29be 160d 0b3f 34c3 ad3d 783f 3bbe
00000080: 70c4 85be c6fd 8dbe d84e d1bd afdd 043e
00000090: 2e35 d03c 932c d7be aa5d 2f3d 5d64 aebc
000000a0: 0f86 0e3d 8723 ef3e ab6d e43d 824f 0d3e
000000b0: a636 93be d0c9 4cbe 09a7 c8bd e9e4 79bc
000000c0: b6d4 ee3e 53f2 5ebe 9835 883e e6b4 02be
000000d0: 5a63 e7be 08f2 65bc 6f8e 163d d784 083c
000000e0: 009e fbbd 8de4 ddbe a054 74be 0fe2 ba3c
000000f0: fc1d 7cbe 02b3 133e 09ff 16bf fada 993e
00000100: 6c2d 1fbe 125b a3be a524 20be d92b bd3d
00000110: 72fb e73e 4dff c93d 0108 30bc 680f 833d
00000120: 6551 5b3d f764 b6be a410 62be 5d2c 5a3e
00000130: 89ab 493e e04e 69be 077c 3cbe f3bf c73d
00000140: 0f42 ad3d c2f1 e9bd 69fc 1bbc fa9b 5fbe
00000150: 2fbd a23e 7acf d5be 0216 d53d 1a23 f03d
00000160: add0 8d3e 2763 a4bd 7aaf 2a3e 81e1 eabd
00000170: 159b 263d 680b 4bbe aadb 03be ce46 d2bc
00000180: e25e 8e3e 9022 99be 6727 3d3e 92c1 cfbe
00000190: c47a ffbe 9cd1 d33d c532 2abe 4b94 1c3e
000001a0: 43b4 243e 44c8 c4bd 821e 78be 6f25 cdbe
000001b0: de4f 6bbe e3f9 04be 2f58 babd 01db 653c
000001c0: 984c 123e 3a0e 90be 5c11 623e 8123 dfbd
000001d0: 0985 203e 7ab4 3cbe dbd9 80bd 8783 1b3e
000001e0: 89e3 ed3d 6af6 6ebd bf90 2ebe c343 dfbd
000001f0: 445f 0e3d 2067 04be 0887 26be e176 943e
00000200: a205 dd3e 8bce f13c 8503 673e 1acd c53d
00000210: aa70 c23e d607 bfbe 0062 be3d 9e73 c83d
00000220: 3e93 21bd 15cd a7bd 0be6 363c 421f 933e
00000230: f0ac 01be bdaf febe 1751 77be bc33 f93d

bias f4 [12]
-0.18259664 -0.3629202 -0.3009978 -0.38464954 -0.18767084 -0.42086214 -0.0007808765 -0.45370182
-0.13423221 -0.19170855 -0.26009944 -0.043522567
00000000: 9dfa 3abe add0 b9be 621c 9abe c9f0 c4be
00000010: c92c 40be 3e7b d7be bcb3 4cba 9b4b e8be
00000020: 2b74 09be 3f4f 44be c12b 85be b844 32bd
