MQCNN-4qubits-5class-CIFAR/Models_V1/model_3.pt (torch, 110219 bytes, 23 tensors)

weights f4 [7]
0	0x40c11445	6.0337243
1	0x406586c3	3.5863502
2	0x3e97c97e	0.29645914
3	0x40247fec	2.5703077
4	0x3fcc8c4b	1.5980314
5	0x3fb289cd	1.3948303
6	0x3fe2f121	1.7729837

weights f4 [7]
0	0x40a6d548	5.2135353
1	0x3fe63d7e	1.7987516
2	0x4034fcd2	2.827931
3	0x408b0d23	4.3453536
4	0x4063adbb	3.5574787
5	0x4012c839	2.2934706
6	0x3ef859e0	0.4850607

weights f4 [7]
0	0x40a4b9de	5.147689
1	0x3faa2f97	1.3295773
2	0x401e884a	2.4770684
3	0x3ffaa6f1	1.9582196
4	0x408ca27e	4.3948355
5	0x3f9366a9	1.1515704
6	0x40419041	3.0244296

weights f4 [7]
0	0x400957e5	2.1459897
1	0x3f07cf0e	0.53050315
2	0x405589fe	3.3365474
3	0x4081a126	4.0509214
4	0x3fed982f	1.8562068
5	0x408f7215	4.482676
6	0x3fd158d8	1.6355238

weights f4 [7]
0	0x40af5358	5.478924
1	0x40ad74ea	5.4205217
2	0x3fd35aba	1.6512063
3	0x40898d5e	4.2985067
4	0x406ebd4d	3.730304
5	0x40987956	4.7648115
6	0x409b0ac2	4.845063

weights f4 [7]
0	0x40c14951	6.0401998
1	0x3ffead88	1.9896708
2	0x3eff1b5d	0.49825564
3	0x40a099c7	5.0187716
4	0x40a86a31	5.262963
5	0x40a26eee	5.076041
6	0x3fa3b066	1.2788208

weights f4 [8]
0	0x3ff6b103	1.927277
1	0x403ed0c8	2.981493
2	0x406fb375	3.7453282
3	0x3f3b2507	0.73103374
4	0x40551236	3.3292365
5	0x404a25f0	3.1585655
6	0x407f9fa1	3.994118
7	0x4038a692	2.8851666

weights f4 [8]
0	0x402caa8b	2.697909
1	0x40981ad5	4.7532754
2	0x40ae91bb	5.4552894
3	0x4026c203	2.6055915
4	0x40aa6225	5.3244805
5	0x40a3a94d	5.1144166
6	0x4038d2a8	2.8878574
7	0x40479f12	3.119084

weights f4 [8]
0	0x3ebd2cb4	0.36948168
1	0x40a51a57	5.1594653
2	0x3fc79f92	1.5595572
3	0x405081c2	3.2579198
4	0x40139842	2.306168
5	0x3f6ee3aa	0.9331614
6	0x4043af01	3.0575564
7	0x40a662c5	5.199557

weights f4 [16]
0	0x4087a44d	4.2388062
1	0x406886ef	3.6332357
2	0x3ffbcfa4	1.9672742
3	0x40b54efa	5.6658907
4	0x400ccd1d	2.2000191
5	0x4071f3b4	3.7804995
6	0x4021c3e7	2.527582
7	0x408e2ec5	4.443209
8	0x3eb27467	0.34854433
9	0x40a01bac	5.003378
10	0x3fc26b92	1.5189078
11	0x4015f0b2	2.3428159
12	0x40249b41	2.571976
13	0x3feb505d	1.83839
14	0x40861ed0	4.1912613
15	0x40779cc5	3.8689435

weights f4 [16]
0	0x4093c73b	4.61807
1	0x40c6588a	6.198308
2	0x3e980a7d	0.29695502
3	0x40245578	2.5677166
4	0x3f2d93d4	0.6780369
5	0x4046a786	3.1039748
6	0x40309e3c	2.7596579
7	0x3f8234cf	1.0172366
8	0x3ffb74bf	1.9645003
9	0x409a2fbe	4.818328
10	0x40c57c85	6.17145
11	0x40a335b8	5.1003075
12	0x407eac96	3.9792838
13	0x40bb0b52	5.845132
14	0x4058fc54	3.390401
15	0x3ec5e2e1	0.38649657

weights f4 [16]
0	0x3f39fec3	0.7265436
1	0x3f4cb958	0.7997031
2	0x3fcd0219	1.6016265
3	0x3fc9d7b9	1.5768958
4	0x3fb9783e	1.448982
5	0x4081890e	4.0479803
6	0x3f733103	0.9499666
7	0x3fba7c89	1.4569255
8	0x3f8164a0	1.0108833
9	0x40212588	2.5179157
10	0x40a0121a	5.0022097
11	0x406399b5	3.5562565
12	0x40215e0c	2.5213652
13	0x4016884c	2.352069
14	0x403734ff	2.8626096
15	0x40a8f2c2	5.2796335

weights f4 [12]
0	0x40423c37	3.0349252
1	0x40afb0fa	5.4903536
2	0x40031233	2.0479858
3	0x4037d96c	2.8726454
4	0x40c3c53f	6.117828
5	0x409d885c	4.9228954
6	0x40af1d39	5.472317
7	0x402d1ff3	2.705075
8	0x404877df	3.1323164
9	0x4074cbd9	3.8249419
10	0x3f886ece	1.0658815
11	0x406da3f5	3.7131321

weights f4 [12]
0	0x3f1f4729	0.62217957
1	0x40994102	4.7891855
2	0x3db15fcf	0.08660852
3	0x3fbd7b74	1.48033
4	0x3f072c48	0.5280194
5	0x4041d67c	3.028716
6	0x4080d450	4.025917
7	0x409dc21f	4.9299464
8	0x405a89d2	3.414662
9	0x3f20b60e	0.62777793
10	0x40a79adf	5.237655
11	0x406e2c59	3.7214568

weights f4 [12]
0	0x40656328	3.584177
1	0x3fc49cc5	1.5360342
2	0x3ccee38d	0.025254989
3	0x3ff209dc	1.8909259
4	0x40927a8b	4.577459
5	0x40371393	2.8605697
6	0x4066a92b	3.6040752
7	0x3fa7f2ba	1.3120949
8	0x4023ea03	2.561158
9	0x4005b478	2.08914
10	0x40c2ba2c	6.085226
11	0x4070c48e	3.7619967

weight f4 [5]
0	0x3f898cbb	1.0746073
1	0x3f8d1f33	1.1025146
2	0x3f89c264	1.0762448
3	0x3f8d149f	1.1021918
4	0x3f8c7a43	1.0974811

bias f4 [5]
0	0xbc63eded	-0.013911706
1	0x3dc89b3f	0.09795236
2	0x3cca6491	0.024706157
3	0xbce60af3	-0.028081393
4	0xbd0cf0aa	-0.034409203

running_mean f4 [5]
0	0x3e10184c	0.14071769
1	0x3d6d5926	0.057946347
2	0x3fbc5e52	1.4716284
3	0x3e688cb2	0.22709921
4	0x3f25b3d3	0.64727515

running_var f4 [5]
0	0x3ddd36e5	0.10801486
1	0x3e055fce	0.13024828
2	0x3e7c5aee	0.24644062
3	0x3dca6b30	0.09883726
4	0x3da0afd6	0.07846038

weight f4 [32, 80]
0	0xbd245cc9	-0.04012755
1	0xbb14ffb7	-0.0022735426
2	0xbdf87f02	-0.121336
3	0xbdd6c00d	-0.104858495
4	0xbc36d46a	-0.011159042
5	0x3d06782b	0.032829445
6	0xbcfb8f47	-0.030707968
7	0xbdccee12	-0.10006346
8	0x3da3d1dc	0.07999012
9	0x3e12b61a	0.14327279
10	0x3de9cca2	0.11415984
11	0xbdc07505	-0.0939732
12	0x3b7c1e3d	0.0038470172
13	0x3c8e020b	0.017334959
14	0x3e0ac3be	0.13551232
15	0xbd3ee5db	-0.046605926
16	0xbcbaf37e	-0.022821184
17	0xbb9fa3f3	-0.004871839
18	0xbd84eca3	-0.06490447
19	0xbd01fc29	-0.03173462
20	0xbc94a283	-0.018143898
21	0xbe06bd38	-0.13158119
22	0x3d214339	0.03937075
23	0x3d93864c	0.072033495
24	0x3d71f50c	0.059071586
25	0xbde4e8bb	-0.11177202
26	0x3dff420f	0.124637716
27	0x3e235a01	0.15952303
28	0xbdc079c2	-0.093982235
29	0xbdbb2ce9	-0.09139425
30	0x3d4842d9	0.048891876
31	0x3cb94ded	0.022620166
32	0xbd9e3ae6	-0.07726078
33	0x3de8b006	0.11361699
34	0x3ccb6d42	0.024832372
35	0xbe00c444	-0.1257487
36	0xbc3dd544	-0.011586491
37	0x3d6264d3	0.055271935
38	0xbdb986c4	-0.09058908
39	0x3d612812	0.054969855
40	0x3db5dabd	0.08879612
41	0x3db60716	0.0888807
42	0xbdbc806d	-0.09204183
43	0xbd13f793	-0.036124777
44	0x3ded6e25	0.11593274
45	0x3c2fbd14	0.010726232
46	0x3df2e578	0.11860174
47	0xbd896a95	-0.06709782
48	0xbd36f63a	-0.044668414
49	0xbd227036	-0.039657794
50	0x3e0027b9	0.12515153
51	0xbcd52533	-0.026018715
52	0x3df38c60	0.11892009
53	0x3c2f8b6f	0.010714396
54	0x3e0e94af	0.13923906
55	0x3d6dcbb2	0.058055587
56	0x3e06e003	0.13171391
57	0x3d4d624a	0.050142564
58	0xbc9f7939	-0.019466983
59	0x3de9d28a	0.1141711
60	0x3df65151	0.120272286
61	0x3d10c0d2	0.035340138
62	0x3dd34a49	0.10316903
63	0x3c2187b5	0.009859015
64	0xbc30a25e	-0.010780899
65	0xbbd37996	-0.006453703
66	0xbd937688	-0.072003424
67	0x3c4e981b	0.012609507
68	0xbd77b270	-0.060472906
69	0xbd5d429c	-0.0540186
70	0xbd576e28	-0.052595288
71	0xbc68280a	-0.014169702
72	0xbd8b3e0b	-0.06798943
73	0xbd2d2b67	-0.04227772
74	0xbd9a39f1	-0.07530583
75	0xbd9b0b65	-0.07570533
76	0xbddf1d3d	-0.10894249
77	0xbd6f8240	-0.058473825
78	0xbde5cf38	-0.112211645
79	0xbe113bc0	-0.14182949
80	0x3bb74fcb	0.005594229
81	0xbd8b8e0b	-0.06814202
82	0xbd6b338b	-0.057422202
83	0x3c6f7d5c	0.01461729
84	0x3d11bbf0	0.03557962
85	0xbd0d6501	-0.034520153
86	0x3da414bf	0.080117695
87	0x3d3d00de	0.046143405
88	0x3d2e384a	0.04253415
89	0xbdfe0076	-0.12402432
90	0xbdd0aa56	-0.10188739
91	0x3ce23e11	0.027617486
92	0x3b3679b6	0.0027843541
93	0xbd651fc7	-0.05593851
94	0x3d3176a3	0.04332603
95	0x3d06613a	0.032807566
96	0x3ceb5213	0.02872566
97	0xbd8fabea	-0.07015212
98	0xbdd1ea71	-0.10249794
99	0x3d2da882	0.04239703
100	0xbd607af8	-0.054804772
101	0xbdb4a332	-0.088201895
102	0x3d78e296	0.060762964
103	0xbdf47f46	-0.11938338
104	0x3d80b60b	0.06284722
105	0xbca99fc3	-0.020706063
106	0xbdcfd63f	-0.10148286
107	0x3cea59e0	0.028607309
108	0x3d73b843	0.059501898
109	0x3d91fb00	0.071279526
110	0xbc719f4f	-0.014747455
111	0x3e08b666	0.1335083
112	0xbdaf09ac	-0.08546767
113	0xbdab9671	-0.08378304
114	0x3d37d0f4	0.044877008
115	0x3d323745	0.04350974
116	0x3d5575b3	0.0521142
117	0xbbb1c9e0	-0.0054256767
118	0x3d8e4404	0.06946567
119	0xbbfba22a	-0.0076792436
120	0x3c8fe427	0.017564846
121	0x3dc0f1cf	0.09421121
122	0xbc966c67	-0.018362237
123	0xbd749425	-0.059711594
124	0xbb77ad9d	-0.003779269
125	0xbca61ede	-0.02027839
126	0x3cc58945	0.024113307
127	0xbc58a65a	-0.013223255
128	0x3dd2ce53	0.102932595
129	0x3da6f5b1	0.08152331
130	0x3dca7ab1	0.09886683
131	0x3e063368	0.13105547
132	0xbd7289d1	-0.059213463
133	0x3d99ec60	0.07515788
134	0x3c7bfd2d	0.015380186
135	0x3d4e6b97	0.050395574
136	0x3d925e7a	0.07146926
137	0xbca01216	-0.019539874
138	0x3e249de8	0.16075861
139	0xbd151918	-0.036400884
140	0xbd804e16	-0.06264894
141	0xbc218d9d	-0.009860423
142	0x3d478216	0.048708044
143	0x3b9f422d	0.0048601837
144	0xbdabcba5	-0.083884515
145	0xbd98842d	-0.074470855
146	0xbb87183e	-0.004122763
147	0x3cc178a8	0.023617104
148	0x3cac86e9	0.021060424
149	0x3ccaa4ac	0.024736725
150	0xbdb3bc0d	-0.08776102
151	0xbbe1608b	-0.006877964
152	0x3da06df6	0.078334734
153	0xbdac264a	-0.084057406
154	0x3d936f7e	0.07199
155	0xbd13ec3f	-0.036113974
156	0x3d5804a9	0.05273882
157	0xba88e26d	-0.0010443457
158	0xbd9d4f9c	-0.076812
159	0xbb63519d	-0.0034686096
160	0x3cdf65ad	0.027270162
161	0x3e2fb2ac	0.17158002
162	0xbc7fc8ce	-0.01561184
163	0xbbf26bb0	-0.0073980913
164	0x3e176ce8	0.14787638
165	0x3db480da	0.08813639
166	0x3defd1e4	0.11709955
167	0x3d4d4106	0.05011084
168	0x3de48f9e	0.11160205
169	0x3de2f751	0.11082328
170	0x3de849f0	0.113422275
171	0x3d8ffddd	0.070308425
172	0xbc46f82f	-0.0121441325
173	0xbc3b3b35	-0.01142769
174	0xbd26bbf4	-0.04070659
175	0xbd09a191	-0.033601347
176	0xbda35a8a	-0.07976253
177	0xbddce870	-0.107865214
178	0xbdaaead3	-0.083455704
179	0xbd8e65a7	-0.069529824
180	0xbd25dcfa	-0.040493943
181	0x3dcba1a5	0.099429406
182	0xbdb02b7e	-0.086020455
183	0xbd3a1af9	-0.04543588
184	0x3d76eddc	0.060285434
185	0xbc60b00c	-0.013713848
186	0xbdf84446	-0.12122397
187	0xbddc9d97	-0.107722454
188	0x3d4c148c	0.049824283
189	0xbd04eb2e	-0.032450847
190	0x3d5a3a75	0.053278405
191	0xbc8799cb	-0.016552826
192	0x3e017006	0.1264039
193	0xbcc52c28	-0.024068907
194	0x3db468d9	0.088090606
195	0xbd79ec46	-0.061016344
196	0xbd02a00d	-0.031890918
197	0x3e1b8a01	0.15189363
198	0x3d3a9490	0.045551836
199	0x3d8d27f7	0.06892388
200	0xbdd508d0	-0.104020715
201	0xbda2060e	-0.07911311
202	0x3e0d0fa3	0.13775496
203	0x3db65b70	0.08904159
204	0xbe02db88	-0.12779057
205	0xbd95ea41	-0.07320071
206	0x3dd3c123	0.10339572
207	0xbd2a2ffb	-0.041549664
208	0xbcc3163c	-0.023814313
209	0xbd261f2b	-0.040557068
210	0x3e0c1636	0.13680348
211	0xbd15ea61	-0.036600474
212	0xbd28615a	-0.041108467
213	0x3dbe3346	0.092871234
214	0xbd68426b	-0.056703966
215	0x3dd14cec	0.1021975
216	0x3ddacab6	0.10683195
217	0xbde42cf0	-0.11141384
218	0xbdb5e212	-0.0888101
219	0x3dd27de0	0.10277915
220	0x3d165b77	0.03670832
221	0xbd944078	-0.07238859
222	0x3d711c82	0.058865078
223	0x3df88332	0.121343985
224	0xbd39c1a8	-0.0453507
225	0x3d0e9c50	0.03481704
226	0xbddc6084	-0.107605964
227	0xbdc2336b	-0.094824634
228	0xbdc9585e	-0.09831308
229	0x3d9afb8c	0.0756751
230	0xbd461aeb	-0.048365515
231	0xbda3ccc5	-0.07998041
232	0xbc37723c	-0.011196669
233	0xbda66730	-0.0812515
234	0xbda18101	-0.07885934
235	0x3d198a19	0.037485216
236	0x3d14f342	0.0363648
237	0xbdb10dff	-0.08645248
238	0xbd15ce18	-0.0365735
239	0x3da180c0	0.07885885
240	0xbd0f45bd	-0.034978617
241	0xbdc5f427	-0.09665709
242	0x3ca86c11	0.020559343
243	0xbd8b1a4a	-0.067921236
244	0xbba4bf69	-0.0050277007
245	0x3cad3044	0.021141179
246	0xbc80c5ea	-0.015719373
247	0x3d3945aa	0.045232452
248	0xbd2e16fb	-0.042502385
249	0xbc9ce17e	-0.019150492
250	0x3ca80a09	0.020512598
251	0xbdaf77b9	-0.08567757
252	0xbde74712	-0.112928525
253	0x3cd703b3	0.026246881
254	0xbd659ff5	-0.05606075
255	0xbe0e9374	-0.13923436

bias f4 [32]
0	0xbce46b53	-0.027883207
1	0x3d27d621	0.040975694
2	0x3e260275	0.16211875
3	0x3d8eb933	0.06968918
4	0x3d9049a8	0.07045299
5	0x3c8ca8fd	0.017170424
6	0x3e43f6c3	0.19137101
7	0x3da8f4ac	0.082497925
8	0x3dbfb452	0.09360565
9	0x3d97af1d	0.07406447
10	0x3d539b30	0.05166167
11	0x3df36ba9	0.11885769
12	0x3deecf09	0.116605826
13	0xbb816934	-0.003949309
14	0xbd53a41f	-0.05167019
15	0xbdafc3b5	-0.0858225
16	0xbbec3ffc	-0.007209776
17	0xbab20daa	-0.0013584394
18	0xbd1efd9f	-0.03881609
19	0x3d293f64	0.04132022
20	0x3e04c786	0.12966737
21	0xbcb802dd	-0.022462303
22	0x3e0b2f8e	0.1359236
23	0xbcb0c3f3	-0.02157781
24	0x3e1340a6	0.1438013
25	0xbb41b231	-0.0029555673
26	0x3d417513	0.04723079
27	0x3dcba241	0.09943057
28	0x3e1d6155	0.1536916
29	0xbc3e345e	-0.011609165
30	0xbde1c122	-0.11023165
31	0x3dab7385	0.08371643

weight f4 [10, 32]
0	0x3e343d95	0.17601617
1	0x3e0214b5	0.12703212
2	0x3dfe6494	0.124215275
3	0x3e0098c3	0.12558274
4	0x3d9cd5cb	0.07657965
5	0x3cda5ce3	0.02665562
6	0x3d232f31	0.039839927
7	0xbe18e0f8	-0.14929569
8	0xbd9b79bc	-0.07591578
9	0xbdd5979d	-0.104293086
10	0x3e4b1338	0.1983155
11	0x3deae89c	0.11470148
12	0x3e24389e	0.16037223
13	0x3e035995	0.12827142
14	0x3e317b99	0.17332305
15	0xbe11509a	-0.14190903
16	0x3cbae5f5	0.02281473
17	0x3dd7d978	0.10539526
18	0x3e37c6c8	0.17946923
19	0xbe11aa75	-0.1422518
20	0x3ddb2fc8	0.10702473
21	0x3e193691	0.14962222
22	0x3e02446e	0.12721416
23	0x3e217f70	0.1577127
24	0x3e39133d	0.18073745
25	0x3d4439ef	0.047906812
26	0xbdc92b0f	-0.09822666
27	0xbe097218	-0.1342243
28	0x3e448ca9	0.19194283
29	0xbe3a1da2	-0.18175367
30	0x3ba92503	0.005161883
31	0x3d9edf33	0.077574156
32	0xbd80e3ac	-0.06293425
33	0x3e15068e	0.14553282
34	0x3e074457	0.13209663
35	0x3e53addc	0.20671791
36	0x3de5695a	0.11201735
37	0xbe4e6760	-0.20156622
38	0x3e4db143	0.20087151
39	0x3e5ba350	0.21449018
40	0x3d18d0c7	0.03730848
41	0x3d419021	0.047256593
42	0x3e646257	0.22303139
43	0xbe053465	-0.13008268
44	0x3e78f92a	0.24313799
45	0xbbec862d	-0.0072181434
46	0x3d3ae23c	0.04562591
47	0x3e09f1a2	0.13471082
48	0x3d1129b7	0.035440173
49	0x3e3712f2	0.17878321
50	0x3dc139b2	0.09434833
51	0x3ce3c3ec	0.027803384
52	0x3e59f455	0.21284612
53	0x3c902786	0.017596971
54	0x3d986640	0.07441378
55	0xbe146bc8	-0.1449424
56	0xbdfcf411	-0.123512395
57	0xbe141925	-0.14462717
58	0x3d267de7	0.040647414
59	0x3e148b52	0.14506271
60	0x3da205bf	0.07911252
61	0xbdfd9d8b	-0.123835646
62	0xbe1c14a5	-0.1524225
63	0x3d1b8733	0.037970733
64	0xbd96b3d8	-0.07358521
65	0xbde2728a	-0.11057003
66	0x3ddd6305	0.10809902
67	0x3d433c62	0.047665007
68	0x3d2e35af	0.042531665
69	0xbdd2478a	-0.10267551
70	0x3e148613	0.1450427
71	0xbe26121f	-0.1621785
72	0x3e506659	0.20351543
73	0x3e38d014	0.18048126
74	0x3d7d26db	0.061804634
75	0x3e5b8667	0.21437989
76	0x3e4fff1b	0.20312159
77	0x3e323c53	0.17405824
78	0xbdac0c03	-0.084007286
79	0xbd87dee8	-0.06634313
80	0x3e5f756e	0.2182214
81	0xbd00660f	-0.03134733
82	0xbcff3a46	-0.031155717
83	0xbdbdec6d	-0.0927361
84	0x3d28d52f	0.041218933
85	0x3dc83ac2	0.09776832
86	0x3e5682f8	0.20948398
87	0xbcdcacdf	-0.0269379
88	0x3bff4b94	0.007790992
89	0xbdcde327	-0.100530915
90	0x3e25635c	0.16151184
91	0x3c63c9fc	0.013903137
92	0x3e5bd9ef	0.21469854
93	0x3dd6e3e6	0.10492687
94	0x3ca278b9	0.019832956
95	0x3e02a842	0.12759498
96	0x3e37c15c	0.17944854
97	0xbe01378c	-0.12618846
98	0x3e659161	0.22418739
99	0x3d015f69	0.03158513
100	0x3de33408	0.110939085
101	0x3e6411f2	0.2227247
102	0x3db4fbb1	0.08837069
103	0x3e1713ea	0.1475369
104	0x3e0e6a7e	0.13907811
105	0xbd9a3625	-0.075298585
106	0xbd50fde4	-0.05102338
107	0x3dc49586	0.09598832
108	0xbc9a3a4d	-0.018826628
109	0x3e0357b1	0.1282642
110	0xbd611388	-0.054950267
111	0xbd861c12	-0.06548323
112	0x3df4f656	0.11961047
113	0x3e5b04a3	0.21388488
114	0x3d27bde4	0.04095258
115	0x3d9f6b24	0.07784107
116	0xbd1fd68d	-0.03902297
117	0xbdd54a34	-0.10414544
118	0x3df481bd	0.11938808
119	0x3e126f8c	0.14300364
120	0x3e22fb31	0.15916134
121	0xbe19412b	-0.14966266
122	0x3d9b8068	0.07592851
123	0xbd69728d	-0.05699401
124	0x3c0d21bf	0.008614003
125	0x3e0200d6	0.12695631
126	0x3be58af9	0.007005092
127	0xbd0ab389	-0.033862624
128	0xbdd1a121	-0.10235811
129	0x3d2071eb	0.03917114
130	0x3c99932a	0.018746931
131	0x3986e63f	0.00025730018
132	0x3d61319c	0.05497895
133	0x3e80d2ab	0.25160727
134	0x3c2becea	0.010493496
135	0xbd2bebdf	-0.04197299
136	0x3d1ced08	0.038311988
137	0x3e44835a	0.19190732
138	0x3e3a76a1	0.18209316
139	0x3e0cd0a2	0.13751462
140	0x3cf0602c	0.029342733
141	0x3c94f54e	0.018183377
142	0xbcc29414	-0.02375225
143	0xbbd6fb23	-0.0065606995
144	0xbc92353f	-0.017847655
145	0xbd971466	-0.073769376
146	0xbd7eb6c1	-0.062186006
147	0x3e090885	0.13382156
148	0x3d5a9b32	0.053370662
149	0x3dc57e71	0.096432574
150	0x3d12ee36	0.035871707
151	0x3db775bd	0.08958004
152	0x3dec8faa	0.11550839
153	0xbd089741	-0.033347372
154	0x3e0a4d3a	0.13506022
155	0x3d8a8684	0.06763938
156	0x3e7708a4	0.2412439
157	0xbdb79abe	-0.089650616
158	0x3d5651ea	0.052324213
159	0x3d19d4f5	0.037556607
160	0x3ca77fa2	0.020446602
161	0x3d5694eb	0.052388113
162	0xbe3c864c	-0.18410605
163	0xbe670948	-0.22562134
164	0xbe6bef8d	-0.230406
165	0xbe093eec	-0.13402909
166	0xbd901a58	-0.07036275
167	0x3d665695	0.056234915
168	0xbe223e83	-0.15844159
169	0xbd8775fa	-0.06614299
170	0xbd20fed2	-0.039305516
171	0xbd002473	-0.03128476
172	0xbe35ef3d	-0.17767043
173	0xbd8e2685	-0.06940941
174	0xbe6f2971	-0.23355652
175	0xbe149205	-0.14508827
176	0x3daa7e5d	0.08324883
177	0xbdb3c4d2	-0.08777775
178	0x3d78bf27	0.060729172
179	0xbd140104	-0.03613378
180	0xbe1a24a8	-0.15053046
181	0x3de3c5f6	0.111217424
182	0xbcebb42a	-0.028772432
183	0xbbfaf96f	-0.0076591293
184	0x3dac1dc2	0.08404113
185	0xbcc13482	-0.023584608
186	0xbe714481	-0.23561288
187	0xbd820ac1	-0.063497074
188	0xbd560eb9	-0.052260134
189	0x3c96679e	0.018359955
190	0x3dbd66fc	0.09248158
191	0xbd4c55d3	-0.049886536
192	0xbe004cea	-0.1252934
193	0xbe626928	-0.22110426
194	0xbcb2ce1b	-0.021826794
195	0x3d24d134	0.040238574
196	0xbe162ec3	-0.14666276
197	0xbc447722	-0.011991294
198	0x3dcdc2cb	0.100469194
199	0xbbcb5ce1	-0.0062061404
200	0x3d47649e	0.04867994
201	0x3d27abc8	0.040935308
202	0x3cff05b5	0.031130651
203	0xbe1adf6f	-0.15124296
204	0xbda03809	-0.07823188
205	0xbdc1d4aa	-0.094643906
206	0xbe2497a3	-0.1607347
207	0xbe20fc61	-0.15721275
208	0xbc7f7cc9	-0.015593716
209	0x3dc58931	0.09645308
210	0xbe0fab1d	-0.14030118
211	0xbd6370e4	-0.055527583
212	0xbe6d131a	-0.23151818
213	0xbc92808f	-0.017883567
214	0x3cba2de7	0.022726966
215	0xbe02363b	-0.12716
216	0x3ddf26e3	0.10896089
217	0xbdbda4de	-0.092599615
218	0xbe7a2243	-0.24427132
219	0xbe380841	-0.17971899
220	0xbda7ab34	-0.08186951
221	0x3d9f5098	0.07779044
222	0x3ce2ef7a	0.027702082
223	0xbd5ef900	-0.054436684
224	0xbe4abee0	-0.19799376
225	0x3bd5bb5a	0.006522578
226	0xbdc1d11e	-0.09463714
227	0x3d676105	0.05648901
228	0xbdc5c331	-0.096563704
229	0x3d93b522	0.07212283
230	0x39ea3eb3	0.00044678673
231	0xbd8c46df	-0.06849455
232	0xbdd10ec8	-0.102078974
233	0xbe2fbce1	-0.17161895
234	0xbc02aca9	-0.007975736
235	0x3d3bd0ea	0.045853533
236	0x3db250ae	0.08706795
237	0xbe2196db	-0.15780203
238	0xbd6bea03	-0.057596218
239	0xbe00f72c	-0.12594289
240	0xbe5bb7e6	-0.2145687
241	0x3d45339f	0.048144933
242	0xbdf192e6	-0.11795597
243	0xbe5d0a05	-0.21585853
244	0xbc8043b7	-0.015657289
245	0x3d466e0f	0.048444804
246	0xbe61a706	-0.2203637
247	0xbdc41d6b	-0.095759235
248	0xbcfe127b	-0.031014672
249	0xbe64da8b	-0.22348993
250	0xbda44397	-0.08020704
251	0xbd069d97	-0.032865133
252	0xbdd3afc7	-0.10336261
253	0x3d88c8c7	0.0667892
254	0xbde7eb47	-0.113241725
255	0xbe7563c3	-0.23963837

bias f4 [10]
0	0x3d001b79	0.0312762
1	0x3e32ee6b	0.17473762
2	0xbbf666ce	-0.0075195795
3	0x3c0f4129	0.008743563
4	0xbd16a281	-0.03677607
5	0xbe1a57a6	-0.15072498
6	0xbe740e55	-0.23833592
7	0x3dc14fd3	0.094390534
8	0xbe49ec74	-0.19719106
9	0xbddd971e	-0.10819839
