MQCNN-4qubits-5class-CIFAR/Models_V1/model_9.pt (torch, 110219 bytes, 23 tensors)

weights f4 [7]
0	0x40c0e9b8	6.02853
1	0x406a5a58	3.6617641
2	0x3ec7d5be	0.3903026
3	0x40248a24	2.5709314
4	0x3fc96f46	1.5737083
5	0x3fb24b4f	1.3929232
6	0x3fe2e502	1.7726138

weights f4 [7]
0	0x40a6e40e	5.2153387
1	0x3fec620a	1.8467419
2	0x40386c0a	2.8815942
3	0x408b2628	4.3484077
4	0x4066c5f9	3.6058333
5	0x40105897	2.255407
6	0x3ef8aa89	0.48567608

weights f4 [7]
0	0x40a4f0a0	5.154373
1	0x3facaa25	1.3489424
2	0x401dba73	2.464505
3	0x3ff9911f	1.9497412
4	0x408bfd06	4.3746367
5	0x3f916dff	1.1361693
6	0x40417de2	3.0233083

weights f4 [7]
0	0x40092a9d	2.143226
1	0x3f049db9	0.51803166
2	0x4054a731	3.3227046
3	0x40819dee	4.0505285
4	0x3ff5e533	1.9210571
5	0x408f7caa	4.483968
6	0x3fd1a721	1.6379129

weights f4 [7]
0	0x40af6d29	5.482075
1	0x40ac42a7	5.3831363
2	0x3fe01def	1.7509135
3	0x40899bcf	4.3002696
4	0x406ef071	3.7334254
5	0x40988009	4.7656293
6	0x409aae09	4.8337445

weights f4 [7]
0	0x40c13915	6.038218
1	0x3ff96dad	1.9486595
2	0x3ef39f49	0.47582462
3	0x40a09944	5.018709
4	0x40a7cbef	5.243644
5	0x40a273fa	5.0766573
6	0x3fa2f151	1.2729894

weights f4 [8]
0	0x3ff6760d	1.9254776
1	0x403e420a	2.9727807
2	0x4070217f	3.7520444
3	0x3f3aa2fb	0.7290494
4	0x4054be81	3.3241274
5	0x4049a8b7	3.1509225
6	0x407f9c11	3.9939005
7	0x40389f33	2.8847167

weights f4 [8]
0	0x402c95e4	2.6966486
1	0x40990e62	4.7830057
2	0x40adbb9d	5.429152
3	0x4026c34e	2.6056705
4	0x40aa7cf8	5.327755
5	0x40a50501	5.156861
6	0x4038f636	2.8900275
7	0x40479ecc	3.1190672

weights f4 [8]
0	0x3ebe05e6	0.37113875
1	0x40a65eac	5.1990566
2	0x3fcc5e59	1.5966293
3	0x405048f4	3.2544527
4	0x4010acfe	2.2605586
5	0x3f7cb622	0.9871541
6	0x40438c00	3.05542
7	0x40a6661d	5.199965

weights f4 [16]
0	0x408599e0	4.1750336
1	0x4067cc4f	3.621845
2	0x3ffac65c	1.9591784
3	0x40b545d9	5.6647763
4	0x4009081d	2.1411202
5	0x40719c9d	3.775184
6	0x4026f6bd	2.6088097
7	0x408be4e9	4.371693
8	0x3ead4f2d	0.3384947
9	0x409dab40	4.9271545
10	0x3fcc3248	1.5952845
11	0x40120655	2.2816365
12	0x40280e0b	2.625857
13	0x3feb60a6	1.838887
14	0x4082707f	4.0762324
15	0x40777162	3.8662953

weights f4 [16]
0	0x40918267	4.5471683
1	0x40c26f5f	6.076095
2	0x3e7ffec7	0.24999534
3	0x40238b88	2.5553913
4	0x3f1ebafd	0.6200407
5	0x404dd8fd	3.216369
6	0x40326139	2.787184
7	0x3f8e3725	1.1110579
8	0x3ffae676	1.9601581
9	0x409ca06d	4.894583
10	0x40c04963	6.0089583
11	0x40a3ff65	5.124926
12	0x4077c795	3.8715565
13	0x40bb08c2	5.844819
14	0x405f6a68	3.4908695
15	0x3ec4095d	0.38288394

weights f4 [16]
0	0x3f382942	0.71937954
1	0x3f4dc208	0.80374193
2	0x3fc34d89	1.5258037
3	0x3fcd2a89	1.6028606
4	0x3fb7a3a2	1.4346812
5	0x4082fb8b	4.093206
6	0x3f62b114	0.8855145
7	0x3fbf8092	1.4961112
8	0x3f801930	1.0007687
9	0x4021fda8	2.531107
10	0x409feb11	4.9974446
11	0x4066ad56	3.6043296
12	0x4023d3d1	2.5598032
13	0x4016824d	2.351703
14	0x403a0831	2.90675
15	0x40a8f5de	5.280013

weights f4 [12]
0	0x40411550	3.0169258
1	0x40ae20b3	5.4414916
2	0x40042562	2.0647817
3	0x40367bdd	2.85131
4	0x40c3a60c	6.1140194
5	0x409c2800	4.879883
6	0x40ad0cf3	5.4078307
7	0x402fbb8e	2.7458224
8	0x40484a28	3.1295261
9	0x4074c52b	3.8245342
10	0x3f886e99	1.0658752
11	0x406d8049	3.710955

weights f4 [12]
0	0x3f3f2856	0.7467092
1	0x4098e5e9	4.778065
2	0x3e196588	0.14980137
3	0x3fb1d3e2	1.3892787
4	0x3f0107ca	0.5040251
5	0x4043cd57	3.059408
6	0x40838f93	4.111276
7	0x409e00c3	4.937593
8	0x405a84af	3.4143484
9	0x3f20a5fa	0.6275326
10	0x40a79e67	5.238086
11	0x406e39ac	3.72227

weights f4 [12]
0	0x405eb226	3.4796233
1	0x3fc94428	1.5723925
2	0xbbcab2e9	-0.0061858785
3	0x3ffc2cc6	1.9701164
4	0x4094ac74	4.6460514
5	0x403909d0	2.891224
6	0x406e6433	3.7248657
7	0x3fa6ea37	1.3040227
8	0x4023e6df	2.5609663
9	0x4005d098	2.0908566
10	0x40c2cbec	6.087393
11	0x4070d3ac	3.7629194

weight f4 [5]
0	0x3f964eee	1.1742837
1	0x3f98bf42	1.1933367
2	0x3f961d02	1.1727602
3	0x3f9700d0	1.1797123
4	0x3f9c0942	1.2190325

bias f4 [5]
0	0xbd222a92	-0.03959138
1	0x3e1f8ef7	0.1558188
2	0x3dad5d77	0.08465093
3	0xbdb64af8	-0.08901018
4	0xb98b9ecc	-0.0002663046

running_mean f4 [5]
0	0x3e6021b5	0.21887858
1	0x3db4e9aa	0.088336304
2	0x3fc16df4	1.511168
3	0x3caa977e	0.02082419
4	0x3f17222c	0.5903652

running_var f4 [5]
0	0x3deda449	0.116036005
1	0x3e0ca0fb	0.13733284
2	0x3e6d3cb8	0.23167694
3	0x3db16399	0.08661575
4	0x3da0628a	0.07831295

weight f4 [32, 80]
0	0xbd1d39f5	-0.03838535
1	0xbbe30ffc	-0.0069293957
2	0xbe16b686	-0.14718065
3	0xbe106a49	-0.14103045
4	0x3cdc9035	0.026924232
5	0x3d24cf08	0.040236503
6	0xbbc62dbd	-0.006047933
7	0xbdf02df3	-0.11727514
8	0x3dba120f	0.09085476
9	0x3e3b5e4c	0.1829769
10	0x3e0781ac	0.1323306
11	0xbdf2aad6	-0.118489906
12	0x3c681591	0.014165298
13	0x3d8a0b02	0.06740381
14	0x3e15946f	0.14607404
15	0xbd7c5cab	-0.061611813
16	0xbd3946ef	-0.045233663
17	0xbc48c0e1	-0.012253017
18	0xbd8e980a	-0.06962593
19	0xbd333f42	-0.0437615
20	0xbbe9270e	-0.0071152514
21	0xbe21e4d8	-0.15809953
22	0x3cf40419	0.02978711
23	0x3db32ae0	0.08748412
24	0x3d99e014	0.07513443
25	0xbe1aa656	-0.15102515
26	0x3e02cf62	0.12774423
27	0x3e65dfd6	0.22448668
28	0xbdf90e5e	-0.121609434
29	0xbe1ab220	-0.15107012
30	0x3c943868	0.018093303
31	0x3cf176a9	0.029475527
32	0xbd2d8df8	-0.04237172
33	0x3e0c8a75	0.13724692
34	0x3d33dc6f	0.043911394
35	0xbe06ef52	-0.13177231
36	0x3cf4ab63	0.02986688
37	0x3d93d67d	0.07218645
38	0xbda12862	-0.078690305
39	0x3d709810	0.058738768
40	0x3e0c813e	0.13721177
41	0x3e0bf675	0.13668235
42	0xbdd14bd9	-0.10219545
43	0xbd4f190c	-0.050560996
44	0x3e02a80d	0.12759419
45	0x3d9036a0	0.07041669
46	0x3df1c4ab	0.118050896
47	0xbdd90b8b	-0.10597905
48	0xbc620f1c	-0.013797548
49	0xbd162217	-0.036653604
50	0x3e00d355	0.12580617
51	0xbaba3f85	-0.0014209604
52	0x3dddef53	0.10836663
53	0xbcca3724	-0.024684496
54	0x3df0dff4	0.11761466
55	0x3da2f69b	0.079571925
56	0x3e0a59c4	0.13510805
57	0x3cea4ef3	0.028602099
58	0xbbf011b1	-0.0073263277
59	0x3dbcd402	0.09220125
60	0x3dc7250a	0.097238615
61	0x3c725922	0.014791759
62	0x3e0399a1	0.12851574
63	0xbc1c24b5	-0.009530236
64	0xbcc033c6	-0.023462187
65	0x3b07e05e	0.0020733098
66	0xbd5706e7	-0.052496817
67	0x3c4d4627	0.012528933
68	0xbd00c9af	-0.03144234
69	0xbcb67b42	-0.02227557
70	0xbdaedf92	-0.085387364
71	0x3ba8055b	0.0051275915
72	0xbd5fa7d3	-0.05460341
73	0xbd1ecf69	-0.03877202
74	0xbe191416	-0.14949068
75	0xbcf16940	-0.029469132
76	0xbdad9002	-0.08474733
77	0xbdade3fe	-0.08490752
78	0xbe13f179	-0.14447583
79	0xbe369373	-0.17829685
80	0x3c245f9b	0.01003256
81	0xbd86b859	-0.0657813
82	0xbd81cde4	-0.06338099
83	0x3cdc99e0	0.026928842
84	0x3d204c36	0.03913518
85	0xbd84f35d	-0.0649173
86	0x3d5037ee	0.05083459
87	0x3d838897	0.06422537
88	0x3d468a20	0.04847157
89	0xbe35268b	-0.17690484
90	0xbddb2a71	-0.107014544
91	0x3d155469	0.036457453
92	0x3ceaef13	0.028678453
93	0xbd473e43	-0.04864336
94	0x3d7f5c66	0.062343977
95	0x3d669715	0.056296427
96	0x3d053be6	0.032527827
97	0xbd7b1329	-0.06129757
98	0xbdd7be91	-0.105343945
99	0x3cf03c66	0.029325675
100	0xbd45b7cf	-0.048270997
101	0xbdcee968	-0.101031125
102	0x3d611902	0.05495549
103	0xbdfc11c3	-0.12308075
104	0x3d9ff4db	0.07810374
105	0xbd485994	-0.048913553
106	0xbde7b8fb	-0.11314579
107	0x3d56439e	0.05231058
108	0x3d73fa28	0.05956474
109	0x3d6d3204	0.057909027
110	0xbbd94198	-0.006630134
111	0x3e14c427	0.14527951
112	0xbde5b748	-0.11216599
113	0xbde769cc	-0.11299476
114	0x3d022a18	0.031778425
115	0x3cb8f9f6	0.022580128
116	0x3d90f22d	0.07077441
117	0x3cb35151	0.02188936
118	0x3dc261d6	0.09491317
119	0x3cad04ad	0.021120394
120	0x3c87f4db	0.016596248
121	0x3dd8bae8	0.105825245
122	0xbcc1b51e	-0.023645934
123	0xbd64f5de	-0.05589854
124	0xbc774f8d	-0.01509465
125	0xbbd85da2	-0.006602959
126	0x3cc7724b	0.024346491
127	0xbc4611a4	-0.012089167
128	0x3dc340ba	0.0953383
129	0x3db41c85	0.08794502
130	0x3dc74907	0.09730726
131	0x3df9e211	0.12201322
132	0xbd4bd73b	-0.049765807
133	0x3e0749a7	0.1321169
134	0x3d7382bb	0.059450846
135	0x3d9c180b	0.07621773
136	0x3d3678a2	0.04454864
137	0x3c904eea	0.017615754
138	0x3e4fdb5a	0.2029852
139	0xbd0dd63b	-0.034628134
140	0xbdcd29db	-0.10017749
141	0x3b388610	0.002815608
142	0x3d2c8678	0.042120427
143	0xbd0f978e	-0.035056643
144	0xbdd1d38f	-0.1024543
145	0xbdd58b35	-0.10426942
146	0xbd15a6ea	-0.036536135
147	0xbcbeabe7	-0.023275329
148	0x3cb98672	0.022647116
149	0xbc04ce02	-0.008105757
150	0xbdd5817c	-0.10425088
151	0xbd2fe5ce	-0.04294377
152	0x3d8f3cd6	0.069940254
153	0xbdb18e95	-0.086697735
154	0x3dab70bb	0.08371111
155	0xbbc5d1d0	-0.0060369745
156	0x3b8e9d6f	0.0043522636
157	0xbd15a53c	-0.036534533
158	0xbde3ae96	-0.11117284
159	0xbb3c687a	-0.0028748796
160	0x3d7bcfa7	0.06147733
161	0x3e4e2c2d	0.20134039
162	0x3d053e0b	0.032529872
163	0x3d488f8d	0.048965026
164	0x3e328939	0.17435159
165	0x3d88eb26	0.06685476
166	0x3e0c427d	0.13697238
167	0x3dca430b	0.09876069
168	0x3dc3bccf	0.09557497
169	0x3de8246e	0.113350734
170	0x3e0ef984	0.1396237
171	0x3dc729d5	0.09724776
172	0x3ca68d02	0.02033091
173	0x3d165fff	0.036712643
174	0x3c102048	0.008796759
175	0x3cc50540	0.024050355
176	0xbda23c90	-0.07921708
177	0xbdda2f2b	-0.10653528
178	0xbdbe4c95	-0.092919506
179	0xbdbe10d1	-0.09280551
180	0x3c8ecb45	0.01743091
181	0x3e1b40ef	0.15161489
182	0xbda106d9	-0.07862634
183	0xbd5ee3b1	-0.054416362
184	0x3e118137	0.14209448
185	0xbcc08929	-0.023502903
186	0xbe2774f8	-0.16353214
187	0xbdbe173a	-0.09281774
188	0x3dd5ca21	0.10438944
189	0xbd54eb06	-0.05198195
190	0x3bb807d3	0.005616167
191	0xbcbc7767	-0.023006154
192	0x3dee6e7a	0.116421655
193	0x3c101dcd	0.008796168
194	0x3e0b2779	0.13589276
195	0xbcf254ea	-0.029581506
196	0xbd8bcc20	-0.06826043
197	0x3e1ba24e	0.15198633
198	0x3da21ad4	0.07915273
199	0x3de49d15	0.111627735
200	0xbe2d6e12	-0.1693652
201	0xbdb3e16e	-0.08783232
202	0x3e3b4323	0.1828733
203	0x3de09d09	0.10967452
204	0xbe215979	-0.15756787
205	0xbd640d4e	-0.05567675
206	0x3dedc279	0.11609358
207	0xbd070524	-0.032963887
208	0xbd540ad2	-0.05176813
209	0xbd492599	-0.04910812
210	0x3dd7bdf1	0.10534275
211	0xbd9b42e4	-0.07581118
212	0xbd5594b0	-0.052143753
213	0x3d7b76ba	0.061392523
214	0xbdc7fd9c	-0.09765169
215	0x3db0cdb8	0.08632988
216	0x3d84426f	0.06457984
217	0xbe46b02d	-0.19403143
218	0xbe0d59c9	-0.13803782
219	0x3dbcfab2	0.09227504
220	0xbb4e587f	-0.0031485853
221	0xbdfb64f7	-0.12275117
222	0x3d318e14	0.043348387
223	0x3df47733	0.11936798
224	0xbd86aebd	-0.065762974
225	0x3d0cfb28	0.03441921
226	0xbdc6e8f5	-0.09712402
227	0xbe0b6ce9	-0.13615765
228	0xbda0f370	-0.07858932
229	0x3e2bd460	0.16780233
230	0xbc07e592	-0.00829448
231	0xbdc18324	-0.09448841
232	0x3d420de0	0.047376513
233	0xbc046c08	-0.008082397
234	0xbde81a2a	-0.113331154
235	0x3b44c907	0.0030027048
236	0x3d5ca962	0.053872474
237	0xbd40e4ea	-0.04709331
238	0xbd6eedb8	-0.058332175
239	0x3d634909	0.055489574
240	0xbc93de98	-0.018050477
241	0xbdbab68e	-0.09116851
242	0x3c955606	0.018229496
243	0xbd0b48ac	-0.034004852
244	0x3c67a2a9	0.014137902
245	0xbcdfcdf9	-0.027319895
246	0xbd1bb05f	-0.038009997
247	0x3dbb6445	0.09149984
248	0xbc67630c	-0.014122736
249	0xbd4d4492	-0.050114222
250	0x3c4c2228	0.012459315
251	0xbd2d4af6	-0.042307816
252	0xbd9c58fd	-0.07634161
253	0x3caf3a8b	0.02139022
254	0xbd7572fd	-0.059924114
255	0xbe0317d3	-0.12802057

bias f4 [32]
0	0x3c911f47	0.01771511
1	0x3d20eb9b	0.03928719
2	0x3e6d6431	0.23182751
3	0x3df31071	0.1186837
4	0x3e2642d0	0.16236424
5	0x3d805760	0.062666655
6	0x3e815202	0.2525788
7	0x3e0f6539	0.14003457
8	0x3e05d4fc	0.13069528
9	0x3dc80a98	0.097676456
10	0x3db45747	0.08805709
11	0x3e3635de	0.17793986
12	0x3e11cb3a	0.14237681
13	0x3cf84cc6	0.030310046
14	0xbc7566fd	-0.014978168
15	0xbd94435b	-0.072394095
16	0x3d30e143	0.043183576
17	0x3dc0ac05	0.0940781
18	0x3c25f56f	0.010129317
19	0x3da869f7	0.08223336
20	0x3e1e6f5c	0.15472168
21	0xbd1ee2bc	-0.03879045
22	0x3e347573	0.17622928
23	0x3d2880ee	0.041138582
24	0x3e573905	0.21017845
25	0x3c473c01	0.012160302
26	0x3d96c623	0.0736201
27	0x3e16142c	0.14656132
28	0x3e39a332	0.1812866
29	0x3ce47792	0.027889047
30	0xbd5e583d	-0.05428337
31	0x3dcfa725	0.10139302

weight f4 [10, 32]
0	0x3e38403e	0.17993256
1	0x3e18e7c9	0.14932169
2	0x3df0bf60	0.11755252
3	0x3e10d13d	0.14142318
4	0x3de66580	0.11249828
5	0x3ce64905	0.02811099
6	0x3ce2d633	0.027690029
7	0xbe29c358	-0.16578424
8	0xbced8e75	-0.028998593
9	0xbd66dbac	-0.05636184
10	0x3e83f303	0.2577134
11	0x3e0d67f8	0.13809192
12	0x3e2d67f1	0.16934182
13	0x3e0198e6	0.12655982
14	0x3e3ad5d9	0.18245639
15	0xbe1bb1b6	-0.1520451
16	0xbc111bcb	-0.008856724
17	0x3d9e853b	0.077402554
18	0x3e5e3aeb	0.21702163
19	0xbde11bbb	-0.10991617
20	0x3dbb6572	0.091502085
21	0x3e3927e3	0.18081622
22	0x3e0e181a	0.13876382
23	0x3e306d78	0.17229259
24	0x3e450e51	0.19243743
25	0x3daa5489	0.08316905
26	0xbd9a906c	-0.075470775
27	0xbe38c394	-0.18043357
28	0x3e51409d	0.20434804
29	0xbe8a63a1	-0.27029136
30	0x3d04d399	0.032428358
31	0x3d9dfab6	0.07713835
32	0xbdb62c89	-0.08895213
33	0x3e3d6e9e	0.18499228
34	0x3e2850ac	0.16437024
35	0x3e7820d9	0.2423128
36	0x3e2d8e6d	0.16948862
37	0xbe557dcb	-0.20848767
38	0x3e8539b7	0.26020595
39	0x3e89cfe6	0.26916426
40	0xbcf2911d	-0.029610211
41	0x3d0222a5	0.03177132
42	0x3e61a4e6	0.2203556
43	0xbe3af268	-0.18256533
44	0x3e95b3df	0.29238793
45	0xbc9eb560	-0.019373596
46	0x3d55c552	0.052190132
47	0x3e3d8732	0.18508604
48	0xbbcb9ad9	-0.0062135276
49	0x3e88a43f	0.2668781
50	0x3dbbea78	0.09175581
51	0x3d0701d7	0.03296074
52	0x3e76df56	0.24108633
53	0xbbc45aee	-0.005992285
54	0x3d88eb0e	0.06685458
55	0xbe332d48	-0.17497742
56	0xbe1f71d5	-0.15570767
57	0xbe51ccf4	-0.2048834
58	0x3d4eb14f	0.050462063
59	0x3e4eb32b	0.20185535
60	0x3d0af06e	0.033920698
61	0xbe28c3f2	-0.16480997
62	0xbe9380e1	-0.28809264
63	0x3d303086	0.043015026
64	0xbd9fe4c7	-0.07807308
65	0xbe158c77	-0.14604364
66	0x3dbecc79	0.09316344
67	0x3d71070a	0.058844604
68	0x3ca9e865	0.020740697
69	0xbdc00041	-0.093750484
70	0x3e085d3e	0.13316819
71	0xbe6b53a2	-0.22981122
72	0x3e63009b	0.221682
73	0x3e63227b	0.22181122
74	0x3d522b73	0.051310968
75	0x3e7f13b7	0.24909864
76	0x3e67c614	0.22634155
77	0x3e259328	0.16169417
78	0xbd962118	-0.07330531
79	0xbe0e16d1	-0.13875891
80	0x3e6799ea	0.22617307
81	0xbde2efbd	-0.11080883
82	0xbccf101e	-0.02527624
83	0xbdba26f3	-0.0908946
84	0x3d666814	0.0562516
85	0x3df52de2	0.11971642
86	0x3e6d45ef	0.23171209
87	0xbcb6f645	-0.022334227
88	0x3c79d2fb	0.015248056
89	0xbd8a3b98	-0.06749648
90	0x3e30068a	0.17189994
91	0x3c92f3bc	0.017938487
92	0x3e832549	0.25614384
93	0x3df67785	0.12034515
94	0x3dd0cfca	0.101958826
95	0x3e26b756	0.16280875
96	0x3e7c1bf3	0.24620037
97	0xbe1709ed	-0.1474988
98	0x3e878a72	0.26472813
99	0x3d2a5e97	0.041594114
100	0x3dfda18d	0.12384329
101	0x3e6604c2	0.22462752
102	0x3deb5627	0.11491042
103	0x3e3fe31b	0.18738978
104	0x3e3a0d1e	0.18169066
105	0xbdf10b10	-0.11769688
106	0xbda26c04	-0.079307586
107	0x3dd48248	0.10376412
108	0xbd3b13aa	-0.04567305
109	0x3e539de2	0.20665696
110	0xbd945170	-0.072420955
111	0xbcf7cff3	-0.030250525
112	0x3e372811	0.17886378
113	0x3e8ab1a4	0.27088654
114	0x3daf79dc	0.08568165
115	0x3dc62692	0.096753255
116	0xbcf66f7b	-0.030082455
117	0xbe2913d9	-0.16511478
118	0x3e0e05ff	0.13869475
119	0x3e285261	0.16437675
120	0x3e4a43a9	0.19752373
121	0xbe587265	-0.21137388
122	0x3da62551	0.08112586
123	0xbce17fb7	-0.02752672
124	0x3b1dbc29	0.002406845
125	0x3e5e2a1d	0.21695752
126	0xbd048041	-0.032348875
127	0xbd4fab5e	-0.050700538
128	0xbddfe5b7	-0.109324865
129	0x3d2a9010	0.041641295
130	0x3c844641	0.01614678
131	0xbd418aad	-0.047251392
132	0x3d829316	0.06375711
133	0x3e95cdc8	0.2925856
134	0xbc4a744e	-0.012356831
135	0xbd80e626	-0.06293897
136	0x3d57bf64	0.05267276
137	0x3e621d40	0.2208147
138	0x3e48740b	0.19575517
139	0x3e28ea2d	0.16495581
140	0x3bab5573	0.005228692
141	0x3c6e1fae	0.01453392
142	0xbb2724f6	-0.0025504208
143	0x3bac17eb	0.0052518747
144	0x3c30e53b	0.01079684
145	0xbddbc0d4	-0.107301384
146	0xbdd8e369	-0.1059025
147	0x3e119952	0.14218643
148	0x3d9a2eb2	0.07528438
149	0x3e03a454	0.12855655
150	0x3cd42477	0.025896294
151	0x3dfde999	0.12398071
152	0x3e15e776	0.14639077
153	0x3c4d5921	0.012533457
154	0x3e1f6173	0.15564518
155	0x3d9354aa	0.07193883
156	0x3e8a98b2	0.27069622
157	0xbdd856f0	-0.10563457
158	0x3e1a8e3e	0.15093324
159	0x3d55cade	0.052195422
160	0xbc5798cb	-0.013158987
161	0x3d0f59b2	0.03499765
162	0xbe5e67e7	-0.21719323
163	0xbe80f973	-0.25190315
164	0xbe8e5b85	-0.278042
165	0xbe29d177	-0.16583811
166	0xbdbf34d8	-0.09336251
167	0x3d078cd4	0.03309329
168	0xbe473bb7	-0.19456373
169	0xbdc28a2a	-0.09499009
170	0xbd83ecd3	-0.06441655
171	0xbda8037d	-0.0820379
172	0xbe515050	-0.20440793
173	0xbdc99933	-0.098436736
174	0xbe84db8b	-0.25948748
175	0xbe27809f	-0.16357659
176	0x3d11fd5a	0.035642006
177	0xbdf65717	-0.1202833
178	0x3d154592	0.0364433
179	0xbd85c7ff	-0.06532287
180	0xbe3bcd86	-0.1834012
181	0x3dad67c2	0.08467056
182	0xbd8fad7d	-0.07015512
183	0xbd5e8111	-0.054322306
184	0x3d5f2941	0.054482702
185	0xbd34ef58	-0.04417357
186	0xbe864aec	-0.26229036
187	0xbdc6cfac	-0.09707579
188	0xbdc16eb9	-0.09444947
189	0xbb5f9f4c	-0.0034122048
190	0x3d634757	0.055487957
191	0xbda373e7	-0.07981091
192	0xbe21e455	-0.15809758
193	0xbe731d3e	-0.23741624
194	0xbd573bb8	-0.052547187
195	0x3c3a88f3	0.01138519
196	0xbe54e92f	-0.20792077
197	0xbd446ef7	-0.047957387
198	0x3d9fe168	0.07806665
199	0xbd06c206	-0.03289988
200	0x3beffce8	0.00732385
201	0x3c22d12f	0.009937569
202	0x3b826087	0.003978792
203	0xbe501d0a	-0.20323578
204	0xbde40e15	-0.111354984
205	0xbe01094d	-0.12601204
206	0xbe3d81b8	-0.18506515
207	0xbe34eb57	-0.176679
208	0xbd84d33b	-0.064856015
209	0x3d6bc0fa	0.057557084
210	0xbe2f5b84	-0.17124754
211	0xbdb92715	-0.090406574
212	0xbe882f4b	-0.26598582
213	0xbd248971	-0.040170137
214	0xbc5d7bf5	-0.013518323
215	0xbe2aef8c	-0.16692942
216	0x3dab90cb	0.083772264
217	0xbde351da	-0.11099596
218	0xbe8e567e	-0.27800363
219	0xbe5c87c4	-0.21536165
220	0xbdf3cfd8	-0.119048774
221	0x3d5dba37	0.054132666
222	0xbc8b5b44	-0.017011292
223	0xbda5774f	-0.08079397
224	0xbe7006a8	-0.23440039
225	0xbc0932d6	-0.008373937
226	0xbdfdd6ce	-0.12394486
227	0x3cbeee27	0.02330692
228	0xbe276481	-0.16346933
229	0x3d198f58	0.03749022
230	0xbcc02514	-0.02345518
231	0xbdc239cd	-0.09483681
232	0xbe103f6d	-0.14086695
233	0xbe4c5d4e	-0.19957468
234	0xbd1242df	-0.035708304
235	0x3b8e9684	0.004351439
236	0x3d417c62	0.04723776
237	0xbe428fde	-0.19000193
238	0xbda7a385	-0.08185486
239	0xbe12d8c0	-0.14340496
240	0xbe826b7d	-0.25472632
241	0xbb0f8cc6	-0.0021903976
242	0xbe200dc7	-0.15630256
243	0xbe8094d8	-0.2511356
244	0xbd4ef34d	-0.050525
245	0x3cef10dd	0.029182846
246	0xbe818a93	-0.25301036
247	0xbe079b35	-0.132428
248	0xbd5d66b5	-0.054053027
249	0xbe784023	-0.24243216
250	0xbdea4e59	-0.11440725
251	0xbd83d88b	-0.06437787
252	0xbe084a93	-0.13309698
253	0x3d3f828e	0.046755366
254	0xbe21784e	-0.15768549
255	0xbe88a611	-0.266892

bias f4 [10]
0	0x3cc5877c	0.024112456
1	0x3e4922de	0.19642207
2	0xbc76eea3	-0.015071544
3	0x3d46ac57	0.0485042
4	0xbceab5b2	-0.028651092
5	0xbe2c1dd5	-0.16808255
6	0xbe83bf53	-0.25731906
7	0x3d9c9dc6	0.076472804
8	0xbe5bab57	-0.2145208
9	0xbe04d6f6	-0.12972626
