MQCNN-QA-4qubits-3class-CIFAR-same-5filter-V7/Models_V1/model_40.pt (torch, 138806 bytes, 47 tensors)

weights f4 [7]
00000000: caf0 ce3e dd13 7440 88d4 a840 2d64 be40
00000010: a362 bf40 f0d9 6d40 4ed5 0d40
0.40418082 3.8137124 5.2759438 5.9497285 5.9807906 3.7164268 2.216144

weights f4 [7]
00000000: 286f 4c40 c2b9 7540 90da bb40 c2ad 9940
00000010: 9537 a540 b40b 193f 4a09 b240
3.1942844 3.8394628 5.87043 4.8024607 5.163035 0.5978348 5.563634

weights f4 [7]
00000000: 920a 4c40 9f61 3440 cf58 0940 3865 783e
00000010: 45a0 5340 b612 b33e f594 b840
3.1881452 2.8184583 2.1460454 0.24257362 3.306657 0.34975213 5.768183

weights f4 [7]
00000000: 4ffb 9e3e 8b23 f73f 7c53 4b40 81cb 8b3e
00000010: bbc1 a340 7831 c240 efc5 4a40
0.31051108 1.9307722 3.1769705 0.273037 5.1173987 6.0685387 3.168331

weights f4 [7]
00000000: cb63 463e cbba 4840 6d0a 7240 5eba e83f
00000010: 55b6 9d40 b000 843d d003 653f
0.19374005 3.136401 3.7818863 1.8181875 4.9285073 0.06445444 0.8945894

weights f4 [7]
00000000: d64d fc3d 2b7a 8940 8a6a c040 f716 3240
00000010: 8e83 b340 6780 623f 231b 163d
0.123195335 4.296163 6.0130053 2.7826517 5.609809 0.88477176 0.036646973

weights f4 [8]
00000000: 4d6b 8e40 e033 af40 1506 3140 97b3 a53f
00000010: 1d9b f13f 67ee ad40 8348 1840 603f 6b40
4.4505982 5.4750824 2.7659962 1.2945431 1.8875462 5.435352 2.3794258 3.675743

weights f4 [8]
00000000: b8dc a73f ddd4 3340 0b68 c440 1879 7140
00000010: 3320 913f a3e4 7640 daa8 9440 79e4 a33f
1.3114233 2.8098671 6.1377006 3.773016 1.1337951 3.8577049 4.645612 1.2804099

weights f4 [8]
00000000: de55 3b3f 26d3 ca3f 26f1 9a40 aa9b 6f3f
00000010: 0924 c240 50bf 043e f1b4 5f40 7f59 5d40
0.731779 1.5845687 4.841937 0.935969 6.066899 0.12963605 3.4954188 3.4585874

weights f4 [16]
00000000: 3384 c440 50a1 e23f 7e85 3140 3e50 8e40
00000010: 629f c240 8c40 0240 232d 8340 2562 8540
00000020: b0aa f13f acc4 b93d 3b90 7a40 399a b43e
00000030: c2ee b43f 034c 9140 79d9 5840 e567 c33f
6.1411376 1.7705479 2.7737727 4.447295 6.081956 2.0351896 4.09926 4.1682305
1.8880215 0.09070715 3.9150531 0.35273913 1.4135363 4.540529 3.3882735 1.5266081

weights f4 [16]
00000000: 670f 6f40 1998 a63f 4e83 5340 fc51 f33f
00000010: 89bf 383e 7fe4 6b40 fb60 4640 4493 8140
00000020: e708 af40 9522 bf40 b4b1 6440 f5b2 ad40
00000030: aae3 c240 758d b340 718d 4140 b0f9 b340
3.735315 1.3015167 3.3048892 1.9009395 0.18041815 3.6858213 3.0996692 4.0492268
5.4698367 5.9729714 3.5733461 5.4280953 6.090291 5.6110177 3.024258 5.6242294

weights f4 [16]
00000000: fdca c040 c113 9f40 9ea6 7440 5af7 0f3f
00000010: 026c 1a40 29ce a540 4f6e 4340 749c 0c40
00000020: 1f49 943f c160 9040 6288 1140 e13c 6940
00000030: 496f 5e40 677f 0740 c928 573e af6b 6440
6.024779 4.9711614 3.8226695 0.56236804 2.4128423 5.181416 3.0536077 2.1970491
1.1584815 4.511811 2.2739491 3.6443408 3.4755423 2.117151 0.21011652 3.5690725

weights f4 [12]
00000000: 09be fd3f ea3d 8040 07d0 1440 850d 6e3f
00000010: 0d52 713e d71c dc3f 445e 3440 73bb 1740
00000020: 4a79 9140 9e5f 2540 4215 1240 0a3b da3e
1.9823619 4.007558 2.325197 0.9298938 0.23566456 1.7196301 2.8182535 2.370816
4.546056 2.583961 2.2825475 0.42623168

weights f4 [12]
00000000: a52a 8a40 415c 1e3f 4f44 a540 d3e3 e23f
00000010: 4cc1 963f be7c a140 f53f 8340 736b 853f
00000020: 6586 5e3e db6b ac40 c749 0440 5036 3240
4.3177056 0.6185952 5.1645885 1.7725776 1.177774 5.0464773 4.1015573 1.0423416
0.21730955 5.388166 2.067003 2.784565

weights f4 [12]
00000000: 09ed f83f 7388 d43f 38ca ae40 a975 b540
00000010: 0fa0 a440 8d3f 6140 2f6e 3540 49bb 8c3f
00000020: 9027 843f 5cc1 6040 2bb4 4540 5dc1 ea3e
1.9447337 1.6604141 5.462185 5.670613 5.1445384 3.5195038 2.83485 1.0994655
1.0324574 3.5118017 3.0891216 0.4585065

weight f4 [12, 48]
00000000: 6f55 02be e9b9 bfbc b6e5 4e3d 15e2 88bd
00000010: ecbc 923d 90b0 b5bc e72a 253c afa5 fd3d
00000020: 4639 36bd d02d 9fbd ff9f 11bd 5f72 15be
00000030: 5996 e23c 1602 4d3d 10bf 8cbd 5a06 75bd
00000040: e67a 3a3d c73b 9ebd 7c6c 933d 4255 eb3d
00000050: f9dc 2fbd 8f97 a63d 5437 36bd c606 a93d
00000060: 471a e1bd 3305 f53d 6380 293d 7e15 053e
00000070: 6f56 693d e142 4a3d 99d6 c13c 45e0 923c
00000080: b22b e3bd 40c5 d53d d69d 3d3b 9acb 4c3d
00000090: 0523 2cbd 7bc1 70bd 07ad e8bd d442 cf3c
000000a0: 21e7 053e d0d7 b3bd 75d6 0abe b928 79bb
000000b0: e897 16be 54d5 e13c 21ca f3bd 24f8 6cbd
000000c0: f278 0c3e a301 d83d b167 ef3d ea44 91bd
000000d0: 76dd 26bd ea34 bcbd 61a5 9ebe 16b7 1abe
000000e0: 6d13 6b3d 96b4 9c3d c1f5 e33d 96e2 a3bc
000000f0: 6858 f1bd 28a3 f8bd 3491 d2bc 8ce8 c03b
00000100: f387 0c3c c6f6 ed3d a9f1 06bb ff0e e13d
00000110: a894 e63d 73ef e0bd 8a90 193e c2d9 6cba
00000120: ad74 8dbd cf6d c8bd 13f3 b63d c5f4 cabd
00000130: b4ad c23d dc1d 553c f921 663e ec77 003d
00000140: 91b8 adbd 43c7 da3c 1192 21bd 3187 e5bd
00000150: 41df 63bd 3e7c 66bd b9ff 023d 9850 c53c
00000160: b8c8 183e a148 2abd 3774 9ebd 3d6d 843e
00000170: 18e5 95bd 169e 633d 0005 e33d db26 cb3b
00000180: 69cd 4abd 8d75 ee3c 7438 60bc 8ee7 8bbd
00000190: e174 d7bd 0d89 d9bd 8829 ad3b f7c5 05bd
000001a0: 0189 bc3c 4265 b73b b843 0ebe 2385 083e
000001b0: 1679 ac3d e220 04be 8504 ef3d e811 e33d
000001c0: 9e1e d53d 7b3d 103d 3354 46bd 09b4 b53d
000001d0: 8e04 6dbd 9cb8 80bd fac3 cc3d 56a6 dfbd
000001e0: 5287 693d f6e3 483d 1d7b dcbd 62a3 72bd
000001f0: c4f8 7bbd 406f 68bd 0c7e 1fbd 533c e43d
00000200: 92a0 f8bd 6c10 853c 618a 77bd a054 d2bc
00000210: 473b d93d 1a9a b4bc 50fd f03d 3edf 063d
00000220: b524 573d 2dd1 c43d 5b8e 8fbd 1ac9 9ebd
00000230: aa99 08be c82b 06be 0ec3 be3d 1ad4 77bd
00000240: 814d 90bc 02b3 593d 8858 c73d 5c9f 8b3d
00000250: 39fc 063e 83ae 093c 22d7 bb3d 1246 a9bd
00000260: 8470 503d b62f fbbd c373 91bd 20ab e83d
00000270: cc7c bf3d 5818 ec3b 9a7b dc3c 46c8 b83d
00000280: 0e05 ce3d c84b cfbd 4b82 e73d 1b88 0d3e
00000290: b53a ecbd 3269 efbb 5c58 103e a6e9 cb3d
000002a0: 4e83 bfbd c430 bbbd 054a 01be 2b89 c33c
000002b0: a409 083d 0841 0b3d 1ac5 ca3d b1ed f7bd
000002c0: 970e c13c 86b8 a0bd 5d09 2fbd 3e9e e6bd
000002d0: 1bfd 043e a990 fabc bfdb dbbd bba8 b33d
000002e0: f64f e0bd bcee 1a3d bce6 27bd 599c 823d
000002f0: 1c07 d7bd f98b b33d bdc1 e6bd ef5c 8bbd
00000300: dce6 cebd 8fdc 763d 9222 043d 8aaf 01be
00000310: 66ba 85be db91 96bb 7438 0ebd 4022 0dbe
00000320: 5d9c 733d a3e9 a4bd f4ef 16be ff3b 34bd
00000330: a41d cc3a b9ca 27be 38de e83c 17ee 1bbe
00000340: 9cfd f73d 6eb5 a5bd c980 5a3d 7cc6 40bd
00000350: ac29 15be 2a69 a8bd 868a 7a3b 85e3 043d
00000360: 94cd b63d 35f8 da3d e8f1 333d 33b9 f5bc
00000370: 88fe edbc df7a 8cbd 97dd 083e ec28 c2bd
00000380: 7654 77bd ce3d 803d bf46 f4bc d08d ecbc
00000390: 12c3 1abe b6cc c6bd 0dfc ccbd 7006 ebbd
000003a0: fdcc 8cbd 5d86 553d b7d2 c4bd 63aa 96bd
000003b0: a298 69bd 3e62 ad3b afe8 643d dea0 86bc
000003c0: 2488 80bc 4ef0 953c d23b 8f3d 2d45 a0bd
000003d0: 84ce 143c 8d27 e3bc 917e 6dbc 59c1 80bc
000003e0: e53f 323c fb52 d4bc f1d4 20bd f480 06bd
000003f0: bab6 2fbb c744 ae3d 8c33 8a3d 9ae5 ba3b
-0.12727903 -0.023404079 0.05051204 -0.06683747 0.0716494 -0.022178918 0.0100810295 0.12385117
-0.044488214 -0.0777241 -0.035552975 -0.1459441 0.027659582 0.050050817 -0.0687238 -0.05982051
0.04552736 -0.077262454 0.07198426 0.11490871 -0.042935345 0.08134376 -0.04448636 0.08253245
-0.1099134 0.11963882 0.041382205 0.1299648 0.056967195 0.049380187 0.023661898 0.017929206
-0.110923186 0.10438013 0.002893319 0.049998857 -0.042025585 -0.058778267 -0.11361127 0.02530042
0.1307645 -0.08781397 -0.13558371 -0.0038018657 -0.14706385 0.027567543 -0.119037874 -0.057853833
0.13718012 0.10547187 0.116896994 -0.070932224 -0.040738545 -0.0918978 -0.3098555 -0.15108904
0.057391573 0.076516315 0.11130858 -0.020005506 -0.1178444 -0.121404946 -0.025704004 0.0058870967
0.008577335 0.11619334 -0.0020590818 0.109891884 0.11258823 -0.10983171 0.14996544 -0.0009035134
-0.0690702 -0.09786569 0.089330815 -0.09909967 0.095057875 0.013007607 0.22473897 0.031364366
-0.08482469 0.026706344 -0.03944594 -0.11207426 -0.055632833 -0.05627083 0.031982157 0.024086282
0.14920318 -0.04157317 -0.0773701 0.25864592 -0.07319087 0.055570684 0.11084938 0.0061997003
-0.0495123 0.029108787 -0.0136853345 -0.06831275 -0.1052034 -0.106218435 0.005284492 -0.032659497
0.023014547 0.0055967877 -0.1389302 0.13332038 0.08421533 -0.12903169 0.11670784 0.110874
0.104062304 0.035214882 -0.048420142 0.088722296 -0.05786567 -0.062852114 0.09998317 -0.10920398
0.057013817 0.049045525 -0.107656695 -0.059237845 -0.06151654 -0.05674672 -0.038938567 0.111443184
-0.12140001 0.016243182 -0.060434703 -0.025675118 0.106070094 -0.022046138 0.117670655 0.032927744
0.05252524 0.096102096 -0.07009574 -0.07753201 -0.13339868 -0.13102639 0.093145475 -0.06050501
-0.017615082 0.05314923 0.09733683 0.06817505 0.13182153 0.008403423 0.09171893 -0.08265318
0.050888553 -0.122649595 -0.07102158 0.113607645 0.09349975 0.0072050504 0.026914407 0.09022574
0.10059558 -0.10121876 0.11304148 0.13821451 -0.11534635 -0.0073062414 0.14096206 0.09956674
-0.09351216 -0.09140161 -0.12625892 0.023869118 0.03321232 0.033997566 0.099008754 -0.12105883
0.023566527 -0.07847695 -0.04273354 -0.11260651 0.12987177 -0.030586557 -0.107352726 0.08772417
-0.10952751 0.03782533 -0.04099153 0.06377477 -0.10499403 0.08766932 -0.112674214 -0.06804835
-0.10102627 0.060268935 0.03225953 -0.12664619 -0.26118773 -0.004595024 -0.034721807 -0.13782597
0.05947529 -0.08052375 -0.14739972 -0.04400253 0.0015572798 -0.16385926 0.028426275 -0.15227543
0.12108919 -0.080912456 0.053345475 -0.04706429 -0.14566678 -0.082231835 0.003822954 0.032443542
0.0892593 0.10691873 0.04393187 -0.029995536 -0.029052034 -0.06859373 0.1336578 -0.094804615
-0.060383283 0.06261788 -0.02981889 -0.028876215 -0.15113476 -0.09707014 -0.10009012 -0.11475837
-0.06875036 0.052130092 -0.09610503 -0.073567174 -0.057030328 0.0052912524 0.055885967 -0.01643413
-0.015689917 0.018303063 0.06993832 -0.07825694 0.00908244 -0.02772882 -0.014495508 -0.015717195
0.010879491 -0.025918474 -0.039265577 -0.032837823 -0.0026811794 0.08509212 0.06748113 0.00570364

bias f4 [12]
00000000: 100a ed3d 9191 993c cc7a e6bd 804e e3bd
00000010: 00e7 fa3d 5933 623c bada 99bd f0be 813d
00000020: 7415 733d 9394 b83c 66e6 7c3d 854a 923b
0.11574185 0.01874617 -0.112538904 -0.11098957 0.12251091 0.013806188 -0.07512422 0.063352466
0.05934663 0.022531783 0.061743163 0.00446445

weight f4 [12, 12]
00000000: 9869 d6bd 50bc 043d 3658 4d3d 5400 ce3d
00000010: 0ba9 4a3e 656a 58be 8f03 583d a3ea aebd
00000020: bdd6 89bc cad3 f2bc 46ef 683e edf5 21be
00000030: 84dd 8a3e b05d c0be 23e4 0ebe 4bbe 18be
00000040: a08e 913e d0d2 80bd a3be b2be 545f bfbe
00000050: a92c c03d 4e90 55be ad8a 1d3e f390 91be
00000060: 1e3e 84be cb52 823d a42c 07bc 0c97 12be
00000070: cd14 293d 8d1c 963d eb46 cebd ea4a 0a3e
00000080: 8126 4cbe 69fd 103d 0666 48be 9493 303d
00000090: e6fe 7e3e 953d a83e 1219 0cbd e807 9cbc
000000a0: 661b 2b3e 7c3d 0a3e b673 8f3e c1c5 8c3b
000000b0: 964a 20be 8c0d d0bd 083a 573e da09 a8bd
000000c0: ea78 82be 025d 663e e8cb c1bd 4b60 e4bd
000000d0: 7af2 00bd c82b 9ebd 327d 81be c200 1abb
000000e0: cba2 25be 702b 553e 7d09 cbbd ecc1 f0bd
000000f0: b40b 55bd bea7 d3be b4ac 503d b0b3 763e
00000100: 15e2 043d 87ec 84be 6221 54bc 5df7 1ebd
00000110: 0b8d 20be fdf8 513e 7ae3 6abe e758 6d3e
00000120: d2fa 143e 94fe 583d 6ff8 923e ff68 61be
00000130: c3ac 893e 3449 b43d 21ed fabb 3830 df3c
00000140: d7d2 a4be e02d 8dbe 39f9 873d 6e6f 483e
00000150: d9d6 09be fd31 0dbe 3b5c 20be 2521 26be
00000160: 9c0a 40bd 7aea a8bd 88b5 d03d 2d57 eabd
00000170: 16ed 8f3e 6b95 7d3e 1f7c 7d3c 0760 36bc
00000180: fda8 d6bd 1df3 ad3e 8ee1 333e a14a 833e
00000190: 9bd7 6f3d eb35 2f3e ae4f 8b3e 13fb 33be
000001a0: f58f fb3d 678c adbe 9959 01bc 9ac6 85be
000001b0: de93 9cbd 2e4e 1dbe 6d18 913e ae14 41be
000001c0: ca11 82be 23a1 8dbe 93ca f63c 74e4 afbe
000001d0: 18a9 7f3e 168b 493e d8d7 84be 4bad 903e
000001e0: c792 983e 2129 b7bc 2861 4b3e 2a36 85be
000001f0: b060 8bbe 1a85 debd b8b1 7fbe 8500 8bbe
00000200: 917b 1f3e d9ba 993e a9c8 223e 29ce 3ebe
00000210: f193 9a3d 2969 863d 86d9 203e b76b e6bd
00000220: 096c 853e 6cb7 84be 88fa 933e b488 513e
00000230: 9eb1 22bd 0769 a7be 84a5 bd3d 3360 31be
-0.10469359 0.03240615 0.050132953 0.10058656 0.19791047 -0.21134336 0.05273777 -0.08540847
-0.016826028 -0.029642005 0.22747526 -0.1581647 0.27122128 -0.37571478 -0.13954215 -0.14916341
0.28429127 -0.06290209 -0.3491107 -0.37377417 0.09383518 -0.20855829 0.15384932 -0.284309
-0.25828642 0.06363448 -0.008250389 -0.14315432 0.041279603 0.073296644 -0.1007212 0.1350514
-0.19936563 0.03539792 -0.19570169 0.04310949 0.24901924 0.32859483 -0.034203596 -0.019046739
0.1670967 0.13500017 0.28017968 0.004296035 -0.15653452 -0.10158834 0.21018231 -0.08205004
-0.25482875 0.22496417 -0.0946272 -0.11151179 -0.031481244 -0.07723194 -0.2529083 -0.0023498987
-0.16175382 0.20817351 -0.09913919 -0.11755738 -0.052013114 -0.41338915 0.050945953 0.24091983
0.03244217 -0.25961706 -0.012947412 -0.038810123 -0.15678804 0.20505138 -0.22938338 0.23178445
0.14548805 0.05297716 0.28705165 -0.22012709 0.2688962 0.08803025 -0.0076576625 0.027244672
-0.32192108 -0.27574062 0.06639332 0.19573757 -0.13460864 -0.137886 -0.15660183 -0.16223581
-0.046885118 -0.08247848 0.10190874 -0.11442409 0.2811057 0.2476403 0.015471487 -0.011131293
-0.10481451 0.33974543 0.17566511 0.25642875 0.058555227 0.17110412 0.27209228 -0.17576246
0.12283317 -0.3389618 -0.007894897 -0.26128083 -0.07645391 -0.15361854 0.28338948 -0.18855545
-0.25404197 -0.27662 0.030125892 -0.34353983 0.24966848 0.19681963 -0.25945926 0.28257212
0.29799482 -0.022358479 0.19861281 -0.26017886 -0.27222204 -0.10865231 -0.24970138 -0.27148834
0.1557448 0.30025366 0.15896858 -0.18633331 0.07547749 0.065630265 0.15707979 -0.11251014
0.26058987 -0.2592119 0.28902078 0.20462304 -0.03972017 -0.32697317 0.09260085 -0.17321853

bias f4 [12]
00000000: 5198 93be cf1f 52be 3297 43be f722 b03d
00000010: 7234 723c d159 69be 9763 c0bc af9d d93c
00000020: 2d26 47bc ab18 36be de0c d43d 6d40 8c3d
-0.28827146 -0.20519947 -0.19100645 0.08600419 0.014783012 -0.22788168 -0.023484988 0.026564447
-0.012155098 -0.17782848 0.10354017 0.06848226

weight f4 [12, 48]
00000000: 3f05 803d e165 a53d 7be7 a9bd 88c1 f4bd
00000010: 8d66 a73d 4511 62bd 54c4 d53d e058 07be
00000020: b7eb 213c 52f9 be3d 9f24 c2bd 81e7 2f3d
00000030: 66ad dcbc 812a afbd 252e b0bd a5d4 e53d
00000040: 7534 c33d 1796 73bd 694e c53d 951e 96bc
00000050: 20b4 32bc c107 0bbd 0bec c6bd 5003 c33c
00000060: 0be0 bb3d 419c 873a a590 1d3e 59ad d23d
00000070: f36d 193e 357c 89bd 20c4 6d3d ef6d 973d
00000080: 6b7a 1e3d e03b 013e 3410 ffbd 79e5 d4bd
00000090: 9295 5dbc 88f9 b63d a725 523d eff5 ac3d
000000a0: 1eb9 073c e0cd b3bb a46f a1bd f8f8 96bc
000000b0: 5e78 ccbd 3975 bbbc 51db c83d f73b 7bbd
000000c0: a7a2 b3bd 8e05 61bd c793 64bc c9dc c2bc
000000d0: bcf0 a8bd 07a7 f43d 673d ac3d 6771 8d3d
000000e0: 37df fb3d 59f8 e3bc e9e5 b1bd f350 113e
000000f0: 61de 14be 9637 d53d 5c67 b5bc f174 4b3d
00000100: 154e fcbd b0e3 79bb a160 11be 56c5 fbbd
00000110: d9f8 08be 9103 debd 3a32 85bd a145 f73d
00000120: d7fc 023e 3434 ef3d 345d 97bd 8e2a edbd
00000130: 2e68 a13d f78b 6dbd 8efc 1ebc 000f e4bb
00000140: a30c fdbc d160 083e 0b65 adbd 9506 12be
00000150: cf01 fabd 5f89 cbbd 1820 a9bd 673c 9f3d
00000160: 9d76 23bd 5e5b 1cbe 7cc4 cfbd ef9d 933d
00000170: 0cc2 103d 6536 77bd 8783 2abb 39f7 f0bd
00000180: 9883 30be 186d 41be 1e36 a03d 17fd 31bd
00000190: 7759 6fbd f14e c0bd 1b9f cd3d 4549 33bd
000001a0: 634e 22be 89e0 b4bb 9e21 b1bd 992b 88bd
000001b0: 7625 803d 8d4b 95bd 3c34 343e 71f7 94bd
000001c0: 5770 133e 13e6 ecbc bc91 f2bc 5082 e5bc
000001d0: c6b1 b3bd c01b 533d c2da 05bd 915a e53d
000001e0: 074e aa3a 789d 05be e137 b7bc 584c cabd
000001f0: 4020 0e3e 044c b6bc 4ca1 fe3d f63a 8a3d
00000200: ad68 b3bd eaf5 013d d0ef 36bd 2441 043e
00000210: 11cb 2ebe 7583 bdbd 635c f2bd 5605 76bd
00000220: d5c7 253e f284 803d 2f17 0cbe d237 acbc
00000230: 7085 49bd c471 10be 6027 12bd a4f9 5fbd
00000240: 76aa 0d3d b908 a53d e8b0 e93d 3b15 ecbc
00000250: cbdb 35be 49e5 d83c 1723 c13d 1ba2 d23d
00000260: b999 3fbc 7e08 66bd a09c bb3c 0778 30bc
00000270: d93d eebd 0987 dbbd 67fb 193e 1495 6c3d
00000280: c23d 0c3b 01ac 173e ae82 be3d 00c8 8ebd
00000290: 7f60 15be 7726 5abd 0173 f83d 443e f33c
000002a0: 9e43 fa3b d614 a2bd ab84 3db9 8e8d 16bc
000002b0: 0845 b6bd b9d7 5abd 4bca cfbd d23f 393d
000002c0: 4555 093e fbd3 b5bd 0b9d 28be a96d 0ebd
000002d0: d3a8 85bd afac cc3d 7cfe 013d 6612 07bd
000002e0: 9a94 433d c494 5f3d 60fd 07be 4257 02be
000002f0: 5bec 66b9 f692 27be d501 3ebd 4e43 c0bc
00000300: c201 e23c edac 9e3d 22da 4ebd d876 6b3d
00000310: 5b7f be3d 9fd6 85bd 71a9 8c3b 10c7 f9bc
00000320: 19cc 193d 1b64 8ebd 6d26 79bd 9428 1fbd
00000330: 57c4 5c3d 91b9 523d e2b1 dbba d1ea fbbc
00000340: 0156 c4bc af22 01bd d801 f9bd 0ac3 0abe
00000350: 1929 9f3d 03b0 2a3d 5e48 c4bd 0898 86bd
00000360: 80d6 0c3c bb00 1f3e 6cc7 c8bd dce7 023d
00000370: 18a1 5abd 2491 c13c 1d7d 7dbd ddde bd3d
00000380: fbcb b73c 410b f03d 6d69 7d3b a894 eabc
00000390: d547 093e 5b8d 283c dcd0 203d 8e99 d03d
000003a0: 20f6 d4bd f9af 82bd 5856 ccbd 4a0c 98ba
000003b0: 126c 143e f0cf c73d f7c2 e0bc 73f6 9abd
000003c0: 3861 893d b3db 2d3d 8fb4 cc3d 349e 093c
000003d0: f65d aebd d813 473d 28aa a8bd 8667 9cbc
000003e0: e8f0 16bc 2453 0f3e 01ac 01bd 6e5f 77bd
000003f0: 467d ea3d 562a 2cbd b2b3 e73d e374 c7bd
0.062510006 0.080760725 -0.082961045 -0.11950976 0.08173857 -0.05519225 0.10437837 -0.13217497
0.009882859 0.09324898 -0.09479641 0.04294539 -0.026938152 -0.08553029 -0.08602551 0.11222199
0.0953149 -0.05946931 0.09634096 -0.01832513 -0.010907203 -0.03394294 -0.097129904 0.02380529
0.09173592 0.001034625 0.15387209 0.1028697 0.14983349 -0.06713144 0.058048368 0.07394015
0.038690966 0.12620497 -0.124542624 -0.10395331 -0.01352443 0.08934313 0.05130544 0.084453456
0.0082838815 -0.0054871887 -0.07882622 -0.018429264 -0.09983896 -0.022883045 0.09807456 -0.061336484
-0.08771258 -0.054936938 -0.0139512485 -0.02378692 -0.082490414 0.119459204 0.08410149 0.069063954
0.12298434 -0.027828382 -0.0868643 0.14191036 -0.14537956 0.10410993 -0.022144012 0.04967207
-0.123195805 -0.0038130097 -0.14197017 -0.12293498 -0.13376178 -0.10840524 -0.065037206 0.120738275
0.12791763 0.11679879 -0.07390824 -0.11580382 0.07881199 -0.05799481 -0.009703768 -0.006959796
-0.030889815 0.13318183 -0.08466538 -0.14260323 -0.12207376 -0.09938311 -0.082580745 0.07775193
-0.03990804 -0.15269229 -0.10144898 0.07207858 0.035341308 -0.06035461 -0.0026018338 -0.11765904
-0.17237699 -0.18889272 0.07822822 -0.043454256 -0.05843493 -0.09390057 0.100401126 -0.043771047
-0.15850215 -0.0055199307 -0.0864899 -0.066489406 0.06257145 -0.07289801 0.17598051 -0.07273758
0.14398323 -0.028918302 -0.029610507 -0.02801624 -0.08774142 0.051540136 -0.032679327 0.11198915
0.0012993225 -0.13048351 -0.022365512 -0.09877843 0.1387949 -0.022253044 0.12433109 0.06749527
-0.087602 0.031728663 -0.044662297 0.12915474 -0.17069651 -0.09253589 -0.118340276 -0.060063682
0.16189511 0.06275357 -0.13680719 -0.021022711 -0.04919952 -0.14105898 -0.035682082 -0.054681435
0.034586392 0.08058304 0.11410695 -0.028818717 -0.17759626 0.02647652 0.09430521 0.102848254
-0.011694365 -0.056160443 0.022901833 -0.010770804 -0.1163289 -0.10719115 0.15037309 0.05775936
0.0021399115 0.14811708 0.09302269 -0.06971741 -0.14587592 -0.05325934 0.1213131 0.029692777
0.007637455 -0.079141304 -0.00018073867 -0.009189023 -0.088998854 -0.053428385 -0.10146006 0.04522688
0.13411434 -0.08878323 -0.16466157 -0.03477255 -0.06526341 0.09993874 0.031736836 -0.03297653
0.04774914 0.054585233 -0.13280249 -0.12728599 -0.00022022559 -0.16364655 -0.046388466 -0.023469593
0.027588729 0.07747827 -0.050500996 0.057486385 0.09301635 -0.06535076 0.00429266 -0.030490428
0.03754816 -0.06952687 -0.06082766 -0.038857058 0.05389818 0.0514465 -0.0016761387 -0.030751618
-0.023966791 -0.031527217 -0.12158555 -0.13550964 0.07771511 0.041671764 -0.095841154 -0.065719664
0.008596063 0.15527622 -0.09803662 0.0319594 -0.053376287 0.023628779 -0.061886895 0.092710234
0.022436133 0.117208965 0.0038667575 -0.028635338 0.13406308 0.010287608 0.039261684 0.10185538
-0.10398507 -0.0638122 -0.09977406 -0.0011600342 0.1449435 0.09756458 -0.027436716 -0.07566538
0.06707996 0.04244585 0.09995376 0.008399535 -0.085140154 0.04860291 -0.0823558 -0.019092333
-0.00921271 0.1399656 -0.031658176 -0.060393743 0.11449675 -0.042032562 0.11313571 -0.09739091

bias f4 [12]
00000000: 0bfa afbd 4d28 0dbd 415f 063e 9ef0 a6bd
00000010: a919 17be 9ceb 953b 21d7 9fbd 74c9 7e3e
00000020: 6e17 bcbd 9c73 f73d f2bf 11bc 35d7 a0bd
-0.08592614 -0.034462262 0.13122274 -0.08151363 -0.14755882 0.004575206 -0.078047045 0.24881536
-0.09184156 0.120825976 -0.008895861 -0.078535475

weight f4 [12, 12]
00000000: fb90 27bc e910 6ebc 2e8e 9fbd 27de 453d
00000010: 4e81 4c3d 9d44 6cbe 6fce bfbd 0873 c7bd
00000020: 1e7b bf3e 1c4f 5cbd 9cf7 96bd 223f b43d
00000030: c2eb 373e d508 48be 4617 d23e d17f b03c
00000040: d80e 21be dac1 d03c e133 69bd 15c9 f73d
00000050: a8e3 1bbe 428a ae3d 5415 aabe 48c3 7fbe
00000060: 9da2 513e 056d f23d 3082 093c 0840 aabe
00000070: f3e3 09be db65 b93e 4b3b 393e f0be bdbe
00000080: ef0a 083e 2fac 35be fa08 91bd ab0b 253d
00000090: 72f8 4cbd b742 0ebe 6575 4fbe f33a 2a3e
000000a0: 9319 77be bb7d 383e 3886 33be abb4 a43e
000000b0: 5c48 c73e ce48 863e abf5 253c b795 40be
000000c0: 7a7a c63d e910 13be 9adf d23d 9302 6d3e
000000d0: 0db9 f63d 44bd 343d aa98 113e 4f96 0cbd
000000e0: b313 2ebe 8b56 1d3e 6f2f 943d 0949 c7bc
000000f0: 9a11 7ebe 6f38 73be f713 c2be 6e86 593e
00000100: 7d1b f3bd 2961 0d3e 621c a2be c142 d3bd
00000110: 259e 68be 9e5f dfba 60c5 87be 0f64 3c3e
00000120: cb9e 583e 454c 71bd a679 373e a851 fb3d
00000130: 5e2d 443e a720 593e 0303 493e ddcc a2be
00000140: 46b2 b7be d8f2 303e d651 473e a7ba 8abd
00000150: 3e5e 15be b091 83bd 58d9 f5bd 72e6 48bd
00000160: e440 6cbe a8cc 7e3e f67c c23c 0bd4 68be
00000170: b357 963e 8f0f 0a3d 1afd 95bd 197a 6abe
00000180: e96f 15bd 2960 3dbe a752 8e3e 7ba6 3c3e
00000190: 773f ff3d 1c96 edbd cfee 2fbd a78a 183d
000001a0: 1db6 ae3e 5fa5 833e da96 973e 66f3 8d3e
000001b0: f293 81bd 803d 8f3e c3ce 8cbe 898d 2abe
000001c0: 24b8 37be 1173 7ebe 8a7d a53e c248 4a3d
000001d0: d7fc d0be 8572 dcbd 3049 ce3c 40a7 643d
000001e0: 0e1a 033e f530 ad3d d738 b33d bf40 a63e
000001f0: daef 383d ceb9 91be e89a 7cbe 8840 093e
00000200: ba19 6e3e 9bfc 1bbe 74da af3e 3467 8ebe
00000210: c6f2 5cbc fd44 6a3c d2d3 8dbe a5db 41bd
00000220: 909c 873e 778f 91bb e717 2cbe 5194 47bd
00000230: ec01 a1be 679b 27be 5618 2fbe 8da0 89be
-0.010227437 -0.014530399 -0.077907905 0.048307564 0.049928002 -0.23073049 -0.09365546 -0.09738737
0.37398618 -0.053786382 -0.073714465 0.08801104 0.17961028 -0.19534619 0.4103338 0.021545323
-0.15728319 0.02548306 -0.05693424 0.120989 -0.15223563 0.08522464 -0.33219397 -0.24976838
0.20472188 0.118372 0.0083928555 -0.33251977 -0.13465862 0.36210522 0.18089025 -0.37059736
0.13285421 -0.17741464 -0.0708179 0.04029433 -0.050041623 -0.13892637 -0.20259626 0.1662405
-0.2413085 0.18016712 -0.17531669 0.3216909 0.38922393 0.2622742 0.010129373 -0.18807112
0.09691329 -0.1436192 0.10296555 0.23145513 0.120470144 0.04412581 0.14218393 -0.034323033
-0.16999702 0.15365045 0.0723561 -0.024326818 -0.24811402 -0.23751996 -0.37905857 0.21242687
-0.11870477 0.13806595 -0.3166228 -0.10315467 -0.22716577 -0.0017042046 -0.26517773 0.18397544
0.21154325 -0.058910627 0.17917499 0.12271434 0.19157931 0.21203862 0.19630055 -0.31796923
-0.358782 0.17280138 0.19464812 -0.06773882 -0.14586732 -0.06424272 -0.12004346 -0.049047895
-0.23071629 0.24882758 0.023741227 -0.22737138 0.29363784 0.033706244 -0.07323666 -0.22898139
-0.03648368 -0.18493713 0.27797434 0.18422882 0.12463277 -0.11600897 -0.042952355 0.037241604
0.34123316 0.25712106 0.29607278 0.2772476 -0.063270465 0.27976608 -0.27501497 -0.16655554
-0.17941338 -0.24848582 0.3232234 0.049385794 -0.40817901 -0.1076403 0.025181383 0.055823565
0.12802908 0.084566034 0.08751076 0.32471272 0.045150615 -0.2846207 -0.24668467 0.13403523
0.23252001 -0.1523308 0.34346354 -0.27813113 -0.013485616 0.014298675 -0.2770067 -0.04732861
0.26486635 -0.004442151 -0.16805993 -0.04872543 -0.3144678 -0.16367875 -0.17099127 -0.26880303

bias f4 [12]
00000000: fc45 88be cbb4 88bd 8743 06be 891d 3b3e
00000010: e082 323e c8e9 0cbe 1787 81be 8ac1 7bbc
00000020: 1740 81be f91a 173e cafe d1bd 1944 7c3e
-0.26615894 -0.066751085 -0.13111697 0.18272986 0.17432737 -0.13761055 -0.25298378 -0.0153659675
-0.2524421 0.14756383 -0.10253675 0.24635352

weight f4 [12, 48]
00000000: d3dc 2a3e 8b8e 733d 3a6e 923d de61 c23d
00000010: 6bdf 9fbd 3170 5b3c 2aba 123e 4a03 61bd
00000020: 2744 ed3d 504b 233e 2603 243e 37bf e93d
00000030: af08 ab3d d139 793e 7bd1 243e 6406 223e
00000040: 677b 43bd bf66 153d fa34 d63d 7660 813e
00000050: 8d95 f3bc f308 53bd 92c7 2a3e 9d53 683e
00000060: cf35 16bd 1c6c 81bc 3b31 0c3e 267b 1cbd
00000070: 2b8a a2bc f09c 3f3d ae60 933d 9c45 0b3e
00000080: 91ad e4bd a292 40bc 423a 07be d7e1 0abd
00000090: 8c48 b53d 3b8c 0a3e 19b7 81bd c172 9f3c
000000a0: 81b6 363e 97d5 203e 608a 783e 4bb9 b23e
000000b0: fd4e 8cbd d266 723d 748f f0bd 88a5 9dbc
000000c0: 668e 28be b2f5 27bd d2dd 15bd 4016 bfbc
000000d0: c9ba dbbd aea5 02bd 9254 77bc bf6f 28bc
000000e0: e172 b63d a22c e13d 7edb 8bbe 7710 91be
000000f0: 33e0 91bd 1e96 db3d b355 eebc 46b7 8d3d
00000100: 6c43 d3bc bf7f 073e 9810 2f3c 0200 3dbd
00000110: 03fe 48bd e35d 9d3d 2dd2 503d 1240 9f3d
00000120: 3b8d 75bd 3f18 2bbe c0c8 e0bb b8ea 1fbe
00000130: ee65 d0bd fd19 053e e13e 86bc 77d8 763d
00000140: a340 a63d 145d 123e 918e 213e b0db 99bc
00000150: 7f0d a5bd 6740 46be 26d6 8cbd 069f 80bb
00000160: 7a49 97be 77df 95bd 97cc cfbc 1e35 0e3d
00000170: 40be e83d 00fd 77bd 9119 ac3d f0a7 ab3d
00000180: a1f7 203d ca88 673d d0e1 babd e408 6abe
00000190: ed1c 003e 8666 9a3d ad04 49be 3346 48be
000001a0: 41af 913d 23be 8c3d 1937 cebe 1aa0 45be
000001b0: c8df 923e fbba 6b3c 0b4f 78bd 0ac8 8cbc
000001c0: 7e28 183e 8034 293e 65f6 8ebd 84ac d5bd
000001d0: a6d6 223e 392f da3c 4be5 1f3c c9f7 67bd
000001e0: b806 dabd 98bf 843d 1817 053c 8cb8 ccbd
000001f0: 959a d43d a229 2bbd a42b 6cbd f388 f5bb
00000200: 98de 9e3c 2922 673d 48f1 143e 88b6 123d
00000210: cda6 843d 2dec df3d 84ad 953d cdbe 0e3d
00000220: c515 49bc 8505 1ebe f74c 543e 1d6d 5fbe
00000230: b9ab 43bd 8763 89bd 39f5 89bd 0a0a 8939
00000240: 834b 0c3d c8cb 94bd 1fd6 cc3d dcc4 2e3d
00000250: fd22 c63d 0105 25be 7971 443e 299b 013e
00000260: 4c73 eb3d a2d4 863d 68e9 03bd 89b3 9f3a
00000270: a74a 5c3c d0ef 783e 2992 1d3c e0d1 473c
00000280: 9be4 5abd 225d 35be 0024 92bd e08d 9dbd
00000290: c44e ebbd e4a7 4cbd 0cfe a1bb 1e80 43bc
000002a0: db8d b33d a475 7abe a804 13be 9e5d 82bd
000002b0: 5af9 f8bd 01b2 323e afa2 28bd a92b a83c
000002c0: 86bf 133d 322d 40be c829 03be d1b7 e1bd
000002d0: 1a4c 7ebd da98 dc3d 7bbe 7c3d ce4b f63d
000002e0: c564 f93d 20cb e5bc 6e8b 7fbe f8de e8bd
000002f0: e11b 4e3d 1e2a 8a3d f7fd b93d 6fb2 fcbc
00000300: 43a4 3abd ce11 8bbd c28e 92bd ecb1 dabd
00000310: aabe 33bd 5530 b7bd f688 033e fc8f 18bb
00000320: 4a4f cdbd b6e1 d4bd bebc 7a3d fc4c 05be
00000330: 2cdb 783c 490a fe3d 092f 843d aaf3 f73c
00000340: e88e acbd 6f89 603d 03f4 fdbd 42af 1b3e
00000350: 3899 debd e483 a4bd 72f7 913d 1201 853b
00000360: d6c6 5fbd aed5 3dbd 6d3b cbbc 21a9 3ebd
00000370: c8f7 083d bc7b f03d 703e 6e3d 221f e63d
00000380: f492 66bd 8f3a 973c 4689 88bd 55b9 6abd
00000390: 1178 aabd e814 243d 875b e7bd 4882 993d
000003a0: 9124 873d 7a83 00be 91e8 eebd 7abe 093e
000003b0: d950 8a3d 13ea d6bd b7bc 703d b117 ec3d
000003c0: 68c8 b4bc b03e d93c 05a8 42bd 79ac e63c
000003d0: f25a fb3b 9f16 96bc b4a4 10bc 2ab4 61bd
000003e0: ad57 943c e7c4 c4bd fa35 03be 8057 3ebd
000003f0: 75b5 a53d 02a8 ab3c 084c a83d e30a 7e3d
0.166858 0.05946211 0.0714993 0.09491323 -0.078062855 0.013393448 0.14328828 -0.054934777
0.11585265 0.15946698 0.16016826 0.114134245 0.08351266 0.24338461 0.16095535 0.1582275
-0.047725108 0.03647494 0.10459323 0.25268906 -0.029734397 -0.051522207 0.16677693 0.22688146
-0.03667241 -0.01579862 0.13690655 -0.03820338 -0.019841274 0.046780527 0.071961746 0.13600773
-0.11165918 -0.01175371 -0.13205817 -0.033906784 0.08851728 0.13530056 -0.06333751 0.019463899
0.17843057 0.15706478 0.24271536 0.34906992 -0.06851003 0.05918009 -0.117461115 -0.01924397
-0.1646057 -0.041005798 -0.036588497 -0.02332604 -0.10728986 -0.031896286 -0.015095847 -0.010280549
0.0890863 0.10994841 -0.27315897 -0.28332874 -0.07122841 0.10721992 -0.029093599 0.06919722
-0.025788985 0.13232325 0.010685109 -0.046142586 -0.04907037 0.07683923 0.05098169 0.07775892
-0.05994914 -0.16708468 -0.0068598688 -0.15616882 -0.101756915 0.12998195 -0.016387405 0.06026503
0.08117797 0.14293319 0.15777041 -0.018781513 -0.08059215 -0.19360505 -0.06876783 -0.003925207
-0.29548246 -0.07318013 -0.02536611 0.034718625 0.11364412 -0.060544014 0.08403314 0.08381641
0.039298657 0.056526937 -0.091251016 -0.22854954 0.12511034 0.07539086 -0.1963069 -0.19558029
0.07113505 0.06872203 -0.4027641 -0.19299355 0.28686357 0.014387841 -0.060622256 -0.01718523
0.14859197 0.16523933 -0.0698059 -0.10433295 0.15902194 0.026633846 0.009759258 -0.05663279
-0.10645813 0.06481856 0.008123182 -0.09996137 0.10381047 -0.04178775 -0.057658806 -0.0074931323
0.01939325 0.056429062 0.14545166 0.035818607 0.06477127 0.10933719 0.07308486 0.03484993
-0.012273257 -0.15431793 0.20732485 -0.21818967 -0.04777119 -0.067084365 -0.06736226 0.00026138156
0.0342517 -0.07265431 0.10001778 0.04266821 0.09674642 -0.1611519 0.19183911 0.12656845
0.114966005 0.06583525 -0.032205015 0.0012184243 0.013445533 0.24310231 0.009617367 0.012196034
-0.05344067 -0.17711309 -0.07135773 -0.07693076 -0.11489633 -0.0499648 -0.004943615 -0.011932401
0.08767291 -0.24458939 -0.14357245 -0.06365512 -0.12156935 0.17450716 -0.041170772 0.020528631
0.036071323 -0.1876724 -0.12808907 -0.11021388 -0.062084295 0.107713416 0.061705094 0.12026177
0.121774234 -0.02805096 -0.24955532 -0.11370653 0.050319556 0.067463145 0.09081643 -0.030846803
-0.04556681 -0.06790505 -0.07156135 -0.10678467 -0.043883003 -0.089447655 0.12845215 -0.002327918
-0.10024889 -0.103946134 0.061215155 -0.13017648 0.015188973 0.124043055 0.06454284 0.030267555
-0.08425695 0.054818567 -0.12400057 0.15203574 -0.10869068 -0.08032969 0.071272746 0.0040589655
-0.054632984 -0.04634636 -0.02480861 -0.046548013 0.033439428 0.117423505 0.058165014 0.11236407
-0.05629249 0.01846054 -0.06666808 -0.057305653 -0.08323682 0.040059 -0.11296754 0.07495552
0.06598771 -0.12550154 -0.11665452 0.13451567 0.06753702 -0.10493865 0.058773722 0.11527956
-0.022068217 0.02651915 -0.047523517 0.028158413 0.0076707536 -0.018321333 -0.008828331 -0.05510346
0.018108213 -0.09607869 -0.12813559 -0.046470165 0.08091251 0.020954136 0.08217627 0.0620221

bias f4 [12]
00000000: 8980 dd3d 9488 a93d 65dc eb3d 64e2 d2bc
00000010: 64c2 1abe b1af 433d de53 64bd 157e d73c
00000020: e82d 8fbd c1d9 f5bd 9144 0d3f b461 903e
0.10815532 0.08278003 0.11516646 -0.025742717 -0.15113217 0.047774974 -0.055744044 0.026305238
-0.06991178 -0.12004424 0.5518275 0.28199542

weight f4 [12, 12]
00000000: 58bf 973d 87d4 0e3e f050 b2be 80a2 48be
00000010: 858b 6ebe ca60 8a3e 0bdb 883e 67b0 c03b
00000020: a532 b13d bf23 53bd 0b4a 593e afcd a93e
00000030: 0a82 66bc e163 463e 3b24 d3be 7747 883d
00000040: f982 01bd d94e 9d3e 4b7e 03bf d6ad 7b3e
00000050: a5d7 313e fcb3 113e c288 d9be 5e2a 8fbe
00000060: ce0c 223d 4358 0f3e f292 573e a1b1 ad3e
00000070: 8bd6 a63c 4510 3ebe 3410 4c3e fab8 de3e
00000080: 82d3 e93c 154c fdbc b9b2 afbe 2b85 c7be
00000090: c8cd 0dbf 7f9e 92bc e11c 19be 2c6c 51be
000000a0: d6c3 173d 9de9 7bbe 6b0c 2b3e 40d4 e33b
000000b0: 8615 263c 694b 8ebc 09ba 843e 609a 263d
000000c0: 263d 9a3e 2072 20be 19fa 0d3f 41f1 a73d
000000d0: 99d7 57bd 4531 69be 0dad 4dbd 8e19 463e
000000e0: 84d0 4c3d 0c53 55be 889e d7be 062b 47bd
000000f0: 5463 e23e 0acf 823e 1816 623e c260 f53e
00000100: 27bf 18be 749a 7a3e 36e7 6d3e 09cd 963e
00000110: 838d 0b3e 418b 02be 891d a1be d451 c7be
00000120: 0ccb cfbc 5013 703d 957c 32bd 219e 68be
00000130: 9193 fe3d 277b d3bc f4d9 173e 387c 85be
00000140: e085 cc3d a977 4fbe 5df7 be3e 76bf 883d
00000150: 8f7b cd3e e39a 8d3e 17b2 9b3e a86b cf3e
00000160: 9ed5 5ebe d8e8 1d3e 931f 42bb 8b5f fcbd
00000170: a50d a63e a7c9 45bd 6a53 abbe 5c47 b8bd
00000180: baa9 80be e8e3 c2be 2997 21be 26a2 3bbd
00000190: 74aa 29be 845d 1f3e 99c6 6b3e 5129 433c
000001a0: d851 c3be fbc9 15bd 2fea 2f3e ca2d 8a3e
000001b0: ea5e 52be eabf 26be 3866 52be 46fc 553e
000001c0: 0b10 b23d 5f61 31be 0bd5 20bd e00b 5fbe
000001d0: 9221 b9be 18bc 4fbd a713 e23b d964 813e
000001e0: 2cfc 543e a829 033e 44c5 f83e dccf a23c
000001f0: d8c2 87be 89a4 43be 2d38 00bf 0678 79bb
00000200: 592f 19bd 4351 8bbe d09c b7be 07f9 0bbf
00000210: c380 38be efe5 58bd cc4d 9dbe 9b4d 09be
00000220: 7091 ad3d 7878 7d3e 425c 90bb e03b 93be
00000230: 94e4 02bf cd3b 3ebe 47e9 64be f34c ac3e
0.07409543 0.1394826 -0.34827375 -0.19593239 -0.2329541 0.2702697 0.26729617 0.005880404
0.08652238 -0.051547762 0.21219651 0.33164737 -0.01406909 0.19374038 -0.4123858 0.06654256
-0.031619046 0.30724218 -0.5136458 0.24578032 0.17367418 0.14228815 -0.4248715 -0.2796201
0.039562993 0.13998513 0.21052149 0.33924583 0.020365974 -0.18560894 0.19928056 0.435005
0.028543238 -0.030920068 -0.34316042 -0.38968787 -0.5539212 -0.017897842 -0.14952423 -0.2045142
0.037051998 -0.24600835 0.16703956 0.0069527924 0.0101369675 -0.017369943 0.25923184 0.040674567
0.30124778 -0.15668535 0.55459744 0.082003124 -0.052695844 -0.22772701 -0.050213862 0.19345686
0.050003543 -0.20832461 -0.42113137 -0.048625015 0.44216406 0.25548583 0.2207874 0.47925383
-0.14916669 0.24472982 0.23232731 0.29453304 0.13628201 -0.12748434 -0.31467846 -0.38929617
-0.025365375 0.058612168 -0.043575842 -0.22716571 0.1243049 -0.02581556 0.14829236 -0.26071334
0.09986472 -0.2026049 0.37298098 0.06677143 0.4013333 0.27657232 0.3040931 0.40511823
-0.21761176 0.15420854 -0.002962087 -0.12322911 0.32432285 -0.048288014 -0.33462077 -0.08997986
-0.2512949 -0.38064504 -0.1578032 -0.045808934 -0.16568929 0.15563017 0.23024978 0.011911706
-0.3814838 -0.036569577 0.17179178 0.2698806 -0.2054402 -0.16284147 -0.20546806 0.20897016
0.08694466 -0.173223 -0.039265674 -0.21781874 -0.36158425 -0.05071649 0.0068993154 0.25272253
0.20799321 0.1280886 0.48588002 0.019874506 -0.2651584 -0.19105734 -0.5008572 -0.0038065924
-0.03739867 -0.27210435 -0.35861826 -0.5467686 -0.18017869 -0.052953657 -0.30723417 -0.1340851
0.084750056 0.24752986 -0.0044055292 -0.28756618 -0.5113003 -0.185775 -0.22354613 0.33652458

bias f4 [12]
00000000: 7e02 853e 8067 90be d644 1fbf d516 43be
00000010: de6e 8f3d 0f97 87be b10d a4bd 82c1 d5bc
00000020: cd7c e9be 8f0c 4cbe b5f9 09bf 44d9 a2be
0.25978464 -0.28203964 -0.6221441 -0.19051678 0.07003568 -0.26482436 -0.08010424 -0.026093248
-0.45603028 -0.19926666 -0.5389665 -0.31806386

weight f4 [12, 48]
00000000: 1cdc ad3d 86dd bc3d e092 893d 62a3 84bd
00000010: 6534 133d bd16 123d 7d7b 41bd 3d1f 08be
00000020: 6c3e c1bd bdbd a53d c517 743e 1188 0d3c
00000030: 37c1 9cbe 7f6f 8cbe f860 c0be cb4d 62be
00000040: c4f6 fd3d 69ad 96bd be99 5b3c 9018 5ebd
00000050: e344 14be a478 31bd 9a86 0fbe 1da5 63bc
00000060: a0ba 91bd 7212 18bd 3762 1e3e 5cd6 b83d
00000070: 7727 97bc 0d68 11be 9b25 eebd 51b8 6f3e
00000080: 93bb d53b 3d70 efbc 00d4 a0be cdf2 2d3e
00000090: 0a7f 7e3c 202d 7a3b 9628 63bc d5da b03d
000000a0: 0313 3fbd af61 d43d 0d62 423e 7829 4dbc
000000b0: 9fe2 30be eb8c c2bd fd4c 20be e57e 56be
000000c0: 7d6a abbc 4f4a 1f3e 1497 283e 20bc 813d
000000d0: bd60 7c3b 24ef a33c 0037 18be 5b29 80bd
000000e0: f17a 733d e64c 9bbc 30d2 0c3b 5f47 db3d
000000f0: 1165 113d 450d 653c 3001 883e 720a 7d3d
00000100: d523 173e 4932 d83d dfa5 2c3e eef6 afbd
00000110: 2e34 fb3d 86da 1d3e 99b1 273d 8970 debd
00000120: 9ab0 84be e171 10be 0398 bebd 8f9d 82bd
00000130: 31b9 a8bd b139 8b3d 7bde 95bc cb4c 8c3d
00000140: 0d7f 86be 0991 50be c1f2 9a3d 6e35 0d3d
00000150: bee8 593e e020 5c3e 56a3 a73e d105 573e
00000160: e217 1abe 67d2 f5bd 932f 3cbd 68d3 28be
00000170: c0e5 92bd 23be 0bbe 093c 2ebd 96ef 40be
00000180: c383 813e 5308 b13e 7731 1b3e 9203 c73d
00000190: c6f4 08bc 44ea 263c 0926 9e3e 6980 99bc
000001a0: fb62 4f3e 7d7c c23e 07ab 8f3d 8e44 2e3e
000001b0: 82f9 b33d 1730 173e 4815 4bbe 23d9 49bd
000001c0: d898 873e a665 b33e caf9 36be 1348 5f3d
000001d0: 3195 fd3d 7436 313e 22f5 b83d 8806 16be
000001e0: d413 9dbd 5c17 cf3d 0ef8 9d3e fe90 353d
000001f0: 1aa7 283e ed0c f23d 6558 8c3a 2136 4b3e
00000200: a92b 62be 3056 e2bc 4105 1b3d a7c0 64be
00000210: c0e0 d83e fc71 793e 5b37 3e3e 4805 5b3e
00000220: a020 e1bd 6742 fcbd 78bb 863d 3cd8 c63d
00000230: 673a 7fbd 5a5e 0abe 3d00 e3bd 529e 82be
00000240: 16c4 003e 73b4 e7bd b5d4 153e 418f 0d3d
00000250: 934a d03d e1d0 37be 2f2b 553d 343e 033d
00000260: a8e5 a93d ded2 cebd 105c f6bd 2130 193d
00000270: 3138 4fbc 86fd 02be 3148 f33d ba68 aa3b
00000280: 971b cbbd c0ff dcbd 398c 4fbd 9a9c 1bbe
00000290: 2ae0 963b 665b 18be ca41 0f3b 9fc0 1abe
000002a0: 46d7 4c3e ae36 5c3d b741 313d 8c43 b53d
000002b0: 535e 7f3e 6207 99bc e911 d73d 595a 44bb
000002c0: bf66 8a3d 634a 3d3e e21b 613e dda2 b23d
000002d0: 60b2 8cbe 1026 8dbe c66e 53bd c2c1 77be
000002e0: d74a 02be 2f9d 12be 6238 f7bd b760 653d
000002f0: b1d5 373c cd03 c0bd 9d18 09bc 1a7e 7a3e
00000300: 57d8 063e 0c31 8b3c 3076 703e 54ad 393e
00000310: eaad eebd 0939 81bd 6e7c 25be 7554 e33c
00000320: 1c25 893c 3d7b bb3d 53c0 e73d e7b4 883d
00000330: 4649 063d 8194 24bc e3fc 623e a890 443e
00000340: abc8 523c b73c 193e b836 42bd 1b4f 6c3c
00000350: 9dbb e23b 6bab 0bbe 7611 423d d94e 5ebe
00000360: 77e6 0abd a26f 3dbd 17d2 17bd 543a 9fbd
00000370: ad97 ce3d 382e 003e cffb 793e 3589 323e
00000380: 6492 1ebe 688e c1bb eda0 8d3e 868e a73d
00000390: 75b8 7dbd e8ea f6bd 0baf 163d b94d 833d
000003a0: b6f7 b0bc 7d47 0a3d 3505 7bbe 85d8 5abe
000003b0: c5e4 6d3c 796a 7d3d 494b bb3d fa24 bc3e
000003c0: 14b3 fa3c 5b1b ffbb 82a4 05be ac57 a33c
000003d0: 0808 0ebe 29b9 2f3e 60fe b4bd 9c62 b13c
000003e0: ccde ea3d 36e0 c63d 6e04 1abe a17c 37be
000003f0: 3e63 d13b 914b 07be 540a 5bbe 811c 61be
0.08489248 0.0922194 0.06717467 -0.06476475 0.03593864 0.035666216 -0.04723691 -0.13293166
-0.09435734 0.0809283 0.23837192 0.008638398 -0.3061616 -0.27428815 -0.3757398 -0.22099988
0.124005824 -0.07357294 0.013403354 -0.054222643 -0.14479403 -0.043327942 -0.1401619 -0.013894347
-0.07115674 -0.037126966 0.15467153 0.09025261 -0.018451435 -0.14199848 -0.116282664 0.23410155
0.0065226047 -0.029228324 -0.31411743 0.16987152 0.015533218 0.003817387 -0.013864657 0.08635489
-0.04664899 0.10370194 0.18982716 -0.012522094 -0.17273949 -0.09499534 -0.15654369 -0.20946844
-0.020924801 0.1555569 0.16463882 0.0633471 0.003850981 0.020011492 -0.14864731 -0.06257888
0.059443418 -0.018957566 0.0021487586 0.10706972 0.035496775 0.0139802145 0.26563406 0.06177754
0.14759763 0.10556466 0.1686015 -0.0859202 0.12265812 0.15415391 0.040940855 -0.10861308
-0.25915986 -0.14105941 -0.09306338 -0.06377708 -0.082384475 0.06798113 -0.018294564 0.068505846
-0.26268807 -0.20367827 0.07565833 0.034474783 0.2128019 0.21496916 0.32741803 0.20998313
-0.15048173 -0.12003022 -0.045943808 -0.16486895 -0.071727276 -0.1364675 -0.042537723 -0.18841395
0.2529584 0.34576663 0.15155588 0.09717478 -0.00835914 0.010187689 0.30888394 -0.018737989
0.20252602 0.37985602 0.07015043 0.17018339 0.08787824 0.14764439 -0.19832337 -0.049279343
0.26483798 0.3503849 -0.17868724 0.054512095 0.12381972 0.17305928 0.090311304 -0.14650929
-0.076697975 0.10111877 0.30853313 0.04432773 0.16469994 0.11818872 0.0010707496 0.19844867
-0.22086968 -0.027628988 0.037846807 -0.22339116 0.4235897 0.24359888 0.18575804 0.21388733
-0.10992551 -0.12317353 0.065787256 0.09709212 -0.062311556 -0.13512555 -0.1108403 -0.25511414
0.12574801 -0.11313715 0.14631923 0.034560446 0.10170474 -0.17950775 0.052043136 0.032041743
0.082957566 -0.100988135 -0.12029278 0.037399415 -0.012647674 -0.12792024 0.11879004 0.0052004727
-0.09917372 -0.10790968 -0.050670836 -0.15196458 0.004604359 -0.14878616 0.0021859282 -0.15112542
0.20003995 0.053763084 0.04327556 0.08850774 0.24938326 -0.018680278 0.10501463 -0.0029961078
0.067578785 0.18485408 0.21983293 0.0872247 -0.2747984 -0.27568102 -0.051619314 -0.24195006
-0.12723862 -0.14317773 -0.12071301 0.056000438 0.011220382 -0.09375725 -0.008367685 0.24462166
0.13168465 0.01699116 0.23482585 0.18132526 -0.11654265 -0.06309707 -0.16160747 0.027750233
0.016741328 0.09154365 0.1131598 0.066751294 0.032784723 -0.010045172 0.22166781 0.19195807
0.012865226 0.14964567 -0.047415465 0.014423157 0.006919338 -0.1363961 0.047379933 -0.21709765
-0.033911195 -0.04624904 -0.03706559 -0.07774797 0.100875236 0.12517631 0.24412464 0.17435153
-0.15485531 -0.0059068687 0.2766184 0.08181481 -0.06194349 -0.120565236 0.036788028 0.06411309
-0.021602493 0.033759583 -0.24513705 -0.21371658 0.014519875 0.06186912 0.09145219 0.3674696
0.03060297 -0.0077852434 -0.13051036 0.019939266 -0.13870251 0.17160477 -0.08837581 0.021653466
0.114682764 0.097107336 -0.15040752 -0.17918636 0.0063900044 -0.1321242 -0.21390659 -0.2198353

bias f4 [12]
00000000: b854 913e 197e 143e 3bee 273e 79cb b53d
00000010: 1553 033e 85d9 0bbd 4e39 173c 08bd b33c
00000020: c764 fb3d 5d4d 953d c957 15bd 5d4d c33d
0.28384948 0.14501227 0.16399471 0.088767 0.12824662 -0.03414299 0.009229971 0.021940723
0.12275081 0.072901465 -0.03646067 0.0953624

weight f4 [12, 12]
00000000: 82b9 bfbc 01d8 93be d5c1 8c3c a753 84bd
00000010: 3f5a a0be e436 013f 6609 06be 2a1d 23be
00000020: ccab 2fba 0f26 f1bc b5ae 6ebe 68f2 0fbd
00000030: 459f 19bf e200 c33d 3734 9cbe df0f 2a3d
00000040: aa6a d13d 6681 aabe ce4c dd3e dfbc 92be
00000050: 0600 78be 2ea2 c13e 6860 be3e af83 40be
00000060: dede 2c3d 699c c7be 91d6 a7be 4d39 39be
00000070: 7746 18bd b9c4 ea3e 9cba 18be 9289 87be
00000080: 8946 963e 81c0 e2be 1fb4 e1bd 3979 6e3e
00000090: 8ca3 b4bd 7753 123e a410 a3be 97eb 9d3e
000000a0: ca1b e73d 605c 0fbf 17a9 b43e 59d9 b4be
000000b0: 0bc0 f2bd adfe 273e 904d 7abe 7b96 12be
000000c0: 7883 bebe 3639 213b 1fd9 1e3e 7e52 50be
000000d0: 7928 f6bd 704f 9ebc 796f 5cbc d387 06be
000000e0: e49d 9cbe 1bf9 7e3d 8ad2 e8be cc53 3cbe
000000f0: 642c b3be 9d97 ad3d ca87 4a3e 5557 f33d
00000100: 8d0f c03e deba 89be 277d bf3d 9b05 a1be
00000110: 90ba 7cbe 8d8e c4bd 81d9 c73d 9ca0 37bb
00000120: 82de 32be 10b6 0f3e 19f1 c7be 57c3 84be
00000130: 07b0 afbe dff3 10be 98ac cd3d 1186 d2bb
00000140: cdb4 8b3e 05e5 333e 1ff0 593e e6cf 743e
00000150: c4dd d73e 6b36 71bd 1ecc 42be 553c 063c
00000160: c061 4cbe daf2 64bd aa67 e9be 41fd 2c3e
00000170: 6fa0 953e 5661 08be a5c5 37bd 0dec 94be
00000180: 3d10 8ebe 0777 d73e 47f0 d63e 377e 0ebf
00000190: 21e1 b6be 3cc5 33be bd96 863d 5ae8 173e
000001a0: 55e9 a8bd cab7 c13e 1a66 d93e 24da 91be
000001b0: a335 d03d c0c6 41be 7900 c1be 03c6 d23e
000001c0: 1cd4 a9be 0f80 813d b56c a0be 3ea5 5fbe
000001d0: 6ac2 21be 5da8 08be 3ace b9bd 4286 dd3d
000001e0: 5d72 74be 8cb5 853e 969b 333b cecd f33e
000001f0: 97ee 26be 1bed 34be e56c 973e 277e 87be
00000200: 9b6b 3bbd f0e0 523d 0924 80be 0b1e 223e
00000210: 9dbd e1bd d4b4 443e 33cc 8bbe 7435 cb3d
00000220: f5fb a13e 8407 e7bd a3c2 52be 738c 9e3c
00000230: 134d d7bc d8a9 74bd f3b1 373d 7da9 81be
-0.023403887 -0.28875735 0.01718227 -0.06461268 -0.31318852 0.5047438 -0.13089523 -0.15929094
-0.000670132 -0.029437093 -0.23308833 -0.035143286 -0.6000865 0.09521653 -0.30508587 0.041519042
0.10225423 -0.33301848 0.4322266 -0.28659722 -0.24218759 0.37819046 0.37182927 -0.18800233
0.04220473 -0.3898652 -0.3278089 -0.18088265 -0.037176576 0.45853212 -0.14914936 -0.26472145
0.2935069 -0.44287494 -0.110206835 0.2328843 -0.088202566 0.14289652 -0.31848633 0.30843803
0.11284597 -0.5600033 0.35285255 -0.35322073 -0.118530355 0.16405745 -0.2444365 -0.14315216
-0.37209678 0.002460075 0.15512513 -0.20343968 -0.12019438 -0.019324988 -0.0134543115 -0.1313775
-0.3058921 0.062249284 -0.4547313 -0.18391341 -0.34994805 0.084761836 0.19778362 0.11881892
0.37511864 -0.2690038 0.09350043 -0.3144959 -0.24680543 -0.09597502 0.097582825 -0.0028019315
-0.17467692 0.14034295 -0.3905113 -0.25930282 -0.34313986 -0.1415553 0.10042685 -0.0064246734
0.27286378 0.17567833 0.21283005 0.23907432 0.4216138 -0.058889788 -0.19023177 0.008193095
-0.19959164 -0.055895664 -0.45586902 0.16893484 0.29223964 -0.1331838 -0.044866223 -0.29086342
-0.27746764 0.42082998 0.41980192 -0.5566134 -0.35718635 -0.17555708 0.0657172 0.14834729
-0.082476296 0.37835532 0.4246071 -0.2848674 0.101664804 -0.18923473 -0.37695673 0.41166696
-0.3316964 0.06323253 -0.31332937 -0.21840379 -0.1579682 -0.13345475 -0.09072538 0.10816623
-0.23871751 0.26115072 0.002740597 0.47617954 -0.16301952 -0.17668574 0.29575267 -0.26463434
-0.045756917 0.05148405 -0.25027493 0.15831773 -0.11022494 0.19209605 -0.2730423 0.09922305
0.3163754 -0.1128073 -0.2058206 0.01935408 -0.026281869 -0.059732288 0.04484744 -0.25324622

bias f4 [12]
00000000: 9977 54be eff4 39bd 3381 8bbe e763 abbe
00000010: 7f82 45bd e06c 703d 1813 9c3d ff1e 7b3d
00000020: 746f 31bd 605c 15be 9a71 82be cf7b 1b3d
-0.20748748 -0.045399603 -0.2724701 -0.33474657 -0.048220154 0.05869758 0.07620829 0.061308857
-0.04331918 -0.1458602 -0.25477296 0.03795987
