MQCNN-QA-4qubits-3class-CIFAR-same-5filter-V7/Models_V1/model_42.pt (torch, 138806 bytes, 47 tensors)

weights f4 [7]
0	0x3ecf57e8	0.40496755
1	0x407454f9	3.8176863
2	0x40a8d251	5.2756734
3	0x40be3124	5.9434986
4	0x40bf6acc	5.9817867
5	0x406e215a	3.7207856
6	0x400db38d	2.214084

weights f4 [7]
0	0x404c89bb	3.1959064
1	0x4075c92d	3.8404038
2	0x40bbdc35	5.8706307
3	0x4099c102	4.8048105
4	0x40a53b09	5.1634564
5	0x3f189fec	0.5961902
6	0x40b20d38	5.5641136

weights f4 [7]
0	0x404beb5a	3.1862397
1	0x403438a2	2.8159566
2	0x40092bab	2.1432903
3	0x3e7b143d	0.24519439
4	0x40536a9e	3.3033824
5	0x3eb21339	0.3478029
6	0x40b8b057	5.771526

weights f4 [7]
0	0x3ea02d63	0.31284627
1	0x3ff81666	1.9381835
2	0x404c0e26	3.1883636
3	0x3e8aa6c8	0.2708037
4	0x40a42fc5	5.1308312
5	0x40c224a1	6.0669713
6	0x404a644d	3.1623719

weights f4 [7]
0	0x3e487c37	0.19578634
1	0x404862eb	3.1310375
2	0x40728c45	3.7898114
3	0x3fe86173	1.8154739
4	0x409dc8d1	4.9307637
5	0x3d7b75fe	0.061391823
6	0x3f66b65c	0.9012201

weights f4 [7]
0	0x3e0396bd	0.12850471
1	0x4089b19e	4.302932
2	0x40c07cca	6.015233
3	0x40319d89	2.7752402
4	0x40b3a6a2	5.614091
5	0x3f617968	0.88075876
6	0x3cf55d5b	0.029951742

weights f4 [8]
0	0x408e582d	4.4482636
1	0x40af3020	5.4746246
2	0x403147aa	2.769999
3	0x3fa584f9	1.2931205
4	0x3ff15716	1.8854702
5	0x40ae0ce2	5.4390726
6	0x40182c78	2.3777142
7	0x406b06e4	3.6722956

weights f4 [8]
0	0x3fa7afc8	1.3100519
1	0x4033c8cf	2.8091314
2	0x40c49fe2	6.144517
3	0x40717350	3.772663
4	0x3f90f807	1.1325692
5	0x4077067d	3.859771
6	0x4094785e	4.6396933
7	0x3fa41b58	1.2820845

weights f4 [8]
0	0x3f3d6862	0.739874
1	0x3fcafbcd	1.5858094
2	0x409af956	4.8429365
3	0x3f7069e6	0.9391159
4	0x40c24fde	6.0722494
5	0x3e045a8c	0.12925166
6	0x40604e3f	3.5047758
7	0x405d173e	3.4545436

weights f4 [16]
0	0x40c45f3c	6.1366253
1	0x3fe247b8	1.7678137
2	0x403148a7	2.7700593
3	0x408e2d4a	4.4430285
4	0x40c27a32	6.0774164
5	0x40029fdf	2.0410078
6	0x40835771	4.104424
7	0x40859a4f	4.1750865
8	0x3ff1860d	1.8869034
9	0x3dc67b5c	0.09691498
10	0x407a7e67	3.913965
11	0x3eb690fc	0.3565749
12	0x3fb47209	1.4097301
13	0x40917de8	4.5466194
14	0x40594729	3.3949683
15	0x3fc3827d	1.5274197

weights f4 [16]
0	0x406f4ee5	3.7391903
1	0x3fa64167	1.2988709
2	0x405375ac	3.3040571
3	0x3ff3b2a9	1.9038898
4	0x3e3befdd	0.1835322
5	0x406c0afc	3.6881704
6	0x40464fa3	3.0986106
7	0x4081b5dc	4.0534496
8	0x40af00cb	5.468847
9	0x40bf4eda	5.9783754
10	0x40646f77	3.5693033
11	0x40adc614	5.4304295
12	0x40c2b86a	6.0850115
13	0x40b381f9	5.609616
14	0x4041fab0	3.0309258
15	0x40b41014	5.6269627

weights f4 [16]
0	0x40c0ab32	6.020898
1	0x409f106d	4.970755
2	0x407453e2	3.8176198
3	0x3f113a42	0.5672952
4	0x401a72e1	2.4132617
5	0x40a5b9bb	5.178922
6	0x4043c737	3.059034
7	0x400c731f	2.1945264
8	0x3f94696f	1.1594676
9	0x4090750f	4.5142894
10	0x4011c2b0	2.2775078
11	0x406955e3	3.645867
12	0x405e9ed8	3.478445
13	0x4007ed8c	2.1238737
14	0x3e5e5f1c	0.21715969
15	0x4064154f	3.5638006

weights f4 [12]
0	0x3ffdfc42	1.9842608
1	0x4080563b	4.010526
2	0x4014c954	2.324788
3	0x3f6e585a	0.93103564
4	0x3e72902e	0.23687813
5	0x3fdc5697	1.7213925
6	0x4034974c	2.8217344
7	0x4017a7d1	2.3696177
8	0x4091747f	4.5454707
9	0x40255e0f	2.583866
10	0x4012155d	2.282554
11	0x3ed9fcfc	0.42575824

weights f4 [12]
0	0x408a2ea7	4.318195
1	0x3f1ed746	0.6204723
2	0x40a54137	5.164211
3	0x3fe33663	1.7750973
4	0x3f9778da	1.1833756
5	0x40a17402	5.045411
6	0x4083523b	4.103788
7	0x3f8414d9	1.0318862
8	0x3e5871c3	0.21137147
9	0x40ac6b06	5.3880644
10	0x4004e6ef	2.076595
11	0x40327b0b	2.78876

weights f4 [12]
0	0x3ff97c5c	1.9491076
1	0x3fd4f6b0	1.6637783
2	0x40aee3e9	5.465321
3	0x40b54b7a	5.6654634
4	0x40a4c066	5.148486
5	0x4060cda5	3.5125515
6	0x4035b76c	2.8393202
7	0x3f8d2a46	1.1028526
8	0x3f843c16	1.0330837
9	0x40611d5a	3.5174165
10	0x4045c2f7	3.0900247
11	0x3eed648c	0.46365774

weight f4 [12, 48]
0	0xbe02556f	-0.12727903
1	0xbcbfb9e9	-0.023404079
2	0x3d4ee5b6	0.05051204
3	0xbd88e215	-0.06683747
4	0x3d92bcec	0.0716494
5	0xbcb5b090	-0.022178918
6	0x3c252ae7	0.0100810295
7	0x3dfda5af	0.12385117
8	0xbd363946	-0.044488214
9	0xbd9f2dd0	-0.0777241
10	0xbd119fff	-0.035552975
11	0xbe15725f	-0.1459441
12	0x3ce29659	0.027659582
13	0x3d4d0216	0.050050817
14	0xbd8cbf10	-0.0687238
15	0xbd75065a	-0.05982051
16	0x3d3a7ae6	0.04552736
17	0xbd9e3bc7	-0.077262454
18	0x3d936c7c	0.07198426
19	0x3deb5542	0.11490871
20	0xbd2fdcf9	-0.042935345
21	0x3da6978f	0.08134376
22	0xbd363754	-0.04448636
23	0x3da906c6	0.08253245
24	0xbde11a47	-0.1099134
25	0x3df50533	0.11963882
26	0x3d298063	0.041382205
27	0x3e05157e	0.1299648
28	0x3d69566f	0.056967195
29	0x3d4a42e1	0.049380187
30	0x3cc1d699	0.023661898
31	0x3c92e045	0.017929206
32	0xbde32bb2	-0.110923186
33	0x3dd5c540	0.10438013
34	0x3b3d9dd6	0.002893319
35	0x3d4ccb9a	0.049998857
36	0xbd2c2305	-0.042025585
37	0xbd70c17b	-0.058778267
38	0xbde8ad07	-0.11361127
39	0x3ccf42d4	0.02530042
40	0x3e05e721	0.1307645
41	0xbdb3d7d0	-0.08781397
42	0xbe0ad675	-0.13558371
43	0xbb7928b9	-0.0038018657
44	0xbe1697e8	-0.14706385
45	0x3ce1d554	0.027567543
46	0xbdf3ca21	-0.119037874
47	0xbd6cf824	-0.057853833
48	0x3e0caf14	0.13738662
49	0x3dd79e56	0.10528247
50	0x3defdfbd	0.117125966
51	0xbd914ceb	-0.07094749
52	0xbd1b96e2	-0.03798569
53	0xbdbc5213	-0.09195342
54	0xbe9f2852	-0.3108545
55	0xbe192565	-0.14955671
56	0x3d6a5ad6	0.057215534
57	0x3d9c4441	0.07630206
58	0x3de4973e	0.1116166
59	0xbc8ac99f	-0.016941844
60	0xbdf15ab5	-0.11784879
61	0xbdfb3e50	-0.122677445
62	0xbcc9872f	-0.024600593
63	0x3c0c8699	0.008577012
64	0x3c1d54f2	0.009602772
65	0x3dea8fae	0.11453186
66	0x391fda5b	0.00015244765
67	0x3deb8337	0.114996366
68	0x3dec0df3	0.11526098
69	0xbddd97d8	-0.108199775
70	0x3e18b657	0.14913307
71	0xbae87020	-0.0017733611
72	0xbd8e17ef	-0.06938159
73	0xbdc8e385	-0.09809021
74	0x3db6974e	0.08915578
75	0xbdcaaff8	-0.098968446
76	0x3dc45c8b	0.09587964
77	0x3c51e3f0	0.012810692
78	0x3e65de4a	0.22448078
79	0x3d0f1b4b	0.034938138
80	0xbdac96f0	-0.084272265
81	0x3cdd2bb0	0.02699837
82	0xbd1f6f2d	-0.038924385
83	0xbde500a5	-0.111817636
84	0xbd693373	-0.05693383
85	0xbd697a1c	-0.05700122
86	0x3d044e07	0.032300975
87	0x3cc67c04	0.024229057
88	0x3e170162	0.14746621
89	0xbd3b39f8	-0.04570958
90	0xbd9ef0f3	-0.07760801
91	0x3e853918	0.26020122
92	0xbd952374	-0.07282153
93	0x3d63f03f	0.05564904
94	0x3de4722c	0.11154589
95	0x3be1cfd7	0.0068912315
96	0xbd4acd69	-0.0495123
97	0x3cee758d	0.029108787
98	0xbc603874	-0.0136853345
99	0xbd8be78e	-0.06831275
100	0xbdd774e1	-0.1052034
101	0xbdd9890d	-0.106218435
102	0x3bad2988	0.005284492
103	0xbd05c5f7	-0.032659497
104	0x3cbc8901	0.023014547
105	0x3bb76542	0.0055967877
106	0xbe0e43b8	-0.1389302
107	0x3e088523	0.13332038
108	0x3dac7916	0.08421533
109	0xbe0420e2	-0.12903169
110	0x3def0485	0.11670784
111	0x3de311e8	0.110874
112	0x3dd51e9e	0.104062304
113	0x3d103d7b	0.035214882
114	0xbd465433	-0.048420142
115	0x3db5b409	0.088722296
116	0xbd6d048e	-0.05786567
117	0xbd80b89c	-0.062852114
118	0x3dccc3fa	0.09998317
119	0xbddfa656	-0.10920398
120	0x3d698752	0.057013817
121	0x3d48e3f6	0.049045525
122	0xbddc7b1d	-0.107656695
123	0xbd72a362	-0.059237845
124	0xbd7bf8c4	-0.06151654
125	0xbd686f40	-0.05674672
126	0xbd1f7e0c	-0.038938567
127	0x3de43c53	0.111443184
128	0xbdf8a092	-0.12140001
129	0x3c85106c	0.016243182
130	0xbd778a61	-0.060434703
131	0xbcd254a0	-0.025675118
132	0x3dd93b47	0.106070094
133	0xbcb49a1a	-0.022046138
134	0x3df0fd50	0.117670655
135	0x3d06df3e	0.032927744
136	0x3d5724b5	0.05252524
137	0x3dc4d12d	0.096102096
138	0xbd8f8e5b	-0.07009574
139	0xbd9ec91a	-0.07753201
140	0xbe0899aa	-0.13339868
141	0xbe062bc8	-0.13102639
142	0x3dbec30e	0.093145475
143	0xbd77d41a	-0.06050501
144	0xbc904d81	-0.017615082
145	0x3d59b302	0.05314923
146	0x3dc75888	0.09733683
147	0x3d8b9f5c	0.06817505
148	0x3e06fc39	0.13182153
149	0x3c09ae83	0.008403423
150	0x3dbbd722	0.09171893
151	0xbda94612	-0.08265318
152	0x3d507084	0.050888553
153	0xbdfb2fb6	-0.122649595
154	0xbd9173c3	-0.07102158
155	0x3de8ab20	0.113607645
156	0x3dbf7ccc	0.09349975
157	0x3bec1858	0.0072050504
158	0x3cdc7b9a	0.026914407
159	0x3db8c846	0.09022574
160	0x3dce050e	0.10059558
161	0xbdcf4bc8	-0.10121876
162	0x3de7824b	0.11304148
163	0x3e0d881b	0.13821451
164	0xbdec3ab5	-0.11534635
165	0xbbef6932	-0.0073062414
166	0x3e10585c	0.14096206
167	0x3dcbe9a6	0.09956674
168	0xbdbf834e	-0.09351216
169	0xbdbb30c4	-0.09140161
170	0xbe014a05	-0.12625892
171	0x3cc3892b	0.023869118
172	0x3d0809a4	0.03321232
173	0x3d0b4108	0.033997566
174	0x3dcac51a	0.099008754
175	0xbdf7edb1	-0.12105883
176	0x3cc10e97	0.023566527
177	0xbda0b886	-0.07847695
178	0xbd2f095d	-0.04273354
179	0xbde69e3e	-0.11260651
180	0x3e04fd1b	0.12987177
181	0xbcfa90a9	-0.030586557
182	0xbddbdbbf	-0.107352726
183	0x3db3a8bb	0.08772417
184	0xbde04ff6	-0.10952751
185	0x3d1aeebc	0.03782533
186	0xbd27e6bc	-0.04099153
187	0x3d829c59	0.06377477
188	0xbdd7071c	-0.10499403
189	0x3db38bf9	0.08766932
190	0xbde6c1bd	-0.112674214
191	0xbd8b5cef	-0.06804835
192	0xbdd1a711	-0.102369435
193	0x3d6cfc6e	0.057857923
194	0x3cfb1b32	0.030652616
195	0xbe03c795	-0.12869103
196	0xbe870dc4	-0.2637769
197	0xbb37adb8	-0.0028027128
198	0xbd0b4bff	-0.034008022
199	0xbe0dabe1	-0.13835098
200	0x3d6ffc64	0.058590308
201	0xbda7d067	-0.081940465
202	0xbe1a4bce	-0.1506798
203	0xbd37033c	-0.04468082
204	0x3a14937b	0.0005667728
205	0xbe2847a6	-0.16433582
206	0x3ce1e1bd	0.02757346
207	0xbe1d8e4f	-0.15386318
208	0x3dfe8e67	0.12429505
209	0xbda13f7b	-0.07873436
210	0x3d5b213a	0.053498484
211	0xbd3db58f	-0.046315726
212	0xbe12e7d9	-0.14346255
213	0xbda11dbb	-0.07866999
214	0x3b8b2c8c	0.0042472538
215	0x3d018aaa	0.03162638
216	0x3db29ab2	0.08720912
217	0x3dd7b65b	0.105328284
218	0x3d2a13d9	0.041522834
219	0xbd024171	-0.03180069
220	0xbcf5db41	-0.030011775
221	0xbd8b48cd	-0.06800995
222	0x3e07595b	0.1321768
223	0xbdc45371	-0.09586228
224	0xbd7dec77	-0.06199309
225	0x3d7b81da	0.061403133
226	0xbd03a148	-0.03213623
227	0xbd00b6b1	-0.031424228
228	0xbe18eba4	-0.1493364
229	0xbdc2d041	-0.095123775
230	0xbdcd27bc	-0.10017344
231	0xbdeb37ed	-0.11485276
232	0xbd8fa422	-0.07013728
233	0x3d62b8ef	0.055352148
234	0xbdc7e54a	-0.0976053
235	0xbd9e991c	-0.07744047
236	0xbd7196ab	-0.05898158
237	0x3b59a6b5	0.0033210937
238	0x3d5d9339	0.05409548
239	0xbc98e09a	-0.018661786
240	0xbc8dfcd2	-0.017332468
241	0x3c881ca0	0.016615212
242	0x3d8ba7a8	0.06819087
243	0xbda3ef40	-0.08004618
244	0x3c01dbc6	0.007925933
245	0xbce14430	-0.027498335
246	0xbc88a52b	-0.01668032
247	0xbc929681	-0.017894031
248	0x3c370239	0.0111699635
249	0xbcd56f8e	-0.02605417
250	0xbd2adb35	-0.04171296
251	0xbd121b51	-0.035670582
252	0xbb930fe2	-0.0044879774
253	0x3dab1367	0.0835331
254	0x3d8638db	0.06553813
255	0x3b8451cb	0.004038071

bias f4 [12]
0	0x3ded0a10	0.11574185
1	0x3c99be9d	0.01876765
2	0xbde67acc	-0.112538904
3	0xbde34e80	-0.11098957
4	0x3df6cc60	0.120507
5	0x3c458303	0.012055161
6	0xbd995125	-0.0748618
7	0x3d96085a	0.07325812
8	0x3d72a4ca	0.059239186
9	0x3cc86164	0.024460502
10	0x3d74e2f4	0.059786752
11	0x3b924a85	0.00446445

weight f4 [12, 12]
0	0xbdd66998	-0.10469359
1	0x3cf7fd16	0.030272048
2	0x3d4d5836	0.050132953
3	0x3dce0054	0.10058656
4	0x3e4c6db2	0.1996372
5	0xbe586037	-0.21130453
6	0x3d5c1c15	0.05373772
7	0xbdab416d	-0.08362088
8	0xbc9bc6e1	-0.019015731
9	0xbd0f9e8a	-0.035063304
10	0x3e6b9735	0.230069
11	0xbe21f5ed	-0.1581647
12	0x3e8add84	0.27122128
13	0xbec13362	-0.37734514
14	0xbe0ee423	-0.13954215
15	0xbe18be4b	-0.14916341
16	0x3e924e8a	0.28575546
17	0xbd7f12cd	-0.06227379
18	0xbeb63795	-0.3558928
19	0xbec51c18	-0.38497996
20	0x3dc2b210	0.09506619
21	0xbe5cf740	-0.21578693
22	0x3e181fc7	0.14855872
23	0xbe9190f3	-0.284309
24	0xbe843e1e	-0.25828642
25	0x3d7fcb29	0.062449608
26	0xbc072ca4	-0.008250389
27	0xbe12970c	-0.14315432
28	0x3d2d889a	0.0423666
29	0x3d957186	0.072970435
30	0xbdc65764	-0.09684637
31	0x3e0c6f0e	0.13714239
32	0xbe4b8445	-0.19874676
33	0x3d0738e6	0.033013247
34	0xbe45b5a6	-0.19307575
35	0x3d309394	0.04310949
36	0x3e7efee6	0.24901924
37	0x3eab17c9	0.33416584
38	0xbd0c1912	-0.034203596
39	0xbc9c07e8	-0.019046739
40	0x3e282a9a	0.16422501
41	0x3e0aaa32	0.13541487
42	0x3e8d1c7a	0.27560788
43	0x3972b0bc	0.00023144757
44	0xbe1fcc48	-0.15605271
45	0xbde2def4	-0.11077681
46	0x3e541140	0.20709705
47	0xbda809da	-0.08205004
48	0xbe8278ea	-0.25482875
49	0x3e6a1edb	0.22863333
50	0xbdc1cbe8	-0.0946272
51	0xbde4604b	-0.11151179
52	0xbcfb9295	-0.030709544
53	0xbd9eb8e3	-0.07750108
54	0xbe85c10f	-0.26123855
55	0xbba5187b	-0.0050383187
56	0xbe252ec3	-0.1613112
57	0x3e58f04a	0.21185413
58	0xbddc266a	-0.107495144
59	0xbdf0c1ec	-0.11755738
60	0xbd550bb4	-0.052013114
61	0xbed46dd7	-0.4149005
62	0x3d50acb4	0.050945953
63	0x3e76b3b0	0.24091983
64	0x3d02c69b	0.031927686
65	0xbe84ef2e	-0.2596373
66	0xbc4ad450	-0.012379721
67	0xbd2b4690	-0.04181534
68	0xbe219165	-0.1577812
69	0x3e560ea2	0.2090402
70	0xbe6ad4b9	-0.2293271
71	0x3e6d58e7	0.23178445
72	0x3e14fad2	0.14548805
73	0x3d5ae07c	0.05343674
74	0x3e92f86f	0.28705165
75	0xbe6168ff	-0.22012709
76	0x3e88ebf2	0.26742512
77	0x3db4a971	0.08821381
78	0xbbb3b715	-0.0054844716
79	0x3cdf0824	0.027225561
80	0xbea4e625	-0.32206836
81	0xbe8f3997	-0.27973625
82	0x3d8b3979	0.067980714
83	0x3e486f6e	0.19573757
84	0xbe09d6d9	-0.13460864
85	0xbe147cb6	-0.14500698
86	0xbe205c3b	-0.15660183
87	0xbe262125	-0.16223581
88	0xbd3c8ff9	-0.04603574
89	0xbda834b0	-0.08213174
90	0x3dd83a89	0.1055804
91	0xbded3ed6	-0.11584251
92	0x3e8eb427	0.2787182
93	0x3e8194ba	0.25308782
94	0x3ca02309	0.019547956
95	0xbc366007	-0.011131293
96	0xbdd6a8fd	-0.10481451
97	0x3ead5f31	0.33861688
98	0x3e33e18e	0.17566511
99	0x3e834aa1	0.25642875
100	0x3d6fda56	0.05855783
101	0x3e2f9c59	0.17149486
102	0x3e8c4c3a	0.27401906
103	0xbe35d19d	-0.17755742
104	0x3df7ec29	0.12105591
105	0xbeb116d5	-0.34587732
106	0xbbbe55e5	-0.0058085793
107	0xbe85c69a	-0.26128083
108	0xbd9c93de	-0.07645391
109	0xbe1c4f0c	-0.15264529
110	0x3e91186d	0.28338948
111	0xbe4114ae	-0.18855545
112	0xbe824f9b	-0.2545136
113	0xbe8dd549	-0.27701786
114	0x3ce47608	0.027888313
115	0xbeb113b9	-0.3458536
116	0x3e80c59b	0.2515076
117	0x3e5005ea	0.20314756
118	0xbe8662ce	-0.26247257
119	0x3e90ad4b	0.28257212
120	0x3e9892c7	0.29799482
121	0xbca3992d	-0.0199705
122	0x3e4b6128	0.19861281
123	0xbe85362a	-0.26017886
124	0xbe8a4bf0	-0.2701106
125	0xbddf83fe	-0.109138474
126	0xbe81c57b	-0.25345978
127	0xbe8cf4ad	-0.27530423
128	0x3e23bb17	0.15989338
129	0x3e9ab32c	0.30214822
130	0x3e21140f	0.15730308
131	0xbe3ece29	-0.18633331
132	0x3d9a93f1	0.07547749
133	0x3d87b160	0.066256285
134	0x3e20d986	0.15707979
135	0xbde66bb7	-0.11251014
136	0x3e8546ef	0.2603068
137	0xbe84956d	-0.25895253
138	0x3e93fc52	0.28903443
139	0x3e4f2b97	0.20231472
140	0xbd265f02	-0.04061795
141	0xbeaa95ed	-0.3331751
142	0x3dbd368c	0.092389196
143	0xbe316033	-0.17321853

bias f4 [12]
0	0xbe9575e0	-0.29191494
1	0xbe5bf160	-0.21478796
2	0xbe40c16c	-0.18823785
3	0x3db26b8d	0.0871192
4	0x3b530ba5	0.0032202986
5	0xbe6dc438	-0.23219383
6	0xbcc79392	-0.02436236
7	0x3cb3fed6	0.021972101
8	0xbc8a0052	-0.016845856
9	0xbe3a232d	-0.18177481
10	0x3dce8be4	0.10085276
11	0x3d847630	0.06467855

weight f4 [12, 48]
0	0x3d80053f	0.062510006
1	0x3da565e1	0.080760725
2	0xbda9e77b	-0.082961045
3	0xbdf4c188	-0.11950976
4	0x3da7668d	0.08173857
5	0xbd621145	-0.05519225
6	0x3dd5c454	0.10437837
7	0xbe0758e0	-0.13217497
8	0x3c21ebb7	0.009882859
9	0x3dbef952	0.09324898
10	0xbdc2249f	-0.09479641
11	0x3d2fe781	0.04294539
12	0xbcdcad66	-0.026938152
13	0xbdaf2a81	-0.08553029
14	0xbdb02e25	-0.08602551
15	0x3de5d4a5	0.11222199
16	0x3dc33475	0.0953149
17	0xbd739617	-0.05946931
18	0x3dc54e69	0.09634096
19	0xbc961e95	-0.01832513
20	0xbc32b420	-0.010907203
21	0xbd0b07c1	-0.03394294
22	0xbdc6ec0b	-0.097129904
23	0x3cc30350	0.02380529
24	0x3dbbe00b	0.09173592
25	0x3a879c41	0.001034625
26	0x3e1d90a5	0.15387209
27	0x3dd2ad59	0.1028697
28	0x3e196df3	0.14983349
29	0xbd897c35	-0.06713144
30	0x3d6dc420	0.058048368
31	0x3d976def	0.07394015
32	0x3d1e7a6b	0.038690966
33	0x3e013be0	0.12620497
34	0xbdff1034	-0.124542624
35	0xbdd4e579	-0.10395331
36	0xbc5d9592	-0.01352443
37	0x3db6f988	0.08934313
38	0x3d5225a7	0.05130544
39	0x3dacf5ef	0.084453456
40	0x3c07b91e	0.0082838815
41	0xbbb3cde0	-0.0054871887
42	0xbda16fa4	-0.07882622
43	0xbc96f8f8	-0.018429264
44	0xbdcc785e	-0.09983896
45	0xbcbb7539	-0.022883045
46	0x3dc8db51	0.09807456
47	0xbd7b3bf7	-0.061336484
48	0xbdb3a2a7	-0.08771258
49	0xbd61058e	-0.054936938
50	0xbc6493c7	-0.0139512485
51	0xbcc2dcc9	-0.02378692
52	0xbda8f0bc	-0.082490414
53	0x3df4a707	0.119459204
54	0x3dac3d67	0.08410149
55	0x3d8d7167	0.069063954
56	0x3dfbdf37	0.12298434
57	0xbce3f859	-0.027828382
58	0xbdb1e5e9	-0.0868643
59	0x3e1150f3	0.14191036
60	0xbe14de61	-0.14537956
61	0x3dd53796	0.10410993
62	0xbcb5675c	-0.022144012
63	0x3d4b74f1	0.04967207
64	0xbdfc4e15	-0.123195805
65	0xbb79e3b0	-0.0038130097
66	0xbe1160a1	-0.14197017
67	0xbdfbc556	-0.12293498
68	0xbe08f8d9	-0.13376178
69	0xbdde0391	-0.10840524
70	0xbd85323a	-0.065037206
71	0x3df745a1	0.120738275
72	0x3e02fcd7	0.12791763
73	0x3def3434	0.11679879
74	0xbd975d34	-0.07390824
75	0xbded2a8e	-0.11580382
76	0x3da1682e	0.07881199
77	0xbd6d8bf7	-0.05799481
78	0xbc1efc8e	-0.009703768
79	0xbbe40f00	-0.006959796
80	0xbcfd0ca3	-0.030889815
81	0x3e0860d1	0.13318183
82	0xbdad650b	-0.08466538
83	0xbe120695	-0.14260323
84	0xbdfa01cf	-0.12207376
85	0xbdcb895f	-0.09938311
86	0xbda92018	-0.082580745
87	0x3d9f3c67	0.07775193
88	0xbd23769d	-0.03990804
89	0xbe1c5b5e	-0.15269229
90	0xbdcfc47c	-0.10144898
91	0x3d939def	0.07207858
92	0x3d10c20c	0.035341308
93	0xbd773665	-0.06035461
94	0xbb2a8387	-0.0026018338
95	0xbdf0f739	-0.11765904
96	0xbe34bb87	-0.17649661
97	0xbe451e25	-0.1924978
98	0x3d99e132	0.07513656
99	0xbd45906f	-0.048233446
100	0xbd70c78f	-0.058784064
101	0xbdc62df0	-0.09676731
102	0x3dc71095	0.0971996
103	0xbd39a29b	-0.04532109
104	0xbe2ad76f	-0.16683744
105	0xbc55055e	-0.013001768
106	0xbdb3eb17	-0.08785074
107	0xbd8be00b	-0.06829842
108	0x3d781bd4	0.060573414
109	0xbd9773bd	-0.07395122
110	0x3e33afd7	0.17547546
111	0xbd96e394	-0.07367626
112	0x3e12696e	0.1429803
113	0xbcf7a0e8	-0.030228093
114	0xbd00c902	-0.031441696
115	0xbcd4a211	-0.025956186
116	0xbdb44496	-0.08802144
117	0x3d623c92	0.055233546
118	0xbcf561ee	-0.029953923
119	0x3de61688	0.11234766
120	0xbb64b4cb	-0.00348978
121	0xbe09878e	-0.13430616
122	0xbcc98d39	-0.024603473
123	0xbdce2b61	-0.100668676
124	0x3e0d4ebf	0.1379957
125	0xbca67141	-0.020317676
126	0x3dff59aa	0.12468274
127	0x3d8ea530	0.06965101
128	0xbdb1f078	-0.08688444
129	0x3cf5020c	0.029908203
130	0xbd48c8dc	-0.04901968
131	0x3e03119e	0.12799689
132	0xbe385663	-0.18001704
133	0xbdc6420f	-0.096805684
134	0xbdf80ab5	-0.12111417
135	0xbd8b0af4	-0.067891985
136	0x3e23565c	0.15950912
137	0x3d799e15	0.060941774
138	0xbe0e337e	-0.1388683
139	0xbcbd9ead	-0.023146952
140	0xbd38b7d1	-0.045097176
141	0xbe115f15	-0.14196427
142	0xbd0ff7a5	-0.03514828
143	0xbd4e1ccd	-0.050320435
144	0x3c7bfc05	0.01537991
145	0x3d7e6824	0.062111035
146	0x3dc0716d	0.09396634
147	0xbd49d872	-0.049278684
148	0xbe3bef61	-0.18353035
149	0x3cb12300	0.021623135
150	0x3dabe48e	0.08393203
151	0x3dc41c4b	0.09575709
152	0x3bc9e73b	0.006161598
153	0xbd1d6309	-0.038424525
154	0x3d20b7a4	0.039237633
155	0x3bc78000	0.006088257
156	0xbe0dad80	-0.13835716
157	0xbe034f59	-0.12823237
158	0x3e042d3a	0.12907878
159	0x3d158480	0.036503315
160	0xbba40f23	-0.0050066872
161	0x3e10f7b4	0.14156991
162	0x3da68bf1	0.081321605
163	0xbda0a111	-0.07843221
164	0xbe13647f	-0.14393805
165	0xbd554b48	-0.052073747
166	0x3e00460a	0.12526718
167	0x3cfff18a	0.031243104
168	0x3c9d05fc	0.019167893
169	0xbd894b06	-0.06703763
170	0x3b8956fb	0.004191277
171	0xbb429c37	-0.0029695162
172	0xbdca77d0	-0.09886134
173	0xbd7746f6	-0.060370408
174	0xbddfe0dc	-0.109315604
175	0x3d1ce22e	0.03830164
176	0x3ded8b9f	0.11598896
177	0xbddc939f	-0.10770344
178	0xbe3e3490	-0.18574739
179	0xbd5eae19	-0.05436525
180	0xbd884029	-0.066528626
181	0x3dd2e2bf	0.10297155
182	0x3cfd3ca9	0.030912714
183	0xbd0a437a	-0.033755757
184	0x3cdc26eb	0.026874026
185	0x3d0cb3e5	0.03435125
186	0xbe1e3896	-0.15451273
187	0xbe17fc33	-0.148423
188	0x3c94ced2	0.018165026
189	0xbe15a282	-0.14612773
190	0xbceef03d	-0.029167289
191	0xbbb9591b	-0.005656374
192	0x3ce201c2	0.027588729
193	0x3d9eaced	0.07747827
194	0xbd4eda22	-0.050500996
195	0x3d6b76d8	0.057486385
196	0x3dbe7f5b	0.09301635
197	0xbd85d69f	-0.06535076
198	0x3b8ca971	0.00429266
199	0xbcf9c710	-0.030490428
200	0x3d19cc19	0.03754816
201	0xbd8e641b	-0.06952687
202	0xbd79266d	-0.06082766
203	0xbd1f2894	-0.038857058
204	0x3d5cc457	0.05389818
205	0x3d52b991	0.0514465
206	0xbadbb1e2	-0.0016761387
207	0xbcfbead1	-0.030751618
208	0xbcc45601	-0.023966791
209	0xbd0122af	-0.031527217
210	0xbdf901d8	-0.12158555
211	0xbe0ac30a	-0.13550964
212	0x3d9f2919	0.07771511
213	0x3d2ab003	0.041671764
214	0xbdc4485e	-0.095841154
215	0xbd869808	-0.065719664
216	0x3c0cd680	0.008596063
217	0x3e1f00bb	0.15527622
218	0xbdc8c76c	-0.09803662
219	0x3d02e7dc	0.0319594
220	0xbd5aa118	-0.053376287
221	0x3cc19124	0.023628779
222	0xbd7d7d1d	-0.061886895
223	0x3dbddedd	0.092710234
224	0x3cb7cbfb	0.022436133
225	0x3df00b41	0.117208965
226	0x3b7d696d	0.0038667575
227	0xbcea94a8	-0.028635338
228	0x3e0947d5	0.13406308
229	0x3c288d5b	0.010287608
230	0x3d20d0dc	0.039261684
231	0x3dd0998e	0.10185538
232	0xbdd4f620	-0.10398507
233	0xbd82aff9	-0.0638122
234	0xbdcc5658	-0.09977406
235	0xba980c4a	-0.0011600342
236	0x3e146c12	0.1449435
237	0x3dc7cff0	0.09756458
238	0xbce0c2f7	-0.027436716
239	0xbd9af673	-0.07566538
240	0x3d8a1f1d	0.06744216
241	0x3d35c168	0.0443739
242	0x3dce889e	0.100846514
243	0x3c38fed5	0.011291225
244	0xbdb0f51a	-0.086404994
245	0x3d3fd02b	0.046829384
246	0xbdb03a3b	-0.086048566
247	0xbcb0eaa3	-0.021596259
248	0xbbe77a2a	-0.0070641236
249	0x3e0fd300	0.14045334
250	0xbd03542b	-0.03206269
251	0xbd7a3572	-0.061086126
252	0x3def216e	0.11676298
253	0xbd22db3f	-0.03975987
254	0x3de9fb78	0.11424917
255	0xbdc2fee1	-0.095212705

bias f4 [12]
0	0xbdaffa0b	-0.08592614
1	0xbd0d284d	-0.034462262
2	0x3e04acfb	0.12956612
3	0xbdd270bd	-0.10275409
4	0xbe1719a9	-0.14755882
5	0x3bd24c59	0.0064177928
6	0xbda2c80a	-0.07948311
7	0x3e85370e	0.26018566
8	0xbdc0064f	-0.09376203
9	0x3df77398	0.12082595
10	0xbc09e970	-0.008417472
11	0xbda0d735	-0.078535475

weight f4 [12, 12]
0	0xbc2790fb	-0.010227437
1	0xbc6e10e9	-0.014530399
2	0xbd9ed148	-0.07754761
3	0x3d4b7c2d	0.04967897
4	0x3d4c814e	0.049928002
5	0xbe6f9cd8	-0.23399675
6	0xbdc2da67	-0.09514313
7	0xbdc46439	-0.095894285
8	0x3ebedefb	0.37279496
9	0xbd5c4f1c	-0.053786382
10	0xbd8c98f8	-0.06865114
11	0x3db43f22	0.08801104
12	0x3e37ebc2	0.17961028
13	0xbe4808d5	-0.19534619
14	0x3ed74196	0.42042226
15	0x3ca8e91d	0.02061897
16	0xbe210ed8	-0.15728319
17	0x3cf66518	0.030077502
18	0xbd8ca623	-0.068676256
19	0x3e03fd58	0.12889612
20	0xbe16d0f3	-0.14728145
21	0x3dae8a42	0.08522464
22	0xbeaab798	-0.33343196
23	0xbe7fc348	-0.24976838
24	0x3e51a29d	0.20472188
25	0x3df26d05	0.118372
26	0x3c0932b7	0.008373908
27	0xbeaa373e	-0.3324527
28	0xbe09e3f3	-0.13465862
29	0x3ebbd385	0.36684814
30	0x3e3900ef	0.18066762
31	0xbebed646	-0.37272853
32	0x3e096d34	0.13420564
33	0xbe35ac2f	-0.17741464
34	0xbd9a0aac	-0.07521567
35	0x3d250bab	0.04029433
36	0xbd4cf872	-0.050041623
37	0xbe0e42b7	-0.13892637
38	0xbe51a5d4	-0.20473415
39	0x3e2a1fe7	0.16613732
40	0xbe771993	-0.2413085
41	0x3e33f47a	0.17573729
42	0xbe34ecb3	-0.17668419
43	0x3ea444b2	0.3208366
44	0x3ec581a4	0.3857547
45	0x3e8648ce	0.2622742
46	0x3c7666c9	0.015039154
47	0xbe4095b7	-0.18807112
48	0x3dc67a7a	0.09691329
49	0xbe1310e9	-0.1436192
50	0x3dd33314	0.10312477
51	0x3e6e9067	0.23297273
52	0x3df6b90d	0.120470144
53	0x3d2c1714	0.042014197
54	0x3e165207	0.14679728
55	0xbd0e60f7	-0.03476044
56	0xbe331b73	-0.1749094
57	0x3e1d568b	0.15365045
58	0x3da2de22	0.07952525
59	0xbcc74909	-0.024326818
60	0xbe7e119a	-0.24811402
61	0xbe73386f	-0.23751996
62	0xbec57ff0	-0.3857417
63	0x3e5c113f	0.21490954
64	0xbdf31b7d	-0.11870477
65	0x3e0bf3fa	0.13667288
66	0xbea3eafc	-0.32015216
67	0xbdd95f0d	-0.106138326
68	0xbe68b9b2	-0.22727087
69	0xbadf5f78	-0.0017042002
70	0xbe88a07b	-0.26684937
71	0x3e3c640f	0.18397544
72	0x3e589ecb	0.21154325
73	0xbd714c45	-0.058910627
74	0x3e38170b	0.1797754
75	0x3dfc2456	0.12311618
76	0x3e442d5e	0.19157931
77	0x3e5c1fd0	0.2149651
78	0x3e4c0216	0.1992267
79	0xbea3ba13	-0.319779
80	0xbeb7651c	-0.35819328
81	0x3e30f2d8	0.17280138
82	0x3e4548c8	0.19266045
83	0xbd8abaa7	-0.06773882
84	0xbe155e3e	-0.14586732
85	0xbd8391b0	-0.06424272
86	0xbe02c410	-0.12770104
87	0xbd44eab8	-0.048075408
88	0xbe6c40e4	-0.23071629
89	0x3e7cfac2	0.24705032
90	0x3c6744a2	0.014115484
91	0xbe6bd855	-0.23031743
92	0x3e965574	0.2936207
93	0x3d0a0f8f	0.033706244
94	0xbd9f2f07	-0.07772642
95	0xbe6a7a19	-0.22898139
96	0xbd156fe9	-0.03648368
97	0xbe3d6029	-0.18493713
98	0x3e8e62c1	0.27809718
99	0x3e3ecb02	0.18632129
100	0x3dff3f77	0.12463277
101	0xbdf70f71	-0.12063492
102	0xbd330ab1	-0.043711368
103	0x3d1e4d76	0.03864809
104	0x3ead6dd7	0.33872864
105	0x3e83a55f	0.25712106
106	0x3e999e7e	0.30003732
107	0x3e8df366	0.2772476
108	0xbd8193f2	-0.063270465
109	0x3e8f3d80	0.27976608
110	0xbe8ccea1	-0.27501395
111	0xbe2c5f9f	-0.16833352
112	0xbe37b824	-0.17941338
113	0xbe7c145d	-0.24617143
114	0x3ea82d33	0.32846984
115	0x3d41e45c	0.04733692
116	0xbed0b84a	-0.407656
117	0xbddc7285	-0.1076403
118	0x3ccb0063	0.024780458
119	0x3d64a740	0.055823565
120	0x3e031a0e	0.12802908
121	0x3dad30f5	0.084566034
122	0x3db22b1d	0.086996295
123	0x3ea76e17	0.3270118
124	0x3d38efda	0.045150615
125	0xbe95a079	-0.29223993
126	0xbe7e7368	-0.24848711
127	0x3e0bcb9f	0.13651894
128	0x3e6b3394	0.22968894
129	0xbe1bfc9b	-0.1523308
130	0x3eb36c35	0.35043493
131	0xbe8e6734	-0.27813113
132	0xbc5cf2c6	-0.013485616
133	0x3c6a44fd	0.014298675
134	0xbe8d58ee	-0.2760691
135	0xbd43bc77	-0.047787156
136	0x3e879c90	0.26486635
137	0x3af1e6ba	0.0018455603
138	0xbe2b99e5	-0.16757925
139	0xbd4b39f5	-0.04961582
140	0xbe9fce7e	-0.3121223
141	0xbe279b67	-0.16367875
142	0xbe35132f	-0.17683099
143	0xbe89a08d	-0.26880303

bias f4 [12]
0	0xbe888c8b	-0.26669726
1	0xbd9daf06	-0.07699399
2	0xbe0bc445	-0.1364909
3	0x3e3def97	0.18548428
4	0x3e2c3228	0.16816008
5	0xbe13524b	-0.14386861
6	0xbe83e0ad	-0.25757352
7	0xbc9d352e	-0.019190397
8	0xbe8240c7	-0.25440046
9	0x3e164065	0.14673002
10	0xbdde4f5a	-0.10854979
11	0x3e7c6f2f	0.24651788

weight f4 [12, 48]
0	0x3e29cb02	0.16581348
1	0x3d6f0514	0.058354452
2	0x3d8f6fe7	0.070037656
3	0x3dc31317	0.095251255
4	0xbd9f8a78	-0.07790083
5	0x3c1b7ae1	0.009489746
6	0x3e14abdb	0.14518683
7	0xbd67478a	-0.05646471
8	0x3df9b155	0.121920265
9	0x3e2045ac	0.15651578
10	0x3e29fd8c	0.16600627
11	0x3df46313	0.119329594
12	0x3da641b1	0.081179984
13	0x3e7797d5	0.24179013
14	0x3e244d1d	0.16045041
15	0x3e226a64	0.15860897
16	0xbd532fb8	-0.05155918
17	0x3d1802f0	0.037112176
18	0x3dd2f27f	0.10300159
19	0x3e81a609	0.25321987
20	0xbcfbee4b	-0.030753275
21	0xbd5bc880	-0.05365801
22	0x3e28703a	0.16449061
23	0x3e679d58	0.22618616
24	0xbd0f62de	-0.035006396
25	0xbc8515a4	-0.01624567
26	0x3e0c7b95	0.13719018
27	0xbd19d8bf	-0.03756022
28	0xbcaaa8eb	-0.0208325
29	0x3d3e4866	0.046455763
30	0x3d98fe43	0.074703716
31	0x3e0cb80c	0.13742083
32	0xbde5f8d3	-0.112291
33	0xbc419bea	-0.011816958
34	0xbe070a67	-0.13187562
35	0xbd0c96bf	-0.03432345
36	0x3db5652d	0.088571884
37	0x3e0d0dee	0.13774845
38	0xbd7f32e5	-0.062304396
39	0x3c9527b8	0.018207416
40	0x3e391351	0.18073775
41	0x3e1e61a6	0.15466937
42	0x3e7801c0	0.24219418
43	0x3eb5e963	0.35529622
44	0xbd887588	-0.06663042
45	0x3d7582ed	0.059939314
46	0xbdee6309	-0.11639983
47	0xbca1b29e	-0.019738492
48	0xbe2a710f	-0.16644691
49	0xbd351536	-0.04420968
50	0xbd1ae71b	-0.037818056
51	0xbcd17159	-0.025566744
52	0xbddcfff3	-0.10791006
53	0xbd031b97	-0.032008734
54	0xbc893202	-0.016747478
55	0xbc006bc4	-0.007838193
56	0x3dbe9cd3	0.093072556
57	0x3dec4394	0.11536327
58	0xbe8f048d	-0.2793316
59	0xbe923eec	-0.2856363
60	0xbd8e635c	-0.06952545
61	0x3ddb84e6	0.10718708
62	0xbceae211	-0.02867225
63	0x3d8a00e1	0.06738449
64	0xbccea931	-0.025227161
65	0x3e0824f5	0.13295348
66	0x39a1a494	0.00030830933
67	0xbd41c3d9	-0.047305916
68	0xbd43e77c	-0.047828183
69	0x3d9cdd4b	0.07659396
70	0x3d3eb1ca	0.04655627
71	0x3d968249	0.07349069
72	0xbd6b565e	-0.057455413
73	0xbe286946	-0.16446409
74	0xbc0acfa0	-0.008472353
75	0xbe21a8ce	-0.1578705
76	0xbdd3da34	-0.10344353
77	0x3e042c71	0.12907578
78	0xbc93ebeb	-0.01805683
79	0x3d7aca18	0.061227888
80	0x3da6a9c3	0.08137848
81	0x3e12c00d	0.14331074
82	0x3e2162b8	0.15760314
83	0xbc943821	-0.01809317
84	0xbda2aa51	-0.079426415
85	0xbe48c9eb	-0.19608276
86	0xbd92adf9	-0.07162089
87	0xbbc14413	-0.0058980077
88	0xbe97557d	-0.2955741
89	0xbd913d3d	-0.070917584
90	0xbca425e0	-0.020037591
91	0x3d25a3ac	0.040439293
92	0x3deb4094	0.11486927
93	0xbd770373	-0.060306024
94	0x3daa2380	0.08307552
95	0x3dab1f66	0.08355598
96	0x3d0aa206	0.033845924
97	0x3d5892f1	0.05287451
98	0xbdc3ed35	-0.09566728
99	0xbe70c86e	-0.23513958
100	0x3e009915	0.12558396
101	0x3d963b25	0.073355
102	0xbe4bc8be	-0.19900796
103	0xbe494d1f	-0.19658326
104	0x3da2baf9	0.079458185
105	0x3d842864	0.064530164
106	0xbed1c691	-0.40971807
107	0xbe4bd341	-0.19904806
108	0x3e936c36	0.28793496
109	0x3c31d21c	0.010853317
110	0xbd77b372	-0.060473867
111	0xbcaefc00	-0.021360397
112	0x3e1bc56c	0.15212029
113	0x3e2e189f	0.1700158
114	0xbd9e5816	-0.07731645
115	0xbdd42dfd	-0.10360334
116	0x3e24d1dd	0.16095681
117	0x3cf38e0b	0.029730817
118	0x3bec147d	0.007204591
119	0xbd723dd6	-0.059141003
120	0xbdd7ce7d	-0.105374314
121	0x3d7aa1bb	0.061189394
122	0x3bbbff88	0.005737249
123	0xbdd68d16	-0.10476129
124	0x3dd39d28	0.103327096
125	0xbd29e500	-0.041478157
126	0xbd6a2b60	-0.057170272
127	0xbb9eb22b	-0.0048430166
128	0x3c9e2dd6	0.019308966
129	0x3d66c675	0.056341607
130	0x3e142004	0.14465338
131	0x3d113a88	0.03545621
132	0x3d835681	0.06412984
133	0x3de2cf9f	0.11074757
134	0x3d8fdb71	0.07024277
135	0x3d0adf86	0.033904575
136	0xbc6514b3	-0.013981986
137	0xbe1fb623	-0.15596823
138	0x3e5443b2	0.20728949
139	0xbe5cff6d	-0.21581812
140	0xbd3d7300	-0.04625225
141	0xbd872731	-0.06599272
142	0xbd8b9093	-0.06814685
143	0x398cc56f	0.0002684998
144	0x3d105116	0.03523358
145	0xbd937529	-0.07200081
146	0x3dd02260	0.101628065
147	0x3d358bcd	0.044322778
148	0x3dc76a48	0.097370684
149	0xbe257211	-0.16156794
150	0x3e470145	0.19434078
151	0x3e03d3fe	0.12873837
152	0x3defab0f	0.11702549
153	0x3d80a6c2	0.062818065
154	0xbceaf880	-0.028682947
155	0x3b6fed05	0.003660978
156	0x3c33206b	0.010933022
157	0x3e78ef3a	0.24310008
158	0x3c2db9dd	0.010603395
159	0x3bb76d57	0.005597751
160	0xbd60e53d	-0.05490612
161	0xbe3486d0	-0.17629552
162	0xbd9d9563	-0.07694509
163	0xbd9abfa1	-0.075560816
164	0xbdebce38	-0.115139425
165	0xbd51c4a0	-0.051212907
166	0xbbfd2cc0	-0.007726282
167	0xbc77d46f	-0.015126332
168	0x3db8446c	0.089974254
169	0xbe7d8c8a	-0.24760643
170	0xbe13605e	-0.1439223
171	0xbd8d24e4	-0.06891802
172	0xbe000861	-0.12503196
173	0x3e2fb351	0.17158248
174	0xbd2e46db	-0.04254804
175	0x3c9714d8	0.018442556
176	0x3d121f53	0.035674404
177	0xbe3fba11	-0.18723322
178	0xbe039d29	-0.1285292
179	0xbde1f2fe	-0.11032675
180	0xbd834962	-0.06410481
181	0x3ddeac0a	0.108726576
182	0x3d7a6ce8	0.061139017
183	0x3df6555a	0.12027998
184	0x3df88081	0.12133885
185	0xbd013934	-0.031548694
186	0xbe81a1b1	-0.25318673
187	0xbdd8b332	-0.10581054
188	0x3d54c1d5	0.051942665
189	0x3d8c04f5	0.06836883
190	0x3dbf7641	0.09348727
191	0xbce9f584	-0.028559454
192	0xbd3aa443	-0.04556681
193	0xbd8b11ce	-0.06790505
194	0xbd928ec2	-0.07156135
195	0xbddab1ec	-0.10678467
196	0xbd33beaa	-0.043883003
197	0xbdb73055	-0.089447655
198	0x3e0388f6	0.12845215
199	0xbb188ffc	-0.002327918
200	0xbdcd4f4a	-0.10024889
201	0xbdd4e1b6	-0.103946134
202	0x3d7abcbe	0.061215155
203	0xbe054cfc	-0.13017648
204	0x3c78db2c	0.015188973
205	0x3dfe0a49	0.124043055
206	0x3d842f09	0.06454284
207	0x3cf7f3aa	0.030267555
208	0xbdac8ee8	-0.08425695
209	0x3d60896f	0.054818567
210	0xbdfdf403	-0.12400057
211	0x3e1baf42	0.15203574
212	0xbdde9938	-0.10869068
213	0xbda483e4	-0.08032969
214	0x3d91f772	0.071272746
215	0x3b850112	0.0040589655
216	0xbd5fc6d6	-0.054632984
217	0xbd3dd5ae	-0.04634636
218	0xbccb3b6d	-0.02480861
219	0xbd3ea921	-0.046548013
220	0x3d08f7c8	0.033439428
221	0x3df07bbc	0.117423505
222	0x3d6e3e70	0.058165014
223	0x3de61f22	0.11236407
224	0xbd6692f4	-0.05629249
225	0x3c973a8f	0.01846054
226	0xbd888946	-0.06666808
227	0xbd6ab955	-0.057305653
228	0xbdaa7811	-0.08323682
229	0x3d2414e8	0.040059
230	0xbde75b87	-0.11296754
231	0x3d998248	0.07495552
232	0x3d872491	0.06598771
233	0xbe00837a	-0.12550154
234	0xbdeee891	-0.11665452
235	0x3e09be7a	0.13451567
236	0x3d8a50d9	0.06753702
237	0xbdd6ea13	-0.10493865
238	0x3d70bcb7	0.058773722
239	0x3dec17b1	0.11527956
240	0xbcb4c868	-0.022068217
241	0x3cd93eb0	0.02651915
242	0xbd42a805	-0.047523517
243	0x3ce6ac79	0.028158413
244	0x3bfb5af2	0.0076707536
245	0xbc96169f	-0.018321333
246	0xbc10a4b4	-0.008828331
247	0xbd61b42a	-0.05510346
248	0x3c9457ad	0.018108213
249	0xbdc4c4e7	-0.09607869
250	0xbe0335fa	-0.12813559
251	0xbd3e5780	-0.046470165
252	0x3da5b575	0.08091251
253	0x3caba802	0.020954136
254	0x3da84c08	0.08217627
255	0x3d7e0ae3	0.0620221

bias f4 [12]
0	0x3ddce191	0.10785211
1	0x3daaf766	0.08347969
2	0x3deb53bb	0.1149058
3	0xbcd31fb7	-0.025771959
4	0xbe1ac264	-0.15113217
5	0x3d43afb1	0.047774974
6	0xbd6b0ce5	-0.057385344
7	0x3ce9ec6e	0.028555121
8	0xbd9101a5	-0.07080392
9	0xbdf5d9c1	-0.12004424
10	0x3f118a24	0.5685141
11	0x3e97b78c	0.29632223

weight f4 [12, 12]
0	0x3d93edba	0.07223077
1	0x3e0d74d2	0.13814095
2	0xbeb2d17c	-0.3492545
3	0xbe484e69	-0.19561161
4	0xbe6e8b85	-0.2329541
5	0x3e8a60ca	0.2702697
6	0x3e831b39	0.25606707
7	0x3c238d36	0.009982398
8	0x3db7b040	0.08969164
9	0xbd5323bf	-0.051547762
10	0x3e5d130d	0.21589299
11	0x3eabd3f8	0.33560157
12	0xbcb08daa	-0.021551926
13	0x3e4fc07f	0.20288275
14	0xbed6f9f6	-0.4198758
15	0x3d844674	0.0645875
16	0xbd0182f9	-0.031619046
17	0x3e9d4ed9	0.30724218
18	0xbf072e17	-0.528047
19	0x3e7ec202	0.24878696
20	0x3e376a27	0.17911588
21	0x3e11b3fc	0.14228815
22	0xbed95254	-0.42445624
23	0xbe925854	-0.28583014
24	0x3d143d93	0.036191534
25	0x3e187ccf	0.1489136
26	0x3e5ea2c0	0.21741772
27	0x3eaf66fb	0.34258255
28	0x3ca6d68b	0.020365974
29	0xbe3e1045	-0.18560894
30	0x3e4bdde9	0.19908871
31	0x3ee1c74a	0.44097358
32	0x3d0973ae	0.033557586
33	0xbcfd4c15	-0.030920068
34	0xbeb0840f	-0.34475753
35	0xbec9ae83	-0.39390954
36	0xbf0eba80	-0.55753326
37	0xbc884e03	-0.016638761
38	0xbe18bdbc	-0.14916128
39	0xbe5637ee	-0.20919773
40	0x3d17c3d6	0.037051998
41	0xbe7be99d	-0.24600835
42	0x3e2702c7	0.16309653
43	0x3af45bce	0.0018643083
44	0x3bc0918e	0.0058767265
45	0xbc8e4b69	-0.017369943
46	0x3e84d149	0.25940922
47	0x3d03003b	0.03198264
48	0x3e9c6226	0.3054363
49	0xbe21ca3e	-0.15799806
50	0x3f104b59	0.5636497
51	0x3db71f48	0.08941513
52	0xbd57d799	-0.052695844
53	0xbe693145	-0.22772701
54	0xbd2a2f44	-0.041548982
55	0x3e482fb0	0.19549441
56	0x3d4cc9f2	0.049997278
57	0xbe55530c	-0.20832461
58	0xbedbd2a7	-0.42934152
59	0xbd4d5730	-0.050131977
60	0x3ee439e2	0.4457541
61	0x3e829b41	0.25509074
62	0x3e67ae24	0.22625023
63	0x3ef8de83	0.48607263
64	0xbe18bf27	-0.14916669
65	0x3e7a9a74	0.24472982
66	0x3e7616bc	0.2403211
67	0x3e98a8d7	0.29816315
68	0x3e0cdead	0.13756819
69	0xbe028b41	-0.12748434
70	0xbea4e708	-0.32207513
71	0xbec7a2ce	-0.38991398
72	0xbcde4df0	-0.027136773
73	0x3d69c2af	0.05707043
74	0xbd407cb3	-0.046993922
75	0xbe6acb4e	-0.22929117
76	0x3dfe9391	0.1243049
77	0xbcd37b27	-0.02581556
78	0x3e163a47	0.14670669
79	0xbe868807	-0.26275656
80	0x3dc8a148	0.09796387
81	0xbe4f77a9	-0.2026049
82	0x3ebe9dd1	0.3722978
83	0x3d865a4b	0.06560191
84	0x3ecdf451	0.4022546
85	0x3e8e8595	0.2783629
86	0x3e9d766e	0.30754417
87	0x3ed15bc0	0.40890312
88	0xbe5ed59e	-0.21761176
89	0x3e1de8d8	0.15420854
90	0x3aa8ee43	0.001288839
91	0xbdf43c07	-0.11925512
92	0x3ea720c6	0.32642192
93	0xbd45c9a7	-0.048288014
94	0xbeac81a9	-0.33692673
95	0xbdb8bd4b	-0.0902048
96	0xbe813706	-0.25237292
97	0xbec4481b	-0.38336262
98	0xbe24f22f	-0.1610801
99	0xbd42a228	-0.047517926
100	0xbe29aa74	-0.16568929
101	0x3e1f5d84	0.15563017
102	0x3e68d2ea	0.22736707
103	0x3c01dfb3	0.007926869
104	0xbec499eb	-0.3839868
105	0xbd15c9fb	-0.036569577
106	0x3e2eab70	0.17057586
107	0x3e89a276	0.2688176
108	0xbe4c101f	-0.19928025
109	0xbe3009bc	-0.17191213
110	0xbe52d356	-0.20588431
111	0x3e6144a9	0.21998848
112	0x3db2100b	0.08694466
113	0xbe31615f	-0.173223
114	0xbd0102ce	-0.031496815
115	0xbe642ac3	-0.22281937
116	0xbebb99e3	-0.36640844
117	0xbd4fbc18	-0.05071649
118	0xbb46bfc9	-0.0030326715
119	0x3e8054da	0.25064737
120	0x3e581154	0.2110036
121	0x3e090120	0.13379335
122	0x3efc755e	0.49308294
123	0x3c805891	0.015667232
124	0xbe87c2d8	-0.2651584
125	0xbe43a489	-0.19105734
126	0xbf02aad3	-0.5104191
127	0x3acc7376	0.0015598375
128	0xbd15bc6e	-0.036556654
129	0xbe8b5143	-0.27210435
130	0xbeb86629	-0.36015442
131	0xbf0cbc93	-0.5497524
132	0xbe3795cb	-0.17928235
133	0xbd727bf4	-0.059200242
134	0xbe9fea16	-0.3123328
135	0xbe0917ef	-0.13388036
136	0x3dad9170	0.084750056
137	0x3e7d7878	0.24752986
138	0xbbf437aa	-0.0074529247
139	0xbe963eff	-0.29344937
140	0xbf03faf6	-0.5155481
141	0xbe3e3bcd	-0.185775
142	0xbe6956c3	-0.22787003
143	0x3eaafa78	0.33394217

bias f4 [12]
0	0x3e83c41d	0.2573556
1	0xbe943d86	-0.2895319
2	0xbf21e7ba	-0.6324421
3	0xbe43c8de	-0.19119594
4	0x3d767f0f	0.060179766
5	0xbe8d180d	-0.27557412
6	0xbda44a07	-0.08021932
7	0xbcfb9b9e	-0.030713852
8	0xbee9fd9c	-0.457013
9	0xbe520640	-0.20510197
10	0xbf0b6839	-0.54455906
11	0xbea6b29f	-0.32558152

weight f4 [12, 48]
0	0x3dc39fef	0.09551989
1	0x3dbfe9e6	0.093707845
2	0x3d98e971	0.074664004
3	0xbd7a3453	-0.061085057
4	0x3d03a9cd	0.032144357
5	0x3d037bb0	0.03210038
6	0xbd3bd9e4	-0.045862094
7	0xbe098ec0	-0.13433361
8	0xbdc890bf	-0.09793233
9	0x3d9c71b0	0.07638872
10	0x3e76305f	0.2404189
11	0xba0591dd	-0.00050952827
12	0xbe9e6e77	-0.30943653
13	0xbe8ebba8	-0.27877545
14	0xbec37941	-0.38178447
15	0xbe625b95	-0.22105248
16	0x3e009ed6	0.12560591
17	0xbd93f7d9	-0.072250076
18	0x3c62a776	0.013833871
19	0xbd5bce7c	-0.053663716
20	0xbe12ea3c	-0.14347166
21	0xbd2cf9db	-0.04223047
22	0xbe0ea3d7	-0.13929687
23	0xbc57dcd1	-0.013175205
24	0xbd96d6c5	-0.07365183
25	0xbd212f09	-0.039351497
26	0x3e222ed9	0.15838183
27	0x3db5f11a	0.08883877
28	0xbc756110	-0.014976755
29	0xbe14029a	-0.14454117
30	0xbde3f1b9	-0.11130089
31	0x3e796003	0.24353032
32	0x3c84005a	0.016113449
33	0xbcdb5378	-0.0267732
34	0xbea203b9	-0.31643465
35	0x3e2598f1	0.16171624
36	0x3c86b39b	0.016443064
37	0x3b475ef1	0.003042158
38	0xbc8c58e2	-0.017132226
39	0x3dadb6b4	0.084821135
40	0xbd3c7d84	-0.04601814
41	0x3dd3f57f	0.10349559
42	0x3e3cc8dc	0.18435997
43	0xbca2d4bb	-0.019876828
44	0xbe36118b	-0.1778013
45	0xbdb9a0c3	-0.09063866
46	0xbe22b800	-0.15890503
47	0xbe5e6377	-0.2171763
48	0xbcb1efc5	-0.021720776
49	0x3e1eb35c	0.15498108
50	0x3e286d19	0.16447867
51	0x3d780721	0.060553674
52	0x3c101791	0.008794681
53	0x3cd72629	0.026263313
54	0xbe162ddd	-0.14665933
55	0xbd802ba0	-0.06258321
56	0x3d6d8259	0.057985637
57	0xbcaa6ae6	-0.020802926
58	0x3a9f10b4	0.0012135715
59	0x3ddb4398	0.10706252
60	0x3d1fdb96	0.039027773
61	0x3c78ff6c	0.015197616
62	0x3e8c2e09	0.27378872
63	0x3d809b5b	0.06279632
64	0x3e12eb56	0.14347586
65	0x3dd244f5	0.10267059
66	0x3e31e994	0.17374259
67	0xbdb195b9	-0.086711355
68	0x3df53f33	0.11974945
69	0x3e1dbb55	0.15403493
70	0x3d3a1b13	0.045435976
71	0xbddd4ac6	-0.108052775
72	0xbe86af0e	-0.2630543
73	0xbe0eb972	-0.1393793
74	0xbdc3f379	-0.09567923
75	0xbd84a4b4	-0.06476727
76	0xbdaab3ff	-0.08335113
77	0x3d88f85d	0.066879965
78	0xbc94e8d7	-0.018177433
79	0x3d86fb99	0.06590957
80	0xbe8a2ca4	-0.26987183
81	0xbe5580ce	-0.20849916
82	0x3da6a2b4	0.08136502
83	0x3d2f4c52	0.042797394
84	0x3e5b828c	0.21436518
85	0x3e5a964c	0.21346396
86	0x3ea982d6	0.33107632
87	0x3e573c20	0.2101903
88	0xbe220018	-0.15820348
89	0xbdf35879	-0.11882109
90	0xbd288f04	-0.041152015
91	0xbe24d801	-0.16098024
92	0xbd8b4c29	-0.06801636
93	0xbe0c1522	-0.13679937
94	0xbd1f15a1	-0.038838986
95	0xbe400cbe	-0.18754861
96	0x3e8579e1	0.2606955
97	0x3eb483bb	0.35256752
98	0x3e1dcf35	0.15411074
99	0x3dcb3374	0.09921923
100	0xbb209a4f	-0.0024506038
101	0x3be6a25f	0.007038399
102	0x3ea7f72b	0.32805762
103	0xbc8c2fee	-0.017112698
104	0x3e58c104	0.2116738
105	0x3ec7d7c6	0.3903181
106	0x3d991ce2	0.07476212
107	0x3e33c4cb	0.1755554
108	0x3db00819	0.085952945
109	0x3e1354cc	0.14387816
110	0xbe56c432	-0.2097328
111	0xbd6db258	-0.05803141
112	0x3e89d697	0.26921532
113	0x3eb491aa	0.35267383
114	0xbe39c2da	-0.18140736
115	0x3d448642	0.0479796
116	0x3e013848	0.12619126
117	0x3e332bc5	0.17497166
118	0x3db1545b	0.08658668
119	0xbe1c5773	-0.15267734
120	0xbd9541cf	-0.072879426
121	0x3dc5633d	0.09638069
122	0x3ea4b22b	0.3216718
123	0x3d3fab7d	0.046794403
124	0x3e2dad28	0.16960585
125	0x3dfa7627	0.12229567
126	0x3c517082	0.012783172
127	0x3e523210	0.2052691
128	0xbe6810ef	-0.2266271
129	0xbd0f3181	-0.03495932
130	0x3d3937d9	0.045219276
131	0xbe67d083	-0.22638135
132	0x3ede73b0	0.43447638
133	0x3e80fc97	0.2519271
134	0x3e436887	0.19082843
135	0x3e5fd2b1	0.21857716
136	0xbdf02a76	-0.11726849
137	0xbe06a10e	-0.13147375
138	0x3d93f08d	0.07223616
139	0x3dc308b9	0.09523148
140	0xbd92aa82	-0.07161428
141	0xbe159e47	-0.1461116
142	0xbdf3a15a	-0.1189601
143	0xbe87e48b	-0.26541552
144	0x3df8f6ed	0.12156472
145	0xbde9854e	-0.11402379
146	0x3e16055e	0.14650485
147	0x3d15c37c	0.03656338
148	0x3dd646cc	0.10462722
149	0xbe34cfee	-0.17657444
150	0x3d3f8621	0.046758775
151	0x3d010d59	0.03150687
152	0x3db72baa	0.08943875
153	0xbdc8cee7	-0.098050885
154	0xbdeb9a2a	-0.11504014
155	0x3d403d8c	0.046933696
156	0xbc51d4e1	-0.012807102
157	0xbe026b28	-0.1273619
158	0x3dfc45a8	0.123179734
159	0x3bf85ef1	0.0075796773
160	0xbdc53069	-0.09628374
161	0xbdde3c09	-0.108512945
162	0xbd4218c4	-0.0473869
163	0xbe18cdce	-0.14922258
164	0x3bff3bc9	0.0077891094
165	0xbe18ab55	-0.14909108
166	0x3b9b79a8	0.004744727
167	0xbe18a2dd	-0.14905877
168	0x3e53a3d5	0.20667966
169	0x3d669b0d	0.05630021
170	0x3d2fe327	0.04294124
171	0x3dbcc889	0.092179365
172	0x3e7f3acd	0.24924774
173	0xbc6dd7c1	-0.014516772
174	0x3dd6739f	0.10471272
175	0xbb47ad63	-0.0030468337
176	0x3d7d406e	0.061829023
177	0x3e3b8336	0.18311772
178	0x3e66e375	0.22547705
179	0x3dc7dcee	0.09758936
180	0xbe8d2dc9	-0.27573994
181	0xbe8c84e6	-0.27445143
182	0xbd355ca7	-0.044277813
183	0xbe75f77d	-0.2402019
184	0xbe016783	-0.12637143
185	0xbe138c9b	-0.14409105
186	0xbdf4036f	-0.119147174
187	0x3d74fb83	0.059810173
188	0x3c6ebe91	0.014571802
189	0xbdc29457	-0.0950095
190	0xbbd4b069	-0.0064907563
191	0x3e82166a	0.25407726
192	0x3e01b263	0.12665705
193	0x3c8ef977	0.017452938
194	0x3e6e393f	0.23264025
195	0x3e3aa6b9	0.18227662
196	0xbdeef6b9	-0.11668152
197	0xbd832219	-0.06402988
198	0xbe2bcd17	-0.16777454
199	0x3cd3a696	0.02583627
200	0x3c8de23d	0.017319793
201	0x3dbdc863	0.09266736
202	0x3de5d1c9	0.11221654
203	0x3d90acc7	0.07064205
204	0x3d13cafa	0.036082245
205	0xbba84a86	-0.005135837
206	0x3e695cc1	0.22789289
207	0x3e46d534	0.19417268
208	0x3c68aebf	0.014201819
209	0x3e1ba57c	0.15199846
210	0xbd320162	-0.04345835
211	0x3c9b6971	0.018971177
212	0x3be4fe25	0.006988304
213	0xbe0abbc6	-0.13548192
214	0x3d4d7ffb	0.05017088
215	0xbe5bf96c	-0.21481866
216	0xbd0a10e5	-0.033707518
217	0xbd40f6ab	-0.04711024
218	0xbd3379d7	-0.043817367
219	0xbda28274	-0.07935038
220	0x3dcd44c2	0.1002288
221	0x3e01a469	0.12660374
222	0x3e77aa1e	0.24185988
223	0x3e2fa417	0.17152439
224	0xbe294310	-0.16529489
225	0xbc2141c6	-0.009842342
226	0x3e8d8c22	0.27645975
227	0x3db0f00c	0.08639535
228	0xbd7e083d	-0.062019575
229	0xbdf27b64	-0.11839941
230	0x3d2a3376	0.041552983
231	0x3d88018b	0.06640919
232	0xbcb8a4e4	-0.022539563
233	0x3d05213f	0.03250241
234	0xbe77e307	-0.24207698
235	0xbe578ccf	-0.21049808
236	0x3cabe662	0.020983879
237	0x3d83a855	0.06428591
238	0x3dc4e77f	0.09614467
239	0x3ec1ff19	0.37889937
240	0x3d006323	0.031344544
241	0xbbc32e7f	-0.0059564705
242	0xbe02567a	-0.127283
243	0x3cad3215	0.021142045
244	0xbe1933e2	-0.14961198
245	0x3e299c96	0.16563639
246	0xbdc0a8b7	-0.0940718
247	0x3c95a7e1	0.018268527
248	0x3dea7087	0.11447244
249	0x3dc81a15	0.097706
250	0xbe18ee1a	-0.14934579
251	0xbe3a3197	-0.1818298
252	0x3b5134ea	0.0031922408
253	0xbe0a289e	-0.13492057
254	0xbe620bb5	-0.22074778
255	0xbe66401a	-0.2248539

bias f4 [12]
0	0x3e965de3	0.29368505
1	0x3e1328d2	0.1437104
2	0x3e303f56	0.1721166
3	0x3dbf2f91	0.093352444
4	0x3e011ed1	0.12609412
5	0xbd0275fb	-0.031850796
6	0x3c207dc5	0.009795611
7	0x3cdaf298	0.026727006
8	0x3dfaefba	0.122527555
9	0x3d9877c4	0.074447185
10	0xbd147725	-0.036246438
11	0x3dbcf3bf	0.092261784

weight f4 [12, 12]
0	0xbc95fe96	-0.018309873
1	0xbe958216	-0.2920081
2	0x3c6044f3	0.013688314
3	0xbd84f553	-0.064921044
4	0xbea1a466	-0.3157074
5	0x3f02a3c2	0.51031125
6	0xbe12174a	-0.14266697
7	0xbe24589c	-0.16049427
8	0xba3b0d6a	-0.0007135483
9	0xbcfb7446	-0.030695092
10	0xbe70f790	-0.23531938
11	0xbd37b5ef	-0.04485124
12	0xbf1ac969	-0.6046358
13	0x3dc21339	0.09476323
14	0xbe9d112c	-0.30677164
15	0x3d2dc181	0.042420868
16	0x3dcc4822	0.09974696
17	0xbeadf1e2	-0.33973604
18	0x3ee0df80	0.43920517
19	0xbe940f88	-0.289181
20	0xbe77f1e6	-0.2421337
21	0x3ec050d2	0.3756166
22	0x3ebe2abf	0.37141988
23	0xbe3aeb64	-0.18253857
24	0x3d2dc4b1	0.042423908
25	0xbec932a0	-0.39296436
26	0xbeaa24cd	-0.33231202
27	0xbe38779b	-0.18014376
28	0xbd1751d1	-0.03694326
29	0x3eece504	0.46268475
30	0xbe18525f	-0.14875172
31	0xbe895bff	-0.26828
32	0x3e990df4	0.29893458
33	0xbee38861	-0.44439986
34	0xbde7ef5e	-0.113249525
35	0x3e705ae8	0.23472178
36	0xbdc3dc12	-0.095634595
37	0x3e16e9cf	0.14737628
38	0xbea59066	-0.3233673
39	0x3e9c6410	0.30545092
40	0x3dea26b2	0.11433162
41	0xbf124bdb	-0.57146996
42	0x3eb5e0f3	0.35523185
43	0xbeb664d0	-0.3562379
44	0xbe010ef1	-0.12603356
45	0x3e297430	0.16548228
46	0xbe7a41ea	-0.24439207
47	0xbe14615e	-0.14490268
48	0xbebf89ff	-0.3740997
49	0xb9ff53e8	-0.00048699905
50	0x3e1c3c67	0.15257417
51	0xbe5061ae	-0.20349762
52	0xbdf683d6	-0.120368645
53	0xbce3ec15	-0.027822534
54	0xbc78a581	-0.015176178
55	0xbe08d705	-0.13363273
56	0xbea0313e	-0.3128757
57	0x3d6a31d6	0.057176434
58	0xbeec91ff	-0.46205136
59	0xbe42b953	-0.19016008
60	0xbeb5205e	-0.35376257
61	0x3dad5088	0.08462626
62	0x3e476118	0.19470632
63	0x3df2713a	0.118380025
64	0x3ec085f4	0.37602198
65	0xbe8e11b7	-0.2774789
66	0x3dbf60b1	0.09344614
67	0xbea20703	-0.31645975
68	0xbe82370e	-0.25432628
69	0xbdcae627	-0.09907179
70	0x3dbdd5c1	0.09269286
71	0xbbebc354	-0.007194916
72	0xbe348485	-0.17628677
73	0x3e0f5250	0.13996243
74	0xbec84b99	-0.39120176
75	0xbe852737	-0.2600648
76	0xbeb48cf0	-0.35263777
77	0xbe0f6cfd	-0.1400642
78	0x3ddfe5f7	0.10932534
79	0xbc0ab14b	-0.0084651215
80	0x3e8d159b	0.27555546
81	0x3e34dcb5	0.17662318
82	0x3e5c9633	0.21541671
83	0x3e81c75f	0.2534742
84	0x3ed7b6c4	0.42131627
85	0xbd7cf903	-0.061760914
86	0xbe43d8e8	-0.19125712
87	0x3bc3aef5	0.0059717842
88	0xbe4cb4dd	-0.19990869
89	0xbd4c5a02	-0.049890526
90	0xbeee9d20	-0.46604252
91	0x3e2d0baa	0.1689898
92	0x3e96e9ba	0.29475194
93	0xbe087da9	-0.13329186
94	0xbd3d3e49	-0.046201978
95	0xbe990bab	-0.29891714
96	0xbe903f71	-0.28173402
97	0x3ed8565b	0.42253384
98	0x3ed6f0ac	0.41980493
99	0xbf0fcd73	-0.56172866
100	0xbebaf38b	-0.36513934
101	0xbe367616	-0.17818484
102	0x3d7dd300	0.061968803
103	0x3e188e63	0.14898066
104	0xbdb7fb36	-0.089834616
105	0x3ec077d3	0.3759142
106	0x3edce44a	0.4314292
107	0xbe94183c	-0.2892474
108	0x3dbf1200	0.09329605
109	0xbe456d8e	-0.19280073
110	0xbec5347f	-0.38516614
111	0x3ed4d0fe	0.41565698
112	0xbeaa477c	-0.33257663
113	0x3d82f265	0.06393889
114	0xbea6c89f	-0.32574937
115	0xbe63de48	-0.22252762
116	0xbe20b098	-0.15692365
117	0xbe090218	-0.13379705
118	0xbdc2bf5d	-0.09509156
119	0x3ddbe7a7	0.107375436
120	0xbe8520a3	-0.26001462
121	0x3e84777c	0.2587241
122	0xbbdcca8d	-0.006738013
123	0x3ef5b771	0.47991517
124	0xbe2bd50a	-0.16780487
125	0xbe3c1f7f	-0.1837139
126	0x3ea0f7a3	0.31438932
127	0xbe89cc7e	-0.26913828
128	0xbd444815	-0.047920305
129	0x3d41398e	0.04717403
130	0xbe82f5f9	-0.25578287
131	0x3e317b4f	0.17332195
132	0xbdea6189	-0.114443846
133	0x3e480da2	0.1953645
134	0xbe8bded9	-0.27318457
135	0x3dc53e3c	0.09631011
136	0x3ea28657	0.31743118
137	0xbdf300ac	-0.118653625
138	0xbe546949	-0.20743288
139	0x3ca4fca6	0.020140003
140	0xbcff9833	-0.031200504
141	0xbd72a33b	-0.0592377
142	0x3d3971ce	0.04527455
143	0xbe84312b	-0.25818762

bias f4 [12]
0	0xbe5c4266	-0.21509704
1	0xbd4e0343	-0.05029608
2	0xbe8ef987	-0.2792475
3	0xbeaeaf43	-0.3411809
4	0xbd6c59a4	-0.057702675
5	0x3d5749fb	0.052560788
6	0x3d8c75f1	0.06858433
7	0x3d5a7c4f	0.053341206
8	0xbd476492	-0.048679896
9	0xbe1d4d42	-0.15361503
10	0xbe8a0c58	-0.26962543
11	0x3d0d9eb7	0.03457519
