MQCNN-QA-4qubits-9class-CIFAR-same-5filter/Models_V1/model_16.pt (torch, 167606 bytes, 47 tensors)

weights f4 [7]
000000 21 d7 bc 40 30 b3 e3 3f a7 6c 0a 40 89 8e 92 40
       5.901261 1.7789059 2.1628816 4.5798993
000010 3a 13 b8 40 00 b1 3e 40 2b 8b a6 40
       5.752347 2.9795532 5.2044883

weights f4 [7]
000000 86 c3 59 40 e3 ec 83 40 f6 45 b6 40 e3 d2 67 40
       3.4025588 4.122667 5.69604 3.6222465
000010 ae 56 d9 3f 12 a2 df 3f 3f 49 c7 3f
       1.6979578 1.7471335 1.5569228

weights f4 [7]
000000 15 cf c2 40 af fb fd 3d 1a b6 58 40 26 0d 1b 40
       6.0877786 0.124015205 3.3861146 2.4226775
000010 8f d3 b4 40 36 a1 45 bc 61 c0 af 40
       5.650825 -0.012062361 5.4922338

weights f4 [7]
000000 e3 6c b5 40 e1 35 60 40 0c a3 c8 3f 94 4b 55 40
       5.669542 3.5032885 1.5674758 3.332738
000010 3f 40 86 40 0c 43 7a 40 73 3c c3 3f
       4.1953425 3.9103422 1.5252823

weights f4 [7]
000000 30 65 83 40 7c 7d 32 40 e9 5e 01 40 5f b3 56 40
       4.106102 2.788909 2.0214179 3.354698
000010 f6 85 34 40 81 9f 31 3e f4 53 87 40
       2.8206763 0.17346002 4.228998

weights f4 [7]
000000 8e 1b 91 40 62 d8 73 40 7f eb db bd 26 6a 5b 40
       4.5346136 3.810082 -0.10738277 3.4283538
000010 51 90 63 3e 25 76 b4 40 b3 b0 23 40
       0.22223021 5.639422 2.5576599

weights f4 [8]
000000 01 73 e9 3f 7a 51 87 3f 3f 3e 17 40 d3 b7 c8 3f
       1.8238221 1.057174 2.3631742 1.5681099
000010 54 52 8d 40 38 ac fc 3f ba d5 b5 40 a1 4c e9 3e
       4.4163 1.9740057 5.6823397 0.45566276

weights f4 [8]
000000 3d d5 84 40 64 60 35 3f b1 21 98 40 bb ca 2d 40
       4.15103 0.70850205 4.7541127 2.7154987
000010 fc 64 54 40 a7 7b b6 3e 38 74 ab 40 f6 6c 4c 40
       3.3186636 0.35641214 5.357937 3.1941504

weights f4 [8]
000000 df 83 c2 40 9f e9 09 40 b8 8e 55 40 86 43 50 40
       6.0785975 2.154884 3.3368359 3.2541213
000010 af 34 26 40 ff 76 37 3f 6c 00 b5 3f 3b 82 b0 3f
       2.5969656 0.7166595 1.4140754 1.3789743

weights f4 [16]
000000 2d 6a 9b 3f ef 4c 2d 40 bd dc 7c 40 49 45 97 40
       1.2141777 2.7078207 3.9509728 4.7272077
000010 40 bd 95 40 38 f8 86 3f ba ac 9d 3e 23 0b 85 3f
       4.679352 1.05445 0.30795842 1.0394024
000020 eb e7 7e 3f 20 dd 9c 40 8f b7 ad 40 8b 5e a0 40
       0.9957263 4.901993 5.428657 5.011541
000030 65 5f 45 3f 8e e2 5e 40 7b 18 6a 40 f3 79 33 3a
       0.77098686 3.4825778 3.6577442 0.000684648

weights f4 [16]
000000 c5 3a c4 3f 0b 7c 4e 40 e8 d2 41 40 62 69 ea 3f
       1.5330435 3.226321 3.0284977 1.831341
000010 4b 06 b8 40 aa 20 a0 40 38 9d 61 40 4d b9 93 40
       5.750768 5.0039873 3.5252209 4.6163697
000020 d6 60 24 40 19 24 2c 40 32 af b2 40 85 f2 6f 3f
       2.5684104 2.6897032 5.583886 0.9372943
000030 70 3e 4c 40 7a c5 2c 40 e1 81 96 40 f8 25 8a 3f
       3.191311 2.699553 4.7033544 1.0792837

weights f4 [16]
000000 6c 01 2b 40 4b 52 2e 40 7e ad a8 40 33 f6 2b 40
       2.6719618 2.7237728 5.2711782 2.6869018
000010 8c 41 97 3f 99 15 70 40 2e 22 8f 40 5f af 31 3f
       1.1816878 3.7513182 4.4729223 0.6940822
000020 a1 8f 7c 40 cc ad c1 3f c7 ff b8 40 13 04 19 40
       3.9462664 1.5131164 5.781223 2.3908737
000030 e9 30 09 40 b1 7e 80 3f db ff 49 40 2a 17 af 40
       2.1436102 1.0038663 3.1562412 5.4715776

weights f4 [12]
000000 65 10 c4 3f 7f ff 93 3e d1 61 88 3f 5a 97 93 40
       1.5317503 0.28905866 1.0654851 4.6122255
000010 a6 73 c6 3f 57 e9 7a 3f ea 9c c0 3f ae 35 7f 40
       1.5504043 0.980123 1.5047886 3.9876513
000020 1f 91 ae 40 a0 67 94 40 5c 97 f7 3e 60 55 c0 40
       5.455215 4.6376495 0.48357666 6.0104218

weights f4 [12]
000000 cf 84 6a 40 6e 17 97 3f e5 c0 27 40 cc 92 3a 40
       3.664356 1.1804025 2.6211483 2.9152098
000010 94 7d 03 3f ae a8 ad 40 d7 12 b1 40 85 f8 1b 3f
       0.5136349 5.426841 5.53355 0.60926086
000020 cb 51 a7 40 17 c6 1c 3f a8 28 b1 40 d9 7c 40 40
       5.2287345 0.6123976 5.536213 3.00762

weights f4 [12]
000000 f3 2b ab 40 6e 2c 9c 3f 88 65 3e 40 0f e9 ab 40
       5.349115 1.2201059 2.974947 5.3721995
000010 55 5e 43 3f cf fe 9d 40 8d 9d 8e 40 77 2f ad 40
       0.76315814 4.9373546 4.4567323 5.412044
000020 98 d4 c5 40 5f f6 82 3e 57 67 b4 3f 20 e7 64 40
       6.1822014 0.2557859 1.4094037 3.5766068

weight f4 [12, 48]
000000 b7 a9 73 3d b0 e2 d0 3c 0d 78 14 bd ed 29 c2 bd
       0.059488025 0.025498718 -0.0362473 -0.09480653
000010 20 0a b5 bd 95 5a f2 bd 4c 8c 07 be 92 00 b3 bd
       -0.08839822 -0.118336834 -0.13237113 -0.08740343
000020 72 c6 b0 bd 32 8e e0 bd 77 aa a7 3d 64 3d 74 3d
       -0.086316004 -0.109646216 0.081868105 0.05962886
000030 d5 cc 10 3e 72 44 aa 3d 55 3a 4e 3d c3 c7 c8 3d
       0.14140637 0.08313836 0.0503486 0.098037265
000040 5f 38 a0 bd 28 44 b1 bd 0d be b3 3d ec ac 1e bb
       -0.07823252 -0.08655578 0.08776484 -0.0024211956
000050 34 9e 0b bd a0 b0 d9 bc 78 fe cb bd e7 3e 87 3c
       -0.03408642 -0.02657348 -0.099606454 0.016509486
000060 6e d9 0d 3e 59 fc 3d 3c dc 78 9b 3d 83 d5 cc bd
       0.13852474 0.011595809 0.075914115 -0.10001662
000070 4b 5c e0 bd 66 5c 82 bd a7 4b 4f 3d 35 ed 3a bd
       -0.109551035 -0.0636528 0.050609257 -0.045636375
000080 24 65 9d bd f4 e7 34 bd a1 c1 c8 bc 7e 91 b3 bc
       -0.07685307 -0.04416652 -0.024506392 -0.021919962
000090 32 6f 80 bc b1 f9 b7 bd 61 a8 f1 3c 30 55 00 be
       -0.015678022 -0.08983172 0.029499235 -0.12532496
0000a0 67 76 d6 bb 0f c6 b1 3d be ef 61 3c 93 da 04 3e
       -0.0065448764 0.08680355 0.013790069 0.12974004
0000b0 0c b2 96 bd 39 86 fc 3d 0d 11 e4 bc 4b 05 de bd
       -0.073581785 0.123302884 -0.027840162 -0.10840853
0000c0 33 e4 d0 bd 25 9c aa bd 36 49 7d bd 7b 27 68 3d
       -0.101997755 -0.083305635 -0.061837398 0.056678277
0000d0 51 d6 83 bc 67 52 f1 bc f9 90 3c 3e cf 8f 34 bd
       -0.016093405 -0.029458238 0.18414678 -0.04408246
0000e0 dc 6a 63 3c ab 08 c8 bc 94 41 fb bd 2e 05 db bc
       0.013880458 -0.024418196 -0.122683674 -0.026735868
0000f0 90 3a c9 3d a0 9b cd bd 20 33 8d 3c 3b 11 70 bc
       0.09825623 -0.10039449 0.017236292 -0.014652546
000100 1c 5d 40 3e b7 c6 72 3e c8 a8 43 3e 80 37 a0 3e
       0.18785518 0.23708616 0.19107354 0.31292343
000110 4e b6 18 bd 9d 1d 09 be c2 74 d9 bd f0 78 19 be
       -0.037283234 -0.13390203 -0.10617973 -0.1498754
000120 57 15 9f bc 3f 07 5e 3c fc a4 0d bd 3b 1b 50 3c
       -0.019419355 0.013551532 -0.03458117 0.012701805
000130 7d 37 22 bd 3a 1e 88 3d 4a a8 04 be bd 08 62 be
       -0.0396037 0.0664639 -0.12954822 -0.22073646
000140 75 4d 18 bd b4 74 cc 3d 9c d9 5f ba 06 72 38 be
       -0.037183244 0.09983197 -0.0008539201 -0.18012246
000150 22 e8 72 3d 19 ac bc 3d 67 b3 a6 3d c0 3f 96 3d
       0.05930341 0.092125125 0.08139687 0.07336378
000160 73 12 87 3d 37 2e e0 3d 34 bc 55 3c 92 70 43 be
       0.06595316 0.10946315 0.013045359 -0.19085911
000170 b0 2a ac bd 57 9f 51 bd 7a fb d9 bd 95 2b 80 bb
       -0.084065795 -0.05117735 -0.106436685 -0.0039114454
000180 da b6 46 3e 7f a9 c1 3d 70 5f cd 39 54 ea a0 bc
       0.1940569 0.09456157 0.00039171753 -0.019642986
000190 5c 39 24 3e 31 88 06 3d 70 9b 0a bd 9c 70 05 3e
       0.16037506 0.032844726 -0.033839643 0.13031238
0001a0 60 2d b5 3d 45 15 a3 3b f0 94 a0 3c 07 54 82 bd
       0.08846545 0.0049769008 0.019602269 -0.06363683
0001b0 47 3b 39 bd 1a 55 bd 3d 71 a3 4a 3d 13 ea f1 3d
       -0.045222547 0.092447475 0.049472276 0.11812224
0001c0 43 30 62 3b f7 07 13 be 4f 1d 11 be aa 20 99 be
       0.003451363 -0.14358507 -0.14171337 -0.29907733
0001d0 ef 88 80 bc 60 93 05 bc 06 fe 2f bd 40 bf 27 3d
       -0.015690295 -0.008152813 -0.042966865 0.040953875
0001e0 a0 2e d4 3d e7 ea 68 3e c7 11 41 bd b5 6d 4d 3d
       0.103604555 0.22745858 -0.047136094 0.050153453
0001f0 08 b7 42 3e 9f b0 8a bd 45 ac 43 3e 69 bf 2b 3e
       0.19015133 -0.06771969 0.19108684 0.16772236
000200 01 d8 3f 3e 3f 41 57 3d 3a a9 ec 3d 97 11 0d 3d
       0.18734743 0.052552458 0.11555715 0.034440603
000210 e5 f1 13 bd 5f bb e6 bc 8f 05 54 3e 11 b2 4a 3e
       -0.03611936 -0.028165517 0.20705245 0.1979449
000220 5c b3 c5 bc 99 e9 9f 3d 4e a4 ef bd 91 66 dc 3b
       -0.024133377 0.07808227 -0.117012605 0.006726094
000230 13 82 67 3d 27 55 34 bc 02 dd 3d 3d 4b 74 32 be
       0.056520533 -0.01100663 0.046353348 -0.17427175
000240 9e 1c 22 be a1 23 fa 3d e8 bb e2 3d ab 5c bb bc
       -0.15831229 0.12213827 0.110709965 -0.022871336
000250 bd 8a 6f bd d7 2a 8c 3d d2 75 8b bd fe a9 9d bd
       -0.05848192 0.068441086 -0.06809582 -0.07698439
000260 75 8f 83 bd 6e 35 2d 3e e0 33 b5 bc 79 a8 22 3c
       -0.06423847 0.16914913 -0.022119462 0.009927862
000270 35 2d ce 3d b4 fc 14 be 82 e9 e1 3d 27 08 cd bd
       0.10067216 -0.14549524 0.11030866 -0.100113206
000280 6d 43 6f 3e 48 03 36 3e 93 d4 72 3e 37 16 4d 3e
       0.23365565 0.17774689 0.23713903 0.20028006
000290 4a 04 bf 3d f5 af 36 be 20 05 0c bd 2e e7 ec bd
       0.0932699 -0.1784056 -0.034184575 -0.115675315
0002a0 09 2e a3 3d 32 0c ad 3c 40 13 c1 bc 9d 5b e4 3d
       0.07967765 0.02112398 -0.02356875 0.11150286
0002b0 6f 99 0a be ef 42 61 3d 76 2c 31 be 34 b9 11 be
       -0.13535093 0.054995473 -0.17302117 -0.14230806
0002c0 05 82 cf 3d 7b 53 b7 3c 16 cf a3 3d a0 62 19 bd
       0.10132221 0.022378674 0.07998483 -0.03744757
0002d0 6a b0 49 3d 98 0d 14 be 25 d9 e0 3d b2 34 89 bd
       0.049240507 -0.1445831 0.10978917 -0.06699504
0002e0 13 7f c9 3d 52 08 2a 3c 94 3b 9f 3d 09 bd 92 bd
       0.098386906 0.01037796 0.077750355 -0.07164962
0002f0 3b 22 35 3d 4d a6 73 bd a6 7a b8 3c 6a 52 e6 3d
       0.044222098 -0.05948477 0.02251942 0.11246188
000300 47 be 20 bd 0f 11 e4 3d c5 e8 e0 3d c8 9c f8 bd
       -0.039243963 0.11136066 0.10981897 -0.12139279
000310 00 f1 24 3d b3 83 23 3c 79 87 c2 3d ee a8 62 3c
       0.040268898 0.00998013 0.094984956 0.013834221
000320 f5 90 ac 3d c9 18 10 3e 21 50 38 3d 0a cd 88 3d
       0.08426086 0.14071955 0.044998292 0.06679733
000330 57 e6 f7 bb 09 67 44 bd db f3 a1 3d de 84 a0 3c
       -0.0075653004 -0.047949824 0.0790784 0.019594606
000340 e5 bb 7f 3d c8 39 0c 3d 23 ea a8 bd 73 48 0d be
       0.06243505 0.034234792 -0.08247783 -0.13797168
000350 d6 84 b3 bd 03 01 bd bd 8c 27 ef bd 89 d2 e7 3d
       -0.08765571 -0.092287086 -0.11677465 0.11319453
000360 27 7c cf bc 86 43 bd bb 00 9d 77 3d 64 43 e8 bd
       -0.025327755 -0.0057758717 0.06045246 -0.11340979
000370 09 44 2c bd e1 96 5a 3d d6 a8 a3 bd df 6d c0 bc
       -0.04205707 0.053366546 -0.07991187 -0.02348989
000380 7c 93 54 bd 67 19 06 be 6b 21 39 bd 25 ea 03 be
       -0.051898465 -0.13095628 -0.045197885 -0.12882288
000390 45 e5 04 be e4 ec a1 bd 17 5b 0f 3d df c4 d0 bd
       -0.12978084 -0.079065114 0.03499898 -0.101938
0003a0 09 a8 d4 bd 85 7c 3e 3c a0 87 12 3e c2 47 02 be
       -0.10383613 0.011626367 0.1430955 -0.12722686
0003b0 f7 c5 21 bd 6e 13 ae bc 8e 10 f0 bc db 76 ff 3d
       -0.039495435 -0.0212495 -0.029304769 0.12473842
0003c0 c0 e4 b3 bd 79 4d dc 3d 33 3b cd 38 f0 2a d7 bd
       -0.08783865 0.10756964 9.7861885e-05 -0.105062366
0003d0 d3 c8 ac 3c c7 a1 b3 bc 3b 7c 6f 3d d6 3f 9d 3d
       0.021091854 -0.021927727 0.058468085 0.07678191
0003e0 f0 8e dc 3d 0a 73 a8 bc d3 80 80 3c 57 74 19 bd
       0.10769451 -0.020562667 0.015686428 -0.037464466
0003f0 bd 21 00 3d 0d c7 2b 3d 6c 75 35 bd 01 dd 80 bd
       0.031282175 0.041937876 -0.044301435 -0.06292153

bias f4 [12]
000000 8f d7 3e 3d 49 2a dd bc 00 c8 f8 3c 2d fa 15 3e
       0.04659229 -0.026997702 0.030368805 0.14646216
000010 5b 2c 53 bd 63 dc 0d be 32 22 52 bc 30 43 a5 3e
       -0.051555973 -0.13853602 -0.012825536 0.32277822
000020 f8 7c 10 3e 2e d8 1d 3d 96 44 68 3d b3 7e bf 3b
       0.14110172 0.038536243 0.056706034 0.005843961

weight f4 [12, 12]
000000 b0 3f 23 3e 55 83 57 3e 17 ad 9c be 66 af b8 3e
       0.15942264 0.21046193 -0.30600807 0.36071318
000010 05 fe 05 3e 51 14 f5 3d 8d 36 c8 bd 26 25 b4 be
       0.13085182 0.11966766 -0.0977603 -0.35184592
000020 31 7d 31 bc 29 09 d6 39 7e aa 93 bd fb 99 24 be
       -0.010833071 0.00040824086 -0.07210253 -0.16074364
000030 a7 62 92 bd 72 ce 8f 3d f6 6f b7 3a 3a e7 f4 3d
       -0.07147723 0.07021798 0.0013995159 0.119581655
000040 ca fb 33 3e b8 65 09 3e ea e2 45 3d 4e 00 54 be
       0.17576519 0.13417709 0.048312105 -0.20703241
000050 72 1e b0 3e 3b 11 d1 bd a3 dd af 3e 87 c6 3f bb
       0.34398228 -0.102083646 0.34348783 -0.0029262619
000060 c0 4f 6a be 3c 59 d3 be ca 33 5c bd 13 97 d7 bd
       -0.22881985 -0.41279018 -0.053760327 -0.10526862
000070 ee 06 8d 3e 70 1c b8 3c 06 a8 a3 bd 8a cb 36 3c
       0.2754435 0.022474498 -0.07991032 0.011156926
000080 af 6f ae be aa a9 46 3c 7d 3b ba be 9b 69 36 be
       -0.34069583 0.012125412 -0.3637351 -0.17813723
000090 a4 44 a2 3b 22 ff 9e 3e f0 d5 6c be 37 e0 68 3d
       0.0049520303 0.31054026 -0.23128486 0.056854453
0000a0 47 2d bf 3d 2b 37 14 3e 8f 5d 12 3e 7f f7 24 be
       0.09334808 0.1447417 0.14293502 -0.16110037
0000b0 eb c4 80 3d 0a aa 49 be 36 88 a2 3e 6d 55 02 be
       0.06287559 -0.19693771 0.31744546 -0.127279
0000c0 2b 45 db bb c3 08 92 3e d4 be 2c be aa 4b 50 3e
       -0.006691595 0.2852231 -0.1686967 0.20341364
0000d0 c9 7d 2a be 78 f4 00 3e 69 dd 98 bd 21 25 48 be
       -0.16649546 0.12593257 -0.07464106 -0.19545414
0000e0 2d 03 52 be d5 b0 84 3e ea 75 84 be 42 cd 24 3e
       -0.20509024 0.25916162 -0.2587121 0.16093925
0000f0 a3 78 77 be 17 97 6d be c4 4f 94 3e 50 69 6b be
       -0.24167113 -0.23202167 0.28967106 -0.22989392
000100 8a 44 f7 bc 84 8b e7 3d c9 d5 af bd 9c 04 8d 3e
       -0.03018405 0.11305907 -0.08585698 0.2754258
000110 de 49 8c 3d b3 0f a7 3e 87 22 81 be 18 d9 96 bd
       0.068500265 0.32629165 -0.25221655 -0.07365626
000120 c9 6b 9b 3d ad d0 32 3d f9 db fb bd 71 5a cb 3e
       0.07588918 0.04365604 -0.12297816 0.3971744
000130 5b a0 78 be 1f b2 8f 3e ae 58 9f 3d 4f a4 ef 3c
       -0.24279921 0.28065583 0.07780586 0.029253153
000140 cf ce eb bd 31 89 a2 be b8 99 c3 3e 83 d1 d2 3c
       -0.11514055 -0.31745294 0.38203216 0.025734669
000150 fe 6c e3 3d 69 65 a3 3e 21 04 c7 bd f3 bd 81 3c
       0.11104773 0.31913307 -0.097175844 0.015837645
000160 a1 6a 16 be 83 af c1 3c c3 5f a7 3c a4 f5 06 bf
       -0.14689113 0.02364326 0.020431405 -0.5271857
000170 a0 be c7 3e 58 f9 1b be b1 a1 95 3e 3e 23 c6 3c
       0.39012623 -0.15231836 0.29224923 0.024186727
000180 db 1b 2f be e1 90 ac 3e b8 d6 9a be ad 9a 9f 3e
       -0.1710047 0.33704284 -0.30241942 0.31172696
000190 3d 03 ee 3d 0d 94 3a 3d cf 68 33 3e f3 69 53 be
       0.116217114 0.04555135 0.1752045 -0.20645885
0001a0 2a 9e 8c 3e 40 72 67 be 28 e0 3f bd e8 e2 84 be
       0.2746442 -0.22602177 -0.04684463 -0.25954366
0001b0 73 c3 13 bd 2b c8 26 3e a1 d1 bd bd 7c 25 92 bd
       -0.036075067 0.16287296 -0.09268499 -0.07136056
0001c0 a5 1f 2f bd a9 e0 66 bc b6 e4 36 be fc f4 0c 3e
       -0.042754788 -0.014091649 -0.17860684 0.13765329
0001d0 c7 38 b6 3e 1c d0 fe 3b 5c 5d 86 bb 46 a8 87 bc
       0.35590193 0.0077762734 -0.004100485 -0.016559731
0001e0 7e de 75 be 85 cb 78 3d d4 9e 18 be 11 3e d4 3d
       -0.24010655 0.060740966 -0.14904338 0.10363401
0001f0 ae 89 72 be 9e bc 80 3e fa 83 8c 3e 10 3b f7 3d
       -0.23685333 0.25143903 0.2744444 0.12071812
000200 47 d6 16 3e f5 aa b1 bd c7 a2 55 3e 89 63 ae bc
       0.14730178 -0.086751856 0.20862876 -0.021287696
000210 fb d0 60 3e 22 2c b1 bd 0c 7e 97 3e 9c 97 97 be
       0.2195472 -0.08650996 0.29588354 -0.29607856
000220 9b 37 18 3d b9 4d 6a bd f6 7d 27 be 16 82 f3 3c
       0.037162405 -0.05720303 -0.16356644 0.029725116
000230 55 ef 97 be 4a 18 df 3b e6 7e 4e 3d 35 4b e6 bc
       -0.29674783 0.0068083154 0.05041399 -0.028112033

bias f4 [12]
000000 13 9f 62 be 74 b2 b3 3d 22 ff b1 be 94 a9 0c be
       -0.22130994 0.087742716 -0.34764963 -0.13736564
000010 19 76 2a be 90 9e 53 bc 49 18 d9 bd 15 fa 04 3d
       -0.16646613 -0.012916222 -0.10600335 0.03246506
000020 ca a8 47 bd 54 b4 8c bc b9 be 69 be 37 63 4f 3b
       -0.048744954 -0.01717583 -0.22826661 0.003164483

weight f4 [12, 48]
000000 c6 59 94 bc 65 ac 16 3e 1d cd 67 3e 52 94 40 3d
       -0.018109214 0.14714201 0.22636838 0.04701645
000010 bb a6 5a be d4 65 94 be 47 a5 46 be fb 47 01 bd
       -0.21352665 -0.2898394 -0.19398986 -0.031562787
000020 b8 a9 f1 bd cc 6f 46 be 82 a3 0d be 4b 62 c1 ba
       -0.117999494 -0.19378585 -0.13831905 -0.0014754025
000030 f0 e7 52 3d 9d e8 a4 bc 9d 5a 7d 3e 79 b3 f9 3c
       0.051490724 -0.02013045 0.24741597 0.030481087
000040 cb df 81 3e 0c 24 9b 3e 5f 74 46 3e 4d cb 5a 3e
       0.25366053 0.3030094 0.1938033 0.21366616
000050 e5 59 f2 3e 22 1d c5 3e 25 f9 0f 3e 6b 41 63 3e
       0.4733421 0.3849879 0.14059885 0.22192924
000060 85 f6 ca bd 87 86 4b 3c 14 62 33 be 17 40 4f be
       -0.09910301 0.012422211 -0.17517883 -0.20239292
000070 4f 61 41 3e 42 b4 b4 bd 07 70 69 3e 0e 47 2b 3e
       0.18884777 -0.08823444 0.22796641 0.16726324
000080 0d ca b8 bc 21 6a 11 3e ad 50 b9 3d bf a0 9a 3e
       -0.022557283 0.14200641 0.09048591 0.30200765
000090 73 c8 12 3e b7 41 c1 3d a6 c4 a6 3d 65 6c 34 bc
       0.14334278 0.09436362 0.081429765 -0.011012171
0000a0 82 40 93 3e fe ef 72 3e 02 b8 d2 3d f1 97 45 3e
       0.28760153 0.23724362 0.10289003 0.19296242
0000b0 5b 62 9b 39 89 a6 ec bd 9c ff 7b 3d a1 88 80 bd
       0.00029637184 -0.115552016 0.061523065 -0.0627606
0000c0 9d 6f 8f bd 85 63 01 be 39 15 0b be f3 dd 72 bd
       -0.070037104 -0.1263562 -0.13582315 -0.0592937
0000d0 c3 b7 48 3e fe fe 1b 3e 6d f6 b3 bd c4 5f 37 3d
       0.1960135 0.1523399 -0.08787236 0.044769064
0000e0 a9 35 d9 3d 05 c5 8b bb 5d 24 7e bd 1b cb 99 bd
       0.10605938 -0.00426543 -0.062046397 -0.075094424
0000f0 67 c2 01 b9 5c 92 50 3e 5f 23 ea b9 55 91 00 3d
       -0.00012374819 0.20368332 -0.00044658312 0.0313886
000100 13 02 e2 3d 05 47 17 be 28 cd 98 bc c6 59 3c be
       0.11035552 -0.14773186 -0.018652514 -0.18393621
000110 96 e2 0e be 60 71 bd bd 68 08 d9 bc f9 b6 99 bc
       -0.13953623 -0.0925014 -0.026493266 -0.018764006
000120 54 00 1c 3c e4 15 8b 3d 2f ab a0 be cc ca fa bd
       0.009521563 0.06791285 -0.31380603 -0.12245712
000130 66 67 d4 bd 01 f6 8d 3d 5e 6f 6d 3c b4 a4 1b be
       -0.10371284 0.06931687 0.014491884 -0.15199548
000140 83 1b 94 3d 79 53 d2 3d ca 68 45 3e be 99 bd bd
       0.0723181 0.102698274 0.19278255 -0.092578396
000150 52 c0 24 3e 6b aa c0 bd 7d c3 8f bd 49 24 2e bd
       0.1608899 -0.09407505 -0.07019708 -0.042515073
000160 ed f2 4c 3c be 86 95 3d 14 45 b3 3d ef 13 8b bd
       0.01250909 0.07301091 0.0875341 -0.067909114
000170 0d 7d 12 3e f0 4d 38 3d 3e 96 c6 bd 07 f3 fb 3d
       0.14305516 0.044996202 -0.09696625 0.12302213
000180 c9 04 1d be 83 5e 05 be fa 36 f8 bb ed 75 a7 3d
       -0.15333857 -0.13024335 -0.007574913 0.081767894
000190 22 be 51 bc fe 63 e1 3c fe b4 66 3d 4c 7c 84 3d
       -0.012801679 0.0275135 0.05632495 0.0646902
0001a0 2a 91 a2 3b 1b 5e 45 3e da 27 0b be 8c 2d fc 3d
       0.0049611526 0.1927418 -0.13589421 0.12313375
0001b0 d1 07 68 be 8b 09 ae bc a8 9c 82 be 7f dc 49 be
       -0.22659232 -0.021244785 -0.25510144 -0.19713019
0001c0 a1 c4 2f bd 9a 29 31 be 3f a0 82 3d 5b 2e b8 bd
       -0.04291213 -0.17301026 0.06378221 -0.089932166
0001d0 a2 59 a1 bd 2b a5 bf bd e2 8a 31 be 9f 52 e5 3c
       -0.07878424 -0.09357675 -0.17338136 0.027993498
0001e0 77 d7 40 3d d3 a0 74 3b f6 a4 40 be 6c 8d 2c 3c
       0.047080483 0.0037327304 -0.18812928 0.0105317645
0001f0 28 5b c7 bd 9a a8 0e bd ed 7b 14 be 20 3c 14 be
       -0.097341835 -0.03482876 -0.14500399 -0.14476061
000200 66 04 d2 bb b5 07 4e 3d bc 3e df 3d 45 ee 31 bd
       -0.0064092157 0.05030032 0.109006375 -0.043440122
000210 f8 dd 39 be 8a ff 04 3d 0e 26 a0 3d ab 6e 98 3d
       -0.1815108 0.032470264 0.07819758 0.07442983
000220 42 73 9f bd 0b 17 c8 bc 62 d5 81 bc 9f 9d 6f 3c
       -0.077856556 -0.02442505 -0.01584882 0.014624982
000230 9a e3 49 3d 19 37 04 be 89 1f fa 3b d1 59 a2 3d
       0.049289323 -0.12911643 0.007633154 0.07927287
000240 ac 85 71 bd e9 72 8d bb 05 52 da bd d1 25 26 be
       -0.05896537 -0.004316677 -0.10660175 -0.16225363
000250 68 8b 43 3d 15 a3 3b 3c 31 a2 14 bd b9 d9 77 3d
       0.04774037 0.011452456 -0.03628749 0.06051037
000260 45 38 08 be 31 0c 51 bd b1 23 5b 3d ea f3 36 bd
       -0.13302715 -0.051037017 0.053500835 -0.04466621
000270 08 8e c4 3d 75 98 23 3c f6 76 f8 ba 41 c4 a7 bc
       0.09597403 0.009985079 -0.0018956352 -0.020479323
000280 28 23 14 3e a7 f6 80 bc b0 e3 1a 3d 5e e5 e8 bc
       0.14466536 -0.015742613 0.037814796 -0.028429683
000290 75 2d e6 3c 9d 6a a2 3d 3d 4b 44 3e ba bf 07 3d
       0.028097847 0.07930491 0.19169326 0.03314183
0002a0 82 27 0e be 2e 63 c6 3b 92 ed 6e bd 5b c2 be 3d
       -0.13882259 0.0060543036 -0.058332033 0.09314414
0002b0 ce f9 20 3e a0 ea cc 3d ae 3f 97 bd 3a a7 bc 3d
       0.15720293 0.10005689 -0.07385193 0.092115834
0002c0 4e b4 b5 bc b7 56 81 bd 6e 43 78 be 2e d7 9d be
       -0.022180703 -0.06315368 -0.24244472 -0.30828232
0002d0 0a 14 0b be ba 1d cc bd 8d 60 2c be be d1 f5 bc
       -0.13581863 -0.099666074 -0.16833706 -0.03000724
0002e0 15 01 14 be 21 56 e5 3d 31 bf 3f be 33 3f 4c 3d
       -0.14453538 0.111980684 -0.18725277 0.04986496
0002f0 ca a6 a8 3d 4b f1 ec bd b5 36 a1 bd ee 4f 9f 3d
       0.082349375 -0.115694605 -0.07871763 0.07778917
000300 3e 02 d9 3d 9c a3 21 3e 23 75 35 3d 8f c9 57 bd
       0.10596131 0.15785068 0.044301163 -0.052682456
000310 1f c0 8b 3b 92 4b fd 3b 54 09 2d 3c 29 b5 a5 3d
       0.004264846 0.007729956 0.010561306 0.08091194
000320 ef 6b 12 bd 62 c9 90 bd 20 66 39 bd 1b 74 25 bd
       -0.035747465 -0.07069661 -0.04526341 -0.04039393
000330 33 d5 34 be 96 7a ab 3d 12 e2 7b bc e0 71 71 3d
       -0.17659454 0.08372991 -0.015373724 0.05894649
000340 9b 88 7a 3d b3 d5 c0 bd 76 a5 b5 bd 59 4d 47 bc
       0.061165433 -0.0941576 -0.0886945 -0.012164437
000350 c5 e7 ca 3d 55 f4 12 3e 29 7d 96 bd bb ba d3 3c
       0.09907488 0.14351018 -0.07348091 0.025845876
000360 44 e5 09 3e e0 04 9d bb d3 aa 0a 3e 16 07 05 3c
       0.13466364 -0.004791841 0.13541727 0.008119365
000370 65 4a 41 bc af b7 c4 bd 0b f3 a9 bd b0 e9 57 3d
       -0.011797522 -0.09605347 -0.0829831 0.052713096
000380 93 c0 3f bd 0c 6f fa bd d0 5a d1 bd 8a e7 82 3d
       -0.046814512 -0.12228212 -0.10222399 0.06391819
000390 d7 37 23 be dd 7b ec bd 75 cd 03 be 3a 34 27 3d
       -0.1593927 -0.115470625 -0.12871344 0.04082129
0003a0 d9 83 b2 3d ea 07 af 3d 57 03 18 3e b5 03 9e bb
       0.08716554 0.08546431 0.14845024 -0.0048222193
0003b0 24 06 74 3d c4 77 b0 bd 13 d9 8d 3d 85 ff 1c 3e
       0.05957617 -0.086165935 0.06926169 0.15331848
0003c0 43 56 ec bc c4 3c f6 3c 30 2c 0e ba 06 f3 09 3e
       -0.028849727 0.030058272 -0.00054234546 0.13471612
0003d0 5f 0f 6c bd 1b 7a e5 bc 21 5e 4c 3d 44 0a 88 3d
       -0.057631847 -0.028012326 0.049894456 0.06642583
0003e0 5e c8 b2 3d e7 50 07 bc fe 4b d6 3b 54 51 e9 3d
       0.08729623 -0.008259035 0.0065398207 0.11392465
0003f0 be 3b bf bd 5b c4 a2 3c e2 ee 15 bd c4 06 bb 3d
       -0.09337567 0.01986902 -0.03660477 0.0913215

bias f4 [12]
000000 9e 6c 9e 3e 1c 0e 97 3d 19 ac 03 be 72 28 a7 3d
       0.30942243 0.07375738 -0.12858619 0.08162011
000010 b9 33 65 3d 15 4c 12 3e d1 2c e4 bc bc 02 14 3e
       0.05595753 0.14286835 -0.027853401 0.14454168
000020 2a 9e e8 3d 5a 4b 07 3e bb 30 1e 3e 32 4c e9 bd
       0.113582924 0.13212338 0.15448277 -0.11391486

weight f4 [12, 12]
000000 d2 c1 53 be 95 86 1e bd 8c 03 32 bd c6 cd a5 bc
       -0.20679405 -0.038702566 -0.043460414 -0.020239722
000010 fd 01 89 bd fd a9 da be 3c 12 b2 3e 0c 89 22 3e
       -0.06689832 -0.42707816 0.34779537 0.15872592
000020 2e 73 78 3c 33 0d 42 be 85 1b ac be d8 43 aa be
       0.01516418 -0.18950348 -0.33614746 -0.33254886
000030 d2 6d f9 bd d3 5b cc be d9 38 76 be ab d0 69 3e
       -0.1217915 -0.39913806 -0.24045123 0.22833507
000040 12 f8 53 3e 3a 71 b8 be 1c 70 47 3e 66 06 19 bb
       0.207001 -0.36023885 0.1947636 -0.002334976
000050 7e 34 9f bd 58 7b a1 bd b8 de f6 bc d4 b6 48 be
       -0.07773684 -0.07884854 -0.030135497 -0.19600993
000060 d1 62 85 be 10 1d 66 3d 5e 3e a2 3e 8c cc 72 be
       -0.26051953 0.05618006 0.31688207 -0.23710841
000070 c8 72 d2 be d1 83 1e be 3b 0d f4 3d 91 b7 64 3e
       -0.41103196 -0.15479971 0.11916586 0.2233565
000080 e4 77 0a be cd 22 d8 3e 7e b5 bb 3e bb 08 3e be
       -0.13522297 0.4221405 0.36661905 -0.18558018
000090 1a 24 b5 bd 24 a2 d7 be c6 28 42 be 00 85 4a 3e
       -0.088447765 -0.4211589 -0.18960866 0.19777298
0000a0 b2 60 82 3e 40 9a 6d be 1a e2 13 3d 05 14 7f bd
       0.25464398 -0.23203373 0.0361043 -0.06227495
0000b0 72 66 cb 3d d7 99 a5 bd 61 94 e1 3e d3 3a 09 3d
       0.09931649 -0.08085983 0.44058517 0.033503365
0000c0 60 ee 76 be 7d 08 d4 3d 1e 4a a4 3e 26 64 02 3e
       -0.2411437 0.103531815 0.32087797 0.12733516
0000d0 b2 36 59 3e 47 eb 5d be 5e c9 53 be 59 dd 0f 3e
       0.21212271 -0.21671782 -0.20682284 0.14049281
0000e0 4e e6 87 be ca fa 90 3e 67 01 bc be a9 da 8f be
       -0.26542896 0.28316337 -0.3671982 -0.28096512
0000f0 e0 77 86 3e f9 37 fd 3e 99 f5 8d bd 58 24 cd 3c
       0.26263332 0.49456766 -0.0693161 0.025041744
000100 44 70 79 be 24 f5 32 3e fd 1f 41 be a4 b3 53 be
       -0.24359232 0.17476326 -0.18859859 -0.20673996
000110 4a f6 61 bb 91 0a 54 3e cd 46 13 be 22 42 f2 bd
       -0.0034479075 0.20707156 -0.14382477 -0.1182902
000120 fd 14 b1 bd 61 9e a1 bd eb f2 44 bd 47 3d 3b 3e
       -0.08646581 -0.078915365 -0.048083227 0.18285094
000130 3b 7c ed 3d c8 4f eb 3c 07 c7 cd bd 83 72 ca be
       0.11595961 0.028724566 -0.10047727 -0.3954049
000140 fe cc 6d be 01 f3 64 3e e5 2b 92 3d 1c 14 98 bc
       -0.2322273 0.22358324 0.071372785 -0.018564276
000150 1d 17 3e be 2e 08 05 be 7d ee 24 be 6f 2d d6 3e
       -0.18563505 -0.12991402 -0.16106601 0.41831538
000160 a1 d5 61 be 33 1b 39 be b9 82 a6 bd 21 2f 38 be
       -0.22054149 -0.18076782 -0.08130402 -0.17986728
000170 94 7f 5c 3e 20 0e 00 3e 65 d8 1f 3e 96 2a 3e 3e
       0.21533042 0.12505388 0.15609892 0.18570933
000180 7a ea 76 3c ba 1a 0c 3e bb 70 12 3e c6 b8 c8 3d
       0.015070552 0.1368207 0.14300816 0.09800868
000190 c1 4a 23 be 5b 2e ff bd ec 56 03 3f f5 46 3e be
       -0.15946485 -0.124600135 0.5130451 -0.18581755
0001a0 d5 de e9 bd 89 53 d9 be f0 3c bd be 99 8c c5 be
       -0.11419455 -0.42446545 -0.36960554 -0.3858383
0001b0 2e be 92 bd 13 34 32 be b6 44 a4 3d 6f 59 84 3e
       -0.0716518 -0.17402677 0.08020918 0.25849482
0001c0 41 72 62 3d f0 ec 3a ba ac 9c 29 3e 6f 53 62 be
       0.055284742 -0.00071306434 0.16563672 -0.2210214
0001d0 6c 88 91 3e bd 60 47 be e9 b2 86 be fb b4 2c 3e
       0.28424394 -0.19470496 -0.26308373 0.16865914
0001e0 0b 0f bd be f0 c9 97 3e 8a fb ab 3e 4f d9 78 be
       -0.3692554 0.29646254 0.33590347 -0.24301647
0001f0 7f f2 43 3e b8 37 ad 3c e0 37 92 3e 5f 87 39 3e
       0.19135474 0.021144733 0.28558254 0.18118046
000200 0c c1 53 3e c1 c4 73 bd 27 31 0c be e9 13 82 be
       0.2067911 -0.05951381 -0.13690625 -0.25405815
000210 9f 3b cf 3e 4b 5f 98 3d 00 91 a4 bc e4 8c 32 bd
       0.40475175 0.07440051 -0.020088673 -0.043591395
000220 a5 68 1f be 05 b2 97 bc e0 6a 07 3e 3c a6 95 be
       -0.15567262 -0.018517504 0.13224363 -0.2922839
000230 07 73 83 bd 95 ab 07 3d 88 8c 5c 3e 72 fa ba 3e
       -0.06418424 0.033122618 0.21537983 0.365192

bias f4 [12]
000000 fb ca 5f be a8 ac 2a be 41 88 87 bd 7d ac 38 3e
       -0.21854775 -0.16667426 -0.06617785 0.18034549
000010 0d 02 ba bb d4 40 60 be 4b 2f 1d 3e 4d da 13 3d
       -0.005676514 -0.2189973 0.15350072 0.03609686
000020 fd 97 b9 be be 9f 43 be 5c 25 a8 be 38 bc ca be
       -0.3624877 -0.19103906 -0.32841003 -0.39596725

weight f4 [12, 48]
000000 61 35 6a 3d c2 f2 6d be 80 1e 44 3e f7 68 6b be
       0.057179812 -0.23237136 0.1915226 -0.2298926
000010 1d 92 c4 3d 11 18 d6 bc 57 e2 29 3e de e7 23 3d
       0.095981814 -0.026134523 0.16590248 0.040016048
000020 be 04 13 be f9 1d 60 3c d7 55 1f 3d 7c 29 3d be
       -0.14357278 0.013679021 0.038900223 -0.18472856
000030 eb 62 1b 3c 2d bf 35 3b 30 9b 68 3c fb 74 83 3d
       0.009484033 0.0027732358 0.014197156 0.06418797
000040 c6 87 47 bd b7 d8 7a bb 8d dc 55 bd 6d fc 24 bd
       -0.048713468 -0.0038276145 -0.052212287 -0.040279794
000050 2e 40 85 3d 80 ff 2d 3e 9f d9 fe 3d cc 6b f8 3d
       0.06506382 0.16991997 0.12443852 0.121299356
000060 6a 7d c7 bd 49 f3 85 be 8b 2b fa bd d1 bd 12 be
       -0.09740718 -0.26162174 -0.122153364 -0.14330222
000070 57 c6 65 bd 33 7b 93 3e 8f 63 2a 3e 11 3c 66 3d
       -0.056097355 0.2880493 0.16639541 0.056209628
000080 c2 98 1c bd 1e b8 17 be 5f 6a ef 3d 7a 1d 8d bd
       -0.03823162 -0.14816329 0.116902106 -0.06890388
000090 af b5 4d be 63 a3 fb 3c 55 71 d9 3d a1 f2 42 3b
       -0.20088838 0.030717557 0.106173195 0.002974667
0000a0 9a c2 cc bd 27 39 02 3e c3 23 9a bd c7 18 f1 bc
       -0.09998055 0.12717114 -0.07526352 -0.02943076
0000b0 8e 13 0c 3d 57 0d 01 3e ce 3f 87 bb 7e 0e 2b be
       0.034198336 0.12602745 -0.004127479 -0.16704747
0000c0 cb e6 c1 3d 04 b3 bc bd 88 29 30 bd 1a 88 5b bd
       0.094678484 -0.09213832 -0.043008357 -0.053596593
0000d0 1b b7 8e bd ef 21 82 3c 96 2e bb 3d 5b ae d8 3d
       -0.06968518 0.015885321 0.09139745 0.10580131
0000e0 7a a0 a5 3b 78 55 89 3d 6d 17 57 3e 6f 36 1b be
       0.0050545307 0.06705755 0.2100503 -0.15157484
0000f0 4b c0 c4 3d c7 3f 1d be c0 d7 8f 3d fb 1f 39 3c
       0.096069895 -0.1535636 0.07023573 0.011299129
000100 e2 9a da bd dc 3c b6 3c 20 f5 9f bd ec 88 2b 3c
       -0.10674073 0.022245817 -0.07810426 0.010469656
000110 89 a6 a7 3d af 66 a0 bd 65 49 dd bc 11 52 a2 bd
       0.08186061 -0.07832085 -0.027012536 -0.07925809
000120 5d f1 e0 3d b6 4c 27 be 7c d1 31 be a8 df b4 3b
       0.109835364 -0.16337857 -0.17365068 0.005519826
000130 58 92 78 3d 7a 23 4a bd d3 12 03 3d cd 80 13 be
       0.06068644 -0.04935024 0.032000374 -0.14404602
000140 af c1 a9 bd 7a 7a 29 3d 7b 81 29 3e a2 43 14 be
       -0.08288895 0.04137657 0.16553299 -0.14478925
000150 91 63 0a 3d 47 53 15 3d 13 bd c7 bd 3f 87 bf bd
       0.03378636 0.036456373 -0.0975286 -0.09351968
000160 78 c0 8c bd 43 85 22 3e c8 12 19 bd 0a 03 a7 3d
       -0.06872648 0.15871148 -0.037371427 0.081548765
000170 ca dc f7 3d de 25 b3 bc 49 11 e0 3c bf 3a 11 3e
       0.12102659 -0.021868642 0.027351992 0.14182566
000180 2d 26 83 bc 80 db 97 bd 35 59 69 bc b6 6f 50 bc
       -0.016009415 -0.07414913 -0.01424246 -0.012721946
000190 a7 f8 80 bd e3 0f f1 bb 04 f8 8f 3c dd 0d 17 bd
       -0.06297427 -0.00735663 0.017574318 -0.036878455
0001a0 29 4a e6 3d ce 81 fe 3c 7c d7 e4 bd d6 95 a1 3d
       0.11244614 0.031067755 -0.11173913 0.07889907
0001b0 96 a3 8f bd 47 90 a3 3d d5 f7 1b 3d 83 ff f1 3d
       -0.070136234 0.07986503 0.038078148 0.11816313
0001c0 e7 9a 5e bd 1c 1f d7 3b a2 d2 12 bb 20 4f 1b 3d
       -0.054346945 0.006564988 -0.002240338 0.037917256
0001d0 22 8f 8b bd 07 0c 0a bc e1 6a 03 be 14 6a 0e be
       -0.0681441 -0.008425719 -0.1283374 -0.13907653
0001e0 e1 56 eb 3c 80 f5 84 3d bb 77 af bb bc 7c 0c bd
       0.02872795 0.06492138 -0.005354849 -0.034298643
0001f0 40 58 1b be 0b 48 94 3c 08 70 14 be 9d fe 93 bd
       -0.15170383 0.018100759 -0.14495862 -0.07226298
000200 54 da c4 3d 69 a7 c7 bc 7e 58 4a 3c f0 19 1c bd
       0.09611955 -0.02437182 0.0123502 -0.038110673
000210 be 88 7e bd 29 6e b4 3c 19 2d 78 3c e2 44 63 bd
       -0.062142126 0.022025185 0.015147471 -0.055485614
000220 d5 68 d6 3d 89 7b 09 3d 64 6f fc 3d 0e 75 06 be
       0.10469214 0.033565078 0.123259336 -0.1313059
000230 09 0e 3b 3c 92 90 01 bc 01 d0 e3 3d c4 7b 69 3d
       0.01141692 -0.007908003 0.11123658 0.057002798
000240 79 3f ae 3d 89 42 ea 3c 61 6a d4 bc 4d e1 bc bc
       0.085082 0.02859618 -0.025929632 -0.02305665
000250 9f 70 cb 3d 32 51 90 bc 7c 1c e8 3d 92 87 c9 3b
       0.0993359 -0.017616842 0.11333558 0.0061501944
000260 9c 3d b3 3c 2e 0e bf 3d 9e 63 46 be cc 32 28 3c
       0.021879964 0.093288764 -0.19373938 0.010266017
000270 84 62 1d 3e e9 73 40 3e ca 0e bc b9 c8 3f 1a 3e
       0.15369612 0.18794216 -0.00035869173 0.15063393
000280 06 41 29 3e 22 18 55 3d 7d 20 28 3c c7 b4 41 be
       0.1652871 0.052024968 0.010261652 -0.18916617
000290 f2 70 01 3d 12 4a 4c 3e 70 0a 35 bd 0b 96 7e 3d
       0.031601854 0.1995013 -0.044199407 0.06215481
0002a0 39 72 1d bd 44 f8 e8 bc 7a ad e9 bc 98 23 2f 3d
       -0.03843901 -0.028438695 -0.028525103 0.042758554
0002b0 4a 69 cf 3d df aa 2b 3d 35 27 2b bc 02 14 ff bd
       0.10127504 0.041911002 -0.010446359 -0.12454988
0002c0 59 f8 e2 3b f9 09 8d 3d 23 d2 2a be f9 7b 1e be
       0.006926578 0.06886668 -0.16681723 -0.1547698
0002d0 e8 67 3b bd 36 00 35 3d 3f 70 27 be 53 98 17 ba
       -0.04575339 0.044189654 -0.16351412 -0.0005782891
0002e0 ea ae 62 3d b0 77 46 3c d2 d6 f8 bd 68 34 55 bd
       0.055342592 0.012113497 -0.12150349 -0.05205193
0002f0 a0 3b 08 3e e3 e6 06 3d 63 d1 19 be b1 fb 84 be
       0.13303995 0.032935034 -0.15021281 -0.25973275
000300 2b 3e 45 3d a1 bb ad bd 03 14 2c 3e d0 19 b1 bb
       0.04815499 -0.08483053 0.16804509 -0.0054046884
000310 a5 98 91 3c 85 69 c9 3d 24 c9 ac bd 03 8c 08 bd
       0.017772982 0.098345794 -0.08436802 -0.03333665
000320 2c 8f 82 3e 83 48 cc bc a8 5a d0 3c 2e 23 0a 3e
       0.25499856 -0.02493692 0.025433853 0.13489982
000330 db f2 e8 3c c6 28 ac 3d 9c 29 f9 3d 15 48 e9 bd
       0.028436115 0.084062144 0.121661395 -0.11390702
000340 fa c0 98 bc fe 0a d8 3d 5e 14 0c 3e 48 f4 b0 bd
       -0.018646706 0.105489716 0.13679644 -0.08640343
000350 6a f7 96 3d b4 58 aa bd 46 2f 93 b9 95 ff a2 bd
       0.07371409 -0.083177 -0.00028073246 -0.07958905
000360 12 d9 03 be 36 3f 75 3c 0a 10 f7 3c 2b 74 09 bd
       -0.12875775 0.014968684 0.030159015 -0.033558052
000370 5f f6 a8 bd ba 86 f1 bb 5b 89 57 3d b1 f9 d0 3c
       -0.082501166 -0.007370797 0.052621227 0.025509687
000380 4c e7 13 3e b1 ae ff 3b 03 d1 55 3d 0e 3d ea 3d
       0.14443702 0.0078028073 0.052201282 0.114374265
000390 6e 3e b1 3e ee 47 3f 3e 02 90 27 3e 51 5a 53 3d
       0.34617943 0.18679783 0.16363528 0.051599804
0003a0 ab a6 96 3c d2 e0 d2 3d f2 f3 15 3e 72 75 e4 bd
       0.01839002 0.10296787 0.14643839 -0.111552134
0003b0 fd 1e 8b 3e fb fb 48 3e 70 f9 40 ba 10 2f 12 be
       0.2717208 0.19627373 -0.0007361388 -0.14275765
0003c0 b6 48 26 3d e4 75 92 3e 88 b2 fa 3c 1e 8f d1 3d
       0.040596686 0.28605568 0.030602708 0.102323756
0003d0 85 02 93 bd 45 ee 3c 3e 09 3b 63 be f1 ff 98 bd
       -0.07178215 0.18450268 -0.22190489 -0.07470692
0003e0 5c 49 ee 3d e1 a5 8e 3d ec 7c a6 39 1a c9 7b 3c
       0.11635086 0.06965233 0.0003175506 0.015367771
0003f0 cf df 15 3e 3a 52 08 bd 51 3c 80 3d 75 5e a5 bb
       0.14636157 -0.033281542 0.062615044 -0.0050466605

bias f4 [12]
000000 50 a1 97 3e 9b 27 06 3b db 60 d5 3d af df 45 3d
       0.2961526 0.0020470384 0.10418864 0.048309024
000010 c3 7f 17 be eb 55 a8 3d 0c 79 01 3e 23 d0 a1 3d
       -0.14794831 0.082195126 0.12643832 0.07901027
000020 cb 36 e6 3d 24 fb 77 3d 87 23 46 3d 18 25 88 3d
       0.1124092 0.06054224 0.048373725 0.066477

weight f4 [12, 12]
000000 12 c4 92 3e a1 5a 88 3e a0 5b ac bd a8 dc 7f 3e
       0.28665215 0.26631644 -0.084159136 0.24986517
000010 2f 13 54 3d 60 48 d9 b8 11 39 7a be 7f 45 1b 3e
       0.051776107 -0.00010360847 -0.24435832 0.1516323
000020 82 30 5b bd da e5 98 be f0 79 5f be eb ca e0 bd
       -0.053513058 -0.29862863 -0.21823859 -0.109762035
000030 90 54 3c 3d 31 ae fa bd 85 8e c8 bd bc 2a 28 3d
       0.045979083 -0.122402556 -0.097928084 0.04105638
000040 ab 92 f6 3c 1b 34 12 3e 32 7d 43 be f9 5e 8f 3d
       0.030099234 0.14277689 -0.19090727 0.070005365
000050 97 d8 90 3e 44 b4 75 bd 1c c2 d8 bb 7f 92 18 bd
       0.28290245 -0.059986368 -0.0066149365 -0.037249085
000060 f1 ed 86 be 9c 51 28 3c 8a af 1b 3e 5f db 80 3e
       -0.2635341 0.010273363 0.15203682 0.25167367
000070 40 5e 91 bd 73 91 8c 3e 20 78 05 3e 53 a6 22 be
       -0.07098055 0.2745472 0.13034105 -0.1588376
000080 44 33 d6 bc da d4 d5 3d 69 4e a6 3e da 78 a5 3e
       -0.026147492 0.10440989 0.32481697 0.32318765
000090 b2 95 4e 3e 27 ec e2 3d 39 14 b3 3d e5 f2 64 bd
       0.20174292 0.11080199 0.087440915 -0.055895705
0000a0 10 f3 43 3e 38 a9 7a be e8 af 8e be 27 fe b3 bc
       0.1913569 -0.24478614 -0.2786858 -0.021971775
0000b0 56 19 bd 3d 7d 02 a2 3e 34 c9 85 be 9c 54 dd 3d
       0.09233348 0.31642523 -0.26130068 0.108071536
0000c0 d8 0f 96 be 88 ce 8b 3d 44 89 05 3d dc 0a f0 bd
       -0.29308963 0.06826502 0.03260161 -0.11720821
0000d0 d5 0c 1f be 2f 48 2b 3e aa fd f1 3c 60 aa 94 3e
       -0.15532239 0.16726755 0.029539902 0.29036236
0000e0 b2 35 75 be ef 2e 9b 3e c4 f9 c0 3d 39 83 3e be
       -0.23946264 0.30309245 0.09422639 -0.18604745
0000f0 8c a9 1d be a9 73 9e be a1 a3 b2 3d 23 cf 23 3d
       -0.15396708 -0.30947617 0.08722616 0.039992463
000100 75 e5 c1 3e 5f c4 47 be a7 4d 6d be fe 9c bd be
       0.37870374 -0.19508503 -0.23174153 -0.37033838
000110 ec bf ca 3d ea 21 a6 3d 22 33 45 be 88 dc 96 be
       0.098998874 0.08111937 -0.19257787 -0.29465127
000120 fc 44 55 bb 63 81 89 3e 9f fe 8b 3e 5b ba eb 3d
       -0.0032542339 0.26856527 0.27342698 0.11510154
000130 20 ed 27 be d5 a6 c0 3e 81 44 53 3c 5e ae be 3e
       -0.1639905 0.37627283 0.012894751 0.37242407
000140 ce 7f ab bd 33 ff 83 bd 7a d1 91 3e 27 3d 93 3e
       -0.08373986 -0.0644516 0.2848013 0.28757593
000150 0b 5e 56 bd f2 04 18 3e dd d1 5a be 3f 58 a9 3d
       -0.05233578 0.14845636 -0.21369119 0.08268785
000160 9f 99 98 3d ad f3 ad bc 8a b6 78 be 0b 75 60 bd
       0.07451176 -0.021234358 -0.24288383 -0.05479912
000170 f3 f5 9a 3e ca 2c 9f be c4 65 6f bd a6 c2 50 3d
       0.3026577 -0.3108886 -0.05844666 0.05096688
000180 86 c8 27 3e ea 29 24 3e 44 24 15 3e 58 db 72 be
       0.16385087 0.16031614 0.14564615 -0.23716486
000190 62 29 40 be be 2e 49 3e 5a 54 95 bc 0d 26 37 be
       -0.18765786 0.19646737 -0.018228699 -0.17885609
0001a0 c4 b2 88 3d c0 ae 0e be 84 7b 9d 3e 47 b1 e2 bd
       0.06674722 -0.1393385 0.30758297 -0.11068969
0001b0 86 3a a5 be 3b ed 68 3e 8b 2a 79 3e 79 ea ae be
       -0.32271212 0.22746746 0.24332635 -0.34163263
0001c0 30 96 0f 3d fa a5 ba 3d a7 a4 28 3e 2a f8 c6 3d
       0.03505534 0.09113689 0.1646906 0.09715302
0001d0 8c be e2 be 3e 82 2a be 25 9f aa bd 53 0a 77 3d
       -0.44286 -0.16651246 -0.08331136 0.06031258
0001e0 66 2d 53 be 11 cf 8c be b8 aa b6 bd c1 a6 90 3d
       -0.20622787 -0.2750173 -0.08919281 0.07063056
0001f0 1d 0e ce be b7 49 11 3e ca 0c 5d 3e fb ad b7 3e
       -0.40245143 0.14188276 0.2158691 0.35874924
000200 4f d5 82 be 47 19 a1 be 41 3b 89 be aa e2 a5 be
       -0.25553367 -0.31464598 -0.2680302 -0.32399493
000210 a8 f4 2b be a1 e9 71 bd a0 67 a1 3c 20 f8 a8 3e
       -0.16792548 -0.059060697 0.019702733 0.33001804
000220 ff c7 89 3d 3f 2d 9d 3e 73 31 a7 3e b3 0f 8a bb
       0.06727599 0.30698583 0.32654914 -0.0042132973
000230 04 7b 09 be 93 8e 92 3e bf f2 4b 3e ea ca 09 3e
       -0.13425833 0.286244 0.19916819 0.13456312

bias f4 [12]
000000 e5 b6 6c bc 0d 4b 04 be 7e df 54 be 52 73 12 be
       -0.014447902 -0.12919255 -0.2078838 -0.14301804
000010 c6 40 22 bd ff 21 6b bc e2 f8 2f 3e aa 17 7d be
       -0.039612554 -0.014351367 0.17184785 -0.24716058
000020 21 a8 83 3d 92 23 6a 3d 09 5e bf be ee 17 fa 3d
       0.064285524 0.05716283 -0.3737643 0.122115955

weight f4 [12, 48]
000000 a7 c8 7e 3c 03 69 2f 3b 6b 9a 88 bd 19 f4 a8 bc
       0.015550769 0.0026765473 -0.06670078 -0.020624207
000010 57 96 71 bc c4 96 5c 3e 17 cd ab 39 21 d0 30 3d
       -0.0147453165 0.21541888 0.00032768465 0.043167237
000020 00 38 95 bd 72 8e 02 be 00 4c 62 3d 70 94 d8 bd
       -0.07286072 -0.12749651 0.05524826 -0.10575187
000030 f8 29 72 3e 58 89 05 3c b8 30 63 bd 9c 3c ea 3d
       0.23648822 0.008150421 -0.055466384 0.114373416
000040 e6 41 93 3d 51 6c c1 3d d0 10 77 bd 60 4c d1 bd
       0.071903035 0.09444488 -0.060318768 -0.102196455
000050 05 7b e3 3d 03 d5 29 3d 73 28 6c bd a9 d1 23 bd
       0.111074485 0.04146291 -0.057655763 -0.03999487
000060 c6 27 d1 3d f8 c3 98 3d 17 cd c3 bb e0 0a 20 bd
       0.10212664 0.07459253 -0.0059753763 -0.03907287
000070 ad 1f 0e 3e 66 58 9a 3d 21 7d a7 3e 12 af 14 3e
       0.13879271 0.07536392 0.32712653 0.14519909
000080 89 25 57 3d a3 f8 da 3d 25 5b 16 3e e7 a3 b0 ba
       0.05252603 0.10691955 0.14683206 -0.0013476581
000090 6c 55 c8 3d c9 24 80 bd 04 78 1f 3d b8 f2 bf bc
       0.09781918 -0.06257016 0.038932815 -0.023431167
0000a0 85 da 49 be ad 18 23 bd b4 6d 3d bd 43 8d 9e bd
       -0.19712265 -0.039818455 -0.0462472 -0.07741787
0000b0 98 b7 92 bd 13 a2 1c 3e b6 12 28 3d bb 76 e3 bd
       -0.07163924 0.15296201 0.04103347 -0.111066304
0000c0 3e e1 96 3c fa a8 fa 3d c4 ab 18 3e ee de 16 3e
       0.01841795 0.12239261 0.14909273 0.14733478
0000d0 83 1c 45 bd 51 91 05 bd 5a 5a af bd b8 ce c9 3d
       -0.048122894 -0.032609288 -0.08562155 0.098538816
0000e0 31 5d fd bd a9 cd 21 be bc e1 43 be af e3 f1 bd
       -0.123712905 -0.1580111 -0.1912908 -0.11811005
0000f0 14 8c 65 bd 8c 93 ab bd 31 5c 93 be e1 b7 a4 3d
       -0.056041792 -0.08377752 -0.28781274 0.080428846
000100 fe 9c 30 3e b1 9e 17 bc b6 45 a4 3d 6c f8 d7 3c
       0.17247388 -0.009254144 0.08021109 0.026363574
000110 f6 f7 c8 bd 73 88 54 be 2a 93 d9 3d 51 3d 98 3d
       -0.0981292 -0.20755176 0.106237724 0.0743357
000120 ed f1 40 be 7f d0 2e be a5 f7 ff bc 70 91 ab bc
       -0.18842287 -0.17071722 -0.031246016 -0.020943373
000130 0a 7c 10 be da ec af bc 72 a0 d5 bd 0c 19 7d 3e
       -0.14109817 -0.021475244 -0.10430993 0.24716586
000140 43 56 4b 3d 35 09 b4 bd da d7 04 39 e5 14 59 3e
       0.049642812 -0.087908186 0.00012668912 0.21199377
000150 10 98 2a 3e 1f 30 21 be 11 6f 0c 3e 3f 56 03 be
       0.1665957 -0.15741013 0.13714243 -0.12825869
000160 ef 14 1b 3d eb 7c 1c be af 62 95 bc e9 15 2d be
       0.03786176 -0.15282027 -0.018235533 -0.1690289
000170 3a f7 a9 3c 44 98 5e bd f1 2e f2 3d 03 bf a7 bd
       0.02074777 -0.05434443 0.118253596 -0.081907295
000180 33 34 97 bd b5 ff c4 bd 06 89 ca 3d 70 cd 16 bd
       -0.07383003 -0.09619085 0.098894164 -0.036817014
000190 92 eb c8 3d 25 1c cf 3c bd 1f 22 3d cb a1 4f bc
       0.098105565 0.025281975 0.03958105 -0.012672852
0001a0 ae 34 07 be 03 31 88 3d e3 34 41 bd 5b 7e 95 3d
       -0.1320369 0.06649973 -0.047169577 0.07299491
0001b0 f1 c4 51 bb 8f 00 26 be 21 70 86 bd f9 49 45 bd
       -0.0032008255 -0.1621115 -0.06564356 -0.04816625
0001c0 ca 8b 07 be f5 ef 71 be f4 7b a1 bd fd 32 2d be
       -0.13236919 -0.23626693 -0.0788497 -0.16913982
0001d0 4d 8c e1 3d 32 da 3d 3e 58 13 00 3e 51 44 10 3c
       0.110130884 0.18540266 0.12507379 0.00880535
0001e0 99 d3 07 3e 9a d3 ba 3d 57 9a 0f 3e b3 87 1f 3d
       0.13264312 0.09122391 0.1402372 0.038947772
0001f0 2c 34 04 be cc 61 68 bd 4a ce 9b 3d 2f 42 fd bd
       -0.12910527 -0.05673389 0.07607706 -0.12366139
000200 c4 dd 9d bd f8 be 99 bc 0b 18 2d 3d 21 a3 85 bd
       -0.07708314 -0.018767819 0.042259257 -0.06525255
000210 97 57 c5 bc 10 5c 86 3d 85 ce 81 bc f0 ad e0 3b
       -0.024089618 0.06560528 -0.015845546 0.0068566725
000220 09 55 98 bc 00 9a a3 3d b8 93 11 3e c9 d8 c9 3d
       -0.018595235 0.079883575 0.14216506 0.098558016
000230 f2 04 00 be 74 88 79 be b2 d0 ef 3c 6f ba e4 bd
       -0.12501886 -0.24368459 0.029274318 -0.11168372
000240 80 a5 6c bd 78 0d 3e bd 51 d4 23 3d 88 d2 4a 3d
       -0.05777502 -0.046399564 0.039997403 0.049517184
000250 09 ad af 3b 56 f8 7e 3e cc 46 05 be 7c 18 b2 3d
       0.0053612036 0.2489942 -0.13015288 0.08696076
000260 1e bd 62 bd 1b 9e 32 be b9 9b 39 bc f7 28 ab bc
       -0.055356137 -0.17443125 -0.011328631 -0.020893557
000270 d2 fc a9 3d 18 4e bb 3d 19 1d bf 3d df ab 8a bd
       0.08300175 0.091457546 0.09331722 -0.06771063
000280 05 d4 7c 3e de ec 50 bc 26 07 2f 3e 48 8a f0 3c
       0.24690254 -0.012751786 0.1709257 0.029362813
000290 85 b8 06 be 25 73 f8 bc 3f 63 0f bd ed 29 a7 bc
       -0.13156326 -0.030328343 -0.035006758 -0.020405734
0002a0 30 f8 56 bd b0 ea 90 3c bb 18 ac 3d ee dc aa 3d
       -0.052482784 0.017690033 0.084031545 0.0834292
0002b0 fd f5 1b 3e 00 5a 33 be b7 b9 8f 3e fe a2 1c 3e
       0.15230556 -0.17514801 0.28071377 0.15296552
0002c0 0c 64 31 3e e6 e6 65 3d d9 e2 c4 bd 14 2e c9 bd
       0.17323321 0.056128405 -0.0961358 -0.09823242
0002d0 87 d5 85 bd c7 fe c6 3d 49 55 c8 ba 75 b7 66 be
       -0.06534868 0.09716564 -0.0015284206 -0.22530921
0002e0 8f 11 c2 be 78 43 4a be 2c 84 85 bd 14 a8 77 3a
       -0.3790402 -0.197523 -0.065193504 0.0009447348
0002f0 22 b7 62 3e 5a 7e 6f 3e 43 39 64 3d 0a 20 8e 3c
       0.22140172 0.23388043 0.05571867 0.017349262
000300 ae 9e b4 3d 54 05 47 bd 69 2c 23 bc b6 d9 90 3c
       0.08819328 -0.048589066 -0.009959319 0.017681938
000310 65 ee be 3d 0f 8e 22 bd 09 32 f5 3d 73 1d ab 3c
       0.09322814 -0.03968626 0.11972434 0.020888066
000320 a9 92 00 3e e4 a2 98 bd 13 8f a0 3d c8 c9 9e bd
       0.12555946 -0.07452944 0.07839789 -0.077533305
000330 09 4f 7b 3d 3f 52 b8 3d cb ce d3 bd 1a 54 22 3e
       0.06135467 0.09000062 -0.10342177 0.15852395
000340 db a0 c6 bd 94 10 a1 bd 20 9d 02 be 02 27 ab bc
       -0.096986495 -0.0786449 -0.12755251 -0.020892624
000350 fb fc b0 bd 0d af fb 3d cc c5 85 bd ce 8e ca 3d
       -0.08642002 0.12289248 -0.065318674 0.09890519
000360 73 ce 47 bd e1 eb 5f bd 6c 60 df bd e5 a6 bd bd
       -0.04878087 -0.05466831 -0.10907063 -0.09260348
000370 f5 f3 cd 3d 97 6e 2f bb 35 f1 95 bd 55 72 b1 bc
       0.10056297 -0.0026768798 -0.07321397 -0.021660963
000380 49 d9 7a bd 10 d7 22 be e7 9a 18 bd 25 12 43 3d
       -0.061242376 -0.15902352 -0.0372571 0.047624726
000390 2a 4b 69 3c 2b 9e be 3d ff ee ec 3d 96 64 1a 3e
       0.014239112 0.09307512 0.115690224 0.15077433
0003a0 42 67 b5 bd 1e 65 28 3d b6 50 8d bd 6c 3f 79 bd
       -0.088575855 0.041112058 -0.0690016 -0.0608515
0003b0 19 0a 05 3e d5 d4 9d bd 22 4f c8 bb 09 d8 87 bd
       0.12992133 -0.0770661 -0.006112949 -0.06633002
0003c0 c3 15 32 be 24 1d 84 3c 52 25 94 bd 50 1a 94 bd
       -0.17391114 0.016127177 -0.07233681 -0.07231581
0003d0 b7 e4 55 3c f1 4a c5 bb 00 dd 0a 3e ad 04 05 3e
       0.013055018 -0.0060208966 0.13560867 0.12990065
0003e0 a3 a5 4c 3d f5 a2 42 3e 56 af 5a 3d 3c 8b 71 3d
       0.04996265 0.19007476 0.05338987 0.058970675
0003f0 b4 64 48 bb 51 3b 3f be 15 59 ab bd 28 16 ff bd
       -0.0030577602 -0.18674971 -0.083666004 -0.12455398

bias f4 [12]
000000 85 a2 14 3e d8 91 af 3d e3 ea 44 bd 75 79 02 3e
       0.14515121 0.08572739 -0.048075568 0.12741645
000010 c7 bc 29 be 43 99 6d 3d e6 60 89 3e 57 f0 a0 bd
       -0.16575919 0.05800749 0.2683174 -0.07858341
000020 8f ad 5b bd a5 d1 a3 37 d9 ce 35 3d 28 5d 22 3e
       -0.053632315 1.9528738e-05 0.04438672 0.15855849

weight f4 [12, 12]
000000 1d 7b a4 bd 07 a6 60 3e 20 6b 2e be d6 4c a2 3e
       -0.080312945 0.21938334 -0.17033052 0.31699246
000010 14 92 a3 3c 0e d9 68 be c6 1d 9c 3e 8d 12 88 3c
       0.019967116 -0.2273905 0.30491465 0.016610408
000020 4f 95 58 be 53 a4 5b be c7 23 4c 3e c2 2c 98 bd
       -0.21150707 -0.21449403 0.19935523 -0.07430412
000030 2b af 2a 3e a2 51 01 bf c1 19 5a bd b0 56 63 be
       0.16668384 -0.50515187 -0.053247217 -0.22201037
000040 9a 84 12 be ef 8a d6 bd 89 d4 2e be 67 b1 a5 be
       -0.14308396 -0.10475718 -0.17073263 -0.3236191
000050 34 81 88 3e 07 f8 20 3e 3b a4 47 be fe df b5 be
       0.26661074 0.15719615 -0.19496243 -0.35522455
000060 4b 1e 9b be 75 d3 0d bd 6b b1 56 be 7a d1 01 be
       -0.3029655 -0.03462549 -0.20966117 -0.12677565
000070 5d a9 a9 bd d2 7b 44 bd c5 b8 ce bd af 6b ba 3d
       -0.082842566 -0.047969647 -0.10093836 0.0910257
000080 c7 4a 9b 3c 6d dd 47 3e d2 ff 0f bc cd e0 3f 3d
       0.018956555 0.19518061 -0.00878902 0.046845246
000090 d9 2a 39 3e 9a 23 ec 3c de 8a bb bb 80 d6 53 be
       0.18082751 0.02882557 -0.0057233414 -0.20687294
0000a0 eb 88 85 3c 8e 86 8e bd 9a 69 56 bc a1 80 c3 bd
       0.01630064 -0.06959258 -0.013086701 -0.095460184
0000b0 37 fe 44 be d0 85 a1 3e 18 15 a4 3d 8c 13 24 3e
       -0.192376 0.31547403 0.08011836 0.16023082
0000c0 3a b5 27 be 19 0a d9 be 72 e0 50 bc 4e 7c 1d be
       -0.16377726 -0.42390516 -0.012748824 -0.1537945
0000d0 10 bb 04 3e 5c 3f 2c 3e 2b b5 9d be 80 82 91 be
       0.12961984 0.16821045 -0.30802283 -0.28419876
0000e0 40 a6 a7 3e 26 5c 0c be 83 9e a3 bd ef 85 bb 3d
       0.32744026 -0.13707027 -0.07989218 0.09156405
0000f0 be 9e 4d 3e ff 1a 64 be bc 2c 37 3c 8f bd 6b be
       0.20080087 -0.22275923 0.011180099 -0.2302153
000100 00 19 fe 3c 57 5e c1 be 5b 50 b6 3d 6f e9 5d bd
       0.03101778 -0.37767288 0.08902045 -0.054177698
000110 14 d8 f5 bd cd 5b 35 be b7 1b e8 3d d7 0a e2 bc
       -0.12004104 -0.177108 0.11333411 -0.02759306
000120 25 18 ec bd 6e 74 7e 3e 07 63 3c 3d 03 6e c0 bd
       -0.11528043 0.24849102 0.045992877 -0.09395983
000130 88 a9 17 3e e9 53 d4 be 96 21 85 3d 59 ac cb 3e
       0.14810765 -0.41470268 0.06500547 0.39779928
000140 0c d2 b4 bc 20 54 df bd 2a 78 81 3d 66 70 cb 3e
       -0.022072814 -0.109047174 0.063217476 0.3973419
000150 f3 fc 82 3d ec b9 8c 3e aa b5 31 be 42 25 2f 3b
       0.063959025 0.27485597 -0.17354456 0.0026725088
000160 d8 aa 43 be 67 42 b7 3d 99 9d e9 3c 2e 0d 99 bc
       -0.1910814 0.08948212 0.028517531 -0.018683042
000170 7f a7 39 bd 67 d9 ac be 5c 31 8c be 52 d3 25 bd
       -0.045325752 -0.33759615 -0.27381408 -0.040484734
000180 bd 03 74 bd cc dc 95 3e 51 31 a6 bc 6d d4 74 3e
       -0.059573878 0.29270017 -0.020287188 0.23909159
000190 42 7a 30 3e 7f 2f 55 bd 41 ff 44 bd 7d 2f 6b be
       0.17234138 -0.05204725 -0.04809499 -0.22967334
0001a0 66 e4 02 3e 75 1e 90 bd ce 08 c5 3c ff e3 7e bd
       0.1278244 -0.07037059 0.02405205 -0.062229153
0001b0 f1 cf 9a be 05 24 be 3d 15 1e 90 be 61 6f 85 bc
       -0.30236772 0.09284214 -0.2814795 -0.016288461
0001c0 bf 7f 2d be eb d7 96 3e a7 3e 2a be bd db 04 3e
       -0.16943263 0.29461607 -0.16625462 0.12974449
0001d0 81 5d 99 be 06 53 f5 bb 6d ef 5c be ec 05 31 3e
       -0.2995415 -0.007486704 -0.21575709 0.17287415
0001e0 9b f1 a8 be 1e c3 29 3e 45 60 37 be e7 70 4b be
       -0.3299683 0.16578338 -0.17907818 -0.19867288
0001f0 9b 4a a9 3c 42 fa 4d bd 32 e8 c7 be a2 22 b0 3e
       0.020665457 -0.050287493 -0.39044338 0.34401423
000200 38 e3 7d be 7a e7 68 3e e3 74 55 3d 84 d0 d6 3e
       -0.24793708 0.22744551 0.052113425 0.4195596
000210 60 97 4d be 43 83 7f be e0 e2 72 be 50 6d 96 3d
       -0.20077276 -0.24952416 -0.23719358 0.073450685
000220 43 0c dd bd ee b6 9f 3e fb 0f 4e be ab 43 98 3d
       -0.10793354 0.31194252 -0.20123284 0.07434782
000230 1f d9 bb 3d 17 2f 00 3f 14 97 37 3e de a8 ee 3d
       0.09172272 0.50071853 0.17928725 0.116533026
