MQCNN-QA-4qubits-4class-CIFAR-same-5filter/Models_V2/model_45.pt (torch, 143606 bytes, 47 tensors)

weights f4 [7]
4.0145197 5.31173 1.6554328 0.1568988 4.406865 2.8548033 4.7926593
00000000: f276 8040 b1f9 a940 39e5 d33f 14aa 203e
00000010: 0a05 8d40 19b5 3640 775d 9940

weights f4 [7]
3.1415021 0.87862355 5.7003665 0.6286304 5.084659 4.458936 2.557001
00000000: 5f0e 4940 79ed 603f 6769 b640 eced 203f
00000010: 87b5 a240 9baf 8e40 e8a5 2340

weights f4 [7]
3.415495 5.657311 6.081226 3.7733896 5.439724 5.726175 3.833232
00000000: 7897 5a40 b108 b540 6799 c240 377f 7140
00000010: 3812 ae40 d33c b740 ac53 7540

weights f4 [7]
4.3709846 6.1963935 3.469815 0.6357811 0.81600815 4.305678 5.504032
00000000: 1bdf 8b40 db48 c640 7311 5e40 8dc2 223f
00000010: e9e5 503f 1dc8 8940 0821 b040

weights f4 [7]
0.26944807 3.4881072 0.7484051 6.1697984 1.0252047 1.6784866 5.6286197
00000000: 19f5 893e 263d 5f40 7a97 3f3f fd6e c540
00000010: e839 833f a6d8 d63f a71d b440

weights f4 [7]
0.5037123 2.7822995 5.503379 5.457851 5.6060963 3.938542 3.6301045
00000000: 4af3 003f 3211 3240 ae1b b040 b7a6 ae40
00000010: 2465 b340 1211 7c40 a253 6840

weights f4 [8]
5.9893055 1.1919686 1.2740166 0.309082 5.129093 3.5969825 3.7270038 5.773719
00000000: 64a8 bf40 6d92 983f fa12 a33f ff3f 9e3e
00000010: 8821 a440 f634 6640 3b87 6e40 4ec2 b840

weights f4 [8]
5.7262187 5.8896475 2.971155 3.4071527 3.9459243 1.1679002 4.6384726 3.9604294
00000000: 2f3d b740 fe77 bc40 6727 3e40 ca0e 5a40
00000010: 068a 7c40 c17d 953f 5e6e 9440 ad77 7d40

weights f4 [8]
3.996357 0.57289684 6.227539 2.3958702 4.7668757 1.3456721 5.980449 4.0950384
00000000: 50c4 7f40 5ea9 123f 0048 c740 f055 1940
00000010: 3f8a 9840 fc3e ac3f d75f bf40 8e0a 8340

weights f4 [16]
2.4151368 3.730956 1.1838735 0.8649594 2.7205946 1.6165917 4.8413363 1.4801075
1.1868719 4.9851165 4.8206334 0.6694424 3.4610384 1.7568895 4.354506 6.2430987
00000000: 9a91 1a40 fcc7 6e40 2b89 973f fb6d 5d3f
00000010: 391e 2e40 7aec ce3f 3aec 9a40 2a74 bd3f
00000020: 6beb 973f 1386 9f40 a142 9a40 9460 2b3f
00000030: a781 5d40 c1e1 e03f 1d58 8b40 77c7 c740

weights f4 [16]
4.3760343 3.6513271 1.5327493 4.5407004 0.56753266 3.3777184 4.4193835 1.1946368
2.403707 1.8405929 3.2403488 1.8401626 2.8137565 5.926644 1.1427423 3.1927269
00000000: 7908 8c40 58af 6940 2131 c43f 6b4d 9140
00000010: d249 113f 8a2c 5840 976b 8d40 dce9 983f
00000020: 56d6 1940 8c98 eb3f e061 4f40 738a eb3f
00000030: 9614 3440 11a7 bd40 6145 923f a355 4c40

weights f4 [16]
2.1563535 1.9703507 5.614129 5.0987797 6.1641717 2.2065055 5.073223 3.1987324
4.784827 1.3851361 0.14725296 4.3163195 4.8972173 4.8831315 0.8942837 5.527021
00000000: b201 0a40 7434 fc3f f2a6 b340 3429 a340
00000010: e540 c540 6337 0d40 d857 a240 08b8 4c40
00000020: 4e1d 9940 244c b13f 7bc9 163e 4a1f 8a40
00000030: 01b6 9c40 9d42 9c40 c7ef 643f 5bdd b040

weights f4 [12]
5.766747 1.589136 3.2287593 5.323784 2.6908245 6.223885 4.4577613 1.2385551
2.371934 4.9410205 4.1659517 0.64870954
00000000: 3189 b840 cf68 cb3f fea3 4e40 705c aa40
00000010: 7836 2c40 112a c740 fba5 8e40 f988 9e3f
00000020: c4cd 1740 d71c 9e40 7a4f 8540 d411 263f

weights f4 [12]
0.26308566 4.4142485 0.54265714 4.018549 1.7277114 4.2245793 5.9163814 4.521716
3.309925 0.063951604 1.1467093 2.7147708
00000000: 2ab3 863e 8641 8d40 94eb 0a3f f497 8040
00000010: a625 dd3f c12f 8740 ff52 bd40 e6b1 9040
00000020: d0d5 5340 0ff9 823d 5fc7 923f cebe 2d40

weights f4 [12]
2.3238297 3.4833345 2.7160976 2.1816928 0.33856663 4.430339 1.3407971 0.74192494
4.4206924 3.1864212 0.20944141 5.719225
00000000: a0b9 1440 f4ee 5e40 8bd4 2d40 dba0 0b40
00000010: 9b58 ad3e 56c5 8d40 3d9f ab3f cbee 3d3f
00000020: 5076 8d40 53ee 4b40 cf77 563e e403 b740

weight f4 [12, 48]
-0.1499302 -0.09370106 -0.021228114 -0.073247306 0.085440055 -0.014221345 -0.12839948 -0.031990137
0.03635781 0.10021634 -0.060984757 -0.11413353 0.002600916 -0.110726416 -0.027768007 0.092094734
0.14843673 0.031971432 0.11303086 0.14990084 -0.11079817 -0.07390132 -0.00916385 -0.09389435
-0.12904978 0.17830217 0.13461453 0.0776279 -0.051177103 0.071453534 0.13165152 0.03559656
-0.0181559 -0.043369297 -0.073128834 -0.037815526 -0.0073814923 -0.0175642 -0.1730693 -0.05991363
0.19632946 0.17047155 0.10837449 0.029572608 0.17513295 -0.03636655 0.02294809 0.12401516
-0.043137394 0.14002037 -0.09701932 0.049347132 -0.21765822 0.04566151 -0.16578738 -0.1930652
-0.13780984 0.011493611 -0.18630192 -0.054646943 0.09326745 0.09629483 0.061050907 -0.11769737
0.10635498 -0.049887735 0.11788311 -0.020726066 -0.11607039 0.09479801 -0.18304959 0.12100965
0.024684737 -0.10521774 -0.09689979 0.10329913 0.07825431 0.040910363 -0.069975466 0.03476281
-0.084148824 0.08620601 -0.09277295 -0.073440835 0.08660204 -0.028143283 0.048981607 -0.016075231
-0.028352244 0.08426044 -0.059579518 0.00081454363 -0.036532972 0.07176229 0.09054391 0.22313258
-0.04469515 -0.024068179 -0.016130533 -0.024944363 0.09788862 -0.12753892 0.08557494 0.101518184
0.12801187 0.06196798 -0.018979186 0.11701767 -0.03146847 0.011213449 0.033511143 -0.12712157
0.12799151 0.012346076 -0.022957886 0.08472259 0.121177815 0.026309585 0.06692775 -0.09133798
-0.10797777 0.10389103 -0.12929565 0.01772207 -0.026970413 -0.050907135 -0.13184288 -0.08350434
-0.11963585 0.010201696 0.14020072 -0.12728025 -0.0274721 -0.032380994 -0.12947203 0.013043296
-0.06884927 -0.061704207 -0.08884968 0.121452205 -0.01834556 0.0709111 0.14224069 0.08299242
0.0059756846 -0.04211012 -0.055684917 -0.13629176 0.058616806 -0.19182016 -0.11862967 -0.04380697
-0.19053943 0.0032901363 0.04191413 -0.1486112 0.009124366 -0.09781786 0.10276401 0.12835237
0.1409989 -0.08485141 0.09000786 0.03066367 -0.20276959 -0.10723853 0.064310886 -0.04005876
0.04234472 0.036002163 -0.02160056 0.16236044 0.12641405 -0.01884294 0.21713896 0.067928836
-0.017369201 0.0036081239 0.13898613 -0.061780397 0.043140024 0.042184982 -0.08509857 0.08861394
0.011594138 -0.103571504 0.1449294 0.1288916 -0.06514509 0.006487828 -0.12431022 0.19593458
-0.20158997 -0.14931864 -0.12760323 -0.20372424 0.081589274 0.021571621 -0.08120155 -0.10080085
-0.100448556 0.09008498 0.12042445 0.075436816 -0.08955696 0.021221874 0.08300814 -0.10535166
0.010694951 0.021357872 -0.040908795 0.030630484 0.12669422 0.029303031 -0.029143978 -0.048553742
0.0665304 -0.15886788 0.06778109 -0.0012009437 -0.031926505 0.05392324 0.11899292 -0.16154088
-0.009946467 0.10042479 0.14812131 -0.06655255 -0.14344111 -0.024208812 0.00827954 -0.02990667
0.09458119 0.028196616 0.047625512 -0.05716254 0.17794321 0.014379992 0.046533104 0.15457657
0.10666169 0.020101674 0.030268304 0.14544766 -0.0348449 0.23446298 0.09161524 0.074651465
-0.07311637 -0.0996586 0.038018897 0.052282397 0.1503134 0.23535837 0.17737322 0.25769866
00000000: 4d87 19be 57e6 bfbd 95e6 adbc af02 96bd
00000010: 32fb ae3d a500 69bc 277b 03be 1708 03bd
00000020: edeb 143d 393e cd3d 27cb 79bd d7be e9bd
00000030: 2174 2a3b 88c4 e2bd bb79 e3bc 2a9c bc3d
00000040: ccff 173e 7af4 023d b97c e73d 9b7f 193e
00000050: 27ea e2bd 9359 97bd f923 16bc ae4b c0bd
00000060: a025 04be d894 363e 64d8 093e 60fb 9e3d
00000070: 159f 51bd 3b56 923d a8cf 063e b3cd 113d
00000080: afbb 94bc 01a4 31bd 92c4 95bd 74e4 1abd
00000090: 72e0 f1bb cce2 8fbc 1439 31be ff67 75bd
000000a0: 970a 493e 1890 2e3e 72f3 dd3d 4142 f23c
000000b0: 0d56 333e 17f5 14bd a2fd bb3c a9fb fd3d
000000c0: d6b0 30bd 8061 0f3e 11b2 c6bd 3820 4a3d
000000d0: cce1 5ebe 9007 3b3d 2bc4 29be e2b2 45be
000000e0: 061e 0dbe b34f 3c3c eec5 3ebe 79d5 5fbd
000000f0: 0103 bf3d 3936 c53d 8410 7a3d 520b f1bd
00000100: a4d0 d93d 1557 4cbd b36c f13d b6c9 a9bc
00000110: 50b6 edbd 7625 c23d 5a71 3bbe e8d3 f73d
00000120: a537 ca3c 667c d7bd 6673 c6bd 7f8e d33d
00000130: cc43 a03d a091 273d 4c4f 8fbd 7363 0e3d
00000140: 3856 acbd c78c b03d bfff bdbd 2668 96bd
00000150: 695c b13d be8c e6bc f0a0 483d 34b0 83bc
00000160: f742 e8bc bd90 ac3d a709 74bd 1987 553a
00000170: 99a3 15bd 1cf8 923d 166f b93d de7c 643e
00000180: 4312 37bd a12a c5bc 2e24 84bc 1f58 ccbc
00000190: d479 c83d 9099 02be ea41 af3d c4e8 cf3d
000001a0: 8b15 033e 23d2 7d3d 3d7a 9bbc f6a6 ef3d
000001b0: 15e5 00bd 9db8 373c fb42 093d 282c 02be
000001c0: 3510 033e 3247 4a3c 2d12 bcbc 0a83 ad3d
000001d0: 132c f83d 3387 d73c 6b11 893d 680f bbbd
000001e0: 7323 ddbd d2c4 d43d 1466 04be e02d 913c
000001f0: 0ef1 dcbc 0084 50bd d201 07be 5304 abbd
00000200: a403 f5bd 0425 273c c790 0f3e c155 02be
00000210: 2b0d e1bc efa1 04bd 5194 04be 8cb3 553c
00000220: d900 8dbd 8dbd 7cbd d2f6 b5bd efbb f83d
00000230: 6e49 96bc d739 913d 8ba7 113e eef7 a93d
00000240: adcf c33b a97b 2cbd de15 64bd 1190 0bbe
00000250: 2d18 703d 816c 44be 1df4 f2bd f06e 33bd
00000260: c51c 43be 549f 573b 27ae 2b3d 892d 18be
00000270: 5d7e 153c bb54 c8bd f075 d23d ce6e 033e
00000280: 0462 103e 93c6 adbd 0a56 b83d 6032 fb3c
00000290: d5a2 4fbe e09f dbbd 6db5 833d a814 24bd
000002a0: a871 2d3d 0177 133d a8f3 b0bc d141 263e
000002b0: af72 013e 825c 9abc ad59 5e3e 461e 8b3d
000002c0: db49 8ebc 4676 6c3b 6152 0e3e 710d 7dbd
000002d0: 98b3 303d 29ca 2c3d 2948 aebd 3a7b b53d
000002e0: 57f5 3d3c 4c1d d4bd 5f68 143e 29fc 033e
000002f0: ca6a 85bd d997 d43b 5b96 febd 13a3 483e
00000300: 9a6d 4ebe fce6 18be 6caa 02be 169d 50be
00000310: 4718 a73d f8b6 b03c 004d a6bd ad70 cebd
00000320: f9b7 cdbd 797e b83d 18a1 f63d 9e7e 9a3d
00000330: a469 b7bd 7fd9 ad3c 2c00 aa3d 9cc2 d7bd
00000340: e039 2f3c b4f6 ae3c fb8f 27bd c8ec fa3c
00000350: 21bc 013e e90c f03c 5abf eebc 4ae0 46bd
00000360: 1741 883d 43ae 22be d0d0 8a3d fc68 9dba
00000370: 5ec5 02bd 9ede 5c3d 8fb2 f33d f96a 25be
00000380: 82f6 22bc 83ab cd3d 1dad 173e b44c 88bd
00000390: 3ae2 12be 8f51 c6bc e8a6 073c d5fe f4bc
000003a0: c8b3 c13d 97fc e63c f812 433d 4423 6abd
000003b0: bf36 363e 0f9a 6b3c 7f99 3e3d 5249 1e3e
000003c0: 7271 da3d 44ac a43c 3cf5 f73c 3bf0 143e
000003d0: 87b9 0ebd 1017 703e c5a0 bb3d dee2 983d
000003e0: 09be 95bd cf19 ccbd b4b9 1b3d 1126 563d
000003f0: c2eb 193e c901 713e 53a1 353e 14f1 833e

bias f4 [12]
0.075873755 0.056581672 0.068314075 0.07647975 0.012357003 0.087866 0.08178749 -0.13274364
0.03988414 0.004893055 -0.088223025 -0.04064037
00000000: b363 9b3d 2fc2 673d 40e8 8b3d 6aa1 9c3d
00000010: 0775 4a3c 17f3 b33d 3380 a73d f3ed 07be
00000020: 8d5d 233d ec55 a03b 46ae b4bd 8476 26bd

weight f4 [12, 12]
-0.06614276 0.35763472 -0.245477 0.15463603 0.1754516 -0.41888604 -0.050389763 -0.16443592
-0.019864526 0.16084084 0.21391769 -0.39374757 -0.19668123 -0.37479165 0.23999804 0.048605837
0.10030968 -0.052401897 0.063081294 0.09059742 0.19275208 -0.11754661 -0.17089544 0.29300323
0.15991877 -0.2761264 -0.14675775 -0.122751474 -0.19247745 -0.09031382 0.32970172 0.24331427
-0.43964756 0.44860694 -0.2590243 -0.12687701 0.1336105 0.23063417 -0.10589518 0.07207015
0.12841107 -0.025463184 -0.039576918 -0.08072438 0.37749517 -0.10385315 -0.2301383 0.39119112
0.34790957 -0.0022966538 -0.06143255 0.14767687 0.3705374 -0.14003883 -0.2186695 0.30348873
-0.11447257 -0.1788848 0.121943705 0.075502545 -0.3824547 -0.022877064 -0.285166 -0.1556248
-0.22637878 0.23174913 0.32058075 -0.14897522 0.21461491 -0.38478357 0.00165078 0.2629394
-0.0419579 -0.23635352 0.23998559 -0.3139218 0.029196203 -0.014637503 0.23305424 0.25651243
-0.09686712 -0.3181242 0.17911655 0.09678636 0.12235814 0.053211562 -0.024559043 0.044387065
0.19434687 0.2637814 0.03290908 -0.3018272 -0.10521293 0.013989675 0.2507373 -0.006997257
-0.14344577 -0.073009975 -0.008626039 0.029320698 -0.01250254 0.013443922 -0.059645157 0.16457924
-0.051506896 0.27373293 -0.18336742 -0.34994632 0.11883302 -0.12751454 -0.20995103 -0.13765885
-0.19853973 0.023997096 0.23429504 0.3012118 0.020127669 -0.07164658 0.07818633 0.07572483
-0.1731188 -0.17267637 0.25804207 -0.3193706 -0.33053464 -0.078988075 -0.23151134 -0.01083004
0.30994177 -0.34279656 -0.121202834 0.11342092 -0.11865261 -0.10024027 -0.26694015 -0.26286948
0.008588642 0.16278955 -0.19790396 0.16893364 -0.3965908 0.18967117 0.18783842 -0.3227327
00000000: db75 87bd e61b b73e 535e 7bbe e858 1e3e
00000010: 96a9 333e 3b78 d6be 7f65 4ebd e461 28be
00000020: eeba a2bc 76b3 243e 3d0d 5b3e 4899 c9be
00000030: ce66 49be b1e4 bfbe 0cc2 753e ea16 473d
00000040: 296f cd3d 5fa3 56bd c430 813d 248b b93d
00000050: cd60 453e 47bc f0bd 37ff 2ebe 8504 963e
00000060: bfc1 233e 7160 8dbe aa47 16be 2065 fbbd
00000070: cf18 45be 74f6 b8bd aace a83e 6027 793e
00000080: 7c19 e1be cfaf e53e d59e 84be 0cec 01be
00000090: 31d1 083e 5d2b 6c3e 92df d8bd 8499 933d
000000a0: 317e 033e 2b98 d0bc 681b 22bd d352 a5bd
000000b0: 0c47 c13e f6b0 d4bd 60a9 6bbe 344a c83e
000000c0: 3421 b23e 7583 16bb b3a0 7bbd 9b38 173e
000000d0: 14b7 bd3e 5766 0fbe e6ea 5fbe e062 9b3e
000000e0: 9870 eabd 942d 37be 9fbd f93d 14a1 9a3d
000000f0: 1ad1 c3be ae68 bbbc 4701 92be 1c5c 1fbe
00000100: d7cf 67be a54f 6d3e 2923 a43e f68c 18be
00000110: 03c4 5b3e 5a02 c5be fc5e d83a fe9f 863e
00000120: 0cdc 2bbd a806 72be c8be 753e 5cba a0be
00000130: e02c ef3c 23d2 6fbc c5a5 6e3e 9955 833e
00000140: 4562 c6bd 2de1 a2be 546a 373e ed37 c63d
00000150: e896 fa3d 5ef4 593d 0c30 c9bc 36cf 353d
00000160: de02 473e 5b0e 873e accb 063d 1889 9abe
00000170: e079 d7bd f334 653c a460 803e 3f49 e5bb
00000180: 73e3 12be 4186 95bd 3b54 0dbc f631 f03c
00000190: 74d7 4cbc e543 5c3c 7b4e 74bd 7687 283e
000001a0: e5f8 52bd b926 8c3e abc4 3bbe 2a2c b3be
000001b0: ba5e f33d 2c93 02be 67fd 56be 71f6 0cbe
000001c0: 004e 4bbe 8f95 c43c 0aeb 6f3e 6f38 9a3e
000001d0: c8e2 a43c 71bb 92bd 2820 a03d 9f15 9b3d
000001e0: 0e46 31be 13d2 30be 171e 843e 8b84 a3be
000001f0: d63b a9be 80c4 a1bd 4f11 6dbe 7b70 31bc
00000200: b0b0 9e3e 0883 afbe 3139 f8bd 3a49 e83d
00000210: 2400 f3bd c54a cdbd 61ac 88be d496 86be
00000220: 60b7 0c3c 4eb2 263e 56a7 4abe f1fc 2c3e
00000230: f30d cbbe 2939 423e b758 403e 383d a5be

bias f4 [12]
-0.29686746 0.17323837 -0.39554518 -0.22519928 -0.13467388 0.10713318 0.11716192 -0.31423786
0.039473332 -0.005214702 -0.26759684 0.056089886
00000000: 03ff 97be 6665 313e e684 cabe a49a 66be
00000010: f3e7 09be a468 db3d 97f2 ef3d c9e3 a0be
00000020: caae 213d 17e0 aabb 7402 89be 82be 653d

weight f4 [12, 48]
0.091324 0.012223542 -0.031871047 -0.04251658 -0.104662 -0.15747343 -0.03669952 -0.101238854
0.05090069 0.103222355 -0.09656521 0.104858935 0.12336997 0.0836544 -0.10865378 -0.02574707
0.011121094 -0.0117551405 -0.08462637 0.04172204 -0.0061343126 -0.013057543 0.038817946 -0.023922509
0.07914949 -0.012397149 -0.060360584 0.05163545 -0.098917626 0.011452724 0.025302146 0.058881704
-0.039582726 -0.052728664 -0.05670859 0.04966123 -0.061027806 0.013458452 -0.033223834 0.15402013
0.01695422 -0.14776914 0.10681355 0.028917668 0.07615078 -0.09226056 -0.11023084 -0.01718277
-0.030180557 -0.14768782 0.06472754 -0.004572891 0.061333973 -0.018915724 0.13762292 0.08943252
-0.02515289 0.016088957 0.16640636 0.035110634 -0.20037839 -0.030350113 0.16613413 -0.13317154
0.19403861 -0.012891145 0.073783584 0.13038054 0.07535373 -0.078611694 0.14090808 0.12146764
0.15284584 0.08589143 0.01074675 -0.0034091996 0.034387667 -0.1858737 0.10716363 -0.25227773
0.07893616 0.18561383 0.09915946 -0.06616845 0.111891076 -0.15892074 -0.024305927 -0.216283
0.11110558 -0.115268104 0.032820705 -0.006426926 -0.052946903 0.017439231 0.11466373 0.18899162
0.0047305343 -0.17709163 -0.017868727 0.0053859777 -0.040850494 -0.074393444 -0.030654384 0.21894345
-0.0065489714 -0.10462864 -0.07882807 0.064128354 -0.039883103 0.15667103 0.08954629 0.1139828
0.16554134 0.05263915 0.016751641 0.06987731 0.14561813 0.05677924 0.15899695 -0.03616784
-0.03163019 0.15316984 -0.07169673 0.13979252 0.05383115 -0.125791 0.039786782 0.07555028
0.1508117 0.07150872 -0.15876159 -0.012452498 0.12778556 -0.23105279 -0.14698046 -0.10846847
-0.07117459 0.046076998 -0.15089858 -0.099623896 -0.17676719 0.13416696 0.034740753 0.121169314
0.25522226 0.28949106 -0.015897244 0.0028684365 0.046536755 -0.05373123 0.015110175 -0.011489797
0.004965552 -0.0068753217 -0.08439589 0.10678516 -0.09249075 0.20932136 0.040108006 0.061999813
-0.029288858 0.0854405 0.046338674 -0.05622335 0.14833017 0.18350488 -0.25765917 0.1624065
0.017385589 0.08389899 -0.04386313 -0.07504594 0.14860874 -0.065104626 -0.14863212 0.23926356
-0.058145765 -0.1786306 -0.028069124 -0.007494887 0.043169472 -0.048675954 0.17058356 0.040290985
0.0028328816 0.07615667 0.066354804 0.14598697 -0.05050431 -0.04457188 -0.1464047 -0.11863316
-0.05662265 -0.03902353 -0.036937125 -0.06520171 -0.085737646 0.010721854 -0.091604754 -0.08056577
-0.0031559062 -0.044007633 -0.044763267 0.13695674 0.028893247 0.02946023 0.07395552 0.041110937
0.0023754344 0.023197107 0.07932742 -0.05357919 0.0012187471 -0.048576154 0.02697861 0.0859022
0.078318596 0.080580674 -0.07432243 -0.14033717 -0.13680707 0.089933634 -0.08476254 0.111902796
-0.087006524 -0.054304454 -0.11959857 -0.08046062 0.10433708 0.034058508 -0.051858682 0.11657859
0.094278485 0.032791153 0.05235077 -0.009800058 -0.10506501 -0.028253963 0.09888661 -0.05385668
0.07798704 -0.021187855 0.033978224 -0.13076591 0.01676795 -0.07776308 0.092836455 0.07496624
0.051310044 0.080072336 0.12874235 0.025879536 -0.038754717 -0.11502172 0.016373342 -0.14243689
00000000: 1408 bb3d 4045 483c 378b 02bd de25 2ebd
00000010: 0859 d6bd b740 21be 3c52 16bd 5156 cfbd
00000020: 3e7d 503d 3e66 d33d fbc3 c5bd 48c0 d63d
00000030: 65a9 fc3d 0053 ab3d df85 debd 85eb d2bc
00000040: 4035 363c a298 40bc 9750 adbd bbe4 2a3d
00000050: 5802 c9bb 4eef 55bc 91ff 1e3d 23f9 c3bc
00000060: 2119 a23d 691d 4bbc a93c 77bd b27f 533d
00000070: 5395 cabd 35a4 3b3c 7246 cf3c f12d 713d
00000080: 7f21 22bd 03fa 57bd 4447 68bd 9369 4b3d
00000090: 4bf8 79bd d780 5c3c b715 08bd 74b7 1d3e
000000a0: 94e3 8a3c cb50 17be 10c1 da3d bfe4 ec3c
000000b0: f1f4 9b3d 1bf3 bcbd b5c0 e1bd e1c2 8cbc
000000c0: 373d f7bc 7a3b 17be df8f 843d 31d8 95bb
000000d0: 5539 7b3d 26f5 9abc 06ed 0c3e 6628 b73d
000000e0: 6f0d cebc fdcc 833c 6e66 2a3e 2bd0 0f3d
000000f0: fe2f 4dbe cda0 f8bc 111f 2a3e 1f5e 08be
00000100: 0fb2 463e 6235 53bc d91b 973d 7a82 053e
00000110: 0e53 9a3d 2bff a0bd 354a 103e 07c4 f83d
00000120: 9f83 1c3e d9e7 af3d 2313 303c e16c 5fbb
00000130: 15da 0c3d ad55 3ebe 9b78 db3d 8c2a 81be
00000140: 48a9 a13d 8d11 3e3e 1d14 cb3d 5383 87bd
00000150: 2627 e53d 1ebc 22be 391d c7bc 4a79 5dbe
00000160: 538b e33d af11 ecbd 016f 063d f698 d2bb
00000170: dade 58bd b8dc 8e3c d1d4 ea3d 0587 413e
00000180: 9902 9b3b 8257 35be 7061 92bc db7c b03b
00000190: d952 27bd 975b 98bd e71e fbbc b632 603e
000001a0: c198 d6bb 8a47 d6bd 9c70 a1bd ba55 833d
000001b0: 775c 23bd 5f6e 203e 0c64 b73d d06f e93d
000001c0: ab83 293e 269c 573d bd3a 893c d61b 8f3d
000001d0: eb1c 153e 5991 683d 19d0 223e bb24 14bd
000001e0: a88e 01bd 8ed8 1c3e bcd5 92bd c525 0f3e
000001f0: 0d7e 5c3d 5bcf 00be 77f7 223d 1bba 9a3d
00000200: 626e 1a3e 2a73 923d 6692 22be 9005 4cbc
00000210: 38da 023e 1a99 6cbe 0c82 16be b824 debd
00000220: fcc3 91bd 3cbb 3c3d 2885 1abe 9d07 ccbd
00000230: 7502 35be 1063 093e 524c 0e3d 9e27 f83d
00000240: 7eac 823e 2c38 943e f03a 82bc 61fc 3b3b
00000250: 539d 3e3d 4715 5cbd ab90 773c b43f 3cbc
00000260: 12b6 a23b 614a e1bb c1d7 acbd 2eb2 da3d
00000270: ca6b bdbd 5758 563e 4b48 243d 84f3 7d3d
00000280: 30ef efbc 6efb ae3d 9fcd 3d3d 754a 66bd
00000290: dde3 173e b4e8 3b3e e7eb 83be e44d 263e
000002a0: 396c 8e3c 3cd3 ab3d d3a9 33bd b0b1 99bd
000002b0: e42c 183e 9355 85bd 0533 18be 8201 753e
000002c0: 412a 6ebd f1ea 36be 38f1 e5bc ab97 f5bb
000002d0: 79d2 303d 7060 47bd 75ad 2e3e 2908 253d
000002e0: dea7 393b 07f8 9b3d 07e5 873d 9c7d 153e
000002f0: 9bdd 4ebd 0191 36bd 1deb 15be f1f5 f2bd
00000300: 27ed 67bd 23d7 1fbd 624b 17bd 7988 85bd
00000310: 3897 afbd b7aa 2f3c 469b bbbd abff a4bd
00000320: 52d3 4ebb 5941 34bd b059 37bd 633e 0c3e
00000330: 88b1 ec3c 9556 f13c fe75 973d f163 283d
00000340: 2dad 1b3b dc07 be3c 6a76 a23d da75 5bbd
00000350: 5ebe 9f3a caf7 46bd 3f02 dd3c 7eed af3d
00000360: 8065 a03d 7b07 a53d 5c36 98bd 8cb4 0fbe
00000370: 2717 0cbe 202f b83d fc97 adbd 4b2d e53d
00000380: 7a30 b2bd 596e 5ebd 18f0 f4bd 8ac8 a4bd
00000390: aeae d53d ef80 0b3d c569 54bd c1c0 ee3d
000003a0: 1415 c13d 0450 063d c36d 563d 6c90 20bc
000003b0: 532c d7bd db74 e7bc 1085 ca3d d298 5cbd
000003c0: abb7 9f3d 2792 adbc c02c 0b3d 80e7 05be
000003d0: f15c 893c 4042 9fbd 0a21 be3d e687 993d
000003e0: 7b2a 523d f7fc a33d 09d5 033e 5201 d43c
000003f0: 44bd 1ebd 8290 ebbd 6321 863c fada 11be

bias f4 [12]
0.12081443 -0.050536297 -0.08456536 -0.009238573 0.10379168 0.117085636 0.008083262 0.10236678
-0.09117105 0.20215766 -0.029448528 -0.09679567
00000000: 8e6d f73d 26ff 4ebd 9a30 adbd 625d 17bc
00000010: bb90 d43d 98ca ef3d a86f 043c ada5 d13d
00000020: e3b7 babd 6b02 4f3e 0a3e f1bc cf3c c6bd

weight f4 [12, 12]
-0.25549975 -0.37357005 -0.45485878 -0.31767958 0.26258862 -0.18880689 0.322344 6.5333e-05
-0.23066351 -0.12329279 0.040886346 0.09064874 -0.20336778 0.09391744 0.24874662 0.169906
0.03136245 -0.11639232 0.250457 -0.32179782 0.2001089 -0.13685493 0.24492134 -0.16850479
-0.12794226 -0.35922337 -0.2802147 0.320893 0.24134712 0.0872069 0.082710624 -0.20841278
0.16035102 0.1452798 0.061412007 -0.24033026 -0.02043361 -0.09978229 -0.14236785 0.19714637
0.0017530671 0.17380169 0.18535198 0.09415437 -0.22625703 -0.16753054 -0.28582832 0.27377403
-0.01881673 -0.0651704 0.34938887 0.24503218 -0.23146474 0.17609522 -0.24419004 0.019133788
-0.17817762 0.20795041 0.055707198 -0.13732535 -0.23113962 -0.2465792 0.032120205 0.22276138
0.0753834 0.28017277 -0.32026398 0.20258568 -0.091820925 -0.035072897 -0.13116698 -0.22355431
0.18914215 0.12523724 0.14928246 -0.23231712 0.16129555 -0.083361715 0.2036417 -0.0989534
0.027436484 -0.12124614 0.23455137 0.23606494 -0.16276477 0.11727632 0.32777956 -0.30917665
0.07286304 -0.077094175 -0.028399898 -0.3325109 -0.15529673 -0.1256091 0.0012857983 0.13999894
0.17434445 0.084936984 0.36059368 -0.3708172 -0.12241523 -0.21491924 0.2421755 -0.23406069
-0.04791509 -0.3341876 0.1813394 0.27973503 -0.23784018 -0.19310217 -0.03737105 0.44008335
-0.18886398 -0.1550352 -0.393607 0.31326592 -0.0388486 0.25331023 -0.08277049 0.21305262
0.13117796 0.3940928 -0.043945715 -0.07563383 -0.2675896 -0.102474995 0.16351935 -0.3032549
0.011036553 -0.3333076 0.16845018 -0.03743258 0.17813118 -0.054308683 0.039319195 -0.27851358
-0.26348135 -0.0341555 0.02191537 -0.206905 -0.19960102 -0.41130638 -0.2725519 -0.03420907
00000000: ddd0 82be 9344 bfbe 40e3 e8be e6a6 a2be
00000010: 0472 863e 9856 41be 460a a53e 6303 8938
00000020: 0e33 6cbe ee80 fcbd 7178 273d 0ca6 b93d
00000030: a53f 50be c957 c03d 6fb7 7e3e d7fb 2d3e
00000040: ea75 003d 195f eebd e63b 803e afc2 a4be
00000050: 59e9 4c3e b323 0cbe a9cc 7a3e 858c 2cbe
00000060: 4c03 03be 20ec b7be 4d78 8fbe 164c a43e
00000070: b323 773e 8899 b23d 3064 a93d 296a 55be
00000080: 0f33 243e 3ac4 143e 288b 7b3d 2319 76be
00000090: 6364 a7bc a85a ccbd e1c8 11be bde0 493e
000000a0: 2cc7 e53a 12f9 313e e9cc 3d3e 02d4 c03d
000000b0: ecaf 67be 208d 2bbe 1758 92be 1c2c 8c3e
000000c0: 8b25 9abc 0f78 85bd 19e3 b23e b7e9 7a3e
000000d0: 1805 6dbe 4e52 343e f40c 7abe 76be 9c3c
000000e0: 3274 36be f4f0 543e 3b2d 643d 049f 0cbe
000000f0: ddaf 6cbe 427f 7cbe 7a90 033d 8f1b 643e
00000100: 9d62 9a3d ce72 8f3e a4f9 a3be 9f72 4f3e
00000110: 9c0c bcbd 99a8 0fbd a350 06be 6ceb 64be
00000120: 7bae 413e 313e 003e 80dd 183e 8ae4 6dbe
00000130: a92a 253e 8cb9 aabd 7387 503e 15a8 cabd
00000140: 7ac2 e03c e54f f8bd 3c2e 703e 02bb 713e
00000150: cfab 26be 912e f03d b9d2 a73e 674c 9ebe
00000160: 3839 953d 8de3 9dbd e7a6 e8bc de3e aabe
00000170: 1b06 1fbe ac9f 00be 3b88 a83a e25b 0f3e
00000180: 5a87 323e 71f3 ad3d bc9f b83e c1db bdbe
00000190: d6b4 fabd ca13 5cbe dbfc 773e 9bad 6fbe
000001a0: 9d42 44bd a31a abbe 09b1 393e 6e39 8f3e
000001b0: 608c 73be 93bc 45be 6312 19bd 9b52 e13e
000001c0: 8f65 41be 8cc1 1ebe db86 c9be 6464 a03e
000001d0: b61f 1fbd e1b1 813e 9383 a9bd 772a 5a3e
000001e0: 8453 063e 88c6 c93e 6c00 34bd e9e5 9abd
000001f0: 8101 89be 69de d1bd 9e71 273e 3a44 9bbe
00000200: a9d2 343c 4ba7 aabe 347e 2c3e e852 19bd
00000210: 0568 363e c872 5ebd 2a0d 213d 5599 8ebe
00000220: 07e7 86be a3e6 0bbd dd87 b33c e8de 53be
00000230: 3664 4cbe c096 d2be ec8b 8bbe cf1e 0cbd

bias f4 [12]
-0.07116726 0.120255105 0.060973916 0.07103074 0.17981185 -0.03382156 -0.1752767 -0.44471297
-0.07516308 -0.3603905 -0.12284577 -0.039212376
00000000: 24c0 91bd 4f48 f63d c9bf 793d 9178 913d
00000010: 9920 383e 7a88 0abd bc7b 33be 6bb1 e3be
00000020: 1aef 99bd 1b85 b8be 9096 fbbd 289d 20bd

weight f4 [12, 48]
0.113360815 -0.09491319 -0.08068508 -0.08451801 -0.035048947 -0.10187253 -0.113345765 0.11518896
-0.1269833 -0.004390844 0.047911454 -0.06954082 -0.04656743 -0.007038923 -0.04413706 0.07444462
-0.027020639 -0.10728602 0.031848215 -0.084783934 -0.14399251 -0.038659688 0.06690984 -0.054239683
-0.090035714 0.06633625 -0.0016490594 -0.074325636 -0.08461185 0.03869486 -0.07985983 0.06743701
-0.060085464 0.039996624 -0.049412023 0.056836266 0.059989676 0.040042926 -0.022495722 0.103594564
-0.13854373 -0.12572552 -0.061010327 0.12393495 -0.004389743 0.08473429 -0.09861645 0.11379872
0.21354608 0.45198837 -0.05693098 0.25881696 0.023140537 0.101127476 0.11736678 0.11615712
-0.014573501 -0.07422178 0.0104632145 -0.0053079245 0.19708768 0.24022661 0.011466035 -0.012939914
-0.05146956 0.10016962 -0.057201676 0.16354261 0.12112611 -0.049064364 0.12986815 -0.080418296
0.0011927052 0.1117735 0.1605822 -0.022272052 -0.16038276 -0.22314419 -0.093313426 -0.10832451
-0.083800726 0.01598949 0.15851882 0.22124691 0.00073530886 -0.038786083 0.32742122 -0.044467777
0.17031683 0.104119696 0.26633728 0.23439902 -0.007837598 0.11167094 0.015772669 -0.09937237
-0.02775421 0.044308953 -0.116809905 0.03311227 -0.060102146 -0.006738435 0.12473267 0.063069545
-0.006884442 -0.029165726 -0.019261694 -0.044250987 0.051766615 0.0016700368 -0.02976038 0.10501141
-0.09622755 0.115995795 -0.03718037 -0.015270568 -0.1400647 -0.01830285 -0.11999384 0.10879733
-0.09100092 0.06834787 0.059758775 0.10675771 -0.08998351 -0.06890385 0.07064836 -0.016329942
-0.14103952 -0.09151139 -0.096960016 0.015501206 0.08083332 0.10182646 -0.031758577 0.051755294
-0.1596967 -0.10839068 -0.027779764 -0.107085615 0.15914895 -0.1600933 -0.23695543 -0.27014378
-0.18452089 -0.19705059 -0.08720446 0.08714412 -0.06580832 0.028810587 -0.07424347 -0.1389539
0.21136238 -0.0072759963 0.12767974 0.006406069 0.030514179 -0.013777392 0.055069085 0.107212685
0.0035939782 -0.06405318 0.14892808 0.11891492 0.09614323 0.102613464 0.08444836 -0.018714981
-0.014773965 -0.018532727 0.06603766 0.18173757 -0.037521865 0.094879024 0.03667635 0.23706295
-0.082568005 -0.07064037 -0.00041333906 0.012696082 -0.034718722 -0.049110986 -0.10197314 0.076667726
0.10289949 -0.0088629685 0.0656805 -0.13494657 -0.025139539 0.07664621 -0.050378263 0.106766015
-0.10788461 -0.12712656 -0.15112053 -0.028057467 0.0048211995 -0.012191141 -0.11285876 -0.05052922
0.062050622 0.08737747 -0.11894181 -0.033832982 -0.07702329 0.08284372 -0.14331971 -0.06807949
0.12513505 -0.034431003 0.035981268 -0.02599422 -0.109906994 -0.11589809 0.092982166 -0.121333264
0.10771302 -0.008536755 -0.10089903 -0.013522543 0.07653607 0.15384713 -0.029434327 0.017088344
-0.07637358 -0.05388471 -0.12785628 -0.02229715 -0.05315399 -0.041099418 -0.07598241 0.11801305
0.03606165 0.014105792 -0.106282674 0.10809721 -0.10737506 -0.037982035 -0.10168348 0.02306032
0.021280264 0.12750165 0.0388839 0.077311255 -0.11526989 -0.06278025 0.00052684464 -0.05913316
0.101661004 -0.047679916 -0.026777448 0.02313637 -0.04701527 -0.005755791 -0.008754795 -0.01641309
00000000: b729 e83d d961 c2bd 383e a5bd c717 adbd
00000010: 7c8f 0fbd 8ca2 d0bd d321 e8bd 31e8 eb3d
00000020: e907 02be 12e1 8fbb cd3e 443d 6b6b 8ebd
00000030: 7dbd 3ebd c4a6 e6bb 10c9 34bd 6c76 983d
00000040: 635a ddbc c6b8 dbbd 4673 023d 33a3 adbd
00000050: c672 13be 9f59 1ebd 0708 893d 6e2a 5ebd
00000060: a564 b8bd 4ddb 873d 4025 d8ba 0a38 98bd
00000070: fa48 adbd 807e 1e3d 8d8d a3bd 6a1c 8a3d
00000080: 2d1c 76bd 80d3 233d 4364 4abd 25cd 683d
00000090: bcb7 753d 0d04 243d f348 b8bc 6329 d43d
000000a0: 68de 0dbe 31be 00be f7e5 79bd 9bd1 fd3d
000000b0: d5d7 8fbb 2c89 ad3d 6cf7 c9bd 4e0f e93d
000000c0: d3ab 5a3e 056b e73e 7630 69bd a883 843e
000000d0: 3991 bd3c ec1b cf3d ff5d f03d c9e3 ed3d
000000e0: b2c5 6ebc 9701 98bd e76d 2b3c 19ee adbb
000000f0: 5ad1 493e f7fd 753e 09dc 3b3c ef01 54bc
00000100: bfd1 52bd bb25 cd3d 4e4c 6abd b777 273e
00000110: f710 f83d b7f7 48bd 28fc 043e 59b2 a4bd
00000120: 8c54 9c3a 81e9 e43d a96f 243e e173 b6bc
00000130: 613b 24be e97f 64be 1c1b bfbd 3ed9 ddbd
00000140: b79f abbd 64fc 823c c252 223e 8d8e 623e
00000150: bec1 403a 28de 1ebd c1a3 a73e d823 36bd
00000160: 8967 2e3e b53c d53d 5c5d 883e 4c06 703e
00000170: 4569 00bc bcb3 e43d af35 813c be83 cbbd
00000180: cc5c e3bc 4e7d 353d 083a efbd bba0 073d
00000190: ab2d 76bd 17ce dcbb d873 ff3d 9b2a 813d
000001a0: e396 e1bb f6ec eebc b3ca 9dbc 8640 35bd
000001b0: 3b09 543d 23e5 da3a 0acc f3bc 3910 d73d
000001c0: f312 c5bd 348f ed3d 724a 18bd 6831 7abc
000001d0: 1f6d 0fbe dcef 95bc 55bf f5bd 22d1 de3d
000001e0: b15e babd f8f9 8b3d 9ec5 743d c9a3 da3d
000001f0: 4649 b8bd 761d 8dbd 16b0 903d 5fc6 85bc
00000200: aa6c 10be 536a bbbd f992 c6bd c5f8 7d3c
00000210: f18b a53d 648a d03d 4815 02bd 5cfd 533d
00000220: 8887 23be effb ddbd 6392 e3bc b44f dbbd
00000230: f1f7 223e 7fef 23be 72a4 72be 4950 8abe
00000240: 0bf3 3cbe a1c7 49be 4098 b2bd 9e78 b23d
00000250: 83c6 86bd 2e04 ec3c f60c 98bd ee49 0ebe
00000260: 616f 583e 7b6b eebb 7abe 023e 00ea d13b
00000270: dff8 f93c 92ba 61bc 1f90 613d 5392 db3d
00000280: f388 6b3b 502e 83bd 9a80 183e aa89 f33d
00000290: bee6 c43d 0227 d23d 43f3 ac3d 2950 99bc
000002a0: 800e 72bc f2d1 97bc c13e 873d 6a19 3a3e
000002b0: 87b0 19bd ef4f c23d f139 163d a1c0 723e
000002c0: 6a19 a9bd e6ab 90bd 6eb5 d8b9 3a03 503c
000002d0: 3835 0ebd 9a28 49bd 4bd7 d0bd f803 9d3d
000002e0: f8bc d23d fc35 11bc 7f83 863d 6f2f 0abe
000002f0: 6ff1 cdbc b0f8 9c3d 7059 4ebd 24a8 da3d
00000300: 9bf2 dcbd 772d 02be 57bf 1abe c6d8 e5bc
00000310: 27fb 9d3b 5abd 47bc 7e22 e7bd baf7 4ebd
00000320: cb28 7e3d f6f2 b23d c497 f3bd 7494 0abd
00000330: 63be 9dbd f8a9 a93d 67c2 12be 426d 8bbd
00000340: 6723 003e 8607 0dbd 1861 133d d5f1 d4bc
00000350: eb16 e1bd fa5b edbd 6f6d be3d 937d f8bd
00000360: a598 dc3d bfdd 0bbc 27a4 cebd a88d 5dbc
00000370: f1be 9c3d 1a8a 1d3e 4220 f1bc dbfc 8b3c
00000380: c069 9cbd 37b6 5cbd c2ec 02be 83a8 b6bc
00000390: 00b8 59bd dd57 28bd aa9c 9bbd d3b0 f13d
000003a0: 61b5 133d fb1b 673c bbaa d9bd 1262 dd3d
000003b0: 75e7 dbbd 0d93 1bbd 6e3f d0bd ffe8 bc3c
000003c0: f353 ae3c cb8f 023e b944 1f3d 5d55 9e3d
000003d0: 9f12 ecbd ef92 80bd f21b 0a3a 9d35 72bd
000003e0: a533 d03d 044c 43bd 615c dbbc 7c88 bd3c
000003f0: 1593 40bd 139b bcbb 4670 0fbc bf74 86bc

bias f4 [12]
0.04748876 0.16872996 0.07247167 0.10140157 -0.10395245 0.107918344 -0.072656736 0.12181357
-0.08721811 0.11010981 -0.12040485 0.07348397
00000000: 9383 423d 8cc7 2c3e 076c 943d a0ab cf3d
00000010: 06e5 d4bd 4b04 dd3d 0ecd 94bd 6579 f93d
00000020: 699f b2bd 4181 e13d d196 f6bd c37e 963d

weight f4 [12, 12]
0.04878848 0.08575075 0.11537397 0.3229261 -0.05576095 -0.11236906 0.3641493 0.13729805
0.2596053 -0.026037069 0.21931823 0.09716601 0.20393732 -0.227347 -0.096462905 0.1144132
0.22730155 0.13325691 -0.19814481 -0.1801618 0.12271712 -0.2647417 -0.16487817 -0.19889967
-0.10531257 -0.19632958 -0.2392228 0.31772214 -0.055008188 0.072191305 0.23325908 -0.08072925
0.27018723 0.062183492 0.075481854 0.10802184 0.23574108 -0.41663814 0.17244744 0.12878297
-0.05657245 0.18492714 0.08638377 -0.34166944 0.000116535615 0.25765482 0.21452309 0.16371277
0.27100858 0.097273596 -0.18976337 0.09998926 -0.11080591 -0.13941786 0.085161805 0.034723144
0.14076003 0.05085641 -0.033250622 -0.26781932 -0.17102101 -0.3403824 -0.25417033 0.1847653
0.1858489 0.010178329 0.44409084 0.03461149 -0.085778445 -0.0032130107 -0.072990894 0.028021663
0.0034903828 -0.39127934 0.2738489 -0.23585346 -0.0019901951 -0.2568733 0.17595866 -0.10569133
-0.020514842 -0.1797895 -0.06405682 -0.13111873 -0.020362098 -0.1369296 -0.17446098 0.05177693
0.01591233 -0.22785395 -0.1275995 0.18168138 -0.30647123 -0.17668112 0.29164782 0.033516146
0.041622367 0.09660142 -0.15345387 -0.34518695 -0.22320528 0.12496177 -0.3166964 0.23402964
-0.36703494 -0.19240566 0.10588229 -0.13356064 0.20798203 -0.09821259 0.30741382 -0.060709942
-0.08618058 0.25602487 -0.14128418 -0.27761665 -0.08295143 0.22422428 0.15971708 -0.11552114
-0.031896703 -0.36993393 0.28367496 0.38646573 -0.15456404 -0.026918352 0.21320556 -0.23571235
0.34304774 0.20671311 0.0043686675 -0.072763056 0.13987069 0.15317014 -0.029444981 -0.28574726
0.0069221277 -0.12179499 -0.35270494 0.13735934 -0.065087415 -0.063370466 0.15933347 0.21370943
00000000: 6ed6 473d 179e af3d 3049 ec3d 9256 a53e
00000010: 9865 64bd c021 e6bd c771 ba3e dc97 0c3e
00000020: fcea 843e b14b d5bc f594 603e f9fe c63d
00000030: f2d4 503e a7cd 68be 588e c5bd 7851 ea3d
00000040: bdc1 683e 8074 083e 79e6 4abe 567c 38be
00000050: 1d53 fb3d 398c 87be d3d5 28be 5bac 4bbe
00000060: 1eae d7bd 9f0a 49be d2f6 74be 7aac a23e
00000070: 4450 61bd 09d9 933d 78db 6e3e 6155 a5bd
00000080: fb55 8a3e 1eb4 7e3d 3b96 9a3d 8e3a dd3d
00000090: 1c66 713e 9851 d5be 1096 303e afdf 033e
000000a0: 83b8 67bd 8a5d 3d3e f9e9 b03d 4cef aebe
000000b0: 9564 f438 55eb 833e f1ab 5b3e 52a4 273e
000000c0: a3c1 8a3e 6137 c73d 5451 42be 2bc7 cc3d
000000d0: 35ee e2bd 8ec3 0ebe 5069 ae3d db39 0e3d
000000e0: 6623 103e d04e 503d ce31 08bd 9d1f 89be
000000f0: 2220 2fbe 9a46 aebe 9d22 82be 1d33 3d3e
00000100: 2d4f 3e3e 02c3 263c e05f e33e c7c4 0d3d
00000110: 9cac afbd 6091 52bb 407c 95bd b08d e53c
00000120: e8be 643b c455 c8be ec35 8c3e 9283 71be
00000130: ef6d 02bb e684 83be 822e 343e b274 d8bd
00000140: be0e a8bc bd1a 38be 3930 83bd fd43 06be
00000150: 6ace a6bc 4637 0cbe e6a5 32be 0c14 543d
00000160: 935a 823c 8c52 69be 71a9 02be af0a 3a3e
00000170: cce9 9cbe e5eb 34be dd52 953e 3a48 093d
00000180: 377c 2a3d f7d6 c53d 0323 1dbe 58bc b0be
00000190: ed8f 64be f5eb ff3d 0826 a2be 77a5 6f3e
000001a0: 01ec bbbe fd05 45be d0d8 d83d 1fc4 08be
000001b0: 3ef9 543e af23 c9bd 5865 9d3e fdaa 78bd
000001c0: 727f b0bd b115 833e cdac 10be c523 8ebe
000001d0: 70e2 a9bd 0d9b 653e e08c 233e 5996 ecbd
000001e0: 1ea6 02bd fb67 bdbe d83d 913e d6de c53e
000001f0: 0946 1ebe e083 dcbc 8f52 5a3e 945e 71be
00000200: f4a3 af3e 9aac 533e 0a27 8f3b cc04 95bd
00000210: 433a 0f3e a2d8 1c3e 9a36 f1bc 774d 92be
00000220: 04d3 e23b a76f f9bd be95 b4be eda7 0c3e
00000230: 8d4c 85bd 60c8 81bd 5028 233e a5d6 5a3e

bias f4 [12]
-0.056268264 -0.3409235 0.18210705 -0.35081545 -0.057071265 -0.30328608 -0.3440724 -0.22424078
-0.10141982 -0.025188236 -0.11962395 -0.21192081
00000000: 8d79 66bd 868d aebe 457a 3a3e 159e b3be
00000010: 8fc3 69bd 5048 9bbe 422a b0be 609f 65be
00000020: 32b5 cfbd 8f57 cebc 67fd f4bd c501 59be

weight f4 [12, 48]
-0.0042047785 -0.057520203 -0.043741707 -0.04017819 0.016946957 -0.10388411 0.32870495 -0.021978218
-0.06631538 0.029179258 -0.067681424 -0.011230154 0.2547831 -0.2607931 0.20395377 0.2497908
0.09659965 0.021005118 0.054744594 -0.17390166 0.10046187 0.11166866 0.1334749 -0.060655985
0.14175034 0.16937406 0.032496024 0.045461416 -0.043276627 0.1528397 0.081991374 -0.18933392
0.012103437 0.34219387 -0.12321411 -0.12734228 -0.15953138 0.07132379 0.12945586 0.29201898
0.42180675 -0.19864614 -0.16956402 0.21910082 0.057141695 -0.07137806 0.031069515 0.12284221
0.010475172 0.08687561 -0.08712356 0.08433893 0.085450366 -0.04950007 0.031221386 -0.057920173
0.10061394 -0.12889226 0.027359284 0.13404928 -0.007010781 0.08728299 -0.14706807 0.053777568
-0.027650695 0.10241909 -0.10648514 0.09197293 0.015318608 -0.12920003 -0.051584776 -0.021120733
-0.0669242 0.062869735 -0.1353815 0.060793553 -0.120599754 -0.058765583 -0.106201164 0.1415757
0.10959969 -0.019424956 -0.048062097 0.10997756 0.01771078 -0.043608595 -0.017287113 -0.12592398
0.003065163 0.024639174 0.027713008 0.009154536 -0.066581585 -0.017096171 -0.06611133 0.10373143
0.12063524 -0.101368524 -0.07296758 0.034485437 0.09464613 0.016186278 0.1260558 0.047899652
-0.013370344 0.0076120896 0.03648806 -0.15157633 0.05264013 -0.008374076 0.04213268 0.074609995
0.20992696 0.030138524 0.10713996 -0.2020991 0.03280847 0.007355167 0.12659898 -0.15323934
0.011769505 -0.010213529 -0.045202196 0.06828511 0.25311232 -0.056860533 0.022671966 0.058352754
-0.07753405 0.068838365 -0.11333265 0.12950537 0.15399192 0.1288471 0.028848551 -0.1758967
0.20210935 0.14368166 -0.16558515 -0.11140298 -0.090250485 -0.118692994 -0.022361226 -0.09560767
-0.13620847 0.12745506 -0.1109289 0.08500508 0.05623072 -0.043837413 0.0909598 0.065676354
0.03736138 0.07831845 -0.080522 -0.082668304 -0.0283711 0.14177096 -0.08932707 -0.098898515
-0.032801792 -0.14136429 -0.03326848 -0.07489472 0.04660174 -0.06640754 -0.01383694 0.08849011
-0.11502409 -0.02270368 0.02063401 0.023715155 -0.107379034 0.12683785 0.14141285 -0.014096515
0.11315255 -0.009857965 -0.031513173 0.0862292 -0.10024149 0.0072119157 0.14216422 -0.026486484
0.10624672 0.10072896 -0.02388758 0.13710584 -0.13719651 -0.08524549 0.064178504 -0.12157397
0.13922313 -0.019754987 -0.07939673 0.02680616 -0.09595118 0.08047249 0.11750487 -0.10502541
-0.11812058 -0.048481654 0.07637855 -0.0777129 0.08143199 -0.13987233 0.06314376 -0.12318509
0.013440332 0.008303592 -0.0884409 0.052872088 -0.10399365 0.035334278 0.019390866 -0.121972315
-0.013500865 -0.114156336 -0.1319459 0.13967781 0.06849376 -0.037012488 -0.08868358 -0.0155953625
-0.05284659 0.10270522 0.13820425 -0.063698426 -0.09600149 0.10186432 -0.020736009 0.11473829
0.039528437 -0.048588146 0.0036662319 -0.1144926 -0.08867085 0.0699781 0.13684142 -0.023739021
0.042967226 -0.16474192 0.068040945 -0.13377285 0.09100431 0.132139 -0.25076616 0.054117423
0.09758122 0.091461 -0.15415695 0.18553941 -0.21071719 0.2979665 -0.0123722255 -0.23696277
00000000: 3dc8 89bb 4e9a 6bbd 812a 33bd e391 24bd
00000010: 58d4 8a3c 31c1 d4bd 044c a83e aa0b b4bc
00000020: 5cd0 87bd 5709 ef3c 8f9c 8abd aefe 37bc
00000030: ee72 823e ac86 85be 42d9 503e 29c9 7f3e
00000040: 0ad6 c53d ed12 ac3c de3b 603d 4713 32be
00000050: f4be cd3d 8ab2 e43d a5ad 083e 6972 78bd
00000060: 0027 113e 6570 2d3e 8d1a 053d c035 3a3d
00000070: d542 31bd 0382 1c3e 18eb a73d c0e0 41be
00000080: 7f4d 463c 0934 af3e ae57 fcbd 0466 02be
00000090: 325c 23be 3512 923d 1490 043e 8383 953e
000000a0: 0ef7 d73e e569 4bbe 31a2 2dbe f75b 603e
000000b0: 690d 6a3d a92e 92bd 7f85 fe3c b294 fb3d
000000c0: 0ea0 2b3c d7eb b13d d66d b2bd e4b9 ac3d
000000d0: 9a00 af3d 96c0 4abd fec3 ff3c b43d 6dbd
000000e0: ae0e ce3d 55fc 03be 9420 e03c 3744 093e
000000f0: b2ba e5bb 6dc1 b23d 0399 16be de45 5c3d
00000100: b683 e2bc 1ac1 d13d e214 dabd 4e5c bc3d
00000110: e6fa 7a3c 034d 04be 8f4a 53bd 6305 adbc
00000120: 8e0f 89bd d9c1 803d 73a1 0abe a902 793d
00000130: 01fd f6bd 2eb4 70bd ff7f d9bd 38f9 103e
00000140: cd75 e03d 1621 9fbc c3dc 44bd ea3b e13d
00000150: 3316 913c ed9e 32bd b49d 8dbc 37f2 00be
00000160: e7e0 483b 18d8 c93c 6406 e33c e8fc 153c
00000170: ed5b 88bd 450d 8cbc 6165 87bd 2571 d43d
00000180: 9c0f f73d 4d9a cfbd 0770 95bd 9a40 0d3d
00000190: d5d5 c13d 1699 843c c614 013e 6d32 443d
000001a0: 4a0f 5bbc d66e f93b 8174 153d d336 1bbe
000001b0: 2d9d 573d 6c33 09bc 5193 2c3d 20cd 983d
000001c0: 18f7 563e 11e5 f63c 326c db3d 11f3 4ebe
000001d0: 2d62 063d 9d03 f13b 2aa3 013e c6ea 1cbe
000001e0: e2d4 403c a556 27bc f025 39bd 10d9 8b3d
000001f0: f097 813e 97e6 68bd 8fba b93c 4c03 6f3d
00000200: 2cca 9ebd 21fb 8c3d f31a e8bd 0e9d 043e
00000210: 0fb0 1d3e 7ff0 033e cc53 ec3c 441e 34be
00000220: c1f5 4e3e 4921 133e 278f 29be 3f27 e4bd
00000230: 3fd5 b8bd 5015 f3bd e42e b7bc f4cd c3bd
00000240: 3c7a 0bbe 9483 023e b12e e3bd 2517 ae3d
00000250: 2f52 663d dc8e 33bd 2249 ba3d 5381 863d
00000260: 3f08 193d 6c65 a03d b8e8 a4bd 004e a9bd
00000270: 826a e8bc 682c 113e 1cf1 b6bd 4e8b cabd
00000280: 2c5b 06bd cdc1 10be 8844 08bd 6762 99bd
00000290: 77e1 3e3d ad00 88bd 55b4 62bc 4e3a b53d
000002a0: c091 ebbd 11fd b9bc a808 a93c 4946 c23c
000002b0: 8ae9 dbbd c8e1 013e 88ce 103e 12f5 66bc
000002c0: 86bc e73d 4d83 21bc f513 01bd ef98 b03d
000002d0: 694b cdbd ef51 ec3b 7f93 113e 2ffa d8bc
000002e0: e197 d93d fc4a ce3d e3af c3bc 7965 0c3e
000002f0: 3e7d 0cbe 3095 aebd 0570 833d c6fb f8bd
00000300: 8290 0e3e 36d5 a1bc c19a a2bd 9898 db3c
00000310: 0d82 c4bd c3ce a43d 65a6 f03d 9017 d7bd
00000320: 34e9 f1bd b394 46bd 5b6c 9c3d f127 9fbd
00000330: d1c5 a63d b13a 0fbe 8451 813d 7748 fcbd
00000340: d734 5c3c ca0b 083c 8120 b5bd 6790 583d
00000350: 9ffa d4bd adba 103d 98d9 9e3c 9fcc f9bd
00000360: bb32 5dbc ccca e9bd d31c 07be b307 0f3e
00000370: 7546 8c3d 689a 17bd bd9f b5bd b183 7fbc
00000380: aa75 58bd 1d57 d23d 6a85 0d3e 5274 82bd
00000390: 6e9c c4bd 3e9e d03d 90de a9bc e9fb ea3d
000003a0: 92e8 213d 5d04 47bd 2a45 703b 197b eabd
000003b0: 1099 b5bd ae50 8f3d 2820 0c3e 5678 c2bc
000003c0: 67fe 2f3d 1bb2 28be 0d59 8b3d c0fb 08be
000003d0: 7860 ba3d 724f 073e 6c64 80be 3baa 5d3d
000003e0: aad8 c73d e84f bb3d 52db 1dbe 0bfe 3d3e
000003f0: 3fc6 57be 118f 983e e0b4 4abc 5ea6 72be

bias f4 [12]
0.32713574 -0.12573735 -0.035650343 -0.14138536 -0.024765003 0.2344468 -0.028548863 0.07768012
0.27439332 0.157346 0.20126891 -0.0892454
00000000: 567e a73e 4bc1 00be 1806 12bd 53c7 10be
00000010: fadf cabc d212 703e 4edf e9bc c116 9f3d
00000020: 487d 8c3e 4f1f 213e 7019 4e3e 4bc6 b6bd

weight f4 [12, 12]
-0.016350929 0.15846409 0.0074190465 0.27824208 -0.0018360927 -0.41931614 0.22814988 -0.32938913
0.19112405 -0.5230559 -0.043284778 -0.4424677 -0.5228342 -0.15435775 -0.17825957 0.2743215
0.039802037 0.34525576 -0.02170555 0.09735964 -0.25082618 -0.25063595 -0.16181743 0.29437
0.36222398 0.009407113 0.12899502 0.06677469 -0.259788 -0.24085347 -0.1907227 -0.36418703
-0.18626854 0.05092685 -0.16864656 -0.3412814 -0.20238452 0.18456733 0.23355025 0.17912494
0.21185406 -0.12567669 0.01434308 -0.111466326 -0.16201729 0.22877574 -0.43383458 0.27914244
-0.390946 0.12683946 0.23000784 0.115297295 -0.19104211 0.38740098 -0.28499815 -0.097763665
-0.15222068 -0.061819658 -0.29524738 0.41237614 -0.26703408 0.12721536 -0.17607623 -0.082828134
0.0905539 0.15893543 0.11634288 0.25770774 0.15011528 0.19984943 0.12504627 0.15088978
-0.088341005 0.1620094 -0.034994595 -0.24887176 -0.24716684 0.23426385 0.068386905 -0.088782765
0.042061407 0.12673584 -0.41230536 0.051751208 0.2588785 0.20012505 -0.04523144 0.048190042
-0.028490424 -0.0035108232 -0.17678496 0.36296824 -0.0939479 -0.1091269 0.35870594 -0.12421919
0.03491592 -0.1922626 0.29204836 0.102405004 -0.08497401 -0.5520518 0.17556593 -0.0024014353
-0.11351962 -0.2705419 0.40197966 0.039057508 -0.020945324 -0.24191523 0.044511523 -0.2513791
0.26915154 -0.56124777 0.08937083 0.1609524 0.051049978 -0.21012846 0.4785286 -0.18091206
-0.13249394 0.09040809 0.18979257 -0.26139855 0.22593899 -0.037725527 -0.27938977 0.06386667
-0.05942793 0.4157088 -0.0032180878 0.30349874 -0.30695376 0.039013423 -0.13496685 0.082804285
-0.031653613 0.2300756 -0.3014786 -0.3262929 -0.27749157 0.055139825 -0.048753098 0.3794043
00000000: 62f2 85bc 6944 223e 791b f33b bf75 8e3e
00000010: 0ca9 f0ba 9bb0 d6be 1fa0 693e b1a5 a8be
00000020: 06b6 433e fee6 05bf 614b 31bd 208b e2be
00000030: 76d8 05bf f50f 1ebe ad89 36be de73 8c3e
00000040: 7607 233d 5dc5 b03e d6cf b1bc 7e64 c73d
00000050: 4a6c 80be 5b53 80be 78b3 25be aab7 963e
00000060: 6c75 b93e 4b20 1a3c 4517 043e 2bc1 883d
00000070: ef02 85be 4ba2 76be d04c 43be b976 babe
00000080: 2ebd 3ebe ac98 503d afb1 2cbe 70bc aebe
00000090: e33d 4fbe 38ff 3c3e cc27 6f3e 876c 373e
000000a0: 45f0 583e 64b1 00be 3dff 6a3c 7548 e4bd
000000b0: dce7 25be 3044 6a3e 911f debe c2eb 8e3e
000000c0: 132a c8be 34e2 013e 2d87 6b3e fd20 ec3d
000000d0: 8ba0 43be 6c59 c63e 47eb 91be 5138 c8bd
000000e0: bddf 1bbe 9c36 7dbd aa2a 97be f722 d33e
000000f0: b1b8 88be be44 023e 544d 34be cca1 a9bd
00000100: 5374 b93d f8bf 223e 2d45 ee3d 45f2 833e
00000110: d2b7 193e 54a5 4c3e 210c 003e da82 1a3e
00000120: 21ec b4bd cbe5 253e 7e56 0fbd 3dd8 7ebe
00000130: 4e19 7dbe dde2 6f3e 6f0e 8c3d bdd3 b5bd
00000140: 9548 2c3d 0ac7 013e b019 d3be 13f9 533d
00000150: b98b 843e 95ed 4c3e 9a44 39bd ec62 453d
00000160: c064 e9bc d715 66bb 1e07 35be f9d6 b93e
00000170: c267 c0bd ed7d dfbd 4ea8 b73e a166 febd
00000180: ff03 0f3d 7de0 44be 5d87 953e b7b9 d13d
00000190: db06 aebd 4453 0dbf 8ec7 333e 6661 1dbb
000001a0: f97c e8bd 7884 8abe 47d0 cd3e c4fa 1f3d
000001b0: 8795 abbc a0b8 77be b751 363d c3b4 80be
000001c0: 3bce 893e efad 0fbf 0e08 b73d b5d0 243e
000001d0: c819 513d ea2b 57be b301 f53e 0341 39be
000001e0: 7eac 07be e027 b93d fc58 423e 08d6 85be
000001f0: 8d5c 673e 1586 1abd 2d0c 8fbe 87cc 823d
00000200: b36a 73bd c9d7 d43e 8ee6 52bb 3064 9b3e
00000210: 0b29 9dbe 8acc 1f3d c034 0abe 4b95 a93d
00000220: 38a7 01bd f098 6b3e 675b 9abe dd0f a7be
00000230: 6013 8ebe 4cda 613d 54b1 47bd 4841 c23e

bias f4 [12]
-0.31796747 -0.4873674 -0.14444824 -0.077093355 -0.11764377 -0.16338018 -0.038627807 0.024376048
-0.22237857 -0.11737079 0.10356255 0.04652166
00000000: a2cc a2be 3888 f9be 3dea 13be 1fe3 9dbd
00000010: 38ef f0bd 224d 27be 3138 1ebd 47b0 c73c
00000020: 35b7 63be 1960 f0bd 9a18 d43d 7f8d 3e3d
