MQCNN-QA-4qubits-4class-CIFAR-same-5filter/Models_V2/model_14.pt (torch, 143606 bytes, 47 tensors)

weights f4 [7]
000000 07 89 80 40 f3 5f aa 40 d2 80 d5 3f 4c 5e 7d 3e
       4.016727 5.3242126 1.6679938 0.24743003
000010 75 2f 8d 40 9c f5 41 40 4c c1 9c 40
       4.412043 3.0306158 4.898596

weights f4 [7]
000000 bd cf 4b 40 23 0d 66 3f 60 79 bb 40 01 bf 30 3f
       3.1845543 0.89863795 5.8585663 0.6904145
000010 69 b5 a3 40 b4 8f 8d 40 3a ae 2c 40
       5.115895 4.423792 2.698134

weights f4 [7]
000000 60 13 5d 40 09 84 b5 40 1b 54 c2 40 11 cb 70 40
       3.4543076 5.6723676 6.072767 3.7623942
000010 22 31 b0 40 41 da b2 40 a0 5f 6f 40
       5.5059977 5.5891423 3.7402115

weights f4 [7]
000000 7e 48 8d 40 1d 72 c4 40 ec 9c 5a 40 d1 e7 10 3f
       4.415099 6.13893 3.4158278 0.56603724
000010 fe ce 89 3f 85 e4 88 40 50 70 b0 40
       1.0766294 4.2778955 5.51371

weights f4 [7]
000000 e8 d5 a4 3d 75 85 5e 40 c3 77 48 3f b4 d7 c5 40
       0.08048612 3.4768956 0.7830774 6.182581
000010 2b 66 54 3f 89 74 cc 3f 0f 17 af 40
       0.82968396 1.5973064 5.471565

weights f4 [7]
000000 4c 84 e6 3e 5d cd 31 40 f8 7e af 40 a9 d1 b0 40
       0.4502281 2.7781594 5.484249 5.5255933
000010 70 c2 b1 40 cf 2b 81 40 9d 59 6e 40
       5.554985 4.0365977 3.7242196

weights f4 [8]
000000 ef dd c0 40 0f 83 90 3f a6 a5 a0 3f e1 be 6d 3e
       6.0270915 1.1289996 1.2550552 0.23217346
000010 e5 b5 a1 40 08 57 69 40 04 e0 6f 40 2a ec b7 40
       5.053454 3.645937 3.7480478 5.7475786

weights f4 [8]
000000 f9 85 b8 40 2b cb bb 40 4d 70 37 40 ae 10 53 40
       5.766354 5.868551 2.8662293 3.297893
000010 5c 62 76 40 dd 4d 8f 3f 67 89 91 40 d1 dc 74 40
       3.8497534 1.1195637 4.5480227 3.8259776

weights f4 [8]
000000 92 5e 7f 40 5f 88 0e 3f b0 4e c6 40 08 96 1a 40
       3.990147 0.55676836 6.1971054 2.4154072
000010 3a de 99 40 82 11 97 3f dc 70 be 40 c5 cc 83 40
       4.8083773 1.1802218 5.951277 4.1187463

weights f4 [16]
000000 d6 21 15 40 a2 97 6b 40 46 de 9d 3f 12 d0 5b 3f
       2.3301902 3.68113 1.2333457 0.85864365
000010 f1 fa 34 40 2f 1a c2 3f 69 d8 9b 40 33 40 cb 3f
       2.8278162 1.5164241 4.8701673 1.5878967
000020 0f 9e 86 3f bf 71 9e 40 a3 70 99 40 27 d4 1e 3f
       1.0516986 4.951385 4.7949996 0.6204247
000030 18 72 58 40 62 ff d6 3f 1c 5d 8b 40 c0 49 c7 40
       3.3819637 1.6796687 4.355116 6.2277527

weights f4 [16]
000000 91 ff 8b 40 57 7c 6e 40 6a 01 c3 3f bf b3 93 40
       4.374947 3.726339 1.5234807 4.6156917
000010 ff 45 15 3f e6 d7 50 40 31 29 8c 40 dc be 90 3f
       0.5830993 3.2631774 4.3800282 1.1308246
000020 09 c0 14 40 25 08 e1 3f 5b 12 4c 40 1a 18 f5 3f
       2.324221 1.758061 3.1886203 1.914798
000030 24 2f 36 40 1c 19 bb 40 28 2e 84 3f 8f a6 53 40
       2.8466272 5.846815 1.0326586 3.307041

weights f4 [16]
000000 d9 d3 04 40 0d c2 ff 3f 82 0e b4 40 6e b6 a2 40
       2.0754302 1.9981095 5.626771 5.0847692
000010 5f dc c3 40 7b f0 1a 40 01 3c a5 40 5a ee 45 40
       6.120651 2.4209278 5.1635747 3.0926728
000020 a4 ba 9a 40 9b 1a b1 3f 52 45 56 3e 3f 67 8a 40
       4.8352833 1.3836244 0.20924881 4.3251033
000030 cd ad 9b 40 02 35 9c 40 7c 69 71 3f 3c 24 b3 40
       4.864966 4.8814707 0.9430158 5.598173

weights f4 [12]
000000 e6 27 ba 40 8c 4d c4 3f 6a 12 48 40 fa 99 a8 40
       5.8173704 1.5336165 3.126124 5.268796
000010 8d f1 2c 40 ea 96 c5 40 5f 1c 8e 40 e6 28 a7 3f
       2.702243 6.174672 4.4409633 1.3059356
000020 95 27 1b 40 31 ef 99 40 af 01 85 40 36 88 2a 3f
       2.424291 4.810448 4.1564555 0.6661409

weights f4 [12]
000000 4a 21 26 3e 3e 82 8f 40 58 64 02 3f 1a a9 81 40
       0.16223636 4.4846487 0.5093436 4.0518923
000010 b9 e5 cd 3f 30 6e 89 40 9e f1 bf 40 52 4a 91 40
       1.6085731 4.2947006 5.9982443 4.5403223
000020 28 d6 5a 40 c1 fc 53 3d 2f 78 8d 3f 11 5a 31 40
       3.419321 0.051754717 1.1052302 2.7711222

weights f4 [12]
000000 bd de 13 40 26 0f 5d 40 7d 6c 31 40 9c d7 0a 40
       2.3104699 3.4540496 2.7722466 2.1694098
000010 9c c1 a4 3e 24 a2 8d 40 10 ed a8 3f cd f0 41 3f
       0.32178962 4.4260426 1.3197346 0.7575806
000020 e5 8b 8f 40 0f f4 46 40 cd 3b 02 3e cf da b9 40
       4.485827 3.1086462 0.12718125 5.80796

weight f4 [12, 48]
000000 de 47 10 be 6f 9b c6 bd 33 09 aa bd d8 8f b2 bd
       -0.14089915 -0.09697615 -0.08302536 -0.08718842
000010 65 cb 8a 3d 56 84 54 3d b4 7e ed bd e2 57 32 bd
       0.06777076 0.051884018 -0.11596432 -0.043540843
000020 02 42 81 3d 82 61 bf 3d 1f ae 8c bd 09 df ce bd
       0.06311418 0.0934477 -0.068691485 -0.10101134
000030 12 0b 8b bc 50 7d d4 bd d6 12 77 bd 19 0d 92 3d
       -0.016973052 -0.10375464 -0.060320698 0.071314044
000040 0f dc 1c 3e eb 8e a6 3c a0 88 cf 3d 9a 63 cd 3d
       0.1531832 0.02033182 0.10133481 0.10028763
000050 2f 87 83 bd 13 1e 84 bd 89 30 98 bc 48 94 ab bd
       -0.064222686 -0.06451049 -0.01857783 -0.08377892
000060 ac 4e cc bd c1 57 42 3e 7f 0e 1f 3e 4b 28 ca 3d
       -0.09975943 0.18978788 0.15532874 0.098709665
000070 5e ac 5f b9 96 ae a3 3d 36 6c ef 3d 23 ba 4a 3d
       -0.00021331149 0.07992284 0.116905615 0.04949392
000080 20 95 eb bc 87 73 30 bd 41 f9 ab bd 53 a3 14 bd
       -0.028757632 -0.043078925 -0.08397151 -0.03628857
000090 b6 7e 32 bc dc d3 5f bd 58 bf 20 be 8f 80 4f bd
       -0.010894468 -0.054645404 -0.15697992 -0.050659712
0000a0 c7 c0 2d 3e b8 c0 0d 3e 15 59 e8 3d 02 13 57 3d
       0.1696807 0.13843048 0.11345116 0.05250836
0000b0 ee 2b 23 3e ce 4d 25 bd 89 4d 13 3d 96 5f ed 3d
       0.15934727 -0.040357403 0.035962615 0.11590497
0000c0 0e 30 8e bd d4 ba 02 3e f1 73 f8 bd 32 10 69 3d
       -0.069427595 0.12766582 -0.12131489 0.05690021
0000d0 a8 a1 39 be 64 e0 c6 3c 20 f3 e3 bd 5d 2c 2e be
       -0.18128073 0.02427692 -0.11130357 -0.17009111
0000e0 17 ac d1 bd 66 c6 05 3c 4b d5 23 be 56 17 0f bd
       -0.10237902 0.008164978 -0.15999334 -0.034934364
0000f0 bf fe a7 3d 14 f2 b6 3d e3 dc 4b 3d 59 1d 02 be
       0.08202886 0.089328915 0.0497712 -0.12706508
000100 28 e1 ed 3d d2 c2 30 bd 9f 6f 00 3e da 5d 67 bc
       0.11615211 -0.043154545 0.1254258 -0.014121497
000110 ba 6c e3 bd 24 0d a1 3d 91 41 28 be 63 99 d2 3d
       -0.11104722 0.078638345 -0.16431262 0.102831624
000120 e8 69 75 3c 2f fb ea bd 22 0d da bd c8 f7 bf 3d
       0.014978863 -0.11473691 -0.10647036 0.093734324
000130 22 ca f8 3d c9 ca b5 3c 37 85 da ba df 12 98 3c
       0.12147929 0.022191422 -0.0016671781 0.018563686
000140 e9 bd ac bd 31 ba b9 3d 6b be c0 bd 3a 8d 8e bd
       -0.0843466 0.09068716 -0.09411319 -0.069605306
000150 c1 05 99 3d 59 81 23 bd 2e 28 1a 3d 68 54 da bc
       0.074718006 -0.039918277 0.037635975 -0.026651576
000160 56 0f 1b bd 90 90 97 3d d7 64 91 bd 01 e1 30 bc
       -0.037856422 0.0740062 -0.07099312 -0.010795833
000170 6f 70 13 bd 99 e4 ae 3d f7 ef 9c 3d fa 0f 57 3e
       -0.035995897 0.08539695 0.07662957 0.21002188
000180 43 12 37 bd a1 2a c5 bc 2e 24 84 bc 1f 58 cc bc
       -0.04469515 -0.024068179 -0.016130533 -0.024944363
000190 d4 79 c8 3d 90 99 02 be ea 41 af 3d c4 e8 cf 3d
       0.09788862 -0.12753892 0.08557494 0.101518184
0001a0 8b 15 03 3e 23 d2 7d 3d 3d 7a 9b bc f6 a6 ef 3d
       0.12801187 0.06196798 -0.018979186 0.11701767
0001b0 15 e5 00 bd 9d b8 37 3c fb 42 09 3d 28 2c 02 be
       -0.03146847 0.011213449 0.033511143 -0.12712157
0001c0 35 10 03 3e 32 47 4a 3c 2d 12 bc bc 0a 83 ad 3d
       0.12799151 0.012346076 -0.022957886 0.08472259
0001d0 13 2c f8 3d 33 87 d7 3c 6b 11 89 3d 68 0f bb bd
       0.121177815 0.026309585 0.06692775 -0.09133798
0001e0 73 23 dd bd d2 c4 d4 3d 14 66 04 be e0 2d 91 3c
       -0.10797777 0.10389103 -0.12929565 0.01772207
0001f0 0e f1 dc bc 00 84 50 bd d2 01 07 be 53 04 ab bd
       -0.026970413 -0.050907135 -0.13184288 -0.08350434
000200 a4 03 f5 bd 04 25 27 3c c7 90 0f 3e c1 55 02 be
       -0.11963585 0.010201696 0.14020072 -0.12728025
000210 2b 0d e1 bc ef a1 04 bd 51 94 04 be 8c b3 55 3c
       -0.0274721 -0.032380994 -0.12947203 0.013043296
000220 d9 00 8d bd 8d bd 7c bd d2 f6 b5 bd ef bb f8 3d
       -0.06884927 -0.061704207 -0.08884968 0.121452205
000230 6e 49 96 bc d7 39 91 3d 8b a7 11 3e ee f7 a9 3d
       -0.01834556 0.0709111 0.14224069 0.08299242
000240 d4 91 b1 3c 9b 97 47 bd ae 14 e3 bd db 37 15 be
       0.021675982 -0.048728567 -0.11087929 -0.14572088
000250 11 82 82 3d 53 a0 04 be 93 3b fb bd 86 cb 4c bd
       0.063724644 -0.12951784 -0.12267222 -0.049998783
000260 cd 21 25 be 52 b7 bd 3b 4d fc d9 3c 30 a9 01 be
       -0.16126175 0.0057896757 0.026609564 -0.12662196
000270 64 06 4e bc a0 31 cd bd a0 63 62 3d 76 9e e1 3d
       -0.012574766 -0.10019231 0.05527079 0.11016552
000280 88 09 22 3e f8 e6 c3 bd 9d ff c8 3d f6 77 18 3c
       0.15823948 -0.09565538 0.09814379 0.009305945
000290 20 0c 1a be 57 9a c7 bd 2d 10 1f 3d 02 fd 2f bd
       -0.15043688 -0.09746235 0.038833786 -0.042965896
0002a0 52 28 5f 3d fb 59 19 3d 6a d5 2d bd db 7b 23 3e
       0.05448181 0.037439328 -0.042439856 0.15965216
0002b0 52 22 3c 3e ac b2 d9 b8 6f 02 3c 3e 01 c0 89 3d
       0.18372467 -0.000103806466 0.18360303 0.06726075
0002c0 58 eb f0 bc 14 f4 8b 3b b7 4f 05 3e b0 6b 7d bd
       -0.029409096 0.0042710397 0.1301869 -0.061870277
0002d0 06 69 a3 3c d4 c1 3f bc 22 61 c3 bd ba 3f 9c 3d
       0.01994754 -0.011703927 -0.09540011 0.076293424
0002e0 80 b5 f4 bc 1e 3d 14 be c1 2b e3 3d 56 b4 fe 3d
       -0.029871702 -0.1447644 0.1109233 0.1243674
0002f0 d6 9b a3 bd 25 10 d3 3b 81 76 f7 bd e0 37 36 3e
       -0.07988708 0.0064411336 -0.1208315 0.17794752
000300 69 f0 3d be 7f 32 b9 bd 07 b2 2c be 1f 2a 2a be
       -0.1854874 -0.090428345 -0.16864787 -0.1661763
000310 b8 60 cc bc 1f 72 12 bd 13 95 12 bd e7 cf c0 bd
       -0.024948463 -0.035753366 -0.0357867 -0.09414654
000320 20 1a 02 be ce 82 58 3d bc 7d 89 3d 7f cd 2d 3d
       -0.12705278 0.05285912 0.06713435 0.042432304
000330 88 50 9d bd 08 9c 3e 3d 68 cc bb 3d e4 1f c1 bd
       -0.07681376 0.04653552 0.09169847 -0.09429911
000340 a2 ee 89 bb aa 9e 6a 3c d2 85 6d bd 10 5b 0f 3c
       -0.0042093555 0.014320055 -0.05798895 0.008749738
000350 df ad c5 3d 94 d9 2b 3d 6a 67 7f bd ff 71 3d bd
       0.09652304 0.041955546 -0.062354483 -0.046251293
000360 2f b3 95 3d e2 1e 19 be d9 05 95 3d 9a 02 8a 3c
       0.07309567 -0.14953187 0.07276506 0.016846944
000370 93 f1 9b bd 09 44 97 3d 4a 40 8c 3d d4 7e 29 be
       -0.07614436 0.073860236 0.068482 -0.16552287
000380 9c c5 e9 bc 5b 37 bd 3d 01 76 13 3e 2a cf 89 bd
       -0.02853661 0.09239074 0.14400484 -0.067289665
000390 a2 cb 12 be d7 8e 00 bd 2c 2c 67 3c 60 a0 32 bc
       -0.14335492 -0.031386223 0.0141096525 -0.010902494
0003a0 36 7a bf 3d 6e e3 fa 3c 66 68 5a 3d ac 72 3e bd
       0.09349482 0.030626025 0.05332222 -0.04649608
0003b0 92 a6 28 3e 38 3f e4 3c be 52 1f 3d 73 e2 19 3e
       0.16469792 0.027862176 0.03889727 0.1502779
0003c0 de 3f c9 3d c5 27 89 3b d3 37 db 3d be a9 08 3e
       0.09826635 0.004185649 0.10704007 0.13346002
0003d0 be 1c f9 bc 70 57 27 3e b2 b9 15 3d a5 6c 03 3e
       -0.030409213 0.16341949 0.036554046 0.12834413
0003e0 38 95 a8 bd 40 2e 9c bd 21 fe 2a 3d 78 09 a8 3d
       -0.08231586 -0.07626009 0.041746262 0.08204931
0003f0 82 46 25 3e e7 8d 5d 3e 2b 86 6d 3e ee 2f 88 3e
       0.16140178 0.21636163 0.23195712 0.26599067

bias f4 [12]
000000 30 44 8e 3d 4a 21 41 3d 40 e8 8b 3d 45 40 77 3d
       0.069465995 0.047150888 0.068314075 0.060364027
000010 44 7c 8b 3c ca e5 00 3e ce b5 07 3e 08 53 07 be
       0.017027028 0.12587658 0.13252947 -0.13215268
000020 65 5a 22 3d a8 85 0b 3c 46 ae b4 bd c7 da 8f bc
       0.03963699 0.008515753 -0.088223025 -0.017560376

weight f4 [12, 12]
000000 40 88 66 bd 3a 62 55 3e 53 5e 7b be 94 bb 30 3e
       -0.056282282 0.20838252 -0.245477 0.17259055
000010 44 80 36 3e 43 d0 bd be d0 f1 98 3c 7e 09 16 be
       0.17822367 -0.37072954 0.018669993 -0.14652058
000020 a1 b2 2f bd 85 c3 30 3e 3d 0d 5b 3e d9 d9 c7 be
       -0.042894963 0.17262085 0.21391769 -0.39033392
000030 8a 3d 62 be 54 7e 8c be 0c c2 75 3e 06 7a 9a 3d
       -0.22093788 -0.2744013 0.23999804 0.075428054
000040 05 bf d3 3d 7b c5 cd bd a3 04 fa bb 54 8a d3 3d
       0.103391685 -0.10047432 -0.0076299473 0.10329118
000050 ab 3b 58 3e 13 b1 af bd 37 ff 2e be a2 58 b7 3e
       0.21116512 -0.08578696 -0.17089544 0.3580981
000060 81 66 43 3e 42 1d 2c be aa 47 16 be 2e f2 6c 3c
       0.19082071 -0.16808036 -0.14675775 0.014462037
000070 e5 ad 18 be 07 a1 c1 bd 96 3f 86 3e 23 e5 98 3e
       -0.14910085 -0.09454542 0.26220387 0.29862317
000080 a4 8e 8b be 3d be a4 3e d5 9e 84 be 30 fb a5 3d
       -0.27257264 0.3217639 -0.2590243 0.08104551
000090 d9 c9 1b 3e af 67 1e 3e 92 df d8 bd 1b 36 5b 3d
       0.15213718 0.1546924 -0.10589518 0.053518396
0000a0 19 64 0b 3e e6 99 5a bc 8d 84 98 3c c1 89 aa bd
       0.13612403 -0.013342356 0.018617893 -0.08327056
0000b0 af 52 b7 3e b6 ad ce bd 60 a9 6b be 76 20 b3 3e
       0.3580527 -0.100917265 -0.2301383 0.34985703
0000c0 fc 0f b2 3e 59 27 48 3d b3 a0 7b bd ef 75 0b 3e
       0.3477782 0.04886565 -0.06143255 0.13619207
0000d0 52 d2 bb 3e fe f0 1c be 1b e5 67 be 03 fa ae 3e
       0.366839 -0.15326306 -0.2264599 0.3417512
0000e0 54 61 f2 bd 82 a6 2c be 9f bd f9 3d 98 be df 3d
       -0.1183497 -0.16860393 0.121943705 0.10925025
0000f0 5d 4e b7 be 1d 3e 1e 3d 47 01 92 be a7 dc 50 be
       -0.35801974 0.038633455 -0.285166 -0.20396672
000100 11 94 8a be 9b 6d 36 3e 8c 3b 8d 3e 52 cc d3 bd
       -0.2706609 0.17815249 0.27584493 -0.103417054
000110 45 c9 89 3e 6e 8c b5 be fc 5e d8 3a 47 bb a8 3e
       0.2691137 -0.35458702 0.00165078 0.3295538
000120 68 e8 dc bc 2f 41 8e be c8 be 75 3e df 3b 92 be
       -0.026966289 -0.27784106 0.23998559 -0.28561303
000130 f9 12 1d 3d 83 d8 02 3c ea ac 77 3e 9d 09 63 3e
       0.03834817 0.007986191 0.24187055 0.22171636
000140 c1 85 eb bd 4c 76 97 be 54 6a 37 3e 04 7b 5c 3d
       -0.11500121 -0.2958244 0.17911655 0.053828254
000150 43 3b 01 3e 20 1c ec 3d 0c 30 c9 bc 46 c3 68 bc
       0.12620263 0.11528802 -0.024559043 -0.014206713
000160 2d 2c ec 3d c6 65 5e 3e a6 d4 e0 bc 34 fe 61 be
       0.11531863 0.21718511 -0.027445149 -0.22069627
000170 a5 f0 ff 39 42 17 3d 3d a4 60 80 3e 87 8d 04 3e
       0.00048816684 0.04616476 0.2507373 0.12944613
000180 ac 02 10 be 34 9e 71 bd 3b 54 0d bc c3 c3 50 3d
       -0.14063519 -0.058988765 -0.008626039 0.050967943
000190 cd cc b6 3b 04 6b 2c 3c ed 7a 79 bd 35 3c 26 3e
       0.0055786134 0.010523561 -0.060908247 0.16233905
0001a0 39 ac 74 bd ce 97 96 3e ab c4 3b be 3d 0e a8 be
       -0.059734557 0.29412693 -0.18336742 -0.32823363
0001b0 fd 7e df 3d f6 52 2f be 67 fd 56 be 24 f0 b1 bd
       0.10912893 -0.17121491 -0.20995103 -0.08688381
0001c0 fb fb 16 be da b9 0f 3d e4 e2 88 3e cb 88 7f 3e
       -0.1474456 0.03508935 0.26735604 0.24954526
0001d0 22 b9 ac 3c dd ea fa bd 28 20 a0 3d a9 9b 1f 3d
       0.021084372 -0.12251828 0.07818633 0.03896681
0001e0 2c 5a 2b be 16 b3 51 be 17 1e 84 3e 99 42 98 be
       -0.16733617 -0.20478472 0.25804207 -0.2973831
0001f0 e0 bd a5 be 74 70 81 bd 8c d9 61 be b7 ee f1 bc
       -0.32371426 -0.06320277 -0.22055644 -0.029532773
000200 70 4d a4 3e 04 6c b5 be 31 39 f8 bd 05 95 b0 3d
       0.3209033 -0.35433972 -0.121202834 0.08622173
000210 90 dd c5 bd 66 b7 c5 bd 61 ac 88 be cc a3 59 be
       -0.096614 -0.09654121 -0.26694015 -0.2125389
000220 da d9 1f 3d 14 de 37 3e 79 5a 31 be dd 9c 2b 3e
       0.03902612 0.1795581 -0.17319669 0.16759057
000230 99 93 b9 be 30 5e 51 3e b7 58 40 3e c5 42 91 be
       -0.3624542 0.20446086 0.18783842 -0.28371254

bias f4 [12]
000000 7e 4b 86 be ec 18 17 3e 82 e0 80 be da 30 36 be
       -0.2622947 0.147556 -0.25171286 -0.17792073
000010 dd 24 1e be 95 e0 06 3e 9d 7b 27 3e 8a 89 6b be
       -0.1544375 0.13171609 0.16355748 -0.23001686
000020 a4 12 19 3d 09 86 ea 3c dd 08 82 be 0c 81 cb 3d
       0.037371293 0.028628366 -0.25397387 0.09936723

weight f4 [12, 48]
000000 14 08 bb 3d 40 45 48 3c 37 8b 02 bd de 25 2e bd
       0.091324 0.012223542 -0.031871047 -0.04251658
000010 08 59 d6 bd b7 40 21 be 3c 52 16 bd 51 56 cf bd
       -0.104662 -0.15747343 -0.03669952 -0.101238854
000020 3e 7d 50 3d 3e 66 d3 3d fb c3 c5 bd 48 c0 d6 3d
       0.05090069 0.103222355 -0.09656521 0.104858935
000030 65 a9 fc 3d 00 53 ab 3d df 85 de bd 85 eb d2 bc
       0.12336997 0.0836544 -0.10865378 -0.02574707
000040 40 35 36 3c a2 98 40 bc 97 50 ad bd bb e4 2a 3d
       0.011121094 -0.0117551405 -0.08462637 0.04172204
000050 58 02 c9 bb 4e ef 55 bc 91 ff 1e 3d 23 f9 c3 bc
       -0.0061343126 -0.013057543 0.038817946 -0.023922509
000060 21 19 a2 3d 69 1d 4b bc a9 3c 77 bd b2 7f 53 3d
       0.07914949 -0.012397149 -0.060360584 0.05163545
000070 53 95 ca bd 35 a4 3b 3c 72 46 cf 3c f1 2d 71 3d
       -0.098917626 0.011452724 0.025302146 0.058881704
000080 7f 21 22 bd 03 fa 57 bd 44 47 68 bd 93 69 4b 3d
       -0.039582726 -0.052728664 -0.05670859 0.04966123
000090 4b f8 79 bd d7 80 5c 3c b7 15 08 bd 74 b7 1d 3e
       -0.061027806 0.013458452 -0.033223834 0.15402013
0000a0 94 e3 8a 3c cb 50 17 be 10 c1 da 3d bf e4 ec 3c
       0.01695422 -0.14776914 0.10681355 0.028917668
0000b0 f1 f4 9b 3d 1b f3 bc bd b5 c0 e1 bd e1 c2 8c bc
       0.07615078 -0.09226056 -0.11023084 -0.01718277
0000c0 33 77 4f bd ba cf 01 be d9 d6 de 3d 2c 9e 95 3c
       -0.050650787 -0.12676898 0.10880823 0.018263899
0000d0 b9 35 8a 3d 0b b2 28 bd ef b2 06 3e 69 be 39 bc
       0.06748528 -0.04118542 0.13154195 -0.011336901
0000e0 24 6c 02 bd 21 d1 26 bd 8e ca f1 3d fb 59 f9 3a
       -0.031841412 -0.040726785 0.11806212 0.0019024009
0000f0 a8 02 16 be 78 73 b1 bd c8 bb 1d 3e 90 fe 11 be
       -0.14649451 -0.08664602 0.15403664 -0.14257264
000100 3d 57 05 3e 6a 5a 86 3b 97 e0 e8 bc 04 50 01 bd
       0.1302156 0.0041001337 -0.028427405 -0.03157045
000110 f5 9e 51 bc 6d 07 0d be c4 83 a1 3b 99 94 68 3d
       -0.012794246 -0.13772364 0.0049290378 0.05678234
000120 3a 77 50 3e a5 86 4f 3d 8c 36 cf 3c 6f 0c 9e bd
       0.20357981 0.050665516 0.025294565 -0.07717215
000130 7a 2a e9 3d 0c e7 23 be da f9 5e 3d 52 ec 64 be
       0.11385055 -0.16006106 0.054437496 -0.22355774
000140 08 5c ca 3b 5e be 34 3e e0 ad 15 3e ec 2d 49 bd
       0.0061755218 0.17650744 0.1461711 -0.04911606
000150 50 62 07 3e 3d be 13 bd 06 0c 24 bd d6 68 5d be
       0.13221097 -0.036070097 -0.04005053 -0.21622023
000160 0a 01 c6 3d 6d 88 c9 bd 13 9a 4c 3d b7 79 b5 3c
       0.09668167 -0.09840474 0.049951624 0.022152765
000170 96 3c 0c 3c a7 57 08 bc b9 33 2f 3e 2a ec 25 3e
       0.008559367 -0.008321679 0.17109574 0.1620337
000180 30 d6 87 bc 9f 76 0d be 38 71 44 3d 9c 6a 31 3d
       -0.016581625 -0.13814782 0.047959536 0.04331456
000190 4f 6f 03 bd 96 25 c4 bd 51 31 dc bc 2d fb 09 3e
       -0.032088574 -0.095774814 -0.026878985 0.13474722
0001a0 1b f5 12 bc 00 4c 22 be 70 f2 e2 bd 66 eb e2 3c
       -0.0089695705 -0.15849304 -0.110813975 0.027700137
0001b0 e7 ff ed 3c 19 a4 b6 3d e4 84 bb 3d 29 29 f0 3d
       0.029052688 0.08918018 0.09156206 0.11726601
0001c0 8a 37 6b 3d 18 3c 80 3d 6f cf b6 bd 7e a4 93 bd
       0.057426013 0.06261462 -0.089262836 -0.07209109
0001d0 5c 10 64 3d 6e d2 52 bc aa 15 b4 3c 54 03 ec bd
       0.055679664 -0.012867553 0.021982986 -0.11524072
0001e0 c0 f1 1a bc 1e bc e8 3d 76 17 91 bd de 05 94 3d
       -0.009457052 0.113640055 -0.07084553 0.072276816
0001f0 89 4a ce 3d 5e bf dc bd 8d f5 73 bc e4 40 d1 3d
       0.1007281 -0.10778688 -0.014890087 0.10217455
000200 75 ea aa 3d 58 a5 85 3d cf 4e 09 be a7 35 7a 3b
       0.083455004 0.065256774 -0.1340897 0.0038178952
000210 94 94 e6 3d a3 a3 d6 bd 1e bb 27 be 1c 6b c9 bd
       0.11258808 -0.1048043 -0.16379973 -0.098348826
000220 93 a3 bd bd e6 f0 7c 3d e3 36 e5 bd 64 26 68 bd
       -0.09259715 0.061753176 -0.111921094 -0.056677237
000230 88 86 e6 bd f8 ce d1 3d c7 10 f5 3d f2 20 ce 3d
       -0.112561285 0.10244554 0.11966091 0.100648776
000240 e6 e8 2d 3e 23 27 58 3e 0f 5b 20 bd 56 ab 91 ba
       0.16983375 0.2110868 -0.03914934 -0.0011113684
000250 f7 46 66 3d 4e f2 6b bd 2e 58 2d 3d 0e df f2 bb
       0.05622002 -0.057604127 0.042320423 -0.007411844
000260 24 b9 20 bd 22 0f 85 bd 02 5e 96 bd 36 d3 e0 3d
       -0.039239064 -0.06497027 -0.07342149 0.10977785
000270 c7 c6 74 bd fe 28 31 3e 32 76 93 3d 5b 5f 91 3d
       -0.05975988 0.17300794 0.07200278 0.07098266
000280 4b 07 c1 bb 9f e0 c6 3d 92 f2 47 3d d8 2a 7b bd
       -0.005890762 0.09710812 0.048815317 -0.061320156
000290 7e 6c 06 3e 51 f0 f9 3d 78 7a 6c be 00 70 2e 3e
       0.13127324 0.1220404 -0.23093593 0.17034912
0002a0 a4 ca 25 3c 27 63 b3 3d 18 89 36 bd 98 2b a5 bd
       0.010119114 0.08759146 -0.044564337 -0.080649555
0002b0 92 8d 15 3e d5 7e 8d bd 6e 39 05 be 0a ce 71 3e
       0.14604786 -0.06908957 -0.13010189 0.23613754
0002c0 78 a7 74 bd 5d d6 39 be d4 60 14 bd 49 29 3b bc
       -0.059730023 -0.1814818 -0.036225155 -0.011423417
0002d0 11 1d 0e 3d 3d cc 33 bd 43 54 60 3e b8 ad 68 3c
       0.03469569 -0.04389595 0.21907143 0.014201574
0002e0 fb 49 4e bc 3a d5 7a 3d 6b be 5c 3d 64 3e 11 3e
       -0.0125908805 0.061238505 0.053892534 0.14183956
0002f0 04 80 ac bd 7f 94 9e bd c3 18 28 be f2 06 fe bd
       -0.084228545 -0.07743167 -0.16415696 -0.124036685
000300 27 ed 67 bd 23 d7 1f bd 62 4b 17 bd 79 88 85 bd
       -0.05662265 -0.03902353 -0.036937125 -0.06520171
000310 38 97 af bd b7 aa 2f 3c 46 9b bb bd ab ff a4 bd
       -0.085737646 0.010721854 -0.091604754 -0.08056577
000320 52 d3 4e bb 59 41 34 bd b0 59 37 bd 63 3e 0c 3e
       -0.0031559062 -0.044007633 -0.044763267 0.13695674
000330 88 b1 ec 3c 95 56 f1 3c fe 75 97 3d f1 63 28 3d
       0.028893247 0.02946023 0.07395552 0.041110937
000340 2d ad 1b 3b dc 07 be 3c 6a 76 a2 3d da 75 5b bd
       0.0023754344 0.023197107 0.07932742 -0.05357919
000350 5e be 9f 3a ca f7 46 bd 3f 02 dd 3c 7e ed af 3d
       0.0012187471 -0.048576154 0.02697861 0.0859022
000360 80 65 a0 3d 7b 07 a5 3d 5c 36 98 bd 8c b4 0f be
       0.078318596 0.080580674 -0.07432243 -0.14033717
000370 27 17 0c be 20 2f b8 3d fc 97 ad bd 4b 2d e5 3d
       -0.13680707 0.089933634 -0.08476254 0.111902796
000380 7a 30 b2 bd 59 6e 5e bd 18 f0 f4 bd 8a c8 a4 bd
       -0.087006524 -0.054304454 -0.11959857 -0.08046062
000390 ae ae d5 3d ef 80 0b 3d c5 69 54 bd c1 c0 ee 3d
       0.10433708 0.034058508 -0.051858682 0.11657859
0003a0 14 15 c1 3d 04 50 06 3d c3 6d 56 3d 6c 90 20 bc
       0.094278485 0.032791153 0.05235077 -0.009800058
0003b0 53 2c d7 bd db 74 e7 bc 10 85 ca 3d d2 98 5c bd
       -0.10506501 -0.028253963 0.09888661 -0.05385668
0003c0 ab b7 9f 3d 27 92 ad bc c0 2c 0b 3d 80 e7 05 be
       0.07798704 -0.021187855 0.033978224 -0.13076591
0003d0 f1 5c 89 3c 40 42 9f bd 0a 21 be 3d e6 87 99 3d
       0.01676795 -0.07776308 0.092836455 0.07496624
0003e0 7b 2a 52 3d f7 fc a3 3d 09 d5 03 3e 52 01 d4 3c
       0.051310044 0.080072336 0.12874235 0.025879536
0003f0 44 bd 1e bd 82 90 eb bd 63 21 86 3c fa da 11 be
       -0.038754717 -0.11502172 0.016373342 -0.14243689

bias f4 [12]
000000 8e 6d f7 3d 0f 72 a6 bd 1e 3d d5 bd 30 24 f2 bb
       0.12081443 -0.08127224 -0.10412048 -0.007389568
000010 bb 90 d4 3d 98 ca ef 3d 12 9f 0e 3d 4a fe d0 3d
       0.10379168 0.117085636 0.03481967 0.10204752
000020 e3 b7 ba bd 7e d8 00 3e 0a 3e f1 bc cf 3c c6 bd
       -0.09117105 0.12582585 -0.029448528 -0.09679567

weight f4 [12, 12]
000000 dd d0 82 be db e7 53 be 04 af 71 be a9 7a 73 be
       -0.25549975 -0.20693915 -0.2360192 -0.2377726
000010 04 72 86 3e 98 56 41 be 94 95 b1 3e 78 a6 be 3d
       0.26258862 -0.18880689 0.34684432 0.09309095
000020 0e 33 6c be 52 4c 7b bd 71 78 27 3d 0c a6 b9 3d
       -0.23066351 -0.06135208 0.040886346 0.09064874
000030 a5 3f 50 be 80 be 0a 3e e5 2f 63 3e 48 50 78 3e
       -0.20336778 0.13549232 0.22186239 0.24249375
000040 ea 75 00 3d 19 5f ee bd 2d 94 33 3e 10 e0 83 be
       0.03136245 -0.11639232 0.17536993 -0.25756884
000050 59 e9 4c 3e 40 9c c0 bd a9 cc 7a 3e 85 8c 2c be
       0.2001089 -0.09404802 0.24492134 -0.16850479
000060 4c 03 03 be b4 02 aa be 9b cf 40 be 3d d2 8f 3e
       -0.12794226 -0.33205187 -0.18829195 0.28090087
000070 b3 23 77 3e 88 99 b2 3d 30 87 cf 3d b4 9c 62 be
       0.24134712 0.0872069 0.10133207 -0.2213009
000080 0f 33 24 3e 2e 57 15 3e 28 8b 7b 3d 23 19 76 be
       0.16035102 0.14584038 0.061412007 -0.24033026
000090 63 64 a7 bc ef 22 34 3d 9c 01 3c bd 89 0f 39 3e
       -0.02043361 0.043978628 -0.045899972 0.18072332
0000a0 2c c7 e5 3a 12 f9 31 3e df 7a f1 3d 7a 9d 0e 3e
       0.0017530671 0.17380169 0.11791014 0.1392726
0000b0 ec af 67 be 75 e9 11 be 17 58 92 be 1c 2c 8c 3e
       -0.22625703 -0.14249213 -0.28582832 0.27377403
0000c0 8b 25 9a bc 96 05 6f bd fa 12 80 3e c0 d5 68 3e
       -0.01881673 -0.058354937 0.25014478 0.22737789
0000d0 18 05 6d be 4e 52 34 3e 74 05 7b be 24 a2 7e 3c
       -0.23146474 0.17609522 -0.24513799 0.015541587
0000e0 32 74 36 be 3c 44 6e 3e 3b 2d 64 3d 04 9f 0c be
       -0.17817762 0.23268217 0.055707198 -0.13732535
0000f0 dd af 6c be 0b 0b 78 be 8a a5 ee 3d ce d7 48 3e
       -0.23113962 -0.24222963 0.11652668 0.19613573
000100 9d 62 9a 3d ce 72 8f 3e 58 45 9f be 30 b2 2b 3e
       0.0753834 0.28017277 -0.31107593 0.16767192
000110 9c 0c bc bd d5 b3 3f bd a3 50 06 be 6c eb 64 be
       -0.091820925 -0.04680236 -0.13116698 -0.22355431
000120 7b ae 41 3e 54 67 fd 3d 7b cf e5 3c 9a 21 56 be
       0.18914215 0.12373224 0.028053036 -0.20911255
000130 a9 2a 25 3e 8c b9 aa bd 1f 42 48 3e 8d 0e a8 bd
       0.16129555 -0.083361715 0.19556473 -0.082059
000140 7a c2 e0 3c 20 ad dc bd 3c 2e 70 3e 02 bb 71 3e
       0.027436484 -0.107752085 0.23455137 0.23606494
000150 cf ab 26 be ae 54 c3 3d 48 29 60 3e 4e e7 89 be
       -0.16276477 0.09537636 0.21890748 -0.26934284
000160 38 39 95 3d 8d e3 9d bd 86 79 fe bc a6 f9 8d be
       0.07286304 -0.077094175 -0.031063806 -0.2772953
000170 1b 06 1f be 4a 3b bf bd 3b 88 a8 3a e2 5b 0f 3e
       -0.15529673 -0.0933748 0.0012857983 0.13999894
000180 5a 87 32 3e 8b da 9d 3d 44 cb 90 3e a6 a5 88 be
       0.17434445 0.077076994 0.2828008 -0.2668888
000190 d6 b4 fa bd ca 13 5c be ad 50 59 3e 17 ff 2c be
       -0.12241523 -0.21491924 0.21222182 -0.16894184
0001a0 9d 42 44 bd e2 d2 7c be 09 b1 39 3e 6e 39 8f 3e
       -0.04791509 -0.2468982 0.1813394 0.27973503
0001b0 60 8c 73 be 3e 7d 13 be 0d 5f 11 3d d3 0d b8 3e
       -0.23784018 -0.14403245 0.035491038 0.35948047
0001c0 8f 65 41 be 8c c1 1e be 8a 50 ac be f5 b7 93 3e
       -0.18886398 -0.1550352 -0.33655196 0.28851286
0001d0 b6 1f 1f bd 43 30 64 3e 93 83 a9 bd 77 2a 5a 3e
       -0.0388486 0.22284035 -0.08277049 0.21305262
0001e0 84 53 06 3e 35 0a bd 3e 05 7c a1 bd 19 5d 02 3d
       0.13117796 0.3692185 -0.07884983 0.031827066
0001f0 81 01 89 be 69 de d1 bd 85 1a 00 3e e0 a4 86 be
       -0.2675896 -0.102474995 0.12510116 -0.26297665
000200 a9 d2 34 3c 58 e7 7d be 34 7e 2c 3e e8 52 19 bd
       0.011036553 -0.24795282 0.16845018 -0.03743258
000210 05 68 36 3e 76 cd a5 bd 79 40 65 3d a7 27 3e be
       0.17813118 -0.08095829 0.05596969 -0.18569814
000220 07 e7 86 be a3 e6 0b bd e7 29 91 bd 97 e8 49 be
       -0.26348135 -0.0341555 -0.0708807 -0.19717632
000230 36 64 4c be b7 41 98 be ec 8b 8b be cf 1e 0c bd
       -0.19960102 -0.29737636 -0.2725519 -0.03420907

bias f4 [12]
000000 7c 83 cf 3d fc 78 35 3e 9e d4 d6 3d 0d 9e fe 3d
       0.101325005 0.17721933 0.10489772 0.124324895
000010 b0 96 58 3e 6e 12 ac bc ba 6c 10 be 29 3f b3 be
       0.21151233 -0.021004882 -0.14103976 -0.35009125
000020 37 67 4f 3d 83 b2 8d be bd 78 55 bd a3 d7 4c 3d
       0.050635543 -0.27675256 -0.052117098 0.050010335

weight f4 [12, 48]
000000 b7 29 e8 3d d9 61 c2 bd 38 3e a5 bd c7 17 ad bd
       0.113360815 -0.09491319 -0.08068508 -0.08451801
000010 7c 8f 0f bd 8c a2 d0 bd d3 21 e8 bd 31 e8 eb 3d
       -0.035048947 -0.10187253 -0.113345765 0.11518896
000020 e9 07 02 be 12 e1 8f bb cd 3e 44 3d 6b 6b 8e bd
       -0.1269833 -0.004390844 0.047911454 -0.06954082
000030 7d bd 3e bd c4 a6 e6 bb 10 c9 34 bd 6c 76 98 3d
       -0.04656743 -0.007038923 -0.04413706 0.07444462
000040 63 5a dd bc c6 b8 db bd 46 73 02 3d 33 a3 ad bd
       -0.027020639 -0.10728602 0.031848215 -0.084783934
000050 c6 72 13 be 9f 59 1e bd 07 08 89 3d 6e 2a 5e bd
       -0.14399251 -0.038659688 0.06690984 -0.054239683
000060 a5 64 b8 bd 4d db 87 3d 40 25 d8 ba 0a 38 98 bd
       -0.090035714 0.06633625 -0.0016490594 -0.074325636
000070 fa 48 ad bd 80 7e 1e 3d 8d 8d a3 bd 6a 1c 8a 3d
       -0.08461185 0.03869486 -0.07985983 0.06743701
000080 2d 1c 76 bd 80 d3 23 3d 43 64 4a bd 25 cd 68 3d
       -0.060085464 0.039996624 -0.049412023 0.056836266
000090 bc b7 75 3d 0d 04 24 3d f3 48 b8 bc 63 29 d4 3d
       0.059989676 0.040042926 -0.022495722 0.103594564
0000a0 68 de 0d be 31 be 00 be f7 e5 79 bd 9b d1 fd 3d
       -0.13854373 -0.12572552 -0.061010327 0.12393495
0000b0 d5 d7 8f bb 2c 89 ad 3d 6c f7 c9 bd 4e 0f e9 3d
       -0.004389743 0.08473429 -0.09861645 0.11379872
0000c0 d7 9d 39 3e 59 22 bc 3e 14 b8 9b bd 66 eb 8d 3e
       0.18126617 0.36744955 -0.076034695 0.27718657
0000d0 d8 70 90 3c e6 6c c6 3d b8 5a fc 3d 63 2f cb 3d
       0.017631933 0.096887395 0.12321991 0.09921148
0000e0 32 88 22 3c 85 6d cc bd 74 51 cd 3c 8b 3a ca bc
       0.009920167 -0.09981827 0.025063254 -0.024686119
0000f0 d2 6b 1e 3e 56 39 97 3d f7 c8 9b 3c 54 e4 ea 3c
       0.15470818 0.07383983 0.019016726 0.028673328
000100 af 68 c3 bd ee e6 1a 3d 04 6d 3a bd 76 07 18 3e
       -0.09541451 0.037817888 -0.04551412 0.14846596
000110 67 1f 02 3e cf 16 2c bd 9c 85 ec 3d 8a 45 d1 bc
       0.12707292 -0.04201394 0.115489215 -0.025545854
000120 eb 1a 8d 3d 94 42 99 3d c5 45 44 3e 35 14 b1 bc
       0.068899 0.07483402 0.1916724 -0.02161608
000130 b1 80 36 be 26 13 29 be 43 79 aa bd 89 f8 c7 bd
       -0.1782253 -0.16511211 -0.0832391 -0.09764201
000140 3a d4 92 bd 3d b9 1d 3b 79 a8 61 3e a6 b4 3c 3e
       -0.07169385 0.002406671 0.22036923 0.18428287
000150 ff d5 3a 3b ab 63 1d bd 3c f7 74 3e 9d a8 d4 bb
       0.00285089 -0.03842513 0.23922437 -0.006489827
000160 35 b4 21 3e e6 53 1f 3e 83 fc 72 3e ee 9c 4f 3e
       0.157914 0.15559348 0.23729138 0.20274708
000170 d7 40 82 bc db 99 03 3e df fb 30 3d ea 3e b4 bd
       -0.015900059 0.1285166 0.043208953 -0.088010624
000180 28 6e 0a bd 73 f5 3b 3d 00 15 f4 bd 9a 28 90 3c
       -0.03379646 0.045888375 -0.11918068 0.017597485
000190 2d a9 13 bd b6 f6 0b 3c da 82 e1 3d 2f ee 3f 3a
       -0.03605001 0.008542707 0.11011286 0.0007321564
0001a0 12 b6 de ba 88 4c 9a bc 61 b2 23 bd b8 10 84 bd
       -0.0016991517 -0.018835321 -0.039965037 -0.06448501
0001b0 d0 df 60 3d 92 33 1a 3c fc 82 dc bc e1 9c db 3d
       0.054900944 0.009411709 -0.026917927 0.10723282
0001c0 cc 58 bb bd 6a 09 09 3e 6b ea d2 bc 21 cc cf bb
       -0.09147796 0.13382497 -0.025746545 -0.0063414727
0001d0 55 e2 09 be 0c 1c 4e 3c ce 21 cd bd 4a ed e7 3d
       -0.13465245 0.012579929 -0.10016213 0.11324556
0001e0 77 e1 d1 bd c1 be a1 3d 84 92 d1 3c d3 05 b1 3d
       -0.10248082 0.078977115 0.02558256 0.08643689
0001f0 32 15 6b bd e7 37 96 bd a3 0d e0 3c 45 01 b8 bd
       -0.05739326 -0.07334881 0.027350252 -0.08984617
000200 1d d8 20 be e1 42 ec bd 21 65 b6 bd 9e 2a 90 3b
       -0.1570744 -0.11536194 -0.089060076 0.0043996116
000210 e7 df 9c 3d 3e f0 d0 3d 19 4b f2 bc 30 a7 5d 3d
       0.076598935 0.102020726 -0.029576825 0.05411452
000220 61 4d 24 be 34 99 e9 bd 18 2b c9 bc 8f e9 d1 bd
       -0.16045143 -0.11406174 -0.024556682 -0.10249626
000230 12 cc 07 3e a1 cd 11 be a9 9c 39 be b5 52 4b be
       0.1326144 -0.14238597 -0.18126167 -0.19855769
000240 5d 86 2a be d5 39 10 be 72 7f c1 bd 29 fc 20 3d
       -0.16652818 -0.14084561 -0.094481364 0.03930298
000250 fa 63 90 bd 9d c7 a5 3c b5 2a c5 bd 3f b0 0a be
       -0.07050319 0.020236785 -0.09627286 -0.13543795
000260 34 06 31 3e ae d9 da 3b 04 aa c9 3d 83 2b 1a bc
       0.17287523 0.0066787815 0.09846881 -0.009409788
000270 61 09 2e 3d fa f2 d4 3d d5 48 b0 3c b0 fd bd 3c
       0.042489413 0.103979066 0.021519104 0.023192257
000280 f0 d8 26 3d 12 91 95 bc ea f9 03 3e b8 be f9 3d
       0.04073423 -0.018257651 0.12888303 0.1219458
000290 61 06 c1 3d 75 96 c1 3d 46 0f c3 3d 30 40 91 bd
       0.09425045 0.094525255 0.095243976 -0.07092321
0002a0 84 5e b5 bd 81 f3 98 ba df 3b bd 3c 9a 33 12 3e
       -0.08855918 -0.001166925 0.023099838 0.14277497
0002b0 47 e5 94 3b 28 a8 46 3d 50 62 00 3d a6 3d 72 3e
       0.0045439336 0.04850021 0.031343758 0.2365633
0002c0 91 ca 9d bd d4 e9 33 bd ba 6e 3d bd 47 35 65 3d
       -0.07704652 -0.043924168 -0.046248175 0.055959012
0002d0 5c e8 3d bd 8c 00 86 bd e1 2b 0e bd a0 c0 69 3c
       -0.046364173 -0.06543073 -0.034709815 0.014267117
0002e0 a5 e8 d2 3d cb b2 89 bd 7d 09 b1 3d 0b 4a f3 bd
       0.1029828 -0.06723555 0.08644388 -0.11879357
0002f0 64 75 29 3a 2f e2 9f 3d 33 6a 91 bd 3a 52 ee 3d
       0.0006464331 0.07806813 -0.07100334 0.11636777
000300 9b f2 dc bd 77 2d 02 be 57 bf 1a be c6 d8 e5 bc
       -0.10788461 -0.12712656 -0.15112053 -0.028057467
000310 27 fb 9d 3b 5a bd 47 bc 7e 22 e7 bd ba f7 4e bd
       0.0048211995 -0.012191141 -0.11285876 -0.05052922
000320 cb 28 7e 3d f6 f2 b2 3d c4 97 f3 bd 74 94 0a bd
       0.062050622 0.08737747 -0.11894181 -0.033832982
000330 63 be 9d bd f8 a9 a9 3d 67 c2 12 be 42 6d 8b bd
       -0.07702329 0.08284372 -0.14331971 -0.06807949
000340 67 23 00 3e 86 07 0d bd 18 61 13 3d d5 f1 d4 bc
       0.12513505 -0.034431003 0.035981268 -0.02599422
000350 eb 16 e1 bd fa 5b ed bd 6f 6d be 3d 93 7d f8 bd
       -0.109906994 -0.11589809 0.092982166 -0.121333264
000360 a5 98 dc 3d bf dd 0b bc 27 a4 ce bd a8 8d 5d bc
       0.10771302 -0.008536755 -0.10089903 -0.013522543
000370 f1 be 9c 3d 1a 8a 1d 3e 42 20 f1 bc db fc 8b 3c
       0.07653607 0.15384713 -0.029434327 0.017088344
000380 c0 69 9c bd 37 b6 5c bd c2 ec 02 be 83 a8 b6 bc
       -0.07637358 -0.05388471 -0.12785628 -0.02229715
000390 00 b8 59 bd dd 57 28 bd aa 9c 9b bd d3 b0 f1 3d
       -0.05315399 -0.041099418 -0.07598241 0.11801305
0003a0 61 b5 13 3d fb 1b 67 3c bb aa d9 bd 12 62 dd 3d
       0.03606165 0.014105792 -0.106282674 0.10809721
0003b0 75 e7 db bd 0d 93 1b bd 6e 3f d0 bd ff e8 bc 3c
       -0.10737506 -0.037982035 -0.10168348 0.02306032
0003c0 f3 53 ae 3c cb 8f 02 3e b9 44 1f 3d 5d 55 9e 3d
       0.021280264 0.12750165 0.0388839 0.077311255
0003d0 9f 12 ec bd ef 92 80 bd f2 1b 0a 3a 9d 35 72 bd
       -0.11526989 -0.06278025 0.00052684464 -0.05913316
0003e0 a5 33 d0 3d 04 4c 43 bd 61 5c db bc 7c 88 bd 3c
       0.101661004 -0.047679916 -0.026777448 0.02313637
0003f0 15 93 40 bd 13 9b bc bb 46 70 0f bc bf 74 86 bc
       -0.04701527 -0.005755791 -0.008754795 -0.01641309

bias f4 [12]
000000 93 83 42 3d 09 c9 31 3e ab fb 93 3d c6 40 8f 3d
       0.04748876 0.17361845 0.07225736 0.069947764
000010 06 e5 d4 bd 4b 04 dd 3d 27 6e 91 bd f1 c6 13 3e
       -0.10395245 0.107918344 -0.07101088 0.14431359
000020 21 de a9 bd 41 81 e1 3d 4b 94 f4 bd c3 7e 96 3d
       -0.08294321 0.11010981 -0.11942347 0.07348397

weight f4 [12, 12]
000000 6e d6 47 3d f7 a6 d2 3d 8f f7 ca 3d 41 cd a0 3e
       0.04878848 0.10285752 0.09910499 0.31406596
000010 98 65 64 bd c0 21 e6 bd a3 17 bb 3e 86 15 0e 3e
       -0.05576095 -0.11236906 0.3654147 0.13875398
000020 ed a7 55 3e b1 4b d5 bc 91 96 60 3e f9 fe c6 3d
       0.2086484 -0.026037069 0.21932437 0.09716601
000030 f2 d4 50 3e 80 bb 58 bd d9 01 a9 bd 36 b2 7f 3d
       0.20393732 -0.05291319 -0.082523055 0.062425815
000040 bd c1 68 3e 80 74 08 3e 95 c5 d2 bd 20 ef c2 3c
       0.22730155 0.13325691 -0.10291592 0.023795664
000050 89 42 36 3e 39 8c 87 be 73 d4 28 be 5b ac 4b be
       0.17798819 -0.2647417 -0.16487293 -0.19889967
000060 1e ae d7 bd a0 e8 8f bd ce 3d 64 be f2 2b 99 3e
       -0.10531257 -0.070267916 -0.22289202 0.2991634
000070 44 50 61 bd 09 d9 93 3d db 95 89 3e c4 f7 02 3d
       -0.055008188 0.072191305 0.26872143 0.03197457
000080 9b 68 9d 3e 1e b4 7e 3d f6 9e 9a 3d 8e 3a dd 3d
       0.3074387 0.062183492 0.07549851 0.10802184
000090 1c 66 71 3e fb 48 c8 be e5 5e 47 3e 4d 21 c4 3d
       0.23574108 -0.3911818 0.19469793 0.09576664
0000a0 83 b8 67 bd 8a 5d 3d 3e 41 aa ac 3d f1 7d aa be
       -0.05657245 0.18492714 0.08430911 -0.3329921
0000b0 8f a9 d8 bc 55 eb 83 3e 1b ae 5b 3e 52 a4 27 3e
       -0.02644804 0.25765482 0.21453135 0.16371277
0000c0 a3 c1 8a 3e 69 30 b2 3d 77 30 34 be ac bb 9a 3d
       0.27100858 0.0870064 -0.17596613 0.07555327
0000d0 35 ee e2 bd 8e c3 0e be e2 e5 5c 3d b0 7d 6a bc
       -0.11080591 -0.13941786 0.05393017 -0.014312193
0000e0 1a 19 7d 3d d0 4e 50 3d 56 2d 08 bd 9d 1f 89 be
       0.061791517 0.05085641 -0.03324636 -0.26781932
0000f0 22 20 2f be 9c 93 ae be 0c 50 7a be 95 fe 39 3e
       -0.17102101 -0.34096992 -0.24444598 0.18163522
000100 2d 4f 3e 3e 02 c3 26 3c d7 32 c9 3e 21 44 5e bc
       0.1858489 0.010178329 0.392966 -0.013566048
000110 05 78 1e be 60 91 52 bb 06 7a 95 bd b0 8d e5 3c
       -0.15475471 -0.0032130107 -0.07298665 0.028021663
000120 e8 be 64 3b d4 ef 98 be 7f c8 8b 3e 42 a9 4f be
       0.0034903828 -0.29870474 0.27301404 -0.2027941
000130 ef 6d 02 bb e6 84 83 be ed 50 2c 3e 39 f1 54 bc
       -0.0019901951 -0.2568733 0.16827746 -0.012996965
000140 31 1e 2d 3d bd 1a 38 be 0f 2c 83 bd fd 43 06 be
       0.04226512 -0.1797895 -0.06404888 -0.13111873
000150 6a ce a6 bc 68 05 13 be 86 6b 40 be 52 c3 ac 3d
       -0.020362098 -0.14357531 -0.18791017 0.08435692
000160 93 5a 82 3c 8c 52 69 be e5 cb c7 bd e3 91 50 3e
       0.01591233 -0.22785395 -0.09755687 0.20368151
000170 d3 66 80 be e5 eb 34 be 55 52 95 3e 3a 48 09 3d
       -0.2507845 -0.17668112 0.29164377 0.033516146
000180 37 7c 2a 3d 2b 6e c2 3d 52 d8 29 be 67 b4 9a be
       0.041622367 0.09493669 -0.16586426 -0.3021576
000190 ed 8f 64 be f5 eb ff 3d 71 b0 9e be 34 5a 62 3e
       -0.22320528 0.12496177 -0.3099399 0.22104722
0001a0 6b ec b3 be fd 05 45 be 3f d4 d8 3d 1f c4 08 be
       -0.3514131 -0.19240566 0.10587358 -0.13356064
0001b0 3e f9 54 3e d5 b0 aa bd 5d 05 99 3e 5a 2a 87 bd
       0.20798203 -0.08334509 0.29886904 -0.06599875
0001c0 72 7f b0 bd b1 15 83 3e 7f 34 d5 bd 5e 3b 87 be
       -0.08618058 0.25602487 -0.104104035 -0.2641248
0001d0 31 b0 dc bd 0d 9b 65 3e 2c 8f 23 3e 59 96 ec bd
       -0.10775793 0.22422428 0.15972584 -0.11552114
0001e0 1e a6 02 bd 46 f2 be be 98 64 89 3e 25 0a b4 3e
       -0.031896703 -0.37294215 0.2683456 0.3516399
0001f0 09 46 1e be e0 83 dc bc 9a b1 8f 3e 56 83 80 be
       -0.15456404 -0.026918352 0.28065187 -0.251002
000200 1c 04 9b 3e 9a ac 53 3e 6f 7b 8f 3b cc 04 95 bd
       0.30276573 0.20671311 0.004378728 -0.072763056
000210 43 3a 0f 3e 4a 0c 02 3e 3c 7e 75 bd 49 bf a6 be
       0.13987069 0.127 -0.05993484 -0.32567814
000220 04 d3 e2 3b a7 6f f9 bd 2a 6f b0 be 39 ec 15 3e
       0.0069221277 -0.12179499 -0.3445981 0.14640893
000230 05 a5 a2 bd 60 c8 81 bd da 26 23 3e a5 d6 5a 3e
       -0.07941631 -0.063370466 0.1593279 0.21370943

bias f4 [12]
000000 69 e7 7f bc 7b a1 78 bd 65 11 61 3e 0e a0 b3 be
       -0.015619137 -0.060700875 0.21979292 -0.3508305
000010 26 78 dc ba 81 6e 90 be 70 64 97 be 17 10 5d be
       -0.0016820475 -0.28209308 -0.29568815 -0.21588169
000020 2e fa 8b bd 9d af 66 bc d1 ce 09 be 13 ba 65 be
       -0.06834827 -0.014079955 -0.134578 -0.22434263

weight f4 [12, 48]
000000 08 2b 18 bd 22 44 f4 bd 4e 70 81 bd 6a 89 e3 bd
       -0.037150413 -0.11927058 -0.063202485 -0.11110194
000010 57 13 83 3b 77 b0 16 be 66 64 86 3e 6b 28 1f bd
       0.004000108 -0.14715753 0.26248473 -0.038856905
000020 79 06 b5 bd 6d 7a ff 3c ee 09 dd bd bf d7 38 3a
       -0.08839125 0.031186307 -0.107929096 0.00070511916
000030 60 c4 54 3e a9 4f 0f be b5 d6 b8 3d 04 67 65 3d
       0.20778036 -0.13995232 0.09025327 0.056006446
000040 08 d8 8a 3d b2 3d 26 3c b9 3e 10 bd ff 2b d5 bd
       0.06779486 0.010146545 -0.035216067 -0.10408782
000050 53 5f 08 3e f8 58 bf 3d 85 aa 5a 3d 2e c7 5c bd
       0.13317613 0.09343141 0.053385276 -0.05390089
000060 da 5d 00 3e 26 f4 ce 3d f0 2a 9b bd 5b 84 25 3c
       0.12535802 0.10105161 -0.07576549 0.010102357
000070 a8 52 8b 3c f3 5d 20 3e f7 26 46 3d b2 b9 4d be
       0.017007187 0.15660839 0.048377004 -0.20090368
000080 02 37 08 3e 0e f2 3e 3e 64 2b 6e bd ec 01 c6 bc
       0.13302234 0.18647024 -0.05814685 -0.024170838
000090 d8 48 ea bd b2 10 74 3d 09 1d f7 3d d2 d4 46 3e
       -0.11439675 0.059586234 0.12066085 0.19417122
0000a0 a1 96 96 3e 4f f3 0f be 61 66 08 be 1c 1c 15 3e
       0.29411796 -0.14057659 -0.13320304 0.14561504
0000b0 5f b4 0d 3d 17 7b 01 bd 84 c9 17 3d 6b e4 e9 3d
       0.034595843 -0.03161153 0.037057415 0.114205204
0000c0 0e a0 2b 3c d7 eb b1 3d d6 6d b2 bd e4 b9 ac 3d
       0.010475172 0.08687561 -0.08712356 0.08433893
0000d0 9a 00 af 3d 96 c0 4a bd fe c3 ff 3c b4 3d 6d bd
       0.085450366 -0.04950007 0.031221386 -0.057920173
0000e0 ae 0e ce 3d 55 fc 03 be 94 20 e0 3c 37 44 09 3e
       0.10061394 -0.12889226 0.027359284 0.13404928
0000f0 b2 ba e5 bb 6d c1 b2 3d 03 99 16 be de 45 5c 3d
       -0.007010781 0.08728299 -0.14706807 0.053777568
000100 b6 83 e2 bc 1a c1 d1 3d e2 14 da bd 4e 5c bc 3d
       -0.027650695 0.10241909 -0.10648514 0.09197293
000110 e6 fa 7a 3c 03 4d 04 be 8f 4a 53 bd 63 05 ad bc
       0.015318608 -0.12920003 -0.051584776 -0.021120733
000120 8e 0f 89 bd d9 c1 80 3d 73 a1 0a be a9 02 79 3d
       -0.0669242 0.062869735 -0.1353815 0.060793553
000130 01 fd f6 bd 2e b4 70 bd ff 7f d9 bd 38 f9 10 3e
       -0.120599754 -0.058765583 -0.106201164 0.1415757
000140 cd 75 e0 3d 16 21 9f bc c3 dc 44 bd ea 3b e1 3d
       0.10959969 -0.019424956 -0.048062097 0.10997756
000150 33 16 91 3c ed 9e 32 bd b4 9d 8d bc 37 f2 00 be
       0.01771078 -0.043608595 -0.017287113 -0.12592398
000160 e7 e0 48 3b 18 d8 c9 3c 64 06 e3 3c e8 fc 15 3c
       0.003065163 0.024639174 0.027713008 0.009154536
000170 ed 5b 88 bd 45 0d 8c bc 61 65 87 bd 25 71 d4 3d
       -0.066581585 -0.017096171 -0.06611133 0.10373143
000180 31 2b db 3d c8 71 a0 bd 08 e2 0e 3b 64 62 c1 3d
       0.107015975 -0.07834202 0.0021802206 0.09442595
000190 66 19 96 3d c5 50 0d 3c c9 3f ec 3d 37 35 75 3d
       0.07329063 0.008625214 0.115356036 0.059865203
0001a0 66 d4 37 bc e4 df 86 3d 6f b0 99 3d 23 60 fd bc
       -0.011220073 0.065856725 0.07504355 -0.03092963
0001b0 7b 14 77 bc 24 e1 d8 39 b9 fb a5 3c 54 f7 46 3d
       -0.0150805665 0.00041366473 0.020261632 0.048575714
0001c0 a1 45 dd 3d fa 53 a9 bb a7 c8 81 3d 92 80 1a be
       0.10804296 -0.0051674815 0.063370995 -0.15088108
0001d0 87 64 c4 bd 84 81 48 bd 53 cd 8b 3d f8 6f ef bd
       -0.095894866 -0.04895164 0.06826272 -0.11691278
0001e0 bb d6 a7 bc 12 9a 23 bd 26 8a 37 bd 4c a8 a7 3d
       -0.020488134 -0.039941855 -0.044809483 0.08186397
0001f0 cc 79 f3 3d 04 9c a0 bd f7 75 5b bd 22 87 7e 3d
       0.11888465 -0.078422576 -0.053579297 0.06214059
000200 7f 2e ed bd eb d7 ff bc 02 95 d4 bd 73 cf 09 3e
       -0.11581134 -0.031230887 -0.103799835 0.13458042
000210 a2 e0 f0 bc 1d 7a 10 bd 78 7e 1b bc 5f 80 de bd
       -0.029403988 -0.035272706 -0.009490602 -0.108643286
000220 24 a7 54 3d 0d 99 dc 3d c3 1d 20 be f3 56 26 bd
       0.05191721 0.107713796 -0.15636353 -0.040610265
000230 98 06 b2 bd 0f c8 e4 bd 9e da 11 bb fe 7c ac bd
       -0.08692664 -0.11170971 -0.002225555 -0.08422278
000240 3c 7a 0b be 94 83 02 3e b1 2e e3 bd 25 17 ae 3d
       -0.13620847 0.12745506 -0.1109289 0.08500508
000250 2f 52 66 3d dc 8e 33 bd 22 49 ba 3d 53 81 86 3d
       0.05623072 -0.043837413 0.0909598 0.065676354
000260 3f 08 19 3d 6c 65 a0 3d b8 e8 a4 bd 00 4e a9 bd
       0.03736138 0.07831845 -0.080522 -0.082668304
000270 82 6a e8 bc 68 2c 11 3e 1c f1 b6 bd 4e 8b ca bd
       -0.0283711 0.14177096 -0.08932707 -0.098898515
000280 2c 5b 06 bd cd c1 10 be 88 44 08 bd 67 62 99 bd
       -0.032801792 -0.14136429 -0.03326848 -0.07489472
000290 77 e1 3e 3d ad 00 88 bd 55 b4 62 bc 4e 3a b5 3d
       0.04660174 -0.06640754 -0.01383694 0.08849011
0002a0 c0 91 eb bd 11 fd b9 bc a8 08 a9 3c 49 46 c2 3c
       -0.11502409 -0.02270368 0.02063401 0.023715155
0002b0 8a e9 db bd c8 e1 01 3e 88 ce 10 3e 12 f5 66 bc
       -0.107379034 0.12683785 0.14141285 -0.014096515
0002c0 86 bc e7 3d 4d 83 21 bc f5 13 01 bd ef 98 b0 3d
       0.11315255 -0.009857965 -0.031513173 0.0862292
0002d0 69 4b cd bd ef 51 ec 3b 7f 93 11 3e 2f fa d8 bc
       -0.10024149 0.0072119157 0.14216422 -0.026486484
0002e0 e1 97 d9 3d fc 4a ce 3d e3 af c3 bc 79 65 0c 3e
       0.10624672 0.10072896 -0.02388758 0.13710584
0002f0 3e 7d 0c be 30 95 ae bd 05 70 83 3d c6 fb f8 bd
       -0.13719651 -0.08524549 0.064178504 -0.12157397
000300 82 90 0e 3e 36 d5 a1 bc c1 9a a2 bd 98 98 db 3c
       0.13922313 -0.019754987 -0.07939673 0.02680616
000310 0d 82 c4 bd c3 ce a4 3d 65 a6 f0 3d 90 17 d7 bd
       -0.09595118 0.08047249 0.11750487 -0.10502541
000320 34 e9 f1 bd b3 94 46 bd 5b 6c 9c 3d f1 27 9f bd
       -0.11812058 -0.048481654 0.07637855 -0.0777129
000330 d1 c5 a6 3d b1 3a 0f be 84 51 81 3d 77 48 fc bd
       0.08143199 -0.13987233 0.06314376 -0.12318509
000340 d7 34 5c 3c ca 0b 08 3c 81 20 b5 bd 67 90 58 3d
       0.013440332 0.008303592 -0.0884409 0.052872088
000350 9f fa d4 bd ad ba 10 3d 98 d9 9e 3c 9f cc f9 bd
       -0.10399365 0.035334278 0.019390866 -0.121972315
000360 bb 32 5d bc cc ca e9 bd d3 1c 07 be b3 07 0f 3e
       -0.013500865 -0.114156336 -0.1319459 0.13967781
000370 75 46 8c 3d 68 9a 17 bd bd 9f b5 bd b1 83 7f bc
       0.06849376 -0.037012488 -0.08868358 -0.0155953625
000380 aa 75 58 bd 1d 57 d2 3d 6a 85 0d 3e 52 74 82 bd
       -0.05284659 0.10270522 0.13820425 -0.063698426
000390 6e 9c c4 bd 3e 9e d0 3d 90 de a9 bc e9 fb ea 3d
       -0.09600149 0.10186432 -0.020736009 0.11473829
0003a0 92 e8 21 3d 5d 04 47 bd 2a 45 70 3b 19 7b ea bd
       0.039528437 -0.048588146 0.0036662319 -0.1144926
0003b0 10 99 b5 bd ae 50 8f 3d 28 20 0c 3e 56 78 c2 bc
       -0.08867085 0.0699781 0.13684142 -0.023739021
0003c0 b7 af ab 3d 4d 49 cd bd 37 7d b5 3d 4d a4 89 bd
       0.08383124 -0.10023747 0.088617735 -0.06720791
0003d0 54 96 87 3d 05 46 06 3e 79 22 54 be 4d 2f 12 3d
       0.0662047 0.13112648 -0.20716275 0.03568964
0003e0 d1 f4 ff 3d 4b 86 c2 3d 01 14 d6 bd 34 1c 2a 3e
       0.12497867 0.094982706 -0.10453034 0.16612321
0003f0 00 08 2c be a3 25 f1 3d 56 e3 ee 3c 68 a6 d4 bd
       -0.16799927 0.11774757 0.029161137 -0.10383302

bias f4 [12]
000000 0e 26 69 3e 4b c1 00 be f8 27 0a bd 53 c7 10 be
       0.22768423 -0.12573735 -0.033729523 -0.14138536
000010 fa df ca bc 15 87 fa 3d 75 4a a9 bc 04 18 a8 bb
       -0.024765003 0.12232796 -0.020665387 -0.005129816
000020 cf 47 31 3e 7c 87 c1 3d bd c8 25 3e 93 64 cc bb
       0.17312549 0.0944967 0.16189857 -0.0062375753

weight f4 [12, 12]
000000 32 3b 2a bd 69 44 22 3e 9a ab 8d 3c bf 75 8e 3e
       -0.04156036 0.15846409 0.01729374 0.27824208
000010 0c a9 f0 ba 27 12 aa be 9d 43 5e 3e c5 14 7a be
       -0.0018360927 -0.33216974 0.2170548 -0.24421985
000020 14 eb 5a 3e 10 57 d5 be 56 7d 3a bd c5 f8 c8 be
       0.21378738 -0.41667986 -0.045529686 -0.39252296
000030 46 e1 be be f5 0f 1e be 7a 23 0b be de 73 8c 3e
       -0.37281245 -0.15435775 -0.13587752 0.2743215
000040 76 07 23 3d a9 ca 9c 3e f5 db 75 bb 5b f9 1f 3e
       0.039802037 0.30623367 -0.0037515138 0.15622465
000050 59 fa 48 be 0c 81 70 be 2f 36 8d bd 38 61 79 3e
       -0.1962675 -0.23486727 -0.068951 0.24353492
000060 90 76 9a 3e 4b 20 1a 3c cb c4 cc 3d 2b c1 88 3d
       0.3016858 0.009407113 0.09998473 0.06677469
000070 ef 02 85 be 96 e0 e7 bd 2e 62 4e be 3b d3 8d be
       -0.259788 -0.11322133 -0.2015464 -0.2770022
000080 5b 9a 46 be 62 cb 33 3e 33 9b 2b be 73 25 9a be
       -0.1939482 0.17558053 -0.16758423 -0.30106696
000090 ca 6c d0 bd 38 ff 3c 3e 7f 54 6d 3e 87 6c 37 3e
       -0.10177 0.18456733 0.23176764 0.17912494
0000a0 45 f0 58 3e 5a f9 36 be de 01 ca 3c 6d 26 d3 bd
       0.21185406 -0.17868558 0.024659093 -0.103100635
0000b0 2f c6 0d be d2 21 4e 3e c8 96 c2 be f2 db 81 3e
       -0.13845132 0.20130089 -0.38005662 0.25363117
0000c0 18 fb a3 be 34 e2 01 3e b7 5b 42 3e fd 20 ec 3d
       -0.32027507 0.12683946 0.18980299 0.115297295
0000d0 8b a0 43 be 5b 0d 88 3e c4 d1 8d be 30 58 06 be
       -0.19104211 0.2657269 -0.276991 -0.13119578
0000e0 fc 56 b2 bd 3d c8 1c be c4 67 8d be 72 32 ba 3e
       -0.08707997 -0.1531076 -0.2761823 0.36366612
0000f0 25 a1 75 be be 44 02 3e f8 21 85 be cc a1 a9 bd
       -0.23987253 0.12721536 -0.2600248 -0.082828134
000100 53 74 b9 3d b4 1b fe 3d b5 bd f1 3d de 62 f2 3d
       0.0905539 0.12407628 0.11803762 0.11835264
000110 2d 1c 65 3e 40 5d b4 3d aa a5 b9 3d 4e db 0a 3e
       0.2237403 0.088068485 0.09064801 0.1356022
000120 e2 a6 69 bc cb e5 25 3e 3f 84 d2 bd 3d d8 7e be
       -0.014260979 0.1620094 -0.1027913 -0.24887176
000130 4e 19 7d be 99 7c 5c 3e 4e 0b 9a 3d a9 f3 21 bd
       -0.24716684 0.21531905 0.075216874 -0.039539013
000140 0e 6f 77 3d 4e 41 1a 3e 76 03 a9 be b6 1e 4f 3b
       0.060408644 0.15063974 -0.33010453 0.0031603999
000150 a7 5d 90 3e 95 ed 4c 3e 51 77 9f bd ec 62 45 3d
       0.2819645 0.20012505 -0.0778643 0.048190042
000160 c0 64 e9 bc c7 78 bf 3d 8c 0b 45 be 93 af 8a 3e
       -0.028490424 0.09349208 -0.19242686 0.27087077
000170 76 f4 df 3d fd a0 ea bd ca ee 75 3e ab 04 89 bc
       0.10935299 -0.11456487 0.24016872 -0.016725859
000180 54 e7 d7 bd 7d e0 44 be 42 8f 5c 3e b7 b9 d1 3d
       -0.10542169 -0.1922626 0.21539024 0.102405004
000190 db 06 ae bd 7c 0c bf be 8b f1 2b 3e d8 d9 54 3c
       -0.08497401 -0.37314212 0.1679136 0.012991391
0001a0 19 0d d9 bd a6 4e 23 be f6 49 ac 3e 7d 62 f9 3d
       -0.10598201 -0.15947971 0.33650178 0.12176988
0001b0 0d 6d 65 bd a0 b8 77 be dd 15 8c bd c3 b4 80 be
       -0.056012202 -0.24191523 -0.068401076 -0.2513791
0001c0 3b ce 89 3e 32 72 b1 be 7f 23 a6 3d e7 90 45 3e
       0.26915154 -0.34657437 0.08112239 0.19293557
0001d0 d0 31 ed 3d df 65 1d bd 91 1f d5 3e 75 5e f4 bc
       0.115817666 -0.03842723 0.41625646 -0.029830197
0001e0 32 90 75 bd e0 27 b9 3d 90 a4 2d 3e 08 d6 85 be
       -0.05995197 0.09040809 0.16957307 -0.26139855
0001f0 8d 5c 67 3e 40 33 1d be 1e d4 89 be 0b 0d f9 bc
       0.22593899 -0.15351582 -0.26919645 -0.030401727
000200 56 59 3b bd 1e db 97 3e c6 0e bf ba f6 7e 7c 3e
       -0.045739494 0.2965936 -0.0014576546 0.24657807
000210 17 18 3b be 8a cc 1f 3d 64 51 a8 bd 4b 95 a9 3d
       -0.18270908 0.039013423 -0.08218649 0.082804285
000220 38 a7 01 bd 8a 60 0c 3e 67 32 96 be 98 1b 91 be
       -0.031653613 0.13708702 -0.2933533 -0.28341365
000230 1a 5c 4e be 49 c2 0d 3d 3a 8b 03 3d 9a 7f a4 3e
       -0.20152321 0.034609113 0.0321152 0.32128602
